results/StaticObstacles9AgentsWithCL_2/BasicAgent/BasicAgent-76227.onnx (onnx, 179536 bytes, 6 tensors)

action_model._discrete_distribution.branches.0.bias f4 [5]
00000000: 56eb cbbc 7830 49bc 67db 2cbd 5f11 2e3d
00000010: b8b9 ec3c
-0.02489249 -0.012279622 -0.042201426 0.042497035 0.028897151

action_model._discrete_distribution.branches.0.weight f4 [5, 128]
00000000: d160 99bc 4b76 123b 2476 51bc 5480 40bd
00000010: ee12 dcbc a168 8a3c 70bf a13b 7c76 c43c
00000020: 9bff b3bc 3090 d6ba 5c8f 6abd 2bae 85bd
00000030: 99a6 6ebc b805 08bd 9f16 703c eea2 103c
00000040: d8ef 3d3c 650f e93c e2ac 933c 80bf f33c
00000050: de7b 3b3d 6f9e 0bbb f79f 193d 4fc3 44bc
00000060: 2728 5ebc 9567 553b ebc9 16bc 1feb 463c
00000070: 89d8 a7bc d2fd 20bc 9207 a93b 6102 3dbc
00000080: 01e7 0bbb f2e5 ba3a 0fa5 0f3b b8b8 42bc
00000090: df8f 75bb d057 713b 012e 68bc 583a c83b
000000a0: 275e 83bd 17bc 0ebd 2e54 70bb 8177 cebc
000000b0: bf88 b8bb c2ef af3a 01c1 2b3c 5372 b33c
000000c0: 3416 cabc f3fd c7bc fcd7 033d 3a20 0a3d
000000d0: 896c 14bc 0503 4bbd 46a5 fc3c 0727 42bd
000000e0: a727 ed3b 0df7 33bd 4762 0d3d f7a6 17bc
000000f0: 76c8 b03c b239 b9bb 278d 95bc 8f90 853c
00000100: 3b5a 23bc fc27 d0ba 8319 54bc e3cd 153c
00000110: 693b 6cbc 968b 82bc 2500 19bd deff d93c
00000120: 78fa 38bc 3e93 f23c 2ca8 80ba a462 f1bc
00000130: 3297 913c 47cc 033d 520f 403c a201 d93c
00000140: 86de 4bbd 7d86 cb3c fd5e 8e3c 9d68 f33c
00000150: 229b adbc 2d72 c5bd 71b9 833b 8814 8abc
00000160: ef5a 94bd c4a1 f03c f6d4 dd3c a84a e8bc
00000170: 280f d63c 9942 863b 40a6 523b 3c40 633c
00000180: a807 3e3d bdad 3dbb 9674 41bc 9d08 edbc
00000190: 4f23 4fbc 16d0 9cbc a86b 74bc f14a bcbb
000001a0: 028e 67bd ae9b 81bb a32c f9bb e2a0 febb
000001b0: 9965 16bd b666 d4bc a253 02bd 2ac0 853b
000001c0: d5a8 9d3b 9fec 663c f474 1ab6 1a3c e2bb
000001d0: 5f7b bb3c 007e d43b f589 4abd cae5 1fbc
000001e0: 754c d3bc 9cc2 403d cf5f 773c 9290 d6bc
000001f0: 2662 f3bc 40eb 3ebc c47a 84bc c615 8bbc
00000200: 23bf 10be 0865 b03d 0fba 4d3d 4134 8a3d
00000210: b88a 4a3d 7ca2 b5bd 01e7 d7bc 9b05 90bd
00000220: dbb9 8e3c 2509 02bd 3fc8 473c b12b 38bc
00000230: 15de 21bd 68fe 713d fc6d cd3d 94c2 ad3c
00000240: 59cd c03c 8e52 97bd bae2 823d f7bd b4bd
00000250: fcf8 17be a3bc 783d c68b 803d 99fc bd3d
00000260: 0919 963d 4445 dc3d 2015 b13c 9caf 513d
00000270: 094d 13bc b345 133d 1fc4 e7bd f6e9 893b
00000280: 92c7 d43d e61b 9d3d 7bf8 86bd 8768 85bd
00000290: 5f70 d93c 8b71 6d3d b92a 1b3d 4061 d33d
000002a0: d177 69bc fc2a 17be 762d a93d cc68 963c
000002b0: 0272 053e 0610 8e3c 30a1 333c 8dbd 3a3c
000002c0: c66b e43d 58d0 c13c 6d9c c8bc ba17 11be
000002d0: d3a1 fb3c 9377 5d3c b6c6 e2bc c931 fbbd
000002e0: 3dae 4abd 0d4f 9b3d fc66 883d e172 c2ba
000002f0: e5d2 0f3c ed8e 043d 4886 ba3d 92e1 0dbe
00000300: f5be 9ebd 2c00 e83b c878 0ebc bfab 813d
00000310: ecf6 5e3d d9be 4dbb 36c8 b83d b74c cc3c
00000320: fc9a b13b eb1c 7bbd 3211 d5bb 3c61 093d
00000330: 1b40 5e3d 5b84 08be c162 523d f4c0 ebbd
00000340: 3de9 153a eb75 ac3d b02e e3bd 3085 a83d
00000350: cebf 5e3d 9a46 533d 64a1 4a3d 4a8b 73bd
00000360: 0d08 433c 767e 213d cdb4 4abe 25c0 b43c
00000370: 4684 e8bd b90d b43c 9f93 b6bd c6c0 b33b
00000380: b46b 00be 25a6 e6bd 7cff 963d 8ec8 f3bc
00000390: 66ba 18be f8eb c33a 90a4 4b3d cfb9 8a3d
000003a0: 894e 063d 69be 38bc f979 b53d 68ca a7bc
000003b0: e8b6 f7bb e44c 94bd 9086 f9bd 6ab6 4cbd
000003c0: bbc0 653d e2df 0bbe 11cd 083e be24 e93d
000003d0: ac4b 59bd b6e1 a43c d829 ff3b a9b6 7b3c
000003e0: 2011 fbbd 3195 0b3c a957 13be 674d 263d
000003f0: e0db 82bd d5ac c23d 77e9 533d 68c3 ea3d
-0.018722923 0.002234834 -0.012784515 -0.046997383 -0.026864495 0.016895594 0.004936151 0.023982279
-0.021972468 -0.0016369876 -0.057265624 -0.065273605 -0.014566087 -0.03320858 0.014653831 0.008827908
0.011592828 0.028449723 0.018026773 0.0297544 0.045772426 -0.002130415 0.03750607 -0.012009456
-0.013559378 0.003256296 -0.009203414 0.012141018 -0.020488994 -0.0098261405 0.005158373 -0.011536212
-0.0021347406 0.0014259203 0.002191845 -0.011884861 -0.0037469787 0.0036826022 -0.014171124 0.0061104707
-0.064144425 -0.034847345 -0.0036671269 -0.025203468 -0.005631536 0.0013422894 0.010483027 0.0219051
-0.02466879 -0.024413085 0.0321884 0.03372214 -0.00905908 -0.049563427 0.030840527 -0.0474005
0.007237393 -0.043936778 0.034517553 -0.009256116 0.021579962 -0.00565263 -0.018255783 0.016304282
-0.009970243 -0.0015881057 -0.012945536 0.0091433255 -0.014418461 -0.0159357 -0.037353653 0.026611265
-0.011290185 0.029611226 -0.0009815744 -0.02946598 0.01777229 0.032177236 0.011722403 0.026490036
-0.04977276 0.024844402 0.017379278 0.02971297 -0.021192137 -0.09640918 0.004019909 -0.016855493
-0.07243907 0.02937401 0.027079087 -0.028355911 0.026130274 0.0040972945 0.003214255 0.013870295
0.04639402 -0.0028942667 -0.011807581 -0.028934771 -0.012642696 -0.019142192 -0.014918245 -0.0057462384
-0.056531914 -0.003955326 -0.007604198 -0.0077706436 -0.036717985 -0.025927883 -0.03181804 0.0040817456
0.004811386 0.014094501 -2.3015864e-06 -0.0069041373 0.022885976 0.006484747 -0.049447972 -0.009759376
-0.025793293 0.047060594 0.015098526 -0.026191983 -0.029709887 -0.011652768 -0.01617182 -0.016978156
-0.14135413 0.0861302 0.050226267 0.06748248 0.0494487 -0.08868882 -0.026355268 -0.07032319
0.017422607 -0.031747002 0.0121937385 -0.011240886 -0.039518435 0.05908051 0.100307435 0.021210946
0.023535417 -0.07388793 0.06390901 -0.088252954 -0.14841074 0.060726773 0.0627666 0.09276695
0.07328994 0.10755399 0.021616518 0.051192865 -0.008990535 0.035955142 -0.11316704 0.0042087985
0.103896275 0.07671337 -0.06590363 -0.06514078 0.02654284 0.05796961 0.03788254 0.10321283
-0.014249758 -0.14762491 0.08260624 0.018360518 0.13031772 0.017341625 0.010963723 0.0113977315
0.11153369 0.023658916 -0.024488652 -0.14169207 0.030716812 0.013517278 -0.027682643 -0.12265355
-0.049482573 0.07583437 0.06660268 -0.0014835262 0.0087783085 0.032362867 0.09107643 -0.1385558
-0.07751266 0.0070800986 -0.008695789 0.06331586 0.0544347 -0.0031394272 0.09022562 0.024938924
0.005420087 -0.061306875 -0.006502294 0.033539996 0.054260354 -0.1333174 0.05136371 -0.11511412
0.0005718654 0.084209286 -0.11092889 0.082285285 0.054382138 0.051581003 0.04947032 -0.05945901
0.011903775 0.039427243 -0.19795533 0.022064278 -0.11353354 0.0219792 -0.08914875 0.005485627
-0.12541085 -0.11262158 0.073729485 -0.029758718 -0.14914855 0.0014947644 0.049717486 0.067737214
0.03278974 -0.011275866 0.08861155 -0.020482257 -0.007559646 -0.07241228 -0.12183869 -0.04997865
0.056092005 -0.13659623 0.13359477 0.11383961 -0.053050682 0.020127159 0.0077869706 0.015363374
-0.12259126 0.008519457 -0.14388908 0.04060116 -0.06389594 0.09505621 0.05173632 0.11463052

network_body.linear_encoder.seq_layers.0.bias f4 [128]
00000000: 690a c93c 0191 1cb9 fe12 dd3c 17a5 6f3c
00000010: cedc 0f3d 41de b8bc e577 b13b 537e e3bb
00000020: af99 0c3c 33b2 433b 1289 833b da69 9e3c
00000030: cce6 4fbc ac72 98bd b37c 58bd 408e 203c
00000040: b668 0aba b733 f83b bc0a 383d da6b e6bb
00000050: c5ee 7d3d c81d 6a3b e0bc b0bc 1c2e 853c
00000060: f151 ce3c c024 303c 01d6 c73b 1bb7 cbb9
00000070: 8028 df3a 5202 a73d 31a2 5b3d 581e a4bc
00000080: 5e79 103d daf2 1dbc b884 e3bc 820a 61bb
00000090: bf04 243d beae 5b3c d3a0 d8bb e3dc 27bb
000000a0: 60a6 e3ba 0282 803d 22a3 323d d170 703c
000000b0: 154c a33c 075f 8e3c cade 743c 3805 193d
000000c0: ec79 623d 33d8 633d 54e9 843a e585 803c
000000d0: c692 0ebd f7fb bcbb 1bc7 6a3d 95bf 853d
000000e0: eb89 febb d3dd 803c 6d01 46bd 10b3 023d
000000f0: 7e9a dd3c 31a3 aabb 7e1d b13d 5984 3dbd
00000100: 414d a8bc 1557 dc3c a8eb 8ebb dd5a ab3b
00000110: d44d 71bc 0aa9 253d f389 85bd b2df 383b
00000120: c092 abbc 265b 1cbd 8501 19bd 2c4d 7a3d
00000130: 1fa1 d83c aa5c debc 5198 c6bb ad46 b43c
00000140: 5d30 77ba 7dfd e73c eb84 1cbd 9fea d33c
00000150: 655e 083d 63ff 673c fc4b 9abc fa88 443c
00000160: 32b3 3c3d a5e7 b9bc cfae 603d 0a5b 0b3b
00000170: 1385 963d 2b79 1bbd 4c51 b7bc e34d b43c
00000180: 43cf 233c ae73 aabc b20e 04bd 55f8 113d
00000190: 988b 66bc 0550 e4bb 83e6 373c 2e28 523d
000001a0: b883 e23c 60f6 c6bc b036 633b d1e5 0f3d
000001b0: 3a1e 48bd ed9d 413d 638f d13c 31f2 803b
000001c0: 8ac8 f8bc b778 9d3c 48a5 81bc ff9d 4ebc
000001d0: 9ce6 c83c 73a2 11bd fcf5 a83b aba5 a23d
000001e0: 8281 fbbb 23b2 94bd 482a eebc 222f ccbc
000001f0: 4ec6 24ba 57fd 9e3c 9327 cc3c 39fd ad3c
0.024541097 -0.00014931338 0.026986595 0.014626763 0.035122685 -0.022566916 0.005415904 -0.0069425493
0.008581563 0.0029860854 0.004014143 0.019337583 -0.012689304 -0.07443747 -0.052853297 0.00979954
-0.00052798854 0.0075745243 0.044932112 -0.0070319 0.061995286 0.0035723317 -0.021574438 0.016257338
0.025185557 0.010750949 0.0060985093 -0.000388556 0.001702562 0.081547394 0.053621475 -0.020034
0.035271995 -0.00964042 -0.027773246 -0.0034338539 0.04004359 0.013408361 -0.0066109686 -0.0025613836
-0.0017368309 0.06274797 0.043612607 0.014675335 0.01993374 0.017379297 0.014945695 0.037358493
0.055292055 0.055626106 0.0010140338 0.015688846 -0.034807943 -0.0057673412 0.057318788 0.06530682
-0.007767906 0.015730774 -0.048341203 0.03190905 0.027051207 -0.005207442 0.08648203 -0.046268795
-0.02054465 0.026896993 -0.0043615885 0.0052293376 -0.014728028 0.04044441 -0.06520452 0.0028209505
-0.020944 -0.038172863 -0.037354965 0.061108753 0.026444016 -0.027143795 -0.006060638 0.022006357
-0.0009429509 0.028319115 -0.038212698 0.025868712 0.033293147 0.01416001 -0.01883506 0.011995548
0.04606933 -0.022693465 0.05485421 0.002126398 0.07349601 -0.03795735 -0.022377633 0.022009796
0.0099981455 -0.020807113 -0.032240577 0.03563722 -0.014071368 -0.006967547 0.011224392 0.05130785
0.027650699 -0.024287403 0.0034670047 0.03513128 -0.04885695 0.04726975 0.025581067 0.0039351215
-0.030369062 0.0192226 -0.015825883 -0.012610911 0.024524026 -0.035555314 0.0051562767 0.07941755
-0.0076753506 -0.072605394 -0.029072896 -0.024924818 -0.0006285653 0.019407911 0.024921214 0.02123891

network_body.linear_encoder.seq_layers.0.weight f4 [128, 211]
00000000: 9785 3cbd 30d7 c7bd 3836 90bd a7f3 17be
00000010: 1ac5 863d 2b09 0e3e 1772 39bc de4d 85bd
00000020: fdf4 a73b c9f8 ae3c cd83 b0bc 5fdb e4bd
00000030: f067 95bd a758 e4bc 6f18 26bd 2806 a5bd
00000040: fc8f e93d 153f cd3d 01ce ddbd ba1b f4bb
00000050: 6f3f f1bc 0024 48be 2897 9d3d 80bf d9bd
00000060: 867e ddbd fb4f 92bb 9329 61bc 2c42 8e3d
00000070: 7f03 10bc 88cf bcbc 0718 d6bd 6648 f9bd
00000080: bd15 3d3c a19b 01bd 0380 4f3d 4d51 b1bd
00000090: d473 9cbc 31e7 20bc 55c6 f1bd cf3b e2bb
000000a0: 2dbd 00bd 4557 35be 9d32 d43c 2b03 1ebc
000000b0: fb82 c03c f9ff 37bb f9a5 6e3a f0ff 203e
000000c0: 82fc 89bc aa40 c93d cf63 063e f71c a7bd
000000d0: ea29 1b3d e725 c6bd ea66 ab3c 58fd 18be
000000e0: d175 873d 845f 46bd 12e0 43bc efb3 59bd
000000f0: fc75 c23c 0fb2 0e3d 8bdd 0abd 5e9d 49be
00000100: 8cff b33d 9066 ec3b 122d 30bd 1987 12bd
00000110: ec17 963d 3288 9cbc 2c00 fe3c f28a 5cbd
00000120: 14e2 383e a06e 92bd 4f49 73bd 5692 533d
00000130: 85e9 7e3d 2bed 07be 076d 873d ee91 d7bd
00000140: 6d89 373d fa47 0dbd 307a 3abd 016a 913d
00000150: 0474 933d 27ef 8d3d 82d9 38bc 43ec 91bd
00000160: a669 dbbd 72e4 163d 96af 4f3d da26 043d
00000170: fe98 fc3d 7e0f f3bc 2223 1e3d b733 82bd
00000180: 6bc7 aebd d475 95bd cc2a 8fbd a14d f5bc
00000190: 103d 1cbd b611 9b3d 4299 063e b100 ac3d
000001a0: 46ba 3a3d 1617 8abd badf 67bc b70f aebd
000001b0: 4392 2a3c 12ec 80bd b8e1 3dbc 359c edbd
000001c0: 3cb2 f83d 4d77 fabd 228e ba3d ea66 f2bd
000001d0: 0c9d 2b3a a08b 84bc 5c99 873d 6422 b2bc
000001e0: eb1e 863d 0673 e2bc 73f1 21be 18a8 87bd
000001f0: 03e0 003e 5d98 b13c a685 87bd 14c5 0ebd
00000200: 668a 1f3e 1c1a f5bd 9e98 043c 3a69 03be
00000210: 31f9 6bbc 851b 4ebd 78dc ec3d eea3 6fbc
00000220: 8084 c03d 2feb 25bd e6c8 39bd c42f 9abd
00000230: 1a8c 3b3d 43f2 55bd fe0b 76bb e1ae 1abd
00000240: 325c d33d de99 193d 9d79 cbbd d272 e93d
00000250: a201 a03b 6ed4 053d 0959 6aba 0425 a93d
00000260: 51a5 2b3e 84bb aa3c c444 063d 8335 333d
00000270: 90a0 993d b964 81be 0c4f 8fbc dfb4 60be
00000280: 3903 aa3d 0fde d13d 9b41 58bd 0620 52be
00000290: adc7 e0bc 8093 66bd c8dc db3c 80b8 57bc
000002a0: f30a 5bbc f992 a2bd 78f4 c8bc 2ae9 2abe
000002b0: d70e 16bb 8bfa 80be 5953 fcbc 58e3 28be
000002c0: 6868 8dbc d95d 883c 3944 8b3b 71c4 27be
000002d0: c9b6 70bd eea9 783c bf4f 913d 7e07 443d
000002e0: 862a 9cbb 0b3d 90bd d679 79bd 8600 19be
000002f0: b875 b03b 8017 c5bd 22f3 45bc a571 fcbc
00000300: 7449 acbc 9e7b 1dbe 0fca 403c 91f9 38be
00000310: bc0a fdbc 7baa ce3d 9e81 1ebd 9ef6 733c
00000320: 14ae 393e 4a0a 103e a1ab aa3d 9a30 98bd
00000330: c679 f23c 8921 1fbb c975 ed3d 7e5b 95bd
00000340: 5252 163d 0c56 4c3d 1db9 643d 5429 e43c
00000350: 9eb3 28bd 9540 35bc 24a6 b33d ceb1 b63d
00000360: a287 1abe 1635 60bd 1e2b 143e dd0a 063e
00000370: 0d14 02be f950 8b3d bffb a3bd 58dc 2f3e
00000380: ca70 04bd e4e8 eabc c26d 803c 756c 6d3d
00000390: 75c9 803c 850c 093d e842 d13a e022 0fbe
000003a0: ebe0 803c 5099 e53d 9a7e 843c aef4 c93c
000003b0: 1c2c 4ebd f15c 8f3b 33f5 d4bd 4678 64bc
000003c0: 8a23 1c3c c720 6a3d f233 963d 5942 64bd
000003d0: 8416 523d 2137 9eba a33b f43d 537f 213d
000003e0: 826c 0e3c 6324 283d 8176 05be d73c aebd
000003f0: 1c47 19bd 3fca 95bd a56d 473e adaf c2bc
-0.04602584 -0.09757841 -0.070415914 -0.1483904 0.06580563 0.13870685 -0.011318705 -0.065089926
0.0051256404 0.021358864 -0.021547223 -0.11174654 -0.07295215 -0.027874304 -0.040550645 -0.08057815
0.11404416 0.100217976 -0.10830308 -0.0074495943 -0.029449193 -0.19544983 0.076948464 -0.10632229
-0.10815148 -0.004465101 -0.013742822 0.06946215 -0.008789896 -0.023048177 -0.104538016 -0.12172012
0.011540827 -0.03164256 0.05065919 -0.08658085 -0.0190982 -0.009820745 -0.11805407 -0.0069041024
-0.031430412 -0.17709072 0.02590304 -0.00964431 0.023499956 -0.0028076156 0.00091037113 0.15722632
-0.016844038 0.09826787 0.13124011 -0.081598215 0.03788177 -0.09675198 0.020923097 -0.14940393
0.066142686 -0.048430935 -0.011955278 -0.053150114 0.0237379 0.03483778 -0.033902686 -0.19688937
0.08788976 0.007214375 -0.043011732 -0.03577337 0.073287815 -0.019107912 0.031005941 -0.053843446
0.18054992 -0.07150006 -0.059396084 0.05165323 0.06223442 -0.13274066 0.06612592 -0.10525881
0.044808794 -0.03449247 -0.045526683 0.07100297 0.071998626 0.0693038 -0.011282327 -0.071251415
-0.1071351 0.036838956 0.05070456 0.032263614 0.123338684 -0.029670473 0.038607724 -0.0635752
-0.0853413 -0.072978646 -0.06990585 -0.029944243 -0.03814417 0.075717375 0.131444 0.083985694
0.0455878 -0.067426845 -0.014152462 -0.08499091 0.010410848 -0.06295027 -0.01158946 -0.1160206
0.121433705 -0.12229786 0.09109141 -0.118360355 0.0006546534 -0.01617986 0.06621048 -0.021744914
0.06548866 -0.027642738 -0.15814762 -0.06623858 0.12585454 0.021679098 -0.06617288 -0.034855917
0.15580139 -0.119678706 0.008093027 -0.1283311 -0.014402674 -0.050319213 0.115654886 -0.014626486
0.09400272 -0.04050749 -0.045357607 -0.07528642 0.045787908 -0.052232992 -0.003754377 -0.037764434
0.10320319 0.037500255 -0.09935305 0.11398853 0.004883007 0.03267329 -0.0008939659 0.08259013
0.16762282 0.020841368 0.032780424 0.043752205 0.07501328 -0.25272158 -0.017493747 -0.21943997
0.08301396 0.102474324 -0.05279694 -0.20520028 -0.027438963 -0.05629301 0.026838675 -0.013166547
-0.01336931 -0.07938189 -0.024530634 -0.16690508 -0.0022897029 -0.2519115 -0.030801462 -0.16492975
-0.017261699 0.016646313 0.004250076 -0.1638353 -0.058768068 0.015177233 0.070952885 0.047858708
-0.0047658114 -0.07042893 -0.060907207 -0.14941606 0.005385127 -0.09623623 -0.012081893 -0.030815909
-0.021031119 -0.15379187 0.0117669245 -0.18063952 -0.030888908 0.1009111 -0.03869783 0.014890341
0.18132812 0.14066425 0.08333517 -0.07431145 0.029599082 -0.0024281463 0.11594731 -0.072928414
0.0366996 0.04988675 0.0558406 0.027851738 -0.04118692 -0.011062761 0.08771923 0.08920632
-0.15090802 -0.054738127 0.14469573 0.13090082 -0.12702961 0.06802554 -0.08007001 0.17173898
-0.032334127 -0.028675504 0.015677337 0.05796476 0.015721062 0.033459205 0.0015965374 -0.13978148
0.01573225 0.11210883 0.01617365 0.024652805 -0.050335035 0.004375093 -0.103983305 -0.013944691
0.009529958 0.057160165 0.073341265 -0.055727337 0.051291004 -0.0012070873 0.11925437 0.039428066
0.0086928625 0.041050326 -0.13033487 -0.08507698 -0.03742133 -0.07313966 0.1947542 -0.02376541

network_body.linear_encoder.seq_layers.2.bias f4 [128]
00000000: 5bd0 7f3d 8984 dfbc e017 ac3c 2208 7d3a
00000010: 6c58 bb3c 1f1d 6f3d aa2a c83c 1b8e 393d
00000020: 8dcd eeba 152b 1f3d ae01 cb3b f9b5 a93d
00000030: e9ae 15bb 7df9 f03c 56bd a13b fdeb 63bc
00000040: 7eaf 08bd 4dc6 e13b f885 833c f017 403d
00000050: 78bc d53d 522b b13c 47dd 00bd df05 603c
00000060: 0f56 ca3c 8058 33bb aea9 14bd 3671 063c
00000070: 0d83 843b 081f 7fbb 7c61 703d 922a 6a3c
00000080: 3b12 23bb 94ce 05bd 28a3 9a3d c941 a73c
00000090: cecc 7fbc b895 c2bc d6cc 41bd 10c0 0abc
000000a0: 7d6f 6f3d 2fa5 b93d c19f 21bb c17b 083d
000000b0: 548e 433c 9c3d e83b 5652 ab38 6894 29bd
000000c0: d766 623c 70ca 873c f7d5 fabc 99b1 8b3d
000000d0: 8843 e23a 51fe 483d 1213 673d f3ff 6e3d
000000e0: be54 153d ddba 173d 3078 59bb 1921 363c
000000f0: 68f3 bcbb a66d 55bc f23e f6bb 5cc0 3a3d
00000100: 3232 853d fef1 e8bb 27dd 1d3d d611 7abc
00000110: 1a1f d6bc 8b49 c63c 5491 2a3d 0cba 0fbd
00000120: 5221 f53c 10fe 8e3c db5f bd3c b787 71ba
00000130: 98b3 9dbc 8c76 383d 7317 47bc 5206 8b3d
00000140: dae0 533d 87f6 b63b d187 6f3d 993b b13c
00000150: 59a1 23bc 0b75 8f3d 24ec a93a 1a97 843c
00000160: a554 983b f883 31bc 5d95 b43d cb04 033d
00000170: bdb7 3e3d 2494 58bd 422f 4a3d 1e66 27bd
00000180: 097a 813d 31da 5d3d 2c34 833c 81c8 c43c
00000190: 4653 c23d 3b41 f4bc 7612 433c 1c34 b03a
000001a0: a89d 2fbb aa33 4fbd d42b 773c 90b2 033c
000001b0: 300c d63b 8ae5 e23c 558d 943d 63b2 113c
000001c0: 1f94 3abc 7e2e 5f3d e714 75bb f825 a8bb
000001d0: 370d 0a3c 33be c63c 0bf9 5b3d 7a84 caba
000001e0: afc5 af3d 8986 27bd 372b 693d 8422 5cbc
000001f0: 1b97 ab3d 26f8 573c db3c b33b 370d cd38
0.062454563 -0.027284877 0.021007478 0.0009652396 0.022869311 0.05837738 0.024434406 0.045301538
-0.0018219218 0.038859446 0.0061952686 0.08286662 -0.002283985 0.02941584 0.0049359007 -0.013911244
-0.033370487 0.0068900944 0.016055092 0.04689783 0.10436338 0.021627102 -0.031461027 0.013673275
0.024699239 -0.0027365983 -0.03629463 0.0082057025 0.004043943 -0.0038928408 0.05868672 0.014292376
-0.0024882692 -0.03266771 0.07550651 0.020417111 -0.015612794 -0.023753032 -0.047314487 -0.008468643
0.058455933 0.090647094 -0.002466187 0.033321146 0.011935789 0.0070874225 8.169252e-05 -0.041401297
0.013818464 0.016576022 -0.030619605 0.068209834 0.0017262558 0.04907066 0.05641467 0.05834956
0.03645777 0.03704344 -0.003318321 0.0111162895 -0.005766321 -0.0130266305 -0.007514828 0.045593604
0.065037146 -0.007108926 0.038540985 -0.0152630415 -0.026137877 0.02420499 0.041642502 -0.035089538
0.029923115 0.01745513 0.023116997 -0.00092136435 -0.019250676 0.04503493 -0.012151587 0.06788315
0.051728107 0.0055835876 0.058479134 0.021634864 -0.009987199 0.07004746 0.0012964052 0.016185332
0.0046487623 -0.010834686 0.08817551 0.031986993 0.046561945 -0.052875653 0.049361475 -0.04086887
0.063221045 0.05416316 0.016016088 0.024021389 0.094885394 -0.02981626 0.011906257 0.0013443264
-0.0026796851 -0.05058638 0.015086133 0.008038178 0.0065322146 0.027697343 0.072535194 0.008892628
-0.011387854 0.054487698 -0.0037396492 -0.0051314794 0.008426002 0.024260616 0.053704303 -0.0015450858
0.08582627 -0.040899787 0.05692598 -0.013435964 0.083784305 0.013181722 0.005469901 9.777623e-05

network_body.linear_encoder.seq_layers.2.weight f4 [128, 128]
00000000: 5972 0d3e eebb 59bd 2325 f3bd 7e2f 25be
00000010: 26d0 a8bd aba8 f3bd f7e3 bcbc 9081 803c
00000020: 7d7e 813d d34a 59be 8ad4 3e3e b024 393d
00000030: fb1d 633e 0175 c6bd a4e6 80bd 7fa1 533e
00000040: 8e53 b8bb c0af 45be c971 4b3d 7480 ff3d
00000050: f879 c33c 231a 50be 9adc ecbc 4174 8dbd
00000060: 8a2f e63d 5ff0 0bbd e793 e5bd 051b b63d
00000070: 3eae d4bd 5855 043e 5879 f6bc 092a 0dbe
00000080: 3cd0 3c3e 07b4 6f3b 270a d8bd 1ead 173e
00000090: 55f3 523c 22ad 903b 4d5e cdbd 0620 163a
000000a0: 04ad 8bbd 34ce 233e 6ad2 773c 28db eb3d
000000b0: 877e 383e fe6c f8bd ac09 aa3b 95a2 833d
000000c0: 272f 6a3d fe9f acbd c645 4c3e 5250 58bd
000000d0: fdc5 0a3d 32bb f3bd 499c 553d 076d c43d
000000e0: adef b23d be58 d13c f13c 553c af6d 54be
000000f0: 20d2 d23d ff34 48bd 3c64 903e d6ef 51be
00000100: ed9c b83d c5f1 953d e496 6dbd e145 523d
00000110: 0890 21bd 2ae5 a33e 22ce 39bd d62d 873c
00000120: 2bb6 46be 016e 40bd 0e53 3b3e f288 213e
00000130: a6a8 4b3e 65a8 bbbd 9d7e a5be bd90 d83d
00000140: 6ceb e0bd 5ce2 eebd 3abe 7e3e db94 453c
00000150: 9798 9e3d 0086 00be 3ae8 f13c ed3b 56bd
00000160: c679 4dbc 9c64 a0bd 5d67 123d f5e4 16bc
00000170: cccd 25bb f708 283b 16de b2bc b258 883d
00000180: 8d44 e73b e7f9 1bbe 395f 13be e7a9 27be
00000190: 712e cf3c ba7b f23a a1ed 173e 5128 953d
000001a0: 0c9e 943e 38b5 aabc 224a 50bc 801b f63d
000001b0: 14d3 d4bd 5c22 263e 179d b5bd 1267 d8bc
000001c0: 54d8 a5bd c3ce 05be feac 97be f153 943c
000001d0: b443 80bd 3f1d 0b3b f184 81bd febe 47bd
000001e0: 66e4 02be b787 bdbd ea0c 6ebc c9ee 1dbe
000001f0: bc6e 6ebd a38a 673e 70b8 c43d 8b3e 26be
00000200: 4b9e cebc 4ab8 b23d aa78 ea3c fa67 0c3e
00000210: dd3b 6a3c 34cb b23d 1d19 cd3c becf 7b3d
00000220: e2e4 023d f25a 6e3d fad0 af3d 26da 8f3d
00000230: dd1c e9bd ed95 293d 03a0 783d f80e 00bd
00000240: f440 773d 7bee 87bd 8399 35bd 32e4 033e
00000250: dfe6 283d b45f bf3d 637b 113d 101b 14be
00000260: e09d 083e e16a db3d f5e5 13be 3cd9 21be
00000270: 0083 48bd 6fce 0a3e 412e 0abd 7752 c53d
00000280: 50e4 713c 3ed9 28be c409 153e a04a 4dbd
00000290: 360e fabd fc0f 573c bef7 9b3d a08b bb3c
000002a0: 0381 3d3e 012a ffbd 4c73 77bd 100c 9d3d
000002b0: c727 de3c 8d0f a93d a962 0c3d 26e6 22be
000002c0: bd63 4dbe 470c b33d bc39 ae3d ea02 a7bd
000002d0: 0a23 033c afec ff3c 52a2 c63d e656 f6bd
000002e0: aacf b53c 133a c23c 7562 36bc 96b5 373e
000002f0: b976 e13b fb84 21be b7ec a6bd e6a1 443e
00000300: 92af 87bd e084 913d 122c 643e 807a 08be
00000310: 94bd 363e 40c1 16bd 9d1e 633d 7eca 933c
00000320: e45d 613d 9b43 1c3d a0d0 123e fef3 083e
00000330: 7090 d5bd 2f43 6abd 1b5e d53d 8332 16bd
00000340: 34fc 5ebd 0b30 cdbd a3c2 f8bd a3a8 d63c
00000350: 49a7 ffbb 0b4b 29bd 1c33 ae3d c60b 0d3d
00000360: 0fd7 0b3c a887 363d 7a1d 29be 7270 ac3d
00000370: c330 d9bd 1024 46bd ee56 5cbc 9972 5abd
00000380: 8a0c 313e 8e36 313e 2db3 0c3d 2319 283e
00000390: ccb7 113c 097a efbd c7d7 033e 1776 09be
000003a0: 571b 6abd 32f5 453e f62e 9bbd a0a7 5ebd
000003b0: 8f24 0abb e652 043e 846b cabd 7219 7b3c
000003c0: 6149 813d 6a72 573c 4471 84bc 9bad 803d
000003d0: a1e6 db3c d4c9 19bd afa1 253e 8159 cbbd
000003e0: 78b9 14be 7eff 93bd 1d91 d3bc c329 103e
000003f0: 254c 9f3d 4fae 8bbb 916e 40be 4e71 553d
0.13813151 -0.05315774 -0.11872318 -0.16131398 -0.08242826 -0.11897405 -0.02305792 0.01568678
0.06322954 -0.2121995 0.18635765 0.045201004 0.22179405 -0.096902855 -0.06293991 0.20667075
-0.005625195 -0.19305325 0.04966906 0.12475672 0.02386187 -0.2032247 -0.028913785 -0.06906939
0.11239536 -0.034164783 -0.11209851 0.08891872 -0.103847966 0.12923181 -0.030087158 -0.13785566
0.1843881 0.003657581 -0.105488114 0.14812133 0.012875398 0.0044151703 -0.10027752 0.0005726818
-0.068201095 0.15996629 0.01512585 0.1151641 0.18017016 -0.121301636 0.0051891413 0.064274944
0.057173874 -0.084289536 0.19948491 -0.052810974 0.033880223 -0.11900939 0.052151 0.09591108
0.08737121 0.02555501 0.013015018 -0.20744966 0.102939844 -0.048878666 0.28201473 -0.20501646
0.09014306 0.073215045 -0.05800523 0.051336173 -0.039444 0.32010776 -0.0453626 0.016501348
-0.19405429 -0.046979908 0.18293402 0.15774897 0.19888553 -0.09162978 -0.3232316 0.10574482
-0.10982403 -0.116642684 0.24877253 0.012059416 0.07743948 -0.12551117 0.02952968 -0.052303243
-0.01254124 -0.0783169 0.035743106 -0.009209861 -0.0025299666 0.002564011 -0.021834414 0.06657542
0.0070577324 -0.15232049 -0.14391793 -0.16373406 0.0252907 0.0018500008 0.14836742 0.0728308
0.2902683 -0.020838365 -0.012712987 0.12016964 -0.103918225 0.16224045 -0.08867853 -0.026416335
-0.08097902 -0.13067155 -0.2962417 0.018106433 -0.06262913 0.0021227149 -0.06324185 -0.04876613
-0.1278244 -0.09254401 -0.014529446 -0.1542312 -0.058211073 0.2261148 0.09605491 -0.16234796
-0.025221964 0.087265566 0.02862199 0.13711539 0.014296499 0.08730164 0.025036389 0.061477415
0.03195656 0.0581922 0.08584781 0.070240304 -0.11382458 0.041402746 0.060699474 -0.031264275
0.06036468 -0.066372834 -0.044335853 0.12880018 0.0412358 0.09344426 0.03551806 -0.14463449
0.13341475 0.10713745 -0.1444319 -0.15805525 -0.048953056 0.1355531 -0.033735517 0.096348695
0.014763907 -0.16489121 0.14554507 -0.050119996 -0.12209742 0.01312637 0.076156124 0.022893727
0.18506245 -0.124591835 -0.06041269 0.07668316 0.027118577 0.08254919 0.034273777 -0.15908107
-0.20057578 0.08742576 0.08507106 -0.08154853 0.008003959 0.03124079 0.09698929 -0.12028293
0.022193749 0.023709333 -0.011131872 0.17940363 0.006880608 -0.15773384 -0.081506185 0.19202384
-0.06625284 0.07105422 0.22282436 -0.1332798 0.17845756 -0.03680539 0.055449117 0.018040892
0.05502118 0.03815041 0.14337397 0.13374326 -0.1042794 -0.057192978 0.1041834 -0.036669265
-0.05443974 -0.10018929 -0.12146499 0.02620346 -0.0078019244 -0.041331332 0.08505842 0.034435056
0.008535161 0.044562966 -0.1651515 0.08419885 -0.10605004 -0.048374236 -0.01344846 -0.053331945
0.1728994 0.17305967 0.034350563 0.16415839 0.008893918 -0.11693198 0.12875281 -0.13423954
-0.05715498 0.19331816 -0.075773165 -0.05435908 -0.002107892 0.12922248 -0.09883788 0.015325891
0.06312824 0.013149837 -0.01616729 0.062831126 0.02684337 -0.037545994 0.16174959 -0.09929181
-0.14523876 -0.07226466 -0.025826031 0.14078431 0.07778195 -0.0042627226 -0.18792178 0.05211001
