results/SelfPlay_FreezeTool_Corridor_13/BasicAgent.onnx (onnx, 173150 bytes, 6 tensors)

action_model._discrete_distribution.branches.0.bias f4 [6]
00000000: 01c4 723b 8970 99bc 61da 42be 0bf9 143d
00000010: 4076 523d 636f 90bc
0.0037043097 -0.018730419 -0.19028617 0.03637032 0.051382303 -0.017631238

action_model._discrete_distribution.branches.0.weight f4 [6, 128]
00000000: 5253 003d dd6a 80bc d7a0 563d 1625 303d
00000010: 8d47 a5bc f57f 2b3d 5d89 bcbc c5b0 29bd
00000020: 7a47 c83c 358f a6bc 5964 fabc ad3c a2bc
00000030: 503c 0a3d b3b0 e93c 6d46 3ebd 6f0f 813c
00000040: 61cf de3c 60bc 55bc 43af 6ebc 0c89 04bd
00000050: 62fc bd3a e08c 4bbc f359 72bc d39f 09bc
00000060: 9baa dd3c 1bd5 093d 1f8e 003c 06cf 08bd
00000070: 7543 27bc 3ca3 e4bc 7b06 123d 1a37 2d3d
00000080: 2848 653c 884e 263d 3cca 9fbc fb45 c83b
00000090: df53 54bc f286 8dbb af7f 593d 7eec 5e3d
000000a0: 3b91 dc3b 2df5 f7b9 f187 09bc cd62 503d
000000b0: 30df ed3c a795 243d 7576 0dbd 63af d23c
000000c0: 7677 34bc 6293 a43a d446 a33c 4048 9a3b
000000d0: 5a36 46bc 0525 3b3c 36aa 11bd 351a 4e3b
000000e0: 1fa4 f23c 7c5d b7bb 3328 b53c 09ec 19bc
000000f0: 2778 f7bb b037 693d a68e fd3b f089 93bc
00000100: 3c47 de3b 2e91 eebc 3b7a 113d 8a01 dfbc
00000110: d7dc 113d bb15 eebc 4ab1 1abc 0ba4 2839
00000120: 855e 813b 5067 48bc 53db 263d 00c8 06bc
00000130: 3d18 b7bc 1a9d 2dbd 1464 8f3c 4aeb ffbc
00000140: d36b 213d 29ce de3c 4e2f 2fbd b0d3 7c3c
00000150: 6cf8 823a 4b23 9bbc 2c4d 14bc c744 3bbc
00000160: 4d34 80bc 54a8 853d 23e6 45bc 4654 513b
00000170: 451e e3bc 0e57 033c 5b20 ccbb 8fb7 45bc
00000180: c9d1 803b cbf8 9cbc 08e8 83bc e18b 6ebc
00000190: 4f95 543c eb3b 2d3c 5495 36bd d216 2abc
000001a0: c492 b7bc 47ba cabb e41e 35bc 5d57 ccbc
000001b0: 60b8 8f3c 4cb8 433c 32a2 0c3b d084 db3c
000001c0: 1316 0a3d a862 69bc bd48 17bc 109f bdbc
000001d0: 348a 543c dd93 043d c083 633b e3af b43b
000001e0: 90d0 f3bc 00fe 743c 3d42 9e3c 5f63 18bd
000001f0: d563 363d 6c45 ccbb 3d4c 6f3d 3ac5 afbc
00000200: 3fd0 d2bd 84bf e53d 2331 78bd 171a f1bd
00000210: 9fd5 c73d 4f3d 58bd 132b 15bb 3464 5a3c
00000220: 02b3 f7bd 7b82 133d 7c34 883d 6bc3 c73d
00000230: acd1 febd 9fa9 17bd da58 a53d 2099 1bbc
00000240: f00f 88bd 76a2 103b 9b30 a33d 3db1 a43d
00000250: 58e2 3b3e 9539 e53d 78f8 2a3d 7c5e b33b
00000260: ffa8 25bd 3959 a13c 0483 983d a67b b23d
00000270: 7905 8f3c 0cfb a83c 3e8c 04bd 1375 d0bd
00000280: 878a 74bc 2b68 d1bd 1248 ca3c c7a5 073d
00000290: b793 733d 594d 383d 3b6b fcbd 2cdb b8bd
000002a0: c9f8 a4bd 4659 66bc 61d5 523d 0211 ccbd
000002b0: 3144 393b f152 ddbd f98c ad3d 7865 89bd
000002c0: 9238 1a3d d61c d03d ddfc bb3b 2539 45bc
000002d0: 6b4e 103e 8b3e 93bd 9039 823c e8ba a73d
000002e0: 0dc4 07bc d719 043d 4a92 12bd a033 e63c
000002f0: 3fca 6f3d 066d f9bd 8f0f ec3c 62e5 4f3c
00000300: 7fb6 30bd 2088 31bc 627a 31be 0673 263d
00000310: 9c8b e2bd db96 ba3d 80af 9abd 0e11 2ebd
00000320: 0198 263d a8cb 7dbc 6a3f 0cbe 95f3 b73d
00000330: aa54 e93a 3648 be3d 029c 973b 791c 973d
00000340: 0181 14be b670 a7bd 68bf 5b3d 0e02 35be
00000350: cd95 1d3d 7dd3 c83d fe59 bbbb 63c6 063d
00000360: 09d9 7e3d d936 3ebb 36a3 0c3e 954a 94bd
00000370: 1b57 c63d 61bd ebbc d43e 193e ad62 883c
00000380: 4b90 4c3d 93da 0b3e f93c 8e3c 148d fb3c
00000390: b728 0f3c 12f2 3f3c a64e 003e 24c2 fe3d
000003a0: 7fb1 6139 ee12 523d ece5 05bd 1046 9d3d
000003b0: 8eb7 4c3c 6393 afbd 640c 973d 03a1 15bd
000003c0: c0d9 c9bd d5ed 6e3c cd02 a13d 515f a93d
000003d0: 802e 1e3d 3b89 99bd d556 8e3d 6565 adbc
000003e0: d321 e03c b70f 9fbc e1fb 6abd 9143 7c3c
000003f0: e5ed 93bd 5c87 673d 691b 12bb e5d5 e73d
0.03132946 -0.015675956 0.052399483 0.043004118 -0.02017572 0.041870076 -0.023014719 -0.041428346
0.024448145 -0.020331958 -0.030565428 -0.019804323 0.033748925 0.02852664 -0.046453882 0.01575443
0.027198495 -0.0130454 -0.014568153 -0.03235726 0.0014494772 -0.012423724 -0.014791953 -0.0083999215
0.02705889 0.0336505 0.007846384 -0.033400558 -0.010208954 -0.027909867 0.03565071 0.042288877
0.013994254 0.040602237 -0.019505613 0.006111858 -0.01295945 -0.0043190653 0.053100284 0.054424755
0.00673118 -0.0004729418 -0.008394227 0.050875474 0.029037088 0.040181782 -0.034536798 0.025718397
-0.01101481 0.001255613 0.019931234 0.00470832 -0.012097919 0.0114224 -0.035562716 0.0031448726
0.029619275 -0.005595861 0.022113895 -0.009394654 -0.007552165 0.056937873 0.0077379523 -0.01801011
0.006783394 -0.029121961 0.03551696 -0.027222414 0.035611 -0.029063096 -0.009441683 0.0001608284
0.003948035 -0.012231663 0.040736508 -0.008226395 -0.022350425 -0.04238615 0.017503776 -0.031240124
0.03940947 0.027197914 -0.042769723 0.01543133 0.0009992248 -0.018937727 -0.009051602 -0.011429972
-0.015649939 0.06526247 -0.012078795 0.00319411 -0.027724395 0.008016361 -0.006229443 -0.01206769
0.0039312583 -0.019161602 -0.016101852 -0.014559717 0.012975051 0.010573368 -0.044576004 -0.010381417
-0.02240885 -0.006186757 -0.011054728 -0.024944002 0.017543972 0.011945795 0.002145898 0.026796728
0.033712458 -0.014244713 -0.009233651 -0.023147136 0.012972403 0.032367576 0.003471598 0.0055141314
-0.029762536 0.014953136 0.019318694 -0.037204143 0.0445288 -0.0062338617 0.058422316 -0.02145635
-0.10293626 0.11218169 -0.060593735 -0.11772554 0.09757542 -0.052792843 -0.002276127 0.013329554
-0.1209469 0.036013108 0.066506356 0.0975407 -0.124423355 -0.037026998 0.08073588 -0.009496957
-0.06643665 0.002206949 0.07968255 0.08041618 0.18348062 0.111926235 0.041740865 0.00547391
-0.04044437 0.019695865 0.07446864 0.0871499 0.017458664 0.020627521 -0.032360308 -0.1017858
-0.014925606 -0.102249466 0.024692569 0.033117082 0.059467044 0.04499564 -0.1232514 -0.09026179
-0.080552645 -0.01405937 0.051473025 -0.099641815 0.0028269405 -0.108068354 0.08474154 -0.06708807
0.037651606 0.1016175 0.0057369308 -0.01203755 0.14092414 -0.071896635 0.015896589 0.081899464
-0.008286488 0.032251205 -0.035784043 0.028100789 0.058542486 -0.12178998 0.028816013 0.0126889665
-0.04314279 -0.010835677 -0.17331842 0.04063704 -0.110617846 0.09110805 -0.07553005 -0.042496733
0.040672306 -0.01549045 -0.13696066 0.089820065 0.0017801721 0.09291117 0.004626752 0.073784776
-0.14502336 -0.08175795 0.053649336 -0.17676565 0.03847294 0.09805963 -0.005717515 0.03290404
0.0622187 -0.002902439 0.13734135 -0.07240788 0.09684583 -0.028776826 0.14965373 0.016648615
0.049942296 0.13657598 0.017363058 0.03070692 0.0087377345 0.011715429 0.12530002 0.12439373
0.00021523795 0.051287584 -0.032689974 0.07679379 0.012494935 -0.08573034 0.0737541 -0.036530506
-0.09855986 0.014583071 0.07861862 0.08270133 0.038618565 -0.07496878 0.06950156 -0.021166513
0.027359879 -0.019416673 -0.057369117 0.015396968 -0.07223109 0.056525573 -0.002229417 0.11320094

network_body.linear_encoder.seq_layers.0.bias f4 [128]
00000000: cd7a 78bc 9d68 c8bc 3d98 9d3c 61ae 3a3d
00000010: 687f d2bc 035b 883c 101a c5bc 7545 afbc
00000020: 09ea 583c ce33 5e3c 3281 f4bb d8ce 403c
00000030: 48d2 c5bd 7ba8 193d cd9e 3c3c d934 f7bc
00000040: ea1e 123c 971b 7bbd 217d c2bb 4f26 20bb
00000050: e433 89bc 5dde 483c ad02 a6bd dc72 29bc
00000060: e9ba dabc c6a6 d9bc e5af c8bd 8ae9 773b
00000070: 9d4a ab3c 3f0e 3dbd 15e0 cfbc 6e7f 71bc
00000080: 9486 87bc 3891 29bd 0830 eebc 8275 1fbd
00000090: da14 893c 0746 3dbc 179f 0c3b 5b17 63bc
000000a0: 2869 913a 888e f3bc 2e8e 06bc 67ac 7c3c
000000b0: 132c e8bc 11ae debc 0492 b33c d67b 26bc
000000c0: b237 213b 3810 a33c 8c58 673c d942 143d
000000d0: 3815 39bd ce42 8a3c d2a0 47bb a3c1 a93a
000000e0: 0ac0 20bd a164 4ebc 4db6 d7bc 62a4 83bc
000000f0: 6081 be3b d5b7 4fbd 2612 05bd 2302 2fbd
00000100: ef48 e2bb d566 40bc b9bb b5bc 0fce cb3b
00000110: 9003 8fba 8693 e9bc 3dd5 943c 5e01 22bd
00000120: 6f38 b5bd d071 6a3c 9817 413c e445 0ebd
00000130: fd98 b7b9 1f67 cd3c ea27 b1bc 7b4c babd
00000140: 73d2 2bbc bb4a 96bc 4bfd f8bc 128d 92bb
00000150: 9ea8 96bc d6cf 153c 5588 72bb 7a25 32bb
00000160: 3f75 d9bb a133 31bc a266 833c ebdd 103c
00000170: 828a 1abd 75aa e4bc b9f4 833b aa67 b43c
00000180: 5923 b13c fc80 babc 67c1 383b fd2c 2bbd
00000190: 58bb 90bc 0495 bf3b 617c a03b d9b6 0e3c
000001a0: 286f a9bc 08d1 afbb 33cc c1bb ce38 99bd
000001b0: 33e7 b83c b2bf 37bc b178 a5bc bf0a dfbc
000001c0: c523 afbc 7945 0cbc bc71 21bd 5a03 d33c
000001d0: 724d 5abd 7450 cbbb aa22 d3bc dd82 603c
000001e0: 97bb aabd 7308 93bc 3994 48bb 273c 7cbc
000001f0: 3b88 30bd 1680 28bc d5e5 d83b 1aa1 43bd
-0.015165997 -0.024463946 0.019237632 0.045576457 -0.025695518 0.01664496 -0.02406028 -0.021395424
0.013239392 0.013562156 -0.0074616903 0.011768065 -0.096592486 0.03751419 0.01151247 -0.030176567
0.008918503 -0.06130561 -0.0059353267 -0.0024436896 -0.016748376 0.012260047 -0.08105979 -0.010342326
-0.026700454 -0.026568782 -0.09799174 0.003782841 0.020909602 -0.046156164 -0.025375405 -0.014739854
-0.016543664 -0.041398257 -0.029075637 -0.038930424 0.016733576 -0.01155234 0.002145713 -0.013860549
0.0011093961 -0.02973105 -0.008212609 0.015421963 -0.028341329 -0.02718261 0.021920212 -0.010161361
0.0024599847 0.019905195 0.014120232 0.036196563 -0.04518625 0.016877558 -0.0030460847 0.0012951385
-0.039245643 -0.012597234 -0.026332045 -0.016069595 0.0058137625 -0.050712425 -0.03248801 -0.042726647
-0.006905667 -0.011743267 -0.02218424 0.0062196325 -0.0010911096 -0.028512727 0.018168086 -0.039552085
-0.088486545 0.014309362 0.01178541 -0.03473462 -0.00035018465 0.025073586 -0.021625478 -0.09096619
-0.010487187 -0.018346181 -0.030394217 -0.0044723833 -0.01839095 0.00914379 -0.003700753 -0.0027182982
-0.0066362913 -0.010815532 0.01604015 0.008841972 -0.037729748 -0.027913311 0.004026976 0.022022087
0.0216233 -0.022766583 0.0028191449 -0.04179095 -0.017667457 0.0058466215 0.0048976396 0.0087105865
-0.020682886 -0.0053654946 -0.005914235 -0.07481538 0.022571182 -0.011215137 -0.020199152 -0.027226804
-0.02137936 -0.008561485 -0.039415106 0.025758434 -0.053296514 -0.006204659 -0.025773365 0.013703075
-0.08336561 -0.017948365 -0.0030605926 -0.015395201 -0.04309867 -0.010284444 0.006619195 -0.04776106

network_body.linear_encoder.seq_layers.0.weight f4 [128, 197]
00000000: dfff 073d bd08 1abd fade 763d 2cfd 7ebd
00000010: 014f 863c 0061 143d 3191 213d 867f b73c
00000020: 7afa 69bd bdee 403e e41f 873d f2c8 26be
00000030: 123c cfbb 32a3 e63b 02f7 31be 9028 77ba
00000040: 91a0 383d 6b25 123d 3e00 14bd 146c 0a3d
00000050: 1b74 f839 52cb 653d 4bbd d1bb edec fd3c
00000060: 578c e6bc a86c afbd 8cc4 0d3e e493 b03c
00000070: 3a78 e33d 8678 b53c 7cc6 7abd 790e 9e3d
00000080: b9a9 fa3a d460 ce3c 0065 603d e8fa 19be
00000090: 9076 493d 625d dcbd 1593 0e3e 585c 02bc
000000a0: 890a 9cbd f9b4 16be d861 e13d 213c 92bc
000000b0: 7ab9 28be 86b8 01be 641f 6ebe 3dea efbd
000000c0: d373 b63d 49b2 133d a590 943c 1bb3 edbd
000000d0: 90bb aabd 3781 bfbc 2eea 843d 3f5e b73d
000000e0: cc77 f1bc 3f8e 433b cf8f d2bd fb10 cabd
000000f0: 20bf 283c 104a 92bd 70fb fcbd 8464 17bd
00000100: 0ff3 b9bd a665 c1bd 820c 543e ef93 78bb
00000110: 48cd e3bc 1f9e 6d3d 2b60 c5bd b8ad e63c
00000120: 650c 44bb 1d5a 26be 1252 a6bd 298c 843d
00000130: d831 3ebe 4dec 043e afcd 393e f57f 113d
00000140: 33d2 763e 0d5a 3cbd 831e b8b9 ba61 b23d
00000150: 4b30 2b3d 50f4 e03d 49c0 143e 5d04 073d
00000160: c817 89bd 7081 573c a59c bebd 618c a6bd
00000170: b4b6 50b9 ef02 c139 b99e aabd 7198 8b3c
00000180: 9ae7 143d 3e9c ff3c b072 6dbe f11e 843d
00000190: 1b3e e1bd fe7b 4e3c 82fa cd3c e439 493d
000001a0: f5c0 ecbd 0e65 063e 170c 993c 6bb6 20bd
000001b0: da54 97bd 5fff 4b3c 247c 1bbe ad1b 2a3d
000001c0: 7910 83bb 5738 b8be 339f b83d 7d31 fabc
000001d0: 1b7d eebd 80d4 1c3d 108a 65bc e9a4 5a3d
000001e0: 1213 973e a151 14bc ffd5 463e 7b2e 1ebd
000001f0: 3a00 94bc 7ff3 4a3d 8328 5a3e 5737 5c3d
00000200: fca3 c83d f7c5 ee3c 4a8e 9a3d 883b 663e
00000210: 370a 153d 9a59 e0bd 8408 52bd 5edf 82be
00000220: 75df 0fbc 51d2 80bd 1fef e43c 11a7 66bd
00000230: e4ad c4bd 192c f7bc aaa3 023d e01f 22be
00000240: fbb7 2abe 161d 2e3d f7eb cf3c 084f 00be
00000250: b745 213b 1ab5 bebd 059d 4abe 1b0a bb3c
00000260: eb33 533c a782 0cbd 0e8e 0b3e 09d8 d33d
00000270: 8eec f3bc a1fb b7bd 3386 e23d 39cf 533d
00000280: 0b37 f23d 5353 da3d e374 b33d b7ca f43a
00000290: c0ba 5b3c e7ef b93c cb20 cebd 4b0d 01bd
000002a0: 0fdb 0a3e 9126 e93b fafa e8bd c1ae c8bc
000002b0: e4b9 f43c 7ee7 87bb 65e8 863d 0f62 c73c
000002c0: b31d afbd 4869 483c 6659 593d 6af3 5ebd
000002d0: d161 d13d 52cf 86bd 145f 17bd cfc9 13bd
000002e0: ec2b 083e 790a ddbc 4da4 b0bd e1df debb
000002f0: 4b62 38bd 3b6b 1c3c e873 88bd 8894 af3d
00000300: 3854 a33d 278e 93bd d4de 84bc 26d6 a23c
00000310: 362f c4bc 0356 5d3d 9826 043e 9c5c a93d
00000320: 8016 93bc 7766 d0bd 28ea a23d ef08 48bd
00000330: 80a1 11be c64b f03c 145b 673d c065 2b3c
00000340: 6dde 673d 582f bdba 4480 973d 843d c23d
00000350: d9fe d33d 4c4d 37bd f912 c33c a268 b8bd
00000360: 42c9 59bc 131c 9c3d 8b58 4e3d 2ea8 abbc
00000370: c03f d5bd b90f d5bd c4c5 f93c e66c bdbd
00000380: 9a44 bd3d 1123 c93d 6f19 66bd 3b2b 11bc
00000390: 0cc6 e4bd 4ebf 9cbd 180d 08bd 7893 99bd
000003a0: 2858 0cbb d2df f43d 52f5 1a3e 0bd2 d0bd
000003b0: f617 69bd e702 823d 1942 a9bd 2754 803d
000003c0: aaa4 253e 33e4 853c 4c73 2b3e 78f2 febc
000003d0: 703f 9fbd 0b2b 5bbd 6ec4 91bd 833a 823c
000003e0: 9f02 eabc 7284 40bd 0c66 c2bc 2ec8 013d
000003f0: 846b 07be 0da7 57bd a52c 91bd 12df 6f3d
0.033203002 -0.03760599 0.06027124 -0.062253162 0.016395094 0.03622532 0.039445106 0.022399675
-0.05712364 0.18841071 0.065978795 -0.16287592 -0.0063242996 0.0070384974 -0.17379382 -0.00094283465
0.045075003 0.035680216 -0.036133043 0.033794478 0.0004738875 0.056102104 -0.0064007393 0.030996764
-0.028143091 -0.085656464 0.13844508 0.021554895 0.11106916 0.022152197 -0.061224446 0.07717604
0.0019124068 0.025192656 0.05478382 -0.1503712 0.049185336 -0.10759999 0.13923295 -0.007956587
-0.07619197 -0.14717473 0.1100499 -0.017850937 -0.16477004 -0.12668046 -0.23254162 -0.11714599
0.089088105 0.036058698 0.018135378 -0.11606427 -0.08336556 -0.023377044 0.06489979 0.08953523
-0.029476069 0.0029839424 -0.102813356 -0.0986652 0.010299474 -0.071430326 -0.123526454 -0.036961094
-0.09079563 -0.09443216 0.20707896 -0.0037929972 -0.027807847 0.058012124 -0.09637483 0.028159007
-0.0029914614 -0.16245313 -0.081211224 0.06472046 -0.18573701 0.12980767 0.18144868 0.03552242
0.24103622 -0.045984317 -0.00035117948 0.08710046 0.041794103 0.10984099 0.14526476 0.032963146
-0.06693989 0.013153419 -0.09307221 -0.08132244 -0.00019904488 0.00036814014 -0.08331055 0.017040463
0.036353685 0.031202432 -0.23188281 0.06451214 -0.10998174 0.012602804 0.025143865 0.049127474
-0.11560241 0.13124487 0.018682523 -0.039236467 -0.07389231 0.012451022 -0.15184075 0.0415303
-0.0039997664 -0.35980484 0.0901474 -0.030541176 -0.11644956 0.038288593 -0.014009967 0.053379927
0.29506737 -0.009052665 0.1941757 -0.038618546 -0.018066514 0.049548622 0.21304516 0.053763714
0.097969025 0.029147131 0.07546671 0.22483647 0.036386695 -0.1095459 -0.051277652 -0.2556104
-0.008781304 -0.06290115 0.027946053 -0.05631167 -0.096034795 -0.030172395 0.031894363 -0.15832472
-0.16671745 0.042508207 0.025381071 -0.12530148 0.0024608204 -0.09311886 -0.1978646 0.022831967
0.012890796 -0.034304287 0.13628408 0.1034394 -0.029775884 -0.08983541 0.11060753 0.051711295
0.11826905 0.10660424 0.08762529 0.0018676136 0.013411224 0.022697402 -0.100648485 -0.031506818
0.13560127 0.007115193 -0.11375995 -0.024497392 0.029873796 -0.004147469 0.065872945 0.02433875
-0.085505866 0.012232132 0.053063773 -0.054431356 0.10223735 -0.06582512 -0.036955908 -0.03608113
0.13298005 -0.026982533 -0.08625088 -0.006801591 -0.045015614 0.00954705 -0.06662732 0.08573252
0.07975048 -0.07204848 -0.016219534 0.019877505 -0.023948293 0.054037105 0.12905347 0.08269617
-0.017955065 -0.101757936 0.07954818 -0.048836645 -0.14221764 0.029333007 0.056483343 0.010461271
0.056608606 -0.0014433665 0.073975116 0.094843894 0.10351343 -0.04475145 0.023812758 -0.09004332
-0.0132926125 0.07622542 0.05037741 -0.020954218 -0.1041255 -0.104033895 0.03048981 -0.09249286
0.092416 0.098211415 -0.0561766 -0.008860405 -0.11170587 -0.07653676 -0.033215612 -0.074988306
-0.002141485 0.11956753 0.15132645 -0.101963125 -0.056907617 0.0634821 -0.0826456 0.06266051
0.16176096 0.016344165 0.16743201 -0.031121477 -0.077757716 -0.053507846 -0.07117544 0.015897041
-0.028565703 -0.04700131 -0.0237303 0.031685047 -0.13224608 -0.052649546 -0.070885934 0.058562346

network_body.linear_encoder.seq_layers.2.bias f4 [128]
00000000: badb 673b 1910 d83b a1ce 32bb b258 f73c
00000010: 332b 5a3c 39e9 8a3d 5927 15bd 4812 4fbd
00000020: 10c9 893c 57c2 88bd 9b05 093d 4fc2 babc
00000030: a17d a53c 4d77 023d 26a7 bc3c cfd5 0fbd
00000040: 12c7 123a 2a8a 80bb c0eb 3a3b fc6b a13b
00000050: 8650 033d d498 41bc d6e7 0fbd 2655 8cbd
00000060: 75da bdbc ed58 bd3c f707 95bb dff1 c83c
00000070: a358 6fbb 5eac 82bd 6e15 5139 d687 7d3d
00000080: 2a57 3f3c 8697 e43c cb3c 0abd 91f4 ae3c
00000090: 8255 11bd b515 05bd 1617 be3d 0da5 153d
000000a0: 673a 24bc f7ba 29bd 954a 35bd 6d30 dfbc
000000b0: d509 a8ba 03d0 153d fa32 e438 fcac 293d
000000c0: 86c0 dc3c 909c 4cbc c05f 293d 3f9a 26bd
000000d0: 86dd 103d 7e62 25bd c10d 03bd 781b 20bd
000000e0: fc96 ea3c ae38 a8bd cc14 443c 8033 32bd
000000f0: 318e 113d 39a2 7e3c 6ef3 053c 2898 b5bb
00000100: f83c e1bb 990c 76bd 2044 3e3d bae1 79bd
00000110: 1ff9 3a3d 7561 783d 3399 6c3c b7a2 0dbb
00000120: 6d72 cc3c eb77 84bc 29d0 313d 3f0c 5bbd
00000130: 7d61 48bd f154 e03c b389 1c3d 34e0 ce38
00000140: 06ea b63d 07ad ea3c adc9 d6bc 9ecf 993d
00000150: 69ae 96bb 4779 8d3d 83c8 3bbc ed64 18bd
00000160: e0c6 02bd 41ba d1bc 46d9 c1bc 5fa0 0bbd
00000170: f105 2b3d 423c c8bb b4ea cd3c 6c68 85bd
00000180: f8fc a7bc 130b 9fbc 5ad0 4aba eb79 acbd
00000190: 7927 70bc 683b 243c 5da9 08bc 2ffc 973d
000001a0: ae3d e1b9 8964 9ab9 61d6 33bd 51b3 563c
000001b0: e8f8 4ebd 787a 493c 823d 2bbd 2fd4 ff3c
000001c0: 77b9 bf3c da2a 64bd 8efc 0cbd 4e46 40bd
000001d0: d3dc 1e3d d5c6 d83b 94dc 4cbd 3e6c cbbc
000001e0: b607 dfbc b382 07bd 9274 253d c409 06bd
000001f0: 5b46 763d 26f3 96bd 7b37 2fbd 591f 643a
0.003537877 0.006593716 -0.0027283805 0.03019366 0.013315964 0.06782765 -0.036414478 -0.050554544
0.016819507 -0.066776924 0.03345261 -0.022797732 0.020201506 0.031852055 0.023028921 -0.035116013
0.0005599122 -0.0039227204 0.0028521866 0.004926203 0.032059215 -0.011816222 -0.035133205 -0.06852178
-0.023175457 0.023113692 -0.0045480686 0.024529396 -0.0036521337 -0.06380533 0.00019939776 0.06189712
0.011678496 0.027904283 -0.033749383 0.021356853 -0.035481937 -0.032491405 0.09281747 0.036534358
-0.01002369 -0.04143807 -0.04426058 -0.02724477 -0.0012820313 0.03657533 0.00010881382 0.041424736
0.026947271 -0.012488499 0.04135108 -0.040674444 0.03536751 -0.040377133 -0.03199554 -0.039088696
0.028636448 -0.08213936 0.011967849 -0.043506145 0.035535995 0.015541607 0.008175714 -0.00554182
-0.006873723 -0.060070608 0.046451688 -0.061006285 0.045647737 0.060639817 0.014440822 -0.0021611878
0.024956906 -0.016170463 0.043411408 -0.053478476 -0.048921097 0.027384253 0.038217258 9.8646065e-05
0.08931355 0.028646959 -0.026219213 0.07510303 -0.004598428 0.069078974 -0.01146138 -0.037205625
-0.031927943 -0.025601508 -0.023663174 -0.03408849 0.041753713 -0.006110699 0.02513633 -0.065140575
-0.020506367 -0.01941446 -0.0007736735 -0.084216915 -0.0146578485 0.010023929 -0.008341161 0.07421147
-0.000429613 -0.00029448073 -0.04390562 0.013104276 -0.050530344 0.012297265 -0.041806705 0.031229107
0.023403866 -0.05570493 -0.034420542 -0.046942048 0.038784813 0.0066154995 -0.050015047 -0.024831887
-0.027225357 -0.03308363 0.040394373 -0.032724157 0.06012569 -0.07370596 -0.04277752 0.0008702181

network_body.linear_encoder.seq_layers.2.weight f4 [128, 128]
00000000: 4867 83bd d31b 0bbe 0e16 c2bd 06f7 613e
00000010: b891 84be 12dd debc bb80 89bd 078e 65bd
00000020: 4c4d be3d 987f e03d fbb0 1b3d e835 fb3c
00000030: 9a67 fd3a cf2d 0bbc 805c 433e f805 573d
00000040: 2193 bdbc 5ad0 04bd bad0 4a3d 6241 acbd
00000050: f171 903d f286 613c 5229 213e 04bf b6bd
00000060: 642a c93d a907 aebd 358d d33c 88fe bcbd
00000070: f212 16be bbea 333d 483b 0d3e 78f0 8fbd
00000080: ac58 93bd 8777 37be 8777 5cbe 0f06 823d
00000090: d701 843d f7b7 7bbd fb4d 143d 29d2 ccbd
000000a0: cd7d 2cbe ebe2 253d c094 e1bd f23b d43c
000000b0: 2507 8a3d 7d96 2cba 696a 503e 753a e53c
000000c0: d49e 0dbe b750 a6bd fb2c 883c 9634 9bbd
000000d0: dfef 20bd 9424 673e cae4 e6bd 85f7 27bd
000000e0: 7046 14be 0a8b be3d 551a aa3d 4e3f 493c
000000f0: 3f83 923d 2ef2 50bd 76f7 523c 2889 d0bd
00000100: cc14 30bd f6a3 6c3e cd7f 8a3c a56f eebd
00000110: 5a20 8ebb a323 92bc 6fc1 633b 4409 513d
00000120: 89af b4bd d778 d8bb c855 e0bd 0e8b 363b
00000130: 9372 c4bd 6495 7a3d ab75 d6bd ef87 01be
00000140: b524 07be becd 4fbd 7188 073e 7472 fabd
00000150: 309c ed3d 73de 8abc 43e2 9f3c ecb2 7a3d
00000160: b4d8 933c 90b7 d2bc 13d9 3f3d fdc4 e3bc
00000170: ef5c 483e 1edd eabd af31 08be 95ed bdbd
00000180: dbe7 1b3c 77eb 293d 8ada bc3d 8ce8 803d
00000190: 2340 04bd ddaf febc 4915 48bd 4f42 6fbd
000001a0: 288c 08be f005 1e3d 56dc c73c 745b a9bd
000001b0: 90d6 8abb d707 8ebd 8490 d93d fcf3 253e
000001c0: fb71 52bd 2bd8 18bc ce76 9bbd 0661 263d
000001d0: b9c2 6dbd ab91 703d db2f 773e 222a 343e
000001e0: 47e4 63bd 1e38 29be 0f2c 3d3d 3124 0d3d
000001f0: 0bd7 09bd 3296 fd3c 74ef c3bd 7e07 03bd
00000200: 8369 a9bd dcdc 7d3d 5cd9 c73c 87e7 03be
00000210: 5996 ddbc b6f5 ccbc adac eb3d 05b5 ec3d
00000220: ef13 013e c781 0abe 667b 1fbe bdec 0bbe
00000230: 00f3 613d c760 c43c 8c43 28be 6d26 063e
00000240: 3b73 adbd 80d6 41bd 199a 553d f37d fd3b
00000250: df2b 9d3c ffb2 c2bd 9184 db3d e22a 163d
00000260: d813 17be eed0 3cbc 49e6 34bd c5ba 56bd
00000270: 13b2 3c3e 7f6e 49bc 7a94 883d 739e 00bd
00000280: 3965 8bbd 02ed 0d3e b35c 9abd 6016 cebd
00000290: 97e2 95bd f050 ecbd 11e3 a8bd 5dc5 64be
000002a0: 3ff9 4bbe 4157 8bbc 8c5e 853d b991 27be
000002b0: 0a2c d8bd a87a e23b 4059 d13c a4f9 153a
000002c0: 155a bbbb eb0d 06bd f84b 9fbd 2d47 ebbb
000002d0: 6469 da3c f126 e0bd 00a1 f23d 23a2 30be
000002e0: bd3c 55bb c91b 233e 3683 053e 4fb4 9e3d
000002f0: d072 3f3d 37d7 cd3d 451f d0bc 383f 1e3e
00000300: ab95 c2bd 3652 96bd 6c1c 0bbd 5014 aebd
00000310: b615 02be b388 85bd 2c47 a63d 7f1c 2b3d
00000320: fed5 db3b 0237 49bd 7c0f 1b3e c31d a6bd
00000330: 629b 083e 942b f43c 5cb2 6c3e ef61 07be
00000340: b730 b33d 8e0e e53d a883 6f3d fba6 303c
00000350: 9368 bbbd 0458 5d3e 5c19 2dbe 5acb ffbd
00000360: 73c8 5a3e b05b 083e d2f5 a23d 274a f1bb
00000370: f200 31be 6e7c 363e d28f 78bd 8acd af3d
00000380: a0f2 133e cbc5 6dbd f8bf 98bc 8c9a e5bd
00000390: 5869 a8bc 0deb 14be 140d a23c 4aba b9bc
000003a0: 6cc5 c3bd 339a 763d b2e3 7d3e 6784 933e
000003b0: ce6c 133e b085 533e 6904 d6bd fe2c 5fbe
000003c0: 0c0a b2bd 4d62 b2bd 7c36 983d c281 0838
000003d0: c7f6 25bd 9671 c03c 6d88 c4bd a4a2 54be
000003e0: e01e 053e 07a6 093e 13f8 e4bd 2af7 e93d
000003f0: 9c53 8ebd 6999 7ebd b2a5 4dbd 8599 ac3d
-0.06416184 -0.13584833 -0.09476863 0.22066888 -0.25892425 -0.027205024 -0.067140065 -0.05604365
0.09292087 0.109618366 0.03801058 0.030665353 0.0019333244 -0.008494808 0.19078255 0.052495927
-0.023141446 -0.032425262 0.049515463 -0.08410908 0.070529826 0.013765084 0.15738419 -0.08923152
0.098225385 -0.08497555 0.025824169 -0.092282355 -0.14655665 0.04392503 0.13792145 -0.07028288
-0.07194647 -0.1791669 -0.21529971 0.06348812 0.064456634 -0.06145474 0.03620718 -0.10001022
-0.16844864 0.04049961 -0.110147 0.02590749 0.06739644 -0.0006583704 0.20353092 0.027981976
-0.1383012 -0.08120864 0.01662301 -0.07578389 -0.03929126 0.22572547 -0.11274107 -0.041007537
-0.14479995 0.09303863 0.08305804 0.012283159 0.071539395 -0.05101221 0.012876382 -0.101824105
-0.042988583 0.23109421 0.016906643 -0.11642388 -0.0043373527 -0.017839259 0.0034752747 0.051034227
-0.08822543 -0.006606202 -0.109538615 0.002785388 -0.09592166 0.061177626 -0.10471662 -0.12649511
-0.13197596 -0.05073332 0.13235642 -0.122288615 0.11602056 -0.016951775 0.01951707 0.06120579
0.018047668 -0.025722295 0.046837877 -0.027803892 0.19566701 -0.11467956 -0.13300203 -0.09273831
0.009515728 0.041484322 0.092213705 0.06294355 -0.032287728 -0.031089718 -0.048848424 -0.058412846
-0.13334715 0.03857988 0.024397057 -0.082693964 -0.0042370036 -0.06935089 0.10623267 0.16206354
-0.05137823 -0.009328882 -0.075910196 0.040619873 -0.05804703 0.05873267 0.24139349 0.17594197
-0.055637624 -0.16525313 0.046184596 0.034458343 -0.033652347 0.030955408 -0.095671564 -0.031989567
-0.08272078 0.061978206 0.024395637 -0.1288129 -0.02704923 -0.025019508 0.11507545 0.11557964
0.1260526 -0.13526069 -0.15574417 -0.13664527 0.055163383 0.023971928 -0.16432017 0.13100596
-0.08469244 -0.047323704 0.052148912 0.0077359616 0.019185958 -0.09506797 0.107186444 0.03666199
-0.14753664 -0.011524422 -0.04416493 -0.05242421 0.18427305 -0.012294411 0.06668945 -0.03140111
-0.06806416 0.13859943 -0.07537212 -0.100628614 -0.07318609 -0.11538875 -0.082464345 -0.22340913
-0.19919299 -0.01700938 0.06512174 -0.16364183 -0.10555275 0.0069115944 0.025555253 0.0005721098
-0.0057175257 -0.032728117 -0.07778162 -0.0071801157 0.026661582 -0.109449275 0.118471146 -0.1724935
-0.0032537424 0.15928568 0.13038334 0.07749235 0.046740353 0.100508146 -0.025405535 0.15453804
-0.09501203 -0.07339899 -0.033962652 -0.08499968 -0.12703595 -0.06520214 0.08119044 0.041775223
0.0067088595 -0.049124725 0.15142626 -0.08111145 0.13340524 0.029805936 0.23114914 -0.13220952
0.08749526 0.11184417 0.058475167 0.010781999 -0.09150805 0.21615607 -0.16904205 -0.12489958
0.21365528 0.13316226 0.07957043 -0.007363576 -0.17285517 0.17820904 -0.060684033 0.08584125
0.14448023 -0.05804996 -0.018646225 -0.11211118 -0.020558044 -0.1454279 0.019781627 -0.022671837
-0.095591396 0.06020565 0.2479389 0.28811952 0.14396974 0.20656466 -0.1045006 -0.21794507
-0.086933225 -0.08710156 0.07432267 3.2545773e-05 -0.04051855 0.023491662 -0.09596334 -0.20765167
0.13000059 0.1344224 -0.11180129 0.11424096 -0.06949541 -0.062158022 -0.050206847 0.08427719
