results/MovingObstacles_LSTM_2layers_2/BasicAgent/BasicAgent-499978.onnx (onnx, 138150 bytes, 6 tensors)

action_model._discrete_distribution.branches.0.bias f4 [5]
0.08751245 0.09375063 -0.19363134 -0.031851396 0.0049167075
00000000: ba39 b33d 5500 c03d 4b47 46be 9c76 02bd
00000010: 551c a13b

action_model._discrete_distribution.branches.0.weight f4 [5, 128]
0.031960364 -0.068790115 0.0055990657 -0.10318255 -0.21830861 -0.019401282 -0.0023679638 0.090888456
-0.10649875 -0.04228576 0.06581781 -0.21161813 0.049010247 0.08214835 0.07655886 -0.008364001
0.120999575 0.06928009 0.0186658 0.08865578 -0.09256831 -0.15239885 -0.054927345 0.037004154
-0.06491716 -0.0038317852 0.1124967 -0.022618534 0.007485773 0.027339576 -0.05257605 -0.010646955
0.03064855 -0.060740735 -0.047068376 0.059897937 0.12413742 0.077517025 0.051837057 0.031530887
0.0057479963 -0.05066968 0.075940765 0.0055189515 0.077641025 0.018641777 -0.0351769 -0.025772765
-0.20664942 -0.040569343 -0.12609316 -0.046271365 0.10065493 -0.059250638 -0.14595045 0.04529885
0.07203679 -0.005828457 -0.18794534 -0.085996896 -0.08009032 0.03627091 0.015239106 -0.090446055
-0.055102307 0.05117354 -0.12958069 0.018454239 0.07101802 0.050622575 -0.062465288 0.02385256
-0.068218105 0.011893844 0.11486246 0.061080195 -0.11169802 0.054622233 -0.017010484 0.035055533
-0.017929206 -0.056773514 0.03827575 -0.052577857 -0.07140875 -0.0079563735 -0.0961326 0.113179326
0.050687455 -0.106886365 0.042328402 0.042873967 -0.10764087 0.029980702 -0.005376947 0.068957366
0.038077097 -0.15620588 0.01687796 0.079602875 0.012618428 -7.528855e-05 0.012816983 -0.013142763
0.049388677 -0.051804252 0.06872097 0.08321683 -0.08964144 -0.13028029 0.041587774 0.013269176
0.045179598 0.0078337705 0.019313026 0.0721744 -0.049392417 0.11889582 -0.04781162 0.10855272
-0.056500304 -0.17042236 -0.09077963 -0.026790855 0.069515996 -0.08552718 -0.0884486 -0.054158874
-0.11918344 0.04822729 -0.09304939 0.020845843 0.060506053 -0.103736304 -0.06933858 0.05565042
-0.07887588 -0.053433232 -0.035498187 0.05902227 -0.11831831 -0.05630102 0.037655026 0.081427395
-0.096727006 -0.013037609 0.080045275 0.05935823 0.10286666 -0.02515613 0.0027221472 -0.11302585
0.08229834 0.007788377 0.09418986 -0.082836606 -0.023124812 0.028316094 -0.07227531 0.09093765
0.06797708 -0.08436271 0.057112753 -0.16999462 -0.17485191 0.041836005 -0.123306416 0.05011101
-0.06796679 0.06355889 0.06502784 -0.051370315 0.079644434 -0.040239833 0.050616246 -0.049006045
0.07389094 0.027118638 0.107209936 -0.022631789 -0.08008569 0.0077248644 0.07368283 0.10311397
-0.11292153 0.072324105 0.2218339 0.056013297 0.022869237 0.08178701 0.11684594 0.10691303
0.03098099 0.033326264 0.10456601 0.032240372 0.102469414 0.17237136 -0.03643395 -0.13363318
0.099456795 0.18667567 0.02695439 0.04095613 0.060626306 0.1672832 0.09863296 -0.12958118
-0.08383579 0.08997653 -0.067108855 0.009955601 -0.019812576 -0.108201794 0.026816437 -0.063585825
-0.09675972 0.052841604 0.07775551 -0.17010151 0.026239641 -0.07935631 -0.08120838 0.024409188
-0.11735399 0.06791643 0.10283634 -0.15527713 0.034984276 -0.131458 0.07530907 0.067820385
0.036291298 0.05607463 -0.14050148 -0.16888744 -0.02094571 0.09214518 0.12828419 -0.011710598
0.023524616 -0.043699067 -0.07425089 0.09371351 0.003008709 -0.11092063 0.10372042 -0.011540493
-0.00015952604 -0.056447886 0.015310852 -0.08369706 -0.15932015 0.055344865 -0.0681001 -0.0027327733
00000000: dfe8 023d d5e1 8cbd 5e78 b73b 5f51 d3bd
00000010: 4b8c 5fbe 70ef 9ebc d72f 1bbb ba23 ba3d
00000020: 041c dabd d533 2dbd 7dcb 863d 6cb2 58be
00000030: f8be 483d 653d a83d e4ca 9c3d 2a09 09bc
00000040: a0ce f73d b8e2 8d3d 05e9 983c 2991 b53d
00000050: 7494 bdbd 720e 1cbe 7ffb 60bd ab91 173d
00000060: 4af3 84bd b01e 7bbb ab64 e63d 814a b9bc
00000070: 374b f53b 3ff7 df3c fc59 57bd 9170 2ebc
00000080: ab12 fb3c 47cb 78bd c5ca 40bd 8a57 753d
00000090: c23b fe3d 3fc1 9e3d 1853 543d 8826 013d
000000a0: b059 bc3b 038b 4fbd d586 9b3d 52d8 b43b
000000b0: 4202 9f3d a4b6 983c a715 10bd 6821 d3bc
000000c0: e89b 53be 0a2c 26bd 911e 01be 0b87 3dbd
000000d0: 2c24 ce3d ccb0 72bd 0974 15be 498b 393d
000000e0: 0688 933d a4fc bebb be74 40be 241f b0bd
000000f0: 6506 a4bd ce90 143d 71ad 793c c83b b9bd
00000100: f5b2 61bd 599b 513d cdb0 04be 582d 973c
00000110: e571 913d 9e59 4f3d 9adb 7fbd 7266 c33c
00000120: efb5 8bbd 66de 423c 023d eb3d 3a2f 7a3d
00000130: eec1 e4bd 90bb 5f3d 9259 8bbc 6496 0f3d
00000140: 45e0 92bc 588b 68bd 08c7 1c3d e15b 57bd
00000150: c03e 92bd 735b 02bc 2be1 c4bd 90ca e73d
00000160: a69d 4f3d 3de7 dabd 8c60 2d3d 9d9c 2f3d
00000170: d172 dcbd 179a f53c 1a31 b0bb 8539 8d3d
00000180: bbf6 1b3d 6ff4 1fbe a643 8a3c d506 a33d
00000190: 86bd 4e3c 3ce4 9db8 53fe 513c be54 57bc
000001a0: c84b 4a3d b230 54bd 94bd 8c3d 966d aa3d
000001b0: ee95 b7bd 3268 05be f157 2a3d f566 593c
000001c0: 3e0e 393d 3759 003c 5a36 9e3c 2cd0 933d
000001d0: b44f 4abd a77f f33d 1ed6 43bd e350 de3d
000001e0: dd6c 67bd 3383 2ebe acea b9bd 7f78 dbbc
000001f0: 675e 8e3d e028 afbd 8a24 b5bd b2d5 5dbd
00000200: 7316 f4bd fb89 453d ae90 bebd e7c4 aa3c
00000210: 32d5 773d b373 d4bd 6301 8ebd b2f1 633d
00000220: ad89 a1bd cedc 5abd 8c66 11bd 56c1 713d
00000230: df50 f2bd e69b 66bd 283c 1a3d 68c3 a63d
00000240: cf18 c6bd b29b 55bc c7ee a33d 9e21 733d
00000250: c1ab d23d 3a14 cebc 0d66 323b 197a e7bd
00000260: 088c a83d a435 ff3b 9de6 c03d 3da6 a9bd
00000270: 3f70 bdbc 27f7 e73c 1405 94bd 853d ba3d
00000280: 9137 8b3d 5bc6 acbd 10ef 693d 1213 2ebe
00000290: 610c 33be 3b5c 2b3d 1388 fcbd 3441 4d3d
000002a0: 2c32 8bbd 2a2b 823d 512d 853d ae69 52bd
000002b0: 9f1c a33d 86d2 24bd fb52 4f3d 90ba 48bd
000002c0: 2254 973d e827 de3c e290 db3d 4d66 b9bc
000002d0: f703 a4bd dc20 fd3b 06e7 963d 6b2d d33d
000002e0: 6743 e7bd a91e 943d 6d28 633e 336e 653d
000002f0: 4458 bb3c f37f a73d ed4c ef3d 38f5 da3d
00000300: d8cb fd3c 1f81 083d b426 d63d 7b0e 043d
00000310: 7cdb d13d 1e82 303e c43b 15bd 23d7 08be
00000320: 01b0 cb3d e827 3f3e 74cf dc3c 9dc1 273d
00000330: 4a53 783d 4a4c 2b3e 1400 ca3d eeb0 04be
00000340: 19b2 abbd 9d45 b83d 5e70 89bd d11c 233c
00000350: fc4d a2bc e798 ddbd 25ae db3c 4939 82bd
00000360: f629 c6bd 7070 583d 483e 9f3d 172f 2ebe
00000370: 84f4 d63c 9085 a2bd 9450 a6bd c7f5 c73c
00000380: 4a57 f0bd c517 8b3d dc9b d23d f800 1fbe
00000390: ac4b 0f3d ed9c 06be a43b 9a3d 6ae5 8a3d
000003a0: 2fa6 143d 83ae 653d 9fdf 0fbe d4f0 2cbe
000003b0: 5696 abbc 9db6 bc3d ee5c 033e cfdd 3fbc
000003c0: b2b6 c03c cbfd 32bd da10 98bd deec bf3d
000003d0: c32d 453b 5b2a e3bd 5f6b d43d 5614 3dbc
000003e0: 7246 27b9 e635 67bd 5eda 7a3c 5d69 abbd
000003f0: d224 23be 4cb1 623d 1178 8bbd 5418 33bb

network_body.linear_encoder.seq_layers.0.bias f4 [128]
-0.04050981 0.04488655 0.046277873 -0.008781738 0.018688783 -0.03599164 -0.038833715 -0.011815572
-0.15008985 -0.08309207 -0.009457588 0.005948563 -0.10895816 -0.016351573 -0.014989933 -0.018435681
0.009243126 -0.008699742 0.014725801 0.030179165 -0.053340893 -0.0070141116 -0.0071690576 -0.034139015
-0.013014229 0.005064253 0.004526767 0.015161588 0.029540725 0.0037742618 0.03483042 -0.110212155
-0.05141038 -0.024739027 -0.017245313 -0.026891893 -0.0031030658 -0.061217032 -0.13440542 -0.00016129379
0.020024838 0.027053151 0.044903133 -0.039336186 -0.05245251 0.033088703 -0.12819096 0.011961622
0.0026908615 0.010986727 -0.11877229 0.036137667 -0.03110014 0.00461486 -0.006735091 0.050243735
-0.058128882 -0.049941175 0.013115067 -0.057086818 -0.06667865 0.009270264 0.044037424 -0.010911574
0.027844911 0.012168734 -0.0052233106 -0.059102084 0.02138958 0.03164391 -0.03070487 -0.021541782
-0.012649566 0.004339939 -0.0011665629 0.022343265 -0.15783949 -0.017900374 -0.010155059 -0.047933213
-0.010541144 -0.09016633 -0.064432114 -0.08649825 -0.0041318657 -0.030966261 -0.12364249 -0.03639725
-0.16678615 -0.021725904 -0.04856447 0.0059454893 -0.006802284 -0.013040835 0.0033861687 -0.11249095
0.0012715757 0.011457974 -0.025930857 -0.014250848 -0.07182827 -0.13140808 0.00017711184 -0.04065857
-0.10867824 0.021099359 0.027460158 -0.011518876 -0.09877127 0.037637472 -0.014828721 -0.007904509
0.0017130292 -0.011976743 -0.035787687 0.004868204 0.029545775 -0.014042751 0.010987465 0.01075142
0.0044424683 -0.003398177 -0.048100967 -0.010139845 -0.01331858 -0.0019193165 -0.020982571 -0.027428377
00000000: 9ded 25bd f6da 373d de8d 3d3d 47e1 0fbc
00000010: 3819 993c f86b 13bd 1a10 1fbd 1a96 41bc
00000020: 27b1 19be 2d2c aabd 00f4 1abc 2aec c23b
00000030: 7525 dfbd bcf3 85bc 5698 75bc 6d06 97bc
00000040: 7b70 173c 5d89 0ebc 7c44 713c 4c3a f73c
00000050: fb7b 5abd a2d6 e5bb 6aea eabb 5ad5 0bbd
00000060: a239 55bc 09f2 a53b 4655 943b 4f68 783c
00000070: 64ff f13c 9b59 773b 58aa 0e3d e9b6 e1bd
00000080: b193 52bd 80a9 cabc 0b46 8dbc 634c dcbc
00000090: ce5c 4bbb b6be 7abd 93a1 09be f920 29b9
000000a0: 210b a43c 929e dd3c 59ec 373d fb1e 21bd
000000b0: 71d8 56bd 0588 073d 7e44 03be aefa 433c
000000c0: 2a59 303b ac01 343c e33e f3bd 1705 143d
000000d0: b9c5 febc 4038 973b 0ab2 dcbb 60cc 4d3d
000000e0: 8d18 6ebd 1e8f 4cbd 94e0 563c ded3 69bd
000000f0: d18e 88bd 4ee2 173c 9660 343d 75c6 32bc
00000100: 031b e43c 5f5f 473c 4e28 abbb 0715 72bd
00000110: 3339 af3c 0b9d 013d c888 fbbc 6478 b0bc
00000120: 2040 4fbc 0c36 8e3b 5be7 98ba 3909 b73c
00000130: ada0 21be cea3 92bc 6861 26bc 9e55 44bd
00000140: c3b4 2cbc 20a9 b8bd fcf4 83bd ff25 b1bd
00000150: 9a64 87bb f5ac fdbc 4638 fdbd 4815 15bd
00000160: fdc9 2abe 86fa b1bc 8aeb 46bd 61d2 c23b
00000170: b2e5 debb 3aa9 55bc 7cea 5d3b a861 e6bd
00000180: 00ab a63a 3aba 3b3c f36c d4bc 647c 69bc
00000190: b31a 93bd d78f 06be 19b7 3939 9a89 26bd
000001a0: b292 debd 90d8 ac3c 20f4 e03c abb9 3cbc
000001b0: 9748 cabd c029 1a3d 2af4 72bc ea81 01bc
000001c0: b987 e03a 1a3a 44bc 1c96 12bd 7485 9f3b
000001d0: fb09 f23c 9113 66bc c504 343c b926 303c
000001e0: 2092 913b f3b3 5ebb 8505 45bd 9821 26bc
000001f0: 2c36 5abc 9391 fbba a4e3 abbc 7ab1 e0bc

network_body.linear_encoder.seq_layers.0.weight f4 [128, 130]
-0.13491094 -0.23199251 -0.13808961 -0.057881087 -0.18407306 -0.30886263 -0.12129321 -0.081889145
-0.24400651 -0.091013245 -0.1598585 -0.17945401 -0.077782005 -0.3256597 -0.39929575 0.0038166428
-0.25238875 -0.16290566 0.072078444 -0.20058459 -0.3931566 0.12098034 -0.18123429 -0.24578159
0.16015689 -0.21869314 -0.10640954 0.058941733 -0.12046153 -0.13730322 -0.10149873 0.009627298
-0.30474803 -0.09378077 0.077916585 -0.11312831 -0.11678472 -0.16033295 0.023992555 -0.13905871
0.07748582 0.08206687 0.0076570497 -0.18005615 -0.06048589 -0.14975807 0.084777735 0.086450234
-0.1907471 0.056449097 0.17530169 -0.08010163 0.1453194 -0.008675884 -0.38827989 0.1283695
0.12159083 -0.29119477 0.015884936 0.1047869 -0.17715369 0.033742268 -0.008501259 -0.2135248
0.11799886 0.27958295 -0.2153009 0.056824714 -0.15142344 -0.25887457 0.10510097 0.15113486
-0.2493359 0.07183818 -0.023186244 -0.08240693 0.008956959 0.15256086 -0.13550706 -0.019901013
-0.22067204 0.11617719 -0.2951916 -0.092133634 -0.16650969 0.13330275 -0.28444853 -0.028013648
-0.32934457 0.14808732 -0.2770356 0.1458187 -0.27121857 -0.091013625 -0.22006628 0.108204834
-0.37337923 0.12959678 -0.15167096 -0.008721075 -0.14657675 0.008216513 -0.44256428 0.0839121
-0.07884473 0.0329235 -0.0924382 -0.051744998 -0.13120142 -0.092215195 -0.26370674 0.107849486
-0.28823006 0.10685027 -0.087481014 -0.07244695 -0.3116938 -0.03580735 -0.23746678 0.2813676
-0.29278958 -0.1355223 -0.22991087 0.012793641 0.026831746 -0.099171214 0.02071944 0.011874644
0.27799898 -0.12369089 0.21313815 -0.19584987 -0.15632412 0.1440088 -0.2569397 0.05778075
0.033757504 0.049361367 -0.26948372 0.018485885 0.06475953 -0.062494997 0.20807388 -0.0559638
-0.27270827 0.15651111 -0.056224342 -0.043441202 0.25819233 -0.19644406 -0.19631632 0.10911678
0.059389364 -0.047454968 0.14665794 0.0065499125 -0.09475302 0.056774095 0.20110182 0.18451089
0.22499238 -0.21335821 -0.10909848 -0.3760273 0.066699624 0.021326514 0.23825936 0.07419992
0.1355849 -0.11416587 -0.039413173 0.0017324975 -0.0882983 0.22314866 0.06362518 -0.19411188
-0.06810161 -0.00092078623 -0.08678618 0.14952502 0.04342208 0.11046607 -0.058172688 0.012683589
-0.090997584 0.14775841 0.10568227 0.16545881 -0.08109966 0.041901313 -0.054333348 0.1836172
0.07153495 0.40203032 0.06346124 0.105770715 0.13399665 -0.002547026 0.13096118 0.12794656
-0.07837719 0.14215814 0.070213616 0.053798646 0.020471323 -0.6232645 0.0856315 0.12053162
-0.527536 -0.30331546 -0.15405537 -0.118606515 -0.46325907 -0.2837098 0.00622279 0.07459091
-0.34111524 -0.21376884 -0.080179475 0.0782146 -0.20067395 0.087371536 -0.13327782 0.07728141
-0.12036674 0.054289542 -0.12840377 -0.16960244 -0.23522443 0.28596357 -0.05988593 -0.08254713
-0.123363376 -0.15888457 0.14356777 -0.010869945 -0.06699949 0.1278839 0.28833377 -0.058660958
0.11204932 0.0043321103 0.24961297 0.0018026206 -0.009130545 0.19110313 -0.08969357 0.014749204
-0.110317335 -0.15553391 -0.031563144 -0.19157821 0.009812323 0.15994611 -0.22478285 -0.058668863
00000000: 1826 0abe 728f 6dbe 5d67 0dbe b814 6dbd
00000010: a67d 3cbe 3e23 9ebe 9368 f8bd 7fb5 a7bd
00000020: d8dc 79be 2765 babd f2b1 23be cbc2 37be
00000030: 2c4c 9fbd debc a6be 7e70 ccbe a420 7a3b
00000040: 1939 81be bed0 26be dd9d 933d 0c66 4dbe
00000050: d24b c9be 8ac4 f73d 7b95 39be 2bae 7bbe
00000060: 2b00 243e 18f1 5fbe 3fed d9bd e36c 713d
00000070: 89b4 f6bd 3799 0cbe 91de cfbd d1bb 1d3c
00000080: ef07 9cbe 2210 c0bd bb92 9f3d d1af e7bd
00000090: d42c efbd 522e 24be 098c c43c 6865 0ebe
000000a0: e3b0 9e3d ad12 a83d fde7 fa3b a460 38be
000000b0: 0dc0 77bd 2e5a 19be f39f ad3d d20c b13d
000000c0: 3553 43be 2b37 673d 4982 333e 530c a4bd
000000d0: 9cce 143e 4c25 0ebc 9fcc c6be 4b73 033e
000000e0: 9d04 f93d 7b17 95be 2021 823c 849a d63d
000000f0: c767 35be 5535 0a3d dd48 0bbc 3fa6 5abe
00000100: 63a9 f13d 7f25 8f3e d777 5cbe 08c1 683d
00000110: bf0e 1bbe 358b 84be 2d3f d73d 19c3 1a3e
00000120: e951 7fbe e51f 933d 14f1 bdbc f7c4 a8bd
00000130: 35c0 123c ea38 1c3e 5dc2 0abe 7307 a3bc
00000140: daf7 61be 4eee ed3d 5a23 97be 8fb0 bcbd
00000150: 8481 2abe 8480 083e 3da3 91be e17c e5bc
00000160: da9f a8be 34a4 173e 9cd7 8dbe 7f51 153e
00000170: 29dd 8abe 5a65 babd 0e59 61be 7f9a dd3d
00000180: 902b bfbe 05b5 043e a24f 1bbe d7e2 0ebc
00000190: 3718 16be 8e9e 063c c997 e2be 1bda ab3d
000001a0: 5979 a1bd cbda 063d 3d50 bdbd 90f2 53bd
000001b0: aa59 06be 52db bcbd 9204 87be 31e0 dc3d
000001c0: e492 93be 50d4 da3d 3f29 b3bd 115f 94bd
000001d0: 5496 9fbe baaa 12bd 7e2a 73be 6a0f 903e
000001e0: 84e8 95be 5cc6 0abe c16d 6bbe 6b9c 513c
000001f0: 40ce db3c 471a cbbd d1bb a93c de8d 423c
00000200: e255 8e3e a651 fdbd e340 5a3e de8c 48be
00000210: 6e13 20be 0b77 133e 9a8d 83be 82ab 6c3d
00000220: 4f45 0a3d 252f 4a3d c5f9 89be b66f 973c
00000230: a5a0 843d c1fa 7fbd 5211 553e 4c3a 65bd
00000240: 6ba0 8bbe 7344 203e 7f4b 66bd 67ef 31bd
00000250: c931 843e a228 49be 2507 49be 9e78 df3d
00000260: 4342 733d 2460 42bd 802d 163e a6a0 d63b
00000270: df0d c2bd f48b 683d a3ed 4d3e 6cf0 3c3e
00000280: 6764 663e 937a 5abe 066f dfbd a686 c0be
00000290: d099 883d f1b4 ae3c 43fa 733e 21f6 973d
000002a0: c5d6 0a3e cccf e9bd b56f 21bd f814 e33a
000002b0: bdd5 b4bd 1581 643e eb4d 823d 44c5 46be
000002c0: db78 8bbd eb60 71ba f4bc b1bd 161d 193e
000002d0: 5adb 313d 093c e23d 7c46 6ebd d4ce 4f3c
000002e0: f15c babd fb4d 173e f26f d83d 096e 293e
000002f0: 9417 a6bd b6a0 2b3d a58c 5ebd 2606 3c3e
00000300: ea80 923d ebd6 cd3e f7f7 813d 519e d83d
00000310: 6b36 093e 01ec 26bb b01a 063e 6c04 033e
00000320: 3884 a0bd e791 113e 28cc 8f3d f85b 5c3d
00000330: 7ab3 a73c 438e 1fbf 915f af3d 48d9 f63d
00000340: 990c 07bf 2a4c 9bbe b1c0 1dbe f9e7 f2bd
00000350: 4b30 edbe 6942 91be 8ce8 cb3b 1ec3 983d
00000360: a8a6 aebe 38e6 5abe 2335 a4bd fa2e a03d
00000370: 797d 4dbe d9ef b23d fb79 08be b745 9e3d
00000380: d682 f6bd b65e 5e3d 477c 03be 43ac 2dbe
00000390: acde 70be d169 923e f34a 75bd 780e a9bd
000003a0: f0a5 fcbd a3b2 22be 6e03 133e db17 32bc
000003b0: 0737 89bd fff3 023e 7ca0 933e 7946 70bd
000003c0: 1d7a e53d 60f4 8d3b 8b9a 7f3e e945 ec3a
000003d0: 4898 15bc 8ab0 433e 43b1 b7bd a5a6 713c
000003e0: 0eee e1bd 4844 1fbe 5b48 01bd 142d 44be
000003f0: dec3 203c eac8 233e 7a2d 66be c34e 70bd

network_body.linear_encoder.seq_layers.2.bias f4 [128]
-0.12009552 -0.12692392 -0.051706545 -0.11289279 -0.11375107 0.0026635723 -0.019088682 0.022836499
-0.087720454 -0.061732106 -0.10184974 -0.005939271 -0.0034443026 0.003306139 -0.022644114 -0.15133335
0.025728947 -0.10350586 -0.082924485 0.03287145 -0.093298435 -0.13965374 0.0018106342 -0.04117417
-0.07484368 -0.06680153 0.07372566 -0.10516183 -0.08106975 -0.008555249 -0.085747264 0.01143419
-0.10801814 -0.021071943 -0.11556633 -0.057856023 -0.017750658 -0.05402634 0.013333599 -0.17470717
-0.039193925 -0.0793301 -0.050055634 -0.07546543 -0.040505543 -0.053015903 -0.10911566 -0.10280001
-0.1369147 -0.087781854 0.06529463 -0.07009897 0.03337674 -0.1292869 -0.049414597 0.009800251
0.04107551 -0.04282909 0.05992448 -0.03334584 -0.16823143 -0.007984285 -0.024653163 -0.08750456
0.0062244777 -0.12033447 -0.061768953 -0.03063841 -0.02917142 0.03191675 -0.11482802 -0.014691939
-0.025664689 0.04562404 0.003080196 -0.08629518 -0.06527495 0.029093998 0.038112085 -0.026457021
-0.061304264 -0.060433242 -0.0072125336 -0.15642107 -0.03091703 -0.043454394 -0.0047724084 0.020595005
-0.05424486 -0.029175663 0.01451462 0.03246295 -0.06737136 -0.12089994 -0.04608323 0.0044867005
-0.056571543 -0.06524386 -0.04353077 0.031845137 -0.024804153 -0.012649805 -0.056934506 -0.01022876
-0.080952406 -0.022718739 0.034851424 -0.0077648377 -0.029782794 -0.045779064 3.056434e-05 -0.09739763
0.06008535 -0.08881605 -0.0327661 -0.043374885 -0.10068884 0.0011846912 -0.09236653 -0.016786909
-0.0602491 -0.03873494 -0.046457704 -0.02227009 -0.0017428758 -0.027384223 -0.07277193 -0.1296402
00000000: a4f4 f5bd 58f8 01be 3eca 53bd 5634 e7bd
00000010: 52f6 e8bd 548f 2e3b de5f 9cbc 9c13 bb3c
00000020: c8a6 b3bd ceda 7cbd 9996 d0bd 379e c2bb
00000030: cfb9 61bb cfab 583b 2680 b9bc 21f7 1abe
00000040: 83c5 d23c e1fa d3bd 50d4 a9bd 37a4 063d
00000050: 4013 bfbd 6401 0fbe cd52 ed3a 3fa6 28bd
00000060: a547 99bd 3ecf 88bd 7bfd 963d 165f d7bd
00000070: e607 a6bd 512b 0cbc 439c afbd 7856 3b3c
00000080: 9d38 ddbd 119f acbc 0aae ecbd 70fa 6cbd
00000090: d469 91bc b94a 5dbd 2b75 5a3c 70e6 32be
000000a0: cf89 20bd d277 a2bd 2307 4dbd 9f8d 9abd
000000b0: 24e9 25bd 3427 59bd 0878 dfbd d088 d2bd
000000c0: 5e33 0cbe f9c6 b3bd 31b9 853d 0c90 8fbd
000000d0: 0cb6 083d c963 04be f666 4abd 3b91 203c
000000e0: cb3e 283d 8e6d 2fbd 5f73 753d a695 08bd
000000f0: dc44 2cbe 85d0 02bc 6ef5 c9bc 9735 b3bd
00000100: b4f6 cb3b eb71 f6bd 7101 7dbd 67fd fabc
00000110: e7f8 eebc 23bb 023d f42a ebbd 75b6 70bc
00000120: c13e d2bc 46e0 3a3d 1ddd 493b 87bb b0bd
00000130: dfae 85bd 8956 ee3c 6b1b 1c3d 65bc d8bc
00000140: 2e1a 7bbd d988 77bd 1e57 ecbb d82c 20be
00000150: b645 fdbc 3cfd 31bd dd61 9cbb dbb6 a83c
00000160: dc2f 5ebd cd01 efbc bbce 6d3c dff7 043d
00000170: fff9 89bd 639a f7bd c5c1 3cbd 2c05 933b
00000180: 90b7 67bd 939e 85bd 524d 32bd 0c70 023d
00000190: 1432 cbbc 2141 4fbc 2834 69bd 8796 27bc
000001a0: 60ca a5bd a61c babc 5ec0 0e3d 2e70 febb
000001b0: 0cfb f3bc d482 3bbd 3632 0038 6978 c7bd
000001c0: 0e1c 763d 30e5 b5bd bf35 06bd dda9 31bd
000001d0: f335 cebd a447 9b3a aa2a bdbd b384 89bc
000001e0: c3c7 76bd 87a8 1ebd 6f4a 3ebd c46f b6bc
000001f0: 3571 e4ba e154 e0bc 7309 95bd 67c0 04be

network_body.linear_encoder.seq_layers.2.weight f4 [128, 128]
-0.14967737 0.18647665 0.07289794 0.15760297 -0.17735645 0.10109022 -0.03728908 0.16992301
0.14229959 0.10376351 -0.097954415 -0.18475759 0.100307785 0.0052621346 0.1798428 0.054676693
0.13156973 -0.013008445 0.0820259 -0.115763694 0.18963648 -0.16024727 -0.14864093 0.15262884
-0.049252782 0.04514931 -0.18645898 0.0063025462 0.032607302 0.4063585 -0.0038187457 0.019983506
0.03712085 -0.11177949 0.047652755 0.027268237 0.057025444 0.13082662 -0.20624667 -0.269448
0.20204963 0.02449929 0.21713853 0.060627665 -0.02621075 0.17242213 -0.12804228 0.07893191
0.19142427 0.24705566 -0.14488076 -0.2836514 0.09145454 0.0329712 0.14019795 0.16647571
0.11759845 -0.113684304 -0.19500615 -0.068409346 -0.13330793 -0.14618047 0.07218036 -0.11566753
-0.07508809 0.10091627 0.05586742 0.11145194 0.041719597 -0.038223512 -0.13877569 0.057796527
-0.13625872 -0.30459028 -0.1800662 0.16791442 0.15359807 -0.015074823 0.04334463 -0.055628486
-0.18686536 0.11706071 0.021824265 0.049631756 -0.20163393 -0.11672636 0.23704205 -0.031095585
0.104774214 0.068279475 -0.0037014799 -0.32348296 0.1724818 0.020536868 -0.21563545 0.14930801
-0.055880733 -0.01894697 0.021807035 -0.124716796 0.04259114 0.03551581 0.27920654 -0.0004160883
-0.054541852 -0.05032084 0.008122247 -0.0052581294 -0.00419398 -0.034973685 -0.05940578 -0.106024794
-0.011295792 -0.17480572 0.020820253 -0.12581843 0.08493257 -0.013609344 0.07910032 0.14052327
-0.06507198 -0.03212817 0.049073536 -0.11552876 -0.23271117 -0.098425694 -0.0035569458 -0.17520314
0.09856542 -0.17399672 -0.14577603 0.05773262 0.03685925 0.18414657 0.030649304 -0.02913225
-0.027028833 0.18405797 -0.037071384 -0.3001806 0.21877357 -0.06498695 0.013779999 -0.218011
-0.00025821003 0.058943156 -0.13523538 -0.28900528 0.19723138 0.06361841 -0.018118149 0.11526579
-0.13976197 -0.07578289 0.18863066 -0.23403266 -0.07320243 0.12227973 -0.13851756 0.015784662
-0.14446287 0.11638378 -0.12077052 0.2514461 -0.06962918 0.1148905 0.15310945 -0.16885984
0.23973805 0.03138715 0.02035935 0.01567837 0.09176042 -0.07768069 0.0461248 -0.06672355
0.13834968 -0.0492551 0.03222006 -0.09007649 -0.09672529 0.08538984 0.21169688 0.0920139
0.0837368 0.13259813 -0.11438865 -0.098241575 0.0335827 -0.40219152 -0.0507628 -0.1118722
0.11716328 -0.0900743 -0.089218095 0.14306569 -0.25968793 0.114438474 -0.20827402 0.054917842
0.017448232 0.1449743 -0.18376741 0.14379996 0.12182551 -0.09507395 -0.007461913 -0.015735269
-0.11463951 0.11153468 -0.104128085 0.005991824 0.041287974 -0.16414467 0.038268667 0.0083604595
0.14987837 -0.10647649 -0.0638983 -0.14301853 0.090114735 -0.014022719 -0.018323971 0.02179823
-0.06934969 -0.12645206 -0.07301828 -0.18236616 -0.02294338 0.12206515 -0.10308443 -0.048324857
0.12811436 -0.0057101334 0.0056797774 -0.2078251 -0.10603122 -0.2636611 -0.15324569 -1.8519953e-05
-0.17399624 0.085324004 -0.023161462 -0.12071906 0.013735556 0.021266256 0.16560808 0.18878967
0.011743328 0.113828085 -0.04684248 0.04190191 -0.08284409 0.17135459 -0.26424754 -0.017784033
00000000: 0645 19be bcf3 3e3e 844b 953d ac62 213e
00000010: ee9c 35be 6408 cf3d 6fbc 18bd 4c00 2e3e
00000020: fcb6 113e f781 d43d 539c c8bd 1831 3dbe
00000030: 2b6e cd3d fc6d ac3b b628 383e abf4 5f3d
00000040: 37ba 063e 5f21 55bc 32fd a73d 8415 edbd
00000050: 1130 423e dc17 24be 5435 18be bc4a 1c3e
00000060: 49bd 49bd 7cee 383d 1aef 3ebe 9785 ce3b
00000070: 3c8f 053d 390e d03e ec43 7abb 73b4 a33c
00000080: 080c 183d a5ec e4bd 892f 433d a361 df3c
00000090: 8393 693d 6af7 053e 5432 53be 17f5 89be
000000a0: 19e6 4e3e bcb2 c83c 9059 5e3e b754 783d
000000b0: edb7 d6bc 6d8f 303e 841d 03be 0ea7 a13d
000000c0: b904 443e 29fc 7c3e 9f5b 14be c23a 91be
000000d0: 854c bb3d cf0c 073d 0d90 0f3e 9c78 2a3e
000000e0: 75d7 f03d 51d3 e8bd b1af 47be 331a 8cbd
000000f0: e081 08be 55b0 15be 4cd3 933d 19e3 ecbd
00000100: c9c7 99bd 30ad ce3d 3cd5 643d ea40 e43d
00000110: 2be2 2a3d 4290 1cbd 371b 0ebe 0dbc 6c3d
00000120: 6887 0bbe 42f3 9bbe 4663 38be c2f1 2b3e
00000130: d048 1d3e 64fc 76bc 248a 313d b2da 63bd
00000140: a259 3fbe 87bd ef3d cdc8 b23c ab4a 4b3d
00000150: 2079 4ebe 3b0e efbd 27bb 723e 2bbc febc
00000160: dd93 d63d 1cd6 8b3d 8794 72bb 8f9f a5be
00000170: 129f 303e ef3c a83c 8acf 5cbe 33e4 183e
00000180: 32e3 64bd ad36 9bbc aba4 b23c 856b ffbd
00000190: 0c74 2e3d 0779 113d 29f4 8e3e 6d26 dab9
000001a0: 4767 5fbd 3a1d 4ebd 2c13 053c 634c acbb
000001b0: a76d 89bb 9140 0fbd 7a53 73bd 8723 d9bd
000001c0: fc11 39bc 4500 33be 3c8f aa3c 8cd6 00be
000001d0: 21f1 ad3d baf9 5ebc 59ff a13d 55e5 0f3e
000001e0: 7544 85bd d498 03bd 5501 493d 589a ecbd
000001f0: d64b 6ebe 6993 c9bd a61b 69bb 7468 33be
00000200: abdc c93d 322c 32be 5046 15be 0a79 6c3d
00000210: baf9 163d eb90 3c3e 4014 fb3c c2a6 eebc
00000220: 926b ddbc b179 3c3e 2ad8 17bd 46b1 99be
00000230: 2e06 603e e117 85bd 81c5 613c 473e 5fbe
00000240: 5d60 87b9 616e 713d 257b 0abe 80f8 93be
00000250: 06f7 493e 5e4a 823d 836c 94bc 7810 ec3d
00000260: c31d 0fbe 0f34 9bbd 6528 413e 42a6 6fbe
00000270: 28eb 95bd cc6d fa3d 8cd7 0dbe d64e 813c
00000280: 13ee 13be 9f5a ee3d 8956 f7bd 8bbd 803e
00000290: be99 8ebd b64b eb3d b9c8 1c3e 98e9 2cbe
000002a0: e47d 753e d08f 003d a7c8 a63c ed6f 803c
000002b0: e3ec bb3d 0e17 9fbd 5ced 3c3d 5ba6 88bd
000002c0: 8aab 0d3e b7bf 49bd 2ef9 033d 067a b8bd
000002d0: e917 c6bd dee0 ae3d 11c7 583e c971 bc3d
000002e0: 337e ab3d cec7 073e 9944 eabd e132 c9bd
000002f0: 038e 093d 0cec cdbe a7ec 4fbd 411d e5bd
00000300: 4df3 ef3d e078 b8bd fab7 b6bd d07f 123e
00000310: d1f5 84be b85e ea3d c945 55be 88f1 603d
00000320: 98ef 8e3c 2574 143e 862d 3cbe 4c40 133e
00000330: a77f f93d 22b6 c2bd 1083 f4bb 40e7 80bc
00000340: 1fc8 eabd 4b6c e43d 1b41 d5bd 1057 c43b
00000350: 941d 293d 8a15 28be 9bbf 1c3d 4ffa 083c
00000360: b779 193e 5910 dabd 1ddd 82bd 7373 12be
00000370: 138e b83d 8cbf 65bc 271c 96bc 3492 b23c
00000380: 3607 8ebd a67c 01be 9c8a 95bd 32be 3abe
00000390: c1f3 bbbc 4bfd f93d ee1d d3bd 49f0 45bd
000003a0: 6930 033e 121c bbbb 6d1d ba3b 1ad0 54be
000003b0: e526 d9bd 96fe 86be 70ec 1cbe 4c5b 9bb7
000003c0: 122c 32be 5abe ae3d 1bbd bdbc 8e3b f7bd
000003d0: 190b 613c 9236 ae3c 2a95 293e 1452 413e
000003e0: 1667 403c b31e e93d e6dd 3fbd 56a1 2b3d
000003f0: 2aaa a9bd 9477 2f3e 744b 87be d2af 91bc
