results/MovingObstacles_LSTM_2layers_2/BasicAgent/BasicAgent-499978.pt (torch, 823239 bytes, 33 tensors)

network_body.linear_encoder.seq_layers.0.weight f4 [128, 130]
000000 18 26 0a be 72 8f 6d be 5d 67 0d be b8 14 6d bd
       -0.13491094 -0.23199251 -0.13808961 -0.057881087
000010 a6 7d 3c be 3e 23 9e be 93 68 f8 bd 7f b5 a7 bd
       -0.18407306 -0.30886263 -0.12129321 -0.081889145
000020 d8 dc 79 be 27 65 ba bd f2 b1 23 be cb c2 37 be
       -0.24400651 -0.091013245 -0.1598585 -0.17945401
000030 2c 4c 9f bd de bc a6 be 7e 70 cc be a4 20 7a 3b
       -0.077782005 -0.3256597 -0.39929575 0.0038166428
000040 19 39 81 be be d0 26 be dd 9d 93 3d 0c 66 4d be
       -0.25238875 -0.16290566 0.072078444 -0.20058459
000050 d2 4b c9 be 8a c4 f7 3d 7b 95 39 be 2b ae 7b be
       -0.3931566 0.12098034 -0.18123429 -0.24578159
000060 2b 00 24 3e 18 f1 5f be 3f ed d9 bd e3 6c 71 3d
       0.16015689 -0.21869314 -0.10640954 0.058941733
000070 89 b4 f6 bd 37 99 0c be 91 de cf bd d1 bb 1d 3c
       -0.12046153 -0.13730322 -0.10149873 0.009627298
000080 ef 07 9c be 22 10 c0 bd bb 92 9f 3d d1 af e7 bd
       -0.30474803 -0.09378077 0.077916585 -0.11312831
000090 d4 2c ef bd 52 2e 24 be 09 8c c4 3c 68 65 0e be
       -0.11678472 -0.16033295 0.023992555 -0.13905871
0000a0 e3 b0 9e 3d ad 12 a8 3d fd e7 fa 3b a4 60 38 be
       0.07748582 0.08206687 0.0076570497 -0.18005615
0000b0 0d c0 77 bd 2e 5a 19 be f3 9f ad 3d d2 0c b1 3d
       -0.06048589 -0.14975807 0.084777735 0.086450234
0000c0 35 53 43 be 2b 37 67 3d 49 82 33 3e 53 0c a4 bd
       -0.1907471 0.056449097 0.17530169 -0.08010163
0000d0 9c ce 14 3e 4c 25 0e bc 9f cc c6 be 4b 73 03 3e
       0.1453194 -0.008675884 -0.38827989 0.1283695
0000e0 9d 04 f9 3d 7b 17 95 be 20 21 82 3c 84 9a d6 3d
       0.12159083 -0.29119477 0.015884936 0.1047869
0000f0 c7 67 35 be 55 35 0a 3d dd 48 0b bc 3f a6 5a be
       -0.17715369 0.033742268 -0.008501259 -0.2135248
000100 63 a9 f1 3d 7f 25 8f 3e d7 77 5c be 08 c1 68 3d
       0.11799886 0.27958295 -0.2153009 0.056824714
000110 bf 0e 1b be 35 8b 84 be 2d 3f d7 3d 19 c3 1a 3e
       -0.15142344 -0.25887457 0.10510097 0.15113486
000120 e9 51 7f be e5 1f 93 3d 14 f1 bd bc f7 c4 a8 bd
       -0.2493359 0.07183818 -0.023186244 -0.08240693
000130 35 c0 12 3c ea 38 1c 3e 5d c2 0a be 73 07 a3 bc
       0.008956959 0.15256086 -0.13550706 -0.019901013
000140 da f7 61 be 4e ee ed 3d 5a 23 97 be 8f b0 bc bd
       -0.22067204 0.11617719 -0.2951916 -0.092133634
000150 84 81 2a be 84 80 08 3e 3d a3 91 be e1 7c e5 bc
       -0.16650969 0.13330275 -0.28444853 -0.028013648
000160 da 9f a8 be 34 a4 17 3e 9c d7 8d be 7f 51 15 3e
       -0.32934457 0.14808732 -0.2770356 0.1458187
000170 29 dd 8a be 5a 65 ba bd 0e 59 61 be 7f 9a dd 3d
       -0.27121857 -0.091013625 -0.22006628 0.108204834
000180 90 2b bf be 05 b5 04 3e a2 4f 1b be d7 e2 0e bc
       -0.37337923 0.12959678 -0.15167096 -0.008721075
000190 37 18 16 be 8e 9e 06 3c c9 97 e2 be 1b da ab 3d
       -0.14657675 0.008216513 -0.44256428 0.0839121
0001a0 59 79 a1 bd cb da 06 3d 3d 50 bd bd 90 f2 53 bd
       -0.07884473 0.0329235 -0.0924382 -0.051744998
0001b0 aa 59 06 be 52 db bc bd 92 04 87 be 31 e0 dc 3d
       -0.13120142 -0.092215195 -0.26370674 0.107849486
0001c0 e4 92 93 be 50 d4 da 3d 3f 29 b3 bd 11 5f 94 bd
       -0.28823006 0.10685027 -0.087481014 -0.07244695
0001d0 54 96 9f be ba aa 12 bd 7e 2a 73 be 6a 0f 90 3e
       -0.3116938 -0.03580735 -0.23746678 0.2813676
0001e0 84 e8 95 be 5c c6 0a be c1 6d 6b be 6b 9c 51 3c
       -0.29278958 -0.1355223 -0.22991087 0.012793641
0001f0 40 ce db 3c 47 1a cb bd d1 bb a9 3c de 8d 42 3c
       0.026831746 -0.099171214 0.02071944 0.011874644
000200 e2 55 8e 3e a6 51 fd bd e3 40 5a 3e de 8c 48 be
       0.27799898 -0.12369089 0.21313815 -0.19584987
000210 6e 13 20 be 0b 77 13 3e 9a 8d 83 be 82 ab 6c 3d
       -0.15632412 0.1440088 -0.2569397 0.05778075
000220 4f 45 0a 3d 25 2f 4a 3d c5 f9 89 be b6 6f 97 3c
       0.033757504 0.049361367 -0.26948372 0.018485885
000230 a5 a0 84 3d c1 fa 7f bd 52 11 55 3e 4c 3a 65 bd
       0.06475953 -0.062494997 0.20807388 -0.0559638
000240 6b a0 8b be 73 44 20 3e 7f 4b 66 bd 67 ef 31 bd
       -0.27270827 0.15651111 -0.056224342 -0.043441202
000250 c9 31 84 3e a2 28 49 be 25 07 49 be 9e 78 df 3d
       0.25819233 -0.19644406 -0.19631632 0.10911678
000260 43 42 73 3d 24 60 42 bd 80 2d 16 3e a6 a0 d6 3b
       0.059389364 -0.047454968 0.14665794 0.0065499125
000270 df 0d c2 bd f4 8b 68 3d a3 ed 4d 3e 6c f0 3c 3e
       -0.09475302 0.056774095 0.20110182 0.18451089
000280 67 64 66 3e 93 7a 5a be 06 6f df bd a6 86 c0 be
       0.22499238 -0.21335821 -0.10909848 -0.3760273
000290 d0 99 88 3d f1 b4 ae 3c 43 fa 73 3e 21 f6 97 3d
       0.066699624 0.021326514 0.23825936 0.07419992
0002a0 c5 d6 0a 3e cc cf e9 bd b5 6f 21 bd f8 14 e3 3a
       0.1355849 -0.11416587 -0.039413173 0.0017324975
0002b0 bd d5 b4 bd 15 81 64 3e eb 4d 82 3d 44 c5 46 be
       -0.0882983 0.22314866 0.06362518 -0.19411188
0002c0 db 78 8b bd eb 60 71 ba f4 bc b1 bd 16 1d 19 3e
       -0.06810161 -0.00092078623 -0.08678618 0.14952502
0002d0 5a db 31 3d 09 3c e2 3d 7c 46 6e bd d4 ce 4f 3c
       0.04342208 0.11046607 -0.058172688 0.012683589
0002e0 f1 5c ba bd fb 4d 17 3e f2 6f d8 3d 09 6e 29 3e
       -0.090997584 0.14775841 0.10568227 0.16545881
0002f0 94 17 a6 bd b6 a0 2b 3d a5 8c 5e bd 26 06 3c 3e
       -0.08109966 0.041901313 -0.054333348 0.1836172
000300 ea 80 92 3d eb d6 cd 3e f7 f7 81 3d 51 9e d8 3d
       0.07153495 0.40203032 0.06346124 0.105770715
000310 6b 36 09 3e 01 ec 26 bb b0 1a 06 3e 6c 04 03 3e
       0.13399665 -0.002547026 0.13096118 0.12794656
000320 38 84 a0 bd e7 91 11 3e 28 cc 8f 3d f8 5b 5c 3d
       -0.07837719 0.14215814 0.070213616 0.053798646
000330 7a b3 a7 3c 43 8e 1f bf 91 5f af 3d 48 d9 f6 3d
       0.020471323 -0.6232645 0.0856315 0.12053162
000340 99 0c 07 bf 2a 4c 9b be b1 c0 1d be f9 e7 f2 bd
       -0.527536 -0.30331546 -0.15405537 -0.118606515
000350 4b 30 ed be 69 42 91 be 8c e8 cb 3b 1e c3 98 3d
       -0.46325907 -0.2837098 0.00622279 0.07459091
000360 a8 a6 ae be 38 e6 5a be 23 35 a4 bd fa 2e a0 3d
       -0.34111524 -0.21376884 -0.080179475 0.0782146
000370 79 7d 4d be d9 ef b2 3d fb 79 08 be b7 45 9e 3d
       -0.20067395 0.087371536 -0.13327782 0.07728141
000380 d6 82 f6 bd b6 5e 5e 3d 47 7c 03 be 43 ac 2d be
       -0.12036674 0.054289542 -0.12840377 -0.16960244
000390 ac de 70 be d1 69 92 3e f3 4a 75 bd 78 0e a9 bd
       -0.23522443 0.28596357 -0.05988593 -0.08254713
0003a0 f0 a5 fc bd a3 b2 22 be 6e 03 13 3e db 17 32 bc
       -0.123363376 -0.15888457 0.14356777 -0.010869945
0003b0 07 37 89 bd ff f3 02 3e 7c a0 93 3e 79 46 70 bd
       -0.06699949 0.1278839 0.28833377 -0.058660958
0003c0 1d 7a e5 3d 60 f4 8d 3b 8b 9a 7f 3e e9 45 ec 3a
       0.11204932 0.0043321103 0.24961297 0.0018026206
0003d0 48 98 15 bc 8a b0 43 3e 43 b1 b7 bd a5 a6 71 3c
       -0.009130545 0.19110313 -0.08969357 0.014749204
0003e0 0e ee e1 bd 48 44 1f be 5b 48 01 bd 14 2d 44 be
       -0.110317335 -0.15553391 -0.031563144 -0.19157821
0003f0 de c3 20 3c ea c8 23 3e 7a 2d 66 be c3 4e 70 bd
       0.009812323 0.15994611 -0.22478285 -0.058668863

network_body.linear_encoder.seq_layers.0.bias f4 [128]
000000 9d ed 25 bd f6 da 37 3d de 8d 3d 3d 47 e1 0f bc
       -0.04050981 0.04488655 0.046277873 -0.008781738
000010 38 19 99 3c f8 6b 13 bd 1a 10 1f bd 1a 96 41 bc
       0.018688783 -0.03599164 -0.038833715 -0.011815572
000020 27 b1 19 be 2d 2c aa bd 00 f4 1a bc 2a ec c2 3b
       -0.15008985 -0.08309207 -0.009457588 0.005948563
000030 75 25 df bd bc f3 85 bc 56 98 75 bc 6d 06 97 bc
       -0.10895816 -0.016351573 -0.014989933 -0.018435681
000040 7b 70 17 3c 5d 89 0e bc 7c 44 71 3c 4c 3a f7 3c
       0.009243126 -0.008699742 0.014725801 0.030179165
000050 fb 7b 5a bd a2 d6 e5 bb 6a ea ea bb 5a d5 0b bd
       -0.053340893 -0.0070141116 -0.0071690576 -0.034139015
000060 a2 39 55 bc 09 f2 a5 3b 46 55 94 3b 4f 68 78 3c
       -0.013014229 0.005064253 0.004526767 0.015161588
000070 64 ff f1 3c 9b 59 77 3b 58 aa 0e 3d e9 b6 e1 bd
       0.029540725 0.0037742618 0.03483042 -0.110212155
000080 b1 93 52 bd 80 a9 ca bc 0b 46 8d bc 63 4c dc bc
       -0.05141038 -0.024739027 -0.017245313 -0.026891893
000090 ce 5c 4b bb b6 be 7a bd 93 a1 09 be f9 20 29 b9
       -0.0031030658 -0.061217032 -0.13440542 -0.00016129379
0000a0 21 0b a4 3c 92 9e dd 3c 59 ec 37 3d fb 1e 21 bd
       0.020024838 0.027053151 0.044903133 -0.039336186
0000b0 71 d8 56 bd 05 88 07 3d 7e 44 03 be ae fa 43 3c
       -0.05245251 0.033088703 -0.12819096 0.011961622
0000c0 2a 59 30 3b ac 01 34 3c e3 3e f3 bd 17 05 14 3d
       0.0026908615 0.010986727 -0.11877229 0.036137667
0000d0 b9 c5 fe bc 40 38 97 3b 0a b2 dc bb 60 cc 4d 3d
       -0.03110014 0.00461486 -0.006735091 0.050243735
0000e0 8d 18 6e bd 1e 8f 4c bd 94 e0 56 3c de d3 69 bd
       -0.058128882 -0.049941175 0.013115067 -0.057086818
0000f0 d1 8e 88 bd 4e e2 17 3c 96 60 34 3d 75 c6 32 bc
       -0.06667865 0.009270264 0.044037424 -0.010911574
000100 03 1b e4 3c 5f 5f 47 3c 4e 28 ab bb 07 15 72 bd
       0.027844911 0.012168734 -0.0052233106 -0.059102084
000110 33 39 af 3c 0b 9d 01 3d c8 88 fb bc 64 78 b0 bc
       0.02138958 0.03164391 -0.03070487 -0.021541782
000120 20 40 4f bc 0c 36 8e 3b 5b e7 98 ba 39 09 b7 3c
       -0.012649566 0.004339939 -0.0011665629 0.022343265
000130 ad a0 21 be ce a3 92 bc 68 61 26 bc 9e 55 44 bd
       -0.15783949 -0.017900374 -0.010155059 -0.047933213
000140 c3 b4 2c bc 20 a9 b8 bd fc f4 83 bd ff 25 b1 bd
       -0.010541144 -0.09016633 -0.064432114 -0.08649825
000150 9a 64 87 bb f5 ac fd bc 46 38 fd bd 48 15 15 bd
       -0.0041318657 -0.030966261 -0.12364249 -0.03639725
000160 fd c9 2a be 86 fa b1 bc 8a eb 46 bd 61 d2 c2 3b
       -0.16678615 -0.021725904 -0.04856447 0.0059454893
000170 b2 e5 de bb 3a a9 55 bc 7c ea 5d 3b a8 61 e6 bd
       -0.006802284 -0.013040835 0.0033861687 -0.11249095
000180 00 ab a6 3a 3a ba 3b 3c f3 6c d4 bc 64 7c 69 bc
       0.0012715757 0.011457974 -0.025930857 -0.014250848
000190 b3 1a 93 bd d7 8f 06 be 19 b7 39 39 9a 89 26 bd
       -0.07182827 -0.13140808 0.00017711184 -0.04065857
0001a0 b2 92 de bd 90 d8 ac 3c 20 f4 e0 3c ab b9 3c bc
       -0.10867824 0.021099359 0.027460158 -0.011518876
0001b0 97 48 ca bd c0 29 1a 3d 2a f4 72 bc ea 81 01 bc
       -0.09877127 0.037637472 -0.014828721 -0.007904509
0001c0 b9 87 e0 3a 1a 3a 44 bc 1c 96 12 bd 74 85 9f 3b
       0.0017130292 -0.011976743 -0.035787687 0.004868204
0001d0 fb 09 f2 3c 91 13 66 bc c5 04 34 3c b9 26 30 3c
       0.029545775 -0.014042751 0.010987465 0.01075142
0001e0 20 92 91 3b f3 b3 5e bb 85 05 45 bd 98 21 26 bc
       0.0044424683 -0.003398177 -0.048100967 -0.010139845
0001f0 2c 36 5a bc 93 91 fb ba a4 e3 ab bc 7a b1 e0 bc
       -0.01331858 -0.0019193165 -0.020982571 -0.027428377

network_body.linear_encoder.seq_layers.2.weight f4 [128, 128]
000000 06 45 19 be bc f3 3e 3e 84 4b 95 3d ac 62 21 3e
       -0.14967737 0.18647665 0.07289794 0.15760297
000010 ee 9c 35 be 64 08 cf 3d 6f bc 18 bd 4c 00 2e 3e
       -0.17735645 0.10109022 -0.03728908 0.16992301
000020 fc b6 11 3e f7 81 d4 3d 53 9c c8 bd 18 31 3d be
       0.14229959 0.10376351 -0.097954415 -0.18475759
000030 2b 6e cd 3d fc 6d ac 3b b6 28 38 3e ab f4 5f 3d
       0.100307785 0.0052621346 0.1798428 0.054676693
000040 37 ba 06 3e 5f 21 55 bc 32 fd a7 3d 84 15 ed bd
       0.13156973 -0.013008445 0.0820259 -0.115763694
000050 11 30 42 3e dc 17 24 be 54 35 18 be bc 4a 1c 3e
       0.18963648 -0.16024727 -0.14864093 0.15262884
000060 49 bd 49 bd 7c ee 38 3d 1a ef 3e be 97 85 ce 3b
       -0.049252782 0.04514931 -0.18645898 0.0063025462
000070 3c 8f 05 3d 39 0e d0 3e ec 43 7a bb 73 b4 a3 3c
       0.032607302 0.4063585 -0.0038187457 0.019983506
000080 08 0c 18 3d a5 ec e4 bd 89 2f 43 3d a3 61 df 3c
       0.03712085 -0.11177949 0.047652755 0.027268237
000090 83 93 69 3d 6a f7 05 3e 54 32 53 be 17 f5 89 be
       0.057025444 0.13082662 -0.20624667 -0.269448
0000a0 19 e6 4e 3e bc b2 c8 3c 90 59 5e 3e b7 54 78 3d
       0.20204963 0.02449929 0.21713853 0.060627665
0000b0 ed b7 d6 bc 6d 8f 30 3e 84 1d 03 be 0e a7 a1 3d
       -0.02621075 0.17242213 -0.12804228 0.07893191
0000c0 b9 04 44 3e 29 fc 7c 3e 9f 5b 14 be c2 3a 91 be
       0.19142427 0.24705566 -0.14488076 -0.2836514
0000d0 85 4c bb 3d cf 0c 07 3d 0d 90 0f 3e 9c 78 2a 3e
       0.09145454 0.0329712 0.14019795 0.16647571
0000e0 75 d7 f0 3d 51 d3 e8 bd b1 af 47 be 33 1a 8c bd
       0.11759845 -0.113684304 -0.19500615 -0.068409346
0000f0 e0 81 08 be 55 b0 15 be 4c d3 93 3d 19 e3 ec bd
       -0.13330793 -0.14618047 0.07218036 -0.11566753
000100 c9 c7 99 bd 30 ad ce 3d 3c d5 64 3d ea 40 e4 3d
       -0.07508809 0.10091627 0.05586742 0.11145194
000110 2b e2 2a 3d 42 90 1c bd 37 1b 0e be 0d bc 6c 3d
       0.041719597 -0.038223512 -0.13877569 0.057796527
000120 68 87 0b be 42 f3 9b be 46 63 38 be c2 f1 2b 3e
       -0.13625872 -0.30459028 -0.1800662 0.16791442
000130 d0 48 1d 3e 64 fc 76 bc 24 8a 31 3d b2 da 63 bd
       0.15359807 -0.015074823 0.04334463 -0.055628486
000140 a2 59 3f be 87 bd ef 3d cd c8 b2 3c ab 4a 4b 3d
       -0.18686536 0.11706071 0.021824265 0.049631756
000150 20 79 4e be 3b 0e ef bd 27 bb 72 3e 2b bc fe bc
       -0.20163393 -0.11672636 0.23704205 -0.031095585
000160 dd 93 d6 3d 1c d6 8b 3d 87 94 72 bb 8f 9f a5 be
       0.104774214 0.068279475 -0.0037014799 -0.32348296
000170 12 9f 30 3e ef 3c a8 3c 8a cf 5c be 33 e4 18 3e
       0.1724818 0.020536868 -0.21563545 0.14930801
000180 32 e3 64 bd ad 36 9b bc ab a4 b2 3c 85 6b ff bd
       -0.055880733 -0.01894697 0.021807035 -0.124716796
000190 0c 74 2e 3d 07 79 11 3d 29 f4 8e 3e 6d 26 da b9
       0.04259114 0.03551581 0.27920654 -0.0004160883
0001a0 47 67 5f bd 3a 1d 4e bd 2c 13 05 3c 63 4c ac bb
       -0.054541852 -0.05032084 0.008122247 -0.0052581294
0001b0 a7 6d 89 bb 91 40 0f bd 7a 53 73 bd 87 23 d9 bd
       -0.00419398 -0.034973685 -0.05940578 -0.106024794
0001c0 fc 11 39 bc 45 00 33 be 3c 8f aa 3c 8c d6 00 be
       -0.011295792 -0.17480572 0.020820253 -0.12581843
0001d0 21 f1 ad 3d ba f9 5e bc 59 ff a1 3d 55 e5 0f 3e
       0.08493257 -0.013609344 0.07910032 0.14052327
0001e0 75 44 85 bd d4 98 03 bd 55 01 49 3d 58 9a ec bd
       -0.06507198 -0.03212817 0.049073536 -0.11552876
0001f0 d6 4b 6e be 69 93 c9 bd a6 1b 69 bb 74 68 33 be
       -0.23271117 -0.098425694 -0.0035569458 -0.17520314
000200 ab dc c9 3d 32 2c 32 be 50 46 15 be 0a 79 6c 3d
       0.09856542 -0.17399672 -0.14577603 0.05773262
000210 ba f9 16 3d eb 90 3c 3e 40 14 fb 3c c2 a6 ee bc
       0.03685925 0.18414657 0.030649304 -0.02913225
000220 92 6b dd bc b1 79 3c 3e 2a d8 17 bd 46 b1 99 be
       -0.027028833 0.18405797 -0.037071384 -0.3001806
000230 2e 06 60 3e e1 17 85 bd 81 c5 61 3c 47 3e 5f be
       0.21877357 -0.06498695 0.013779999 -0.218011
000240 5d 60 87 b9 61 6e 71 3d 25 7b 0a be 80 f8 93 be
       -0.00025821003 0.058943156 -0.13523538 -0.28900528
000250 06 f7 49 3e 5e 4a 82 3d 83 6c 94 bc 78 10 ec 3d
       0.19723138 0.06361841 -0.018118149 0.11526579
000260 c3 1d 0f be 0f 34 9b bd 65 28 41 3e 42 a6 6f be
       -0.13976197 -0.07578289 0.18863066 -0.23403266
000270 28 eb 95 bd cc 6d fa 3d 8c d7 0d be d6 4e 81 3c
       -0.07320243 0.12227973 -0.13851756 0.015784662
000280 13 ee 13 be 9f 5a ee 3d 89 56 f7 bd 8b bd 80 3e
       -0.14446287 0.11638378 -0.12077052 0.2514461
000290 be 99 8e bd b6 4b eb 3d b9 c8 1c 3e 98 e9 2c be
       -0.06962918 0.1148905 0.15310945 -0.16885984
0002a0 e4 7d 75 3e d0 8f 00 3d a7 c8 a6 3c ed 6f 80 3c
       0.23973805 0.03138715 0.02035935 0.01567837
0002b0 e3 ec bb 3d 0e 17 9f bd 5c ed 3c 3d 5b a6 88 bd
       0.09176042 -0.07768069 0.0461248 -0.06672355
0002c0 8a ab 0d 3e b7 bf 49 bd 2e f9 03 3d 06 7a b8 bd
       0.13834968 -0.0492551 0.03222006 -0.09007649
0002d0 e9 17 c6 bd de e0 ae 3d 11 c7 58 3e c9 71 bc 3d
       -0.09672529 0.08538984 0.21169688 0.0920139
0002e0 33 7e ab 3d ce c7 07 3e 99 44 ea bd e1 32 c9 bd
       0.0837368 0.13259813 -0.11438865 -0.098241575
0002f0 03 8e 09 3d 0c ec cd be a7 ec 4f bd 41 1d e5 bd
       0.0335827 -0.40219152 -0.0507628 -0.1118722
000300 4d f3 ef 3d e0 78 b8 bd fa b7 b6 bd d0 7f 12 3e
       0.11716328 -0.0900743 -0.089218095 0.14306569
000310 d1 f5 84 be b8 5e ea 3d c9 45 55 be 88 f1 60 3d
       -0.25968793 0.114438474 -0.20827402 0.054917842
000320 98 ef 8e 3c 25 74 14 3e 86 2d 3c be 4c 40 13 3e
       0.017448232 0.1449743 -0.18376741 0.14379996
000330 a7 7f f9 3d 22 b6 c2 bd 10 83 f4 bb 40 e7 80 bc
       0.12182551 -0.09507395 -0.007461913 -0.015735269
000340 1f c8 ea bd 4b 6c e4 3d 1b 41 d5 bd 10 57 c4 3b
       -0.11463951 0.11153468 -0.104128085 0.005991824
000350 94 1d 29 3d 8a 15 28 be 9b bf 1c 3d 4f fa 08 3c
       0.041287974 -0.16414467 0.038268667 0.0083604595
000360 b7 79 19 3e 59 10 da bd 1d dd 82 bd 73 73 12 be
       0.14987837 -0.10647649 -0.0638983 -0.14301853
000370 13 8e b8 3d 8c bf 65 bc 27 1c 96 bc 34 92 b2 3c
       0.090114735 -0.014022719 -0.018323971 0.02179823
000380 36 07 8e bd a6 7c 01 be 9c 8a 95 bd 32 be 3a be
       -0.06934969 -0.12645206 -0.07301828 -0.18236616
000390 c1 f3 bb bc 4b fd f9 3d ee 1d d3 bd 49 f0 45 bd
       -0.02294338 0.12206515 -0.10308443 -0.048324857
0003a0 69 30 03 3e 12 1c bb bb 6d 1d ba 3b 1a d0 54 be
       0.12811436 -0.0057101334 0.0056797774 -0.2078251
0003b0 e5 26 d9 bd 96 fe 86 be 70 ec 1c be 4c 5b 9b b7
       -0.10603122 -0.2636611 -0.15324569 -1.8519953e-05
0003c0 12 2c 32 be 5a be ae 3d 1b bd bd bc 8e 3b f7 bd
       -0.17399624 0.085324004 -0.023161462 -0.12071906
0003d0 19 0b 61 3c 92 36 ae 3c 2a 95 29 3e 14 52 41 3e
       0.013735556 0.021266256 0.16560808 0.18878967
0003e0 16 67 40 3c b3 1e e9 3d e6 dd 3f bd 56 a1 2b 3d
       0.011743328 0.113828085 -0.04684248 0.04190191
0003f0 2a aa a9 bd 94 77 2f 3e 74 4b 87 be d2 af 91 bc
       -0.08284409 0.17135459 -0.26424754 -0.017784033

network_body.linear_encoder.seq_layers.2.bias f4 [128]
000000 a4 f4 f5 bd 58 f8 01 be 3e ca 53 bd 56 34 e7 bd
       -0.12009552 -0.12692392 -0.051706545 -0.11289279
000010 52 f6 e8 bd 54 8f 2e 3b de 5f 9c bc 9c 13 bb 3c
       -0.11375107 0.0026635723 -0.019088682 0.022836499
000020 c8 a6 b3 bd ce da 7c bd 99 96 d0 bd 37 9e c2 bb
       -0.087720454 -0.061732106 -0.10184974 -0.005939271
000030 cf b9 61 bb cf ab 58 3b 26 80 b9 bc 21 f7 1a be
       -0.0034443026 0.003306139 -0.022644114 -0.15133335
000040 83 c5 d2 3c e1 fa d3 bd 50 d4 a9 bd 37 a4 06 3d
       0.025728947 -0.10350586 -0.082924485 0.03287145
000050 40 13 bf bd 64 01 0f be cd 52 ed 3a 3f a6 28 bd
       -0.093298435 -0.13965374 0.0018106342 -0.04117417
000060 a5 47 99 bd 3e cf 88 bd 7b fd 96 3d 16 5f d7 bd
       -0.07484368 -0.06680153 0.07372566 -0.10516183
000070 e6 07 a6 bd 51 2b 0c bc 43 9c af bd 78 56 3b 3c
       -0.08106975 -0.008555249 -0.085747264 0.01143419
000080 9d 38 dd bd 11 9f ac bc 0a ae ec bd 70 fa 6c bd
       -0.10801814 -0.021071943 -0.11556633 -0.057856023
000090 d4 69 91 bc b9 4a 5d bd 2b 75 5a 3c 70 e6 32 be
       -0.017750658 -0.05402634 0.013333599 -0.17470717
0000a0 cf 89 20 bd d2 77 a2 bd 23 07 4d bd 9f 8d 9a bd
       -0.039193925 -0.0793301 -0.050055634 -0.07546543
0000b0 24 e9 25 bd 34 27 59 bd 08 78 df bd d0 88 d2 bd
       -0.040505543 -0.053015903 -0.10911566 -0.10280001
0000c0 5e 33 0c be f9 c6 b3 bd 31 b9 85 3d 0c 90 8f bd
       -0.1369147 -0.087781854 0.06529463 -0.07009897
0000d0 0c b6 08 3d c9 63 04 be f6 66 4a bd 3b 91 20 3c
       0.03337674 -0.1292869 -0.049414597 0.009800251
0000e0 cb 3e 28 3d 8e 6d 2f bd 5f 73 75 3d a6 95 08 bd
       0.04107551 -0.04282909 0.05992448 -0.03334584
0000f0 dc 44 2c be 85 d0 02 bc 6e f5 c9 bc 97 35 b3 bd
       -0.16823143 -0.007984285 -0.024653163 -0.08750456
000100 b4 f6 cb 3b eb 71 f6 bd 71 01 7d bd 67 fd fa bc
       0.0062244777 -0.12033447 -0.061768953 -0.03063841
000110 e7 f8 ee bc 23 bb 02 3d f4 2a eb bd 75 b6 70 bc
       -0.02917142 0.03191675 -0.11482802 -0.014691939
000120 c1 3e d2 bc 46 e0 3a 3d 1d dd 49 3b 87 bb b0 bd
       -0.025664689 0.04562404 0.003080196 -0.08629518
000130 df ae 85 bd 89 56 ee 3c 6b 1b 1c 3d 65 bc d8 bc
       -0.06527495 0.029093998 0.038112085 -0.026457021
000140 2e 1a 7b bd d9 88 77 bd 1e 57 ec bb d8 2c 20 be
       -0.061304264 -0.060433242 -0.0072125336 -0.15642107
000150 b6 45 fd bc 3c fd 31 bd dd 61 9c bb db b6 a8 3c
       -0.03091703 -0.043454394 -0.0047724084 0.020595005
000160 dc 2f 5e bd cd 01 ef bc bb ce 6d 3c df f7 04 3d
       -0.05424486 -0.029175663 0.01451462 0.03246295
000170 ff f9 89 bd 63 9a f7 bd c5 c1 3c bd 2c 05 93 3b
       -0.06737136 -0.12089994 -0.04608323 0.0044867005
000180 90 b7 67 bd 93 9e 85 bd 52 4d 32 bd 0c 70 02 3d
       -0.056571543 -0.06524386 -0.04353077 0.031845137
000190 14 32 cb bc 21 41 4f bc 28 34 69 bd 87 96 27 bc
       -0.024804153 -0.012649805 -0.056934506 -0.01022876
0001a0 60 ca a5 bd a6 1c ba bc 5e c0 0e 3d 2e 70 fe bb
       -0.080952406 -0.022718739 0.034851424 -0.0077648377
0001b0 0c fb f3 bc d4 82 3b bd 36 32 00 38 69 78 c7 bd
       -0.029782794 -0.045779064 3.056434e-05 -0.09739763
0001c0 0e 1c 76 3d 30 e5 b5 bd bf 35 06 bd dd a9 31 bd
       0.06008535 -0.08881605 -0.0327661 -0.043374885
0001d0 f3 35 ce bd a4 47 9b 3a aa 2a bd bd b3 84 89 bc
       -0.10068884 0.0011846912 -0.09236653 -0.016786909
0001e0 c3 c7 76 bd 87 a8 1e bd 6f 4a 3e bd c4 6f b6 bc
       -0.0602491 -0.03873494 -0.046457704 -0.02227009
0001f0 35 71 e4 ba e1 54 e0 bc 73 09 95 bd 67 c0 04 be
       -0.0017428758 -0.027384223 -0.07277193 -0.1296402

action_model._discrete_distribution.branches.0.weight f4 [5, 128]
000000 df e8 02 3d d5 e1 8c bd 5e 78 b7 3b 5f 51 d3 bd
       0.031960364 -0.068790115 0.0055990657 -0.10318255
000010 4b 8c 5f be 70 ef 9e bc d7 2f 1b bb ba 23 ba 3d
       -0.21830861 -0.019401282 -0.0023679638 0.090888456
000020 04 1c da bd d5 33 2d bd 7d cb 86 3d 6c b2 58 be
       -0.10649875 -0.04228576 0.06581781 -0.21161813
000030 f8 be 48 3d 65 3d a8 3d e4 ca 9c 3d 2a 09 09 bc
       0.049010247 0.08214835 0.07655886 -0.008364001
000040 a0 ce f7 3d b8 e2 8d 3d 05 e9 98 3c 29 91 b5 3d
       0.120999575 0.06928009 0.0186658 0.08865578
000050 74 94 bd bd 72 0e 1c be 7f fb 60 bd ab 91 17 3d
       -0.09256831 -0.15239885 -0.054927345 0.037004154
000060 4a f3 84 bd b0 1e 7b bb ab 64 e6 3d 81 4a b9 bc
       -0.06491716 -0.0038317852 0.1124967 -0.022618534
000070 37 4b f5 3b 3f f7 df 3c fc 59 57 bd 91 70 2e bc
       0.007485773 0.027339576 -0.05257605 -0.010646955
000080 ab 12 fb 3c 47 cb 78 bd c5 ca 40 bd 8a 57 75 3d
       0.03064855 -0.060740735 -0.047068376 0.059897937
000090 c2 3b fe 3d 3f c1 9e 3d 18 53 54 3d 88 26 01 3d
       0.12413742 0.077517025 0.051837057 0.031530887
0000a0 b0 59 bc 3b 03 8b 4f bd d5 86 9b 3d 52 d8 b4 3b
       0.0057479963 -0.05066968 0.075940765 0.0055189515
0000b0 42 02 9f 3d a4 b6 98 3c a7 15 10 bd 68 21 d3 bc
       0.077641025 0.018641777 -0.0351769 -0.025772765
0000c0 e8 9b 53 be 0a 2c 26 bd 91 1e 01 be 0b 87 3d bd
       -0.20664942 -0.040569343 -0.12609316 -0.046271365
0000d0 2c 24 ce 3d cc b0 72 bd 09 74 15 be 49 8b 39 3d
       0.10065493 -0.059250638 -0.14595045 0.04529885
0000e0 06 88 93 3d a4 fc be bb be 74 40 be 24 1f b0 bd
       0.07203679 -0.005828457 -0.18794534 -0.085996896
0000f0 65 06 a4 bd ce 90 14 3d 71 ad 79 3c c8 3b b9 bd
       -0.08009032 0.03627091 0.015239106 -0.090446055
000100 f5 b2 61 bd 59 9b 51 3d cd b0 04 be 58 2d 97 3c
       -0.055102307 0.05117354 -0.12958069 0.018454239
000110 e5 71 91 3d 9e 59 4f 3d 9a db 7f bd 72 66 c3 3c
       0.07101802 0.050622575 -0.062465288 0.02385256
000120 ef b5 8b bd 66 de 42 3c 02 3d eb 3d 3a 2f 7a 3d
       -0.068218105 0.011893844 0.11486246 0.061080195
000130 ee c1 e4 bd 90 bb 5f 3d 92 59 8b bc 64 96 0f 3d
       -0.11169802 0.054622233 -0.017010484 0.035055533
000140 45 e0 92 bc 58 8b 68 bd 08 c7 1c 3d e1 5b 57 bd
       -0.017929206 -0.056773514 0.03827575 -0.052577857
000150 c0 3e 92 bd 73 5b 02 bc 2b e1 c4 bd 90 ca e7 3d
       -0.07140875 -0.0079563735 -0.0961326 0.113179326
000160 a6 9d 4f 3d 3d e7 da bd 8c 60 2d 3d 9d 9c 2f 3d
       0.050687455 -0.106886365 0.042328402 0.042873967
000170 d1 72 dc bd 17 9a f5 3c 1a 31 b0 bb 85 39 8d 3d
       -0.10764087 0.029980702 -0.005376947 0.068957366
000180 bb f6 1b 3d 6f f4 1f be a6 43 8a 3c d5 06 a3 3d
       0.038077097 -0.15620588 0.01687796 0.079602875
000190 86 bd 4e 3c 3c e4 9d b8 53 fe 51 3c be 54 57 bc
       0.012618428 -7.528855e-05 0.012816983 -0.013142763
0001a0 c8 4b 4a 3d b2 30 54 bd 94 bd 8c 3d 96 6d aa 3d
       0.049388677 -0.051804252 0.06872097 0.08321683
0001b0 ee 95 b7 bd 32 68 05 be f1 57 2a 3d f5 66 59 3c
       -0.08964144 -0.13028029 0.041587774 0.013269176
0001c0 3e 0e 39 3d 37 59 00 3c 5a 36 9e 3c 2c d0 93 3d
       0.045179598 0.0078337705 0.019313026 0.0721744
0001d0 b4 4f 4a bd a7 7f f3 3d 1e d6 43 bd e3 50 de 3d
       -0.049392417 0.11889582 -0.04781162 0.10855272
0001e0 dd 6c 67 bd 33 83 2e be ac ea b9 bd 7f 78 db bc
       -0.056500304 -0.17042236 -0.09077963 -0.026790855
0001f0 67 5e 8e 3d e0 28 af bd 8a 24 b5 bd b2 d5 5d bd
       0.069515996 -0.08552718 -0.0884486 -0.054158874
000200 73 16 f4 bd fb 89 45 3d ae 90 be bd e7 c4 aa 3c
       -0.11918344 0.04822729 -0.09304939 0.020845843
000210 32 d5 77 3d b3 73 d4 bd 63 01 8e bd b2 f1 63 3d
       0.060506053 -0.103736304 -0.06933858 0.05565042
000220 ad 89 a1 bd ce dc 5a bd 8c 66 11 bd 56 c1 71 3d
       -0.07887588 -0.053433232 -0.035498187 0.05902227
000230 df 50 f2 bd e6 9b 66 bd 28 3c 1a 3d 68 c3 a6 3d
       -0.11831831 -0.05630102 0.037655026 0.081427395
000240 cf 18 c6 bd b2 9b 55 bc c7 ee a3 3d 9e 21 73 3d
       -0.096727006 -0.013037609 0.080045275 0.05935823
000250 c1 ab d2 3d 3a 14 ce bc 0d 66 32 3b 19 7a e7 bd
       0.10286666 -0.02515613 0.0027221472 -0.11302585
000260 08 8c a8 3d a4 35 ff 3b 9d e6 c0 3d 3d a6 a9 bd
       0.08229834 0.007788377 0.09418986 -0.082836606
000270 3f 70 bd bc 27 f7 e7 3c 14 05 94 bd 85 3d ba 3d
       -0.023124812 0.028316094 -0.07227531 0.09093765
000280 91 37 8b 3d 5b c6 ac bd 10 ef 69 3d 12 13 2e be
       0.06797708 -0.08436271 0.057112753 -0.16999462
000290 61 0c 33 be 3b 5c 2b 3d 13 88 fc bd 34 41 4d 3d
       -0.17485191 0.041836005 -0.123306416 0.05011101
0002a0 2c 32 8b bd 2a 2b 82 3d 51 2d 85 3d ae 69 52 bd
       -0.06796679 0.06355889 0.06502784 -0.051370315
0002b0 9f 1c a3 3d 86 d2 24 bd fb 52 4f 3d 90 ba 48 bd
       0.079644434 -0.040239833 0.050616246 -0.049006045
0002c0 22 54 97 3d e8 27 de 3c e2 90 db 3d 4d 66 b9 bc
       0.07389094 0.027118638 0.107209936 -0.022631789
0002d0 f7 03 a4 bd dc 20 fd 3b 06 e7 96 3d 6b 2d d3 3d
       -0.08008569 0.0077248644 0.07368283 0.10311397
0002e0 67 43 e7 bd a9 1e 94 3d 6d 28 63 3e 33 6e 65 3d
       -0.11292153 0.072324105 0.2218339 0.056013297
0002f0 44 58 bb 3c f3 7f a7 3d ed 4c ef 3d 38 f5 da 3d
       0.022869237 0.08178701 0.11684594 0.10691303
000300 d8 cb fd 3c 1f 81 08 3d b4 26 d6 3d 7b 0e 04 3d
       0.03098099 0.033326264 0.10456601 0.032240372
000310 7c db d1 3d 1e 82 30 3e c4 3b 15 bd 23 d7 08 be
       0.102469414 0.17237136 -0.03643395 -0.13363318
000320 01 b0 cb 3d e8 27 3f 3e 74 cf dc 3c 9d c1 27 3d
       0.099456795 0.18667567 0.02695439 0.04095613
000330 4a 53 78 3d 4a 4c 2b 3e 14 00 ca 3d ee b0 04 be
       0.060626306 0.1672832 0.09863296 -0.12958118
000340 19 b2 ab bd 9d 45 b8 3d 5e 70 89 bd d1 1c 23 3c
       -0.08383579 0.08997653 -0.067108855 0.009955601
000350 fc 4d a2 bc e7 98 dd bd 25 ae db 3c 49 39 82 bd
       -0.019812576 -0.108201794 0.026816437 -0.063585825
000360 f6 29 c6 bd 70 70 58 3d 48 3e 9f 3d 17 2f 2e be
       -0.09675972 0.052841604 0.07775551 -0.17010151
000370 84 f4 d6 3c 90 85 a2 bd 94 50 a6 bd c7 f5 c7 3c
       0.026239641 -0.07935631 -0.08120838 0.024409188
000380 4a 57 f0 bd c5 17 8b 3d dc 9b d2 3d f8 00 1f be
       -0.11735399 0.06791643 0.10283634 -0.15527713
000390 ac 4b 0f 3d ed 9c 06 be a4 3b 9a 3d 6a e5 8a 3d
       0.034984276 -0.131458 0.07530907 0.067820385
0003a0 2f a6 14 3d 83 ae 65 3d 9f df 0f be d4 f0 2c be
       0.036291298 0.05607463 -0.14050148 -0.16888744
0003b0 56 96 ab bc 9d b6 bc 3d ee 5c 03 3e cf dd 3f bc
       -0.02094571 0.09214518 0.12828419 -0.011710598
0003c0 b2 b6 c0 3c cb fd 32 bd da 10 98 bd de ec bf 3d
       0.023524616 -0.043699067 -0.07425089 0.09371351
0003d0 c3 2d 45 3b 5b 2a e3 bd 5f 6b d4 3d 56 14 3d bc
       0.003008709 -0.11092063 0.10372042 -0.011540493
0003e0 72 46 27 b9 e6 35 67 bd 5e da 7a 3c 5d 69 ab bd
       -0.00015952604 -0.056447886 0.015310852 -0.08369706
0003f0 d2 24 23 be 4c b1 62 3d 11 78 8b bd 54 18 33 bb
       -0.15932015 0.055344865 -0.0681001 -0.0027327733

action_model._discrete_distribution.branches.0.bias f4 [5]
000000 ba 39 b3 3d 55 00 c0 3d 4b 47 46 be 9c 76 02 bd
       0.08751245 0.09375063 -0.19363134 -0.031851396
000010 55 1c a1 3b
       0.0049167075

critic.network_body.linear_encoder.seq_layers.0.weight f4 [128, 130]
000000 d9 d5 0f 3d 94 41 c3 3d 6b 4a b8 bd e4 da e8 bc
       0.03511605 0.095339924 -0.08998569 -0.028424688
000010 d5 19 b1 3d d7 0c 9b 3e 6b 04 3e bd cf 40 40 3e
       0.08647505 0.30283234 -0.046390932 0.18774723
000020 52 48 8c 3d a2 f9 4a be b8 2f 53 3e 0c d5 f2 3d
       0.068497315 -0.1982179 0.20623672 0.11857042
000030 0a d7 48 be d9 4a 6c 3e 3f 06 32 3e 06 e6 05 bd
       -0.19613281 0.23075427 0.17385195 -0.03269007
000040 11 cb 60 3d 84 29 24 3e e6 b2 7a be 3b 88 8e 3e
       0.05488116 0.16031462 -0.24482307 0.2783831
000050 b2 71 06 3e 35 e8 8d bd 9b c3 1c 3e 72 4c 0e 3e
       0.13129309 -0.069290556 0.15308993 0.13896349
000060 66 9d 33 be e0 db 50 3e 7e db 17 3e 12 ca 62 bd
       -0.17540511 0.20396376 0.14829823 -0.05536849
000070 87 a3 3b 3e b6 24 d5 3d 43 9d 00 3d 30 71 49 3e
       0.183241 0.10407393 0.031399976 0.19672084
000080 3e 50 55 3e 07 2e c6 3d 78 72 77 3d 41 e8 b5 3c
       0.20831391 0.09676748 0.0604119 0.022205474
000090 66 a3 aa bc 07 ec 1a 3d d8 1b 71 3e 80 b7 47 3e
       -0.020829868 0.03782275 0.23545778 0.19503593
0000a0 b2 9c 17 bd 5a 8a 13 3c 10 32 53 3d a5 71 1e 3e
       -0.03701467 0.009005154 0.051561415 0.1547304
0000b0 87 53 02 3e ce 30 d3 3d b4 dd 69 3e c7 59 fc 3d
       0.12727176 0.10312043 0.2283848 0.12321811
0000c0 75 f5 11 bd 54 37 0c 3e 09 a7 0c 3e e7 12 b7 3d
       -0.035634477 0.13692981 0.13735594 0.08939152
0000d0 55 79 74 3e cf 0f 57 3e 88 1f 46 3e 5b d9 0f 3e
       0.2387441 0.21002124 0.19347966 0.14047758
0000e0 e3 1d e9 3d ff ec d8 3d f0 ca 9f 3d 5e c7 01 3e
       0.113826536 0.105920784 0.07802379 0.12673709
0000f0 69 2b cc 3d f8 58 b2 3d 2e 3e 44 3e e8 e7 48 3e
       0.09969217 0.08708376 0.19164345 0.19619715
000100 07 df ab 3e 71 17 06 3d 88 43 c2 bd b9 38 37 bb
       0.33568594 0.0327372 -0.09485537 -0.0027957393
000110 6a 89 bb 3c 98 e0 19 3e f7 24 24 3e 86 91 d6 3d
       0.022892673 0.15027082 0.16029726 0.10476975
000120 8d f7 0c bd dd 9f 3b 3e 1e fb de 3c aa 4f 78 3e
       -0.03441577 0.18322702 0.027219351 0.2424914
000130 67 58 32 3e 7d cb 04 be 14 ec b3 3e 39 1c 07 3f
       0.17416535 -0.1296825 0.3514105 0.5277744
000140 8c 65 08 3e e4 09 72 be 87 5d 10 3f f3 03 e2 3e
       0.13319987 -0.23636585 0.5639271 0.44143638
000150 69 2d 88 3d 36 2d 9d 3e 90 f1 93 3e b4 08 26 3f
       0.06649286 0.30698556 0.28895235 0.6485703
000160 07 d0 c2 3e 5f 28 46 bd 2d 34 e5 3e 89 5a 1f 3c
       0.38049337 -0.048378345 0.4476637 0.009726175
000170 07 ef b6 3e a0 b2 d7 bd 66 81 9d 3e 8d 0d 4a 3f
       0.35729238 -0.10532117 0.30762786 0.78926927
000180 59 fe 8e 3e 91 7f 6b be eb a3 2c 3e cd a8 95 3e
       0.27928427 -0.22997881 0.16859405 0.29230347
000190 93 42 b1 3e ff 5a cb be 5d 5e f6 3e 49 a7 14 3f
       0.34621105 -0.39717862 0.48118868 0.58067757
0001a0 fd 0a d7 37 c7 3d 61 3c 6d 61 ca 3e 06 0a c4 3d
       2.5635114e-05 0.013747639 0.39527455 0.09572224
0001b0 d2 b4 60 3e 05 d1 bf bd ad 92 c4 3e 0f 72 be 3e
       0.21943977 -0.09366039 0.38393155 0.37196395
0001c0 bb 54 11 bd 38 60 07 3e fe 0c aa 3d ec 51 03 3d
       -0.035481196 0.13220298 0.08303259 0.03206055
0001d0 88 33 37 bd a5 3e d8 3b 11 09 1a 3e 9d 63 73 3e
       -0.04472688 0.0065992647 0.15042521 0.23768468
0001e0 16 bd 3b 3b ae 4b a4 3a 14 50 9a 3d ba 8c 7e be
       0.002864664 0.0012534761 0.07534805 -0.2485837
0001f0 20 69 2e 3b 25 13 45 be 85 70 60 3d 8e b4 1d 3e
       0.0026612952 -0.19245584 0.054794807 0.15400907
000200 d9 60 00 3f 43 7c ba be e2 e8 27 3d 8c c2 06 3e
       0.5014778 -0.3642293 0.04099358 0.13160151
000210 44 0f ee bd a4 17 4c be 34 73 d4 3d 91 43 82 bd
       -0.116240054 -0.19930893 0.10373536 -0.063605435
000220 17 b2 08 be 6d d2 8d 3e 1d 4c 83 3d e1 64 89 bd
       -0.13349186 0.27699605 0.06411002 -0.06708694
000230 91 53 f5 bd ba b9 50 be f9 4b e1 3d 86 d2 8a bd
       -0.1197883 -0.20383349 0.11000819 -0.067784354
000240 b3 4e e2 3d aa 89 7b be 56 e7 9a bc 29 aa d9 bd
       0.11050167 -0.24564233 -0.018909138 -0.106281586
000250 c9 2a 86 3e cf 19 d1 bc ff 7e 07 bd 62 fd 4f bd
       0.26204517 -0.025525002 -0.033080097 -0.050778754
000260 64 c8 c5 bd 42 a2 43 bd c1 c8 4e 3e 8a 26 82 3d
       -0.09657362 -0.047762163 0.20193769 0.06355007
000270 b1 dc 42 bc 6f c6 83 3d 4e f6 1b be b6 96 54 bd
       -0.011893437 0.064343326 -0.15230677 -0.05190154
000280 c7 15 f4 bc be d6 3b bd b2 c1 f1 bd f5 aa 72 3e
       -0.02979554 -0.04585909 -0.118045226 0.23698027
000290 21 0e b4 bd 98 f7 df bc 1f f8 76 3c e8 83 15 3d
       -0.087917574 -0.027339742 0.015073805 0.03650275
0002a0 e9 88 06 be 95 35 f0 3d e5 e2 4d be f0 fb 78 be
       -0.13138165 0.1172897 -0.20106085 -0.24314857
0002b0 b6 8c 96 be 2c 8f 14 bd 6f 0f d2 bd ea 0c ab 3d
       -0.2940423 -0.03626935 -0.1025685 0.083520725
0002c0 21 4b cf 3d cb 7c 6f be 4b 12 64 be cc 93 b3 3a
       0.101217516 -0.23387448 -0.22272603 0.0013700663
0002d0 44 c9 5a bd 3b 36 0e 3e 7a c1 6f bd ca 70 50 be
       -0.053414598 0.13887875 -0.058534123 -0.20355526
0002e0 22 54 bc bd 9a 2a 84 3d 2e 1c 62 3d ec 2c 5a 3e
       -0.091957346 0.06453438 0.055202655 0.21306199
0002f0 24 4f 82 bd 30 1e 77 bd d2 bd f1 be 49 e1 d4 3c
       -0.06362751 -0.060331523 -0.47215134 0.02598633
000300 d7 3a 60 3d 40 30 8f 3d 50 4e 84 3d 45 c0 59 be
       0.054743614 0.06991625 0.064602494 -0.21264751
000310 20 60 d9 be b4 d3 2f bd 21 46 ba bc 0a 4c 29 bd
       -0.4245615 -0.042926505 -0.022738518 -0.041332282
000320 2b 5d 59 be e2 0a 62 3d b8 94 47 bb e1 63 91 bd
       -0.21226947 0.05518616 -0.0030453634 -0.070991285
000330 1c a1 19 bd 53 1e 53 bf 21 dc a5 3e 43 44 4d be
       -0.03750716 -0.82468146 0.32394508 -0.20045571
000340 b9 ab e4 be f4 be 9f be 47 bb 0f 3e 0a 03 5b 3e
       -0.44662264 -0.31200373 0.14036284 0.21387878
000350 00 91 fe bd 3b c3 74 3e da dc ee be 22 89 15 bd
       -0.1243 0.239026 -0.4665287 -0.036507733
000360 29 2c 7d 3e b3 1f fc bd 9a a7 2c 3e 05 33 0f 3c
       0.24723877 -0.12310734 0.1686081 0.008740191
000370 77 00 09 be 10 2b 84 bc 4f fb 27 bd f2 df 6f 3e
       -0.13379084 -0.016133815 -0.04101115 0.23425272
000380 46 04 37 3e 96 6c 8d bd 14 f2 12 3e f2 8a bd bc
       0.17872724 -0.06905477 0.14350158 -0.023137543
000390 72 81 2d 3d f5 bf 09 3e 88 6e 8f 3c 5f 72 64 bd
       0.042359777 0.13452132 0.01750876 -0.055773135
0003a0 68 e4 8c 3d e7 68 84 be da e2 89 bc c2 67 58 bd
       0.068795025 -0.25861284 -0.016831804 -0.052833326
0003b0 9f 1a ff bd b5 a0 23 3e 5f c6 42 bd 31 19 ed 3d
       -0.124562494 0.15979274 -0.047552463 0.115770705
0003c0 0c 6e 0a bd f0 a2 23 3d 78 75 ae 3d 1f cc 0b 3d
       -0.033796355 0.03995031 0.08518499 0.034130212
0003d0 f8 2f 29 bd 46 c1 9d be 0c 4c 0b 3e 7d ec a5 3d
       -0.041305512 -0.30811518 0.13603228 0.08101747
0003e0 20 ac 08 be 5e bb 6e be 94 8f 7d bd 95 b8 98 3c
       -0.1334691 -0.23313662 -0.061904505 0.018642703
0003f0 76 d1 ff bd 0f ae c5 be 19 04 35 3e d8 66 2a 3c
       -0.124911234 -0.3860936 0.17677344 0.010400496

critic.network_body.linear_encoder.seq_layers.0.bias f4 [128]
000000 da 52 01 3e b1 32 90 bd 04 41 3d 3d bd 53 56 bd
       0.12629262 -0.070409186 0.04620458 -0.052325953
000010 78 34 e5 bc 69 6d 0f 3e 44 a8 26 3e 63 50 7a 3c
       -0.02797912 0.1400658 0.16275126 0.015277955
000020 e7 64 25 bb 18 92 2a bc cd d8 72 3d c7 a2 ef 3d
       -0.0025237144 -0.010410808 0.05928879 0.11700969
000030 da ea 49 3c 4d ea bd bc 38 fa b2 3d 8d b3 02 3c
       0.012324059 -0.023183012 0.08739132 0.007977379
000040 2d 24 28 3b e4 af b8 3c ed 71 94 3c 75 41 dd 3d
       0.0025656328 0.022544809 0.01812073 0.108035006
000050 e9 1a 95 3c c6 c7 1c 3d 58 35 e5 3c 1f 1e ab bc
       0.018201308 0.038276456 0.027979538 -0.020888386
000060 19 2f 31 3d 19 2f cd 3c 08 d1 39 3e 93 6d 74 3c
       0.043257806 0.025046872 0.18146145 0.014918703
000070 d5 2c 03 3e 01 e1 cb 3d b3 57 bb 3d b5 be 5e bc
       0.12810071 0.099550255 0.09147587 -0.013595273
000080 a0 50 d0 3d b3 c9 8c bd 2e 04 2d 3c 06 5b c8 3d
       0.10171628 -0.068744086 0.010560079 0.09782986
000090 c6 d3 6c 3d d4 e0 ae 3c f0 76 24 3e 02 4a 40 bd
       0.05781915 0.02134744 0.16060996 -0.04694558
0000a0 2d 62 54 3d 5c 18 bc bd 35 a2 98 3d 60 86 49 bd
       0.05185144 -0.09184334 0.074528135 -0.049200416
0000b0 64 79 92 3c 8c 0e c3 bc 78 07 36 3d a9 59 8a bb
       0.01788015 -0.023810647 0.044440717 -0.004222114
0000c0 bb 8f 23 3d d1 53 35 bc 41 b8 8f 3b a3 df 1d bd
       0.039931994 -0.011067347 0.0043859784 -0.038543355
0000d0 5b 42 4c 3c 95 6c 64 3e 81 f1 1f 3e 36 80 15 3d
       0.012466992 0.22307046 0.1561947 0.036499225
0000e0 b4 7f f8 3d 92 d9 0c 3d 13 61 f0 bc 99 69 8d 3d
       0.121337324 0.03438718 -0.029343164 0.06904907
0000f0 62 b2 0e 3d 83 c3 73 3d 55 a8 2b 3e 88 5a 84 3d
       0.034838088 0.059512626 0.16763432 0.0646258
000100 e4 08 b2 3d 5d 76 43 3c 4d 2a 2c 3d 17 93 d2 3d
       0.08693102 0.0119300755 0.04203253 0.102819614
000110 62 61 e6 3c f1 67 12 bd e4 0c 9b 3d 33 26 8b 3c
       0.028122608 -0.035743657 0.07570818 0.016985988
000120 d5 78 65 bb 34 c1 39 bd 7d 4a a8 3d 6f c6 21 bc
       -0.0035014648 -0.04535027 0.082173325 -0.00987397
000130 99 51 4f 3e 54 58 10 bd b3 8f 98 bb 8b 8d ad bd
       0.20245971 -0.035240486 -0.004655802 -0.08474263
000140 e6 a1 bf 3d 3f 10 99 3c 65 7f 1b bc be 17 cb bb
       0.093570516 0.018684505 -0.009490822 -0.0061978986
000150 b4 e2 cc 3d d2 d3 76 bd 0a 71 0d 3d be b4 db 3c
       0.10004178 -0.0602606 0.03453163 0.026819583
000160 0e 7d 06 3e f3 d6 c1 3b 45 2c a8 3d 3c 2f 97 3d
       0.13133642 0.0059155165 0.08211569 0.07382056
000170 f2 97 8e 3c 13 34 82 bd 55 3b c1 3d b9 48 13 3d
       0.017406438 -0.063575886 0.09435145 0.035958026
000180 d2 a8 fc 3c 3e 06 2b 3b 19 78 9e 3b 6c af 2a bd
       0.030842219 0.002609625 0.004836094 -0.0416712
000190 9d fe 9a 3c 0b dc 21 3e 51 b8 f3 bd d2 d3 28 3e
       0.018920237 0.15806596 -0.1190039 0.16487053
0001a0 5e 56 aa 3d cc 0f f4 bb b5 0c 38 3d dd 55 07 3c
       0.083172545 -0.007448172 0.044933993 0.0082602175
0001b0 47 53 cc 3d e6 04 cd bc 7b 69 cd 3d 7a 89 4a bd
       0.099768214 -0.02502675 0.100298844 -0.049447514
0001c0 c0 b7 14 3d f3 36 d5 bc f9 bc 00 3d 1f ac 45 3b
       0.03630805 -0.026027178 0.03143022 0.0030162407
0001d0 9b 85 28 3d ea 59 0b 3b 5c c0 eb 3d fb 96 a8 bc
       0.04114304 0.002126331 0.11511299 -0.020579806
0001e0 55 cc d7 3d 0e 98 8d 3b 43 cd 49 bd 87 2e 01 3e
       0.1053702 0.004321105 -0.04926802 0.12615405
0001f0 d1 27 cc 3c 6d 08 18 3e ba bf b8 3d f5 0d 90 bd
       0.02492133 0.14846964 0.09020944 -0.07033912

critic.network_body.linear_encoder.seq_layers.2.weight f4 [128, 128]
000000 98 90 21 be fa 5f 34 3e 0f 5d 09 be 91 e1 97 3d
       -0.15777814 0.17614737 -0.13414405 0.0741607
000010 53 de 2e be 7a 5d e7 3d c7 be 0b 3d d6 7b 95 be
       -0.17076997 0.11297126 0.034117486 -0.29196042
000020 3b 68 60 be 18 10 76 3e 3d b1 ee be 0b 61 6f 3e
       -0.21914761 0.24029577 -0.46619597 0.23376863
000030 42 73 1c 3b 31 ed 7b 3e e9 13 9a bd 17 d5 69 3e
       0.002387241 0.246022 -0.07523329 0.22835194
000040 e4 5b 21 3e 8f de ef 3d 0e 1b d1 bc 14 08 c0 bd
       0.1575771 0.117123716 -0.025525596 -0.09376541
000050 83 3f 0b 3e c4 c9 3a 3e 48 d4 22 3e 79 a3 46 be
       0.13598447 0.1824103 0.15901291 -0.19398297
000060 4f 0d 6f 3e cc 3d b4 3e 1b 7c 26 3d ac 84 71 be
       0.2334492 0.35203397 0.0406457 -0.23585767
000070 6f fd 42 3e cc 96 80 be 70 db 70 be 84 a4 70 3e
       0.1904199 -0.2511505 -0.23521209 0.23500258
000080 69 a4 5d 3e 38 d9 10 3e 0e d7 d5 bd 5e d6 9f 3d
       0.21644749 0.14145362 -0.10441409 0.07804559
000090 42 cb 5f 3e 5c 40 0c be c1 fb c3 be d4 f8 23 be
       0.2185488 -0.13696426 -0.3827801 -0.16012889
0000a0 82 6e 42 3e 20 45 89 3e d4 0f 87 be 65 7b e0 3e
       0.18987468 0.2681055 -0.26379263 0.43844143
0000b0 b2 65 e2 bd ec 7b c1 3e f2 95 ca be 83 3d 84 3e
       -0.11054553 0.37789857 -0.39567524 0.2582818
0000c0 ed 33 86 3d d9 9c 31 be 97 61 e5 bd 32 80 ee bd
       0.06552873 -0.17344989 -0.112002544 -0.11645545
0000d0 57 0c bb 3e d9 25 f4 bc 11 4c 53 be f6 31 63 be
       0.36532852 -0.029803203 -0.20634486 -0.22187027
0000e0 cf ba 0f bf af 7d 04 3e 66 b1 36 be 04 79 fc be
       -0.5614442 0.1293857 -0.1784111 -0.49311078
0000f0 d7 27 17 be f0 6c b2 3d d9 25 b2 bd 7c 02 b7 3d
       -0.14761291 0.087121844 -0.08698625 0.08936021
000100 f6 75 cc 3d 50 e5 a8 3e ac 5e 1a be 7a 34 76 bd
       0.09983437 0.32987452 -0.15075177 -0.06010864
000110 cc 2e 7f 3d 67 40 bd 3d f4 1d d3 bd 2c 35 cc bc
       0.06230049 0.092407994 -0.103084475 -0.024927698
000120 b1 7e a8 3e a5 d0 cf 3e d6 20 8b bb 07 7e b4 bd
       0.32909158 0.4058887 -0.0042458577 -0.088131
000130 0f 30 42 bb 2b 35 b4 bc 96 2c a8 bd 27 dc 2f 3e
       -0.0029630696 -0.021998009 -0.08211629 0.17173825
000140 7e e1 a3 be 4b b9 39 3e 88 3b 59 be 71 e4 a4 3e
       -0.32007974 0.1813709 -0.21214116 0.32205537
000150 5e 81 3e bf 17 1a ac 3e 4b 75 5b bd 78 ef 3b 3e
       -0.7441615 0.33613655 -0.053578656 0.18353069
000160 0b ec 68 be 70 c2 4b 3c ad 25 d1 bd 31 83 95 be
       -0.22746293 0.012436494 -0.10212264 -0.29201654
000170 32 ee 72 bd e8 45 6c 3d 11 31 51 be 69 a6 6f be
       -0.059309192 0.057683855 -0.20428874 -0.23403324
000180 a6 94 19 bd 97 3a a7 3e 4c 5d 31 be a2 89 c4 bd
       -0.037495278 0.32661888 -0.17320746 -0.09596564
000190 48 34 e3 bc bf 5d 1d be 2a 58 f7 3d 09 61 bc 3d
       -0.02773489 -0.15367793 0.12077363 0.091981955
0001a0 fc 4f 0f 3e d5 03 04 bf b8 30 cd 3d b2 da dc 3d
       0.13995355 -0.5156835 0.10019058 0.107839
0001b0 46 c2 f3 bd ba b9 d1 bc 7a a9 0a bf 0f 11 29 3d
       -0.11902289 -0.025601257 -0.5416485 0.041276034
0001c0 b7 57 90 be 36 57 91 3e 72 03 a7 3d 68 53 7c 3d
       -0.2819192 0.2838685 0.08154954 0.06160298
0001d0 ae e0 f8 3c 97 3e 54 3d b8 37 6c 3e a5 e3 89 3d
       0.030380573 0.051817503 0.2306813 0.06732873
0001e0 1d a9 a5 bd 4a a7 86 be 55 0d 04 3e 16 d9 0b be
       -0.080888964 -0.26299506 0.12895711 -0.1365703
0001f0 4d 88 c3 be c2 62 0e be 5b 3f 19 be 10 5f 89 bd
       -0.38189927 -0.1390486 -0.14965574 -0.06707585
000200 f6 cc 0d 3e 39 c4 90 bd da 61 29 3c 8f af af be
       0.13847718 -0.070686765 0.010338271 -0.34313628
000210 29 3e 11 3c 38 3a d7 3d ad ee d0 3d 7f a9 ec bd
       0.008864918 0.10509151 0.10201774 -0.11555766
000220 61 2c 2a be b1 50 8a be ab 20 91 3d f2 aa 13 bc
       -0.16618492 -0.27014688 0.07086309 -0.0090129245
000230 1b d8 6c be 55 57 95 3e 01 6e 91 3d d4 33 bc ba
       -0.23129313 0.29168192 0.0710106 -0.0014358708
000240 1e 31 2c bf f8 de fa 3d 51 54 8e 3c 3c 24 21 3e
       -0.67262447 0.12249559 0.01737419 0.15736479
000250 1a 62 58 3e 89 18 e5 be 33 81 83 3c bd c9 af 3c
       0.21131173 -0.4474528 0.016052818 0.021458501
000260 5f 05 ca bd cb 66 3f 3e db 74 b7 bd 7f 52 57 3e
       -0.09864306 0.18691556 -0.08957835 0.21027564
000270 91 3b 49 3e e0 59 7c be c7 37 89 bd d5 70 b9 3e
       0.19651629 -0.2464366 -0.06700092 0.36218897
000280 4e 32 77 be a3 9c 81 3e 1d f0 ce 3d e4 e9 18 bc
       -0.24140283 0.25314817 0.10104392 -0.009333108
000290 1b b0 8b 3e 26 a6 c8 3d a1 94 03 be a2 07 e9 be
       0.27282795 0.09797315 -0.12849666 -0.45513636
0002a0 52 02 a4 3d 18 77 84 be ee 0e 5e 3e 1e ee a2 3e
       0.08008255 -0.2587211 0.21685383 0.31822294
0002b0 36 19 ab 3e 1a 01 8d bd ed c7 ba 3e 21 da 80 be
       0.33417672 -0.06884976 0.36480656 -0.2516642
0002c0 af 0d 0d be 4a a4 41 3d e1 12 7a be c2 23 81 be
       -0.13774751 0.04727582 -0.24421264 -0.25222594
0002d0 4e 48 2a 3e 1c a0 97 3d a6 d7 ef 3d 77 38 8a bc
       0.16629145 0.07403585 0.117110536 -0.016872628
0002e0 f9 94 7d 3d 8e 79 05 bd 9b bb db bc 6f 41 be 3e
       0.06190965 -0.032586627 -0.026822856 0.37159297
0002f0 73 68 df 3d 28 c1 1c 3e d4 c4 81 3d bc 5e ba 3e
       0.10908594 0.15308058 0.0633637 0.36400402
000300 82 ad bb 3d f4 36 38 3e 7a b8 09 3d a9 66 a1 3d
       0.09163953 0.17989713 0.033623196 0.07880909
000310 f6 9d b7 bd 74 fa 78 3e 8b 0c 7d be e3 dc 84 3d
       -0.089656755 0.2431429 -0.24711816 0.06487443
000320 77 19 60 3e da 82 43 be 2f b1 20 be 75 a0 c4 3e
       0.21884714 -0.19092885 -0.1569259 0.3840367
000330 30 25 e7 3d e3 b7 99 be 3a 53 59 3e 18 7f c1 3d
       0.1128639 -0.30023107 0.21223155 0.09448069
000340 51 6b 35 3e ae ca 90 3d bc 8e 47 be ea 7f ef 3d
       0.17716719 0.07069908 -0.19488043 0.116943195
000350 39 2a 11 3e f2 59 a6 be d9 54 89 3d 84 fe 8f 3e
       0.14176263 -0.32490498 0.067056365 0.28123868
000360 9e 84 1e 3d 00 0d 59 3e df 18 a3 bd 29 d1 88 3e
       0.038700692 0.21196365 -0.07963728 0.26722077
000370 33 7c 8c 3e aa 88 0d 3e 93 49 23 3e 40 24 eb 3d
       0.27438506 0.13821664 0.15946035 0.114815235
000380 2e 02 8b 3e ce b9 a8 3e 64 ab 40 bd 0c de 2c be
       0.271501 0.32954258 -0.04703845 -0.16881579
000390 f9 fd 4c 3e de 70 0d 3d e0 de 64 be 0f 2f 1e 3e
       0.20018758 0.034531467 -0.22350645 0.15447639
0003a0 1c dd ea 3d 76 2d 00 3e c9 a7 c8 3c d6 69 7f be
       0.114679545 0.12517342 0.024494069 -0.24942717
0003b0 05 53 bb 3d 87 2b 8b be 95 c6 91 3e 45 ff f2 be
       0.09146694 -0.27181646 0.2847182 -0.4746038
0003c0 82 5a 04 be e4 ff 03 bf 81 bc 85 be 47 b8 18 3e
       -0.12925151 -0.51562333 -0.2612038 0.14914046
0003d0 fb 81 41 be 36 50 9d be 12 c8 5b 3e ef 36 5d 3e
       -0.1889724 -0.3072526 0.2146304 0.21602987
0003e0 16 3a 8e 3d 36 cb ee 3d fd 1b 9e 3d 8b d0 34 3e
       0.06944673 0.11659853 0.07720182 0.17657678
0003f0 40 83 87 3e dd 05 ac 3d 35 5c c9 3c 0f ce f9 be
       0.26467323 0.08399556 0.0245801 -0.48790023

critic.network_body.linear_encoder.seq_layers.2.bias f4 [128]
000000 6f a2 d6 3d 72 1d 0f 3e 54 ee 7b bd 4a 0e 5d 3d
       0.104802005 0.13976076 -0.061506584 0.053968705
000010 27 29 fc 3c 31 c8 d7 3d 97 41 45 3e 04 fd 80 3d
       0.030781342 0.1053623 0.19263302 0.06298259
000020 00 cf d6 3d 8b e8 3a 3d bd 6c 1d 3e bd b7 39 3e
       0.10488701 0.045631927 0.15373512 0.18136497
000030 8d 71 e1 3d db f5 af 3d d6 e3 2a bc 4d 53 ab 3d
       0.11007986 0.08591815 -0.010430297 0.08365498
000040 8c 62 04 3e 1b ea 2e 3d ad 22 16 3e b5 d5 c1 bc
       0.12928218 0.04270373 0.14661665 -0.023661474
000050 60 4c 95 bb 08 2b a4 3b 88 ef 20 3e 0a 26 b2 3d
       -0.0045562238 0.0050100125 0.15716374 0.086986616
000060 10 28 30 3a a9 79 96 bd a0 3c d2 3c 2b 6d fa 3b
       0.0006719837 -0.073474236 0.025663674 0.0076424084
000070 8f aa de 3d 54 06 3d bc 5b 0b ec 3c c5 42 0e 3d
       0.10872375 -0.011537153 0.028814008 0.034731645
000080 2e 82 ab bd d0 3a d1 3d 87 86 fe 3c 78 be 2d 3e
       -0.08374439 0.10216296 0.031070007 0.1696719
000090 ef 4f 05 bd 3c a0 11 3e 6c 39 e5 3d 97 42 83 3d
       -0.032546934 0.14221281 0.11192593 0.064091854
0000a0 17 9c cf 3d 0b 1f f5 3c ef 32 d2 3d 3b b6 e8 3c
       0.10137194 0.029922029 0.10263621 0.028407207
0000b0 4b 6b 75 3d 04 a7 8c bd af c8 ec 3d 2d 5a 9b 3d
       0.059916776 -0.06867793 0.11561715 0.07585559
0000c0 1e 99 60 3d e2 be 55 3d c1 4d 8d 3d bb 3b 6f 3d
       0.054833524 0.052183993 0.06899596 0.058406573
0000d0 b5 4b c5 3d 1b 88 57 3d f8 aa c2 bc 17 d4 38 3c
       0.096335806 0.052620035 -0.023763165 0.011281035
0000e0 67 89 be 3c be 65 d0 3d 43 4e 23 3e da 80 08 3c
       0.023258878 0.10175656 0.15947823 0.008331502
0000f0 08 a0 f9 3d f3 11 38 bd 53 96 06 3e 5d 2b 2f 3d
       0.12188727 -0.044938993 0.13143282 0.042765964
000100 c8 d7 ee ba e3 1e f7 3c b7 4d c7 3d 82 8a bd bc
       -0.0018222267 0.030166095 0.0973162 -0.023137335
000110 c9 ae 0b 3e 9b 50 08 3e 4e 8e 42 3e 77 36 90 bd
       0.13640894 0.13311999 0.18999597 -0.07041638
000120 c1 3b f1 3d 86 77 0a 3e 43 4b fe 3d c2 67 d4 3d
       0.11778975 0.13522157 0.12416699 0.10371353
000130 d8 19 14 3e ef 81 5f 3d a7 6d 35 3d 6e 96 74 bd
       0.14462984 0.054567274 0.044294026 -0.059713773
000140 11 3d a7 3d 61 a4 00 3d 11 6f 12 3d 0e 36 99 bc
       0.08165944 0.031406764 0.035750452 -0.018702533
000150 f2 1d 05 bc ed 41 31 bd 87 6a 7b 3e 22 01 ec bd
       -0.008124815 -0.043275762 0.24552356 -0.115236536
000160 eb 4c 28 3e 7e 52 91 3c 8a 35 18 3e 56 e4 a8 3d
       0.16435592 0.01773953 0.14864174 0.082466766
000170 ea 5b 9b 3d fc 08 99 3d 4e 41 81 3d 89 41 81 3d
       0.075858906 0.07472417 0.06311284 0.06311328
000180 98 8f bd 3d 8d 7f 85 3d f8 9e e7 3d 2e f7 b9 bc
       0.09255904 0.06518469 0.11309618 -0.022700872
000190 f9 cb e8 3d 8b 99 e2 bd 11 fe 98 3d 79 5f 85 3d
       0.1136703 -0.11064442 0.07470334 0.065123506
0001a0 36 7c 04 3e 5a e3 76 3d 54 d3 b9 3c ee 6c 90 3d
       0.12938008 0.060275413 0.022683777 0.07052027
0001b0 b0 20 0f 3e 28 3d a5 3d 28 a7 a0 3c 23 7d ed 3d
       0.13977313 0.08068305 0.019610956 0.115961336
0001c0 58 bb a6 3d 7c 1e 0b 3d 09 21 9b 3c 44 ed 71 3d
       0.08141202 0.03396462 0.01893665 0.059064165
0001d0 dd 09 9a bd 12 46 e5 3d 2b bd 0d 3d 4d 3a 0a 3d
       -0.075214125 0.111950055 0.034604233 0.033747006
0001e0 d6 a5 fa 3d 70 58 66 3d 21 24 0f 3d 81 92 97 3c
       0.12238662 0.056236684 0.034946565 0.018502476
0001f0 81 81 39 3d 94 5c 0f 3e 8e a0 84 3d 2a 01 02 bd
       0.04528952 0.1400016 0.06475936 -0.03173939
