results/Basic13/BasicAgent/checkpoint.pt (torch, 429767 bytes, 33 tensors)

network_body.linear_encoder.seq_layers.0.weight f4 [128, 2]
000000 b5 e1 2a 3f 0b c1 eb 3e 0f f0 3f bf 5b 52 84 3f
       0.6675065 0.46045718 -0.74975675 1.0337633
000010 b0 63 c7 be 0a b0 13 3f cb c9 84 3d d2 16 34 3f
       -0.38943243 0.5769049 0.064838015 0.7034732
000020 91 cc e6 3c cd b0 b3 bf c5 5a 85 3e fe fc 3f bf
       0.028173717 -1.403833 0.26045814 -0.7499541
000030 c5 2e ab bf e0 3a ce 3f c7 17 c9 3f 0e 0c b3 3e
       -1.3373648 1.6111717 1.5710381 0.34970134
000040 15 96 a9 be 16 ce 99 3c 23 fb e7 bf 75 30 3c 3f
       -0.33122316 0.018775027 -1.8123516 0.7351144
000050 c6 b7 b5 3e a5 cb 47 be 78 1d 74 be c3 67 45 3e
       0.3549177 -0.19511278 -0.23839366 0.19277863
000060 77 51 5f bf 9b 7f 0c 3e 28 82 57 3f 73 51 46 bd
       -0.8723368 0.13720553 0.8418298 -0.04841752
000070 70 7b 75 3f eb 02 df 3d 68 b0 0c 3f 6e dc 05 3e
       0.95891476 0.108892284 0.54956675 0.13072369
000080 43 05 40 bc b7 f5 65 3c b2 4b 75 3f 42 0a a4 bd
       -0.0117200045 0.014035634 0.95818627 -0.08009769
000090 cf 1d 95 be bd 02 cd be ec 7b 8e bc 83 b9 9c be
       -0.29124305 -0.40041152 -0.017393075 -0.30610284
0000a0 42 8a 81 3e 12 fa 9a bf c4 b2 57 bf 7e 01 0b 3f
       0.25300795 -1.2107565 -0.8425715 0.5429915
0000b0 85 e0 8a be ae 9f 5f bf ad c7 07 bf de 01 0d bd
       -0.2712442 -0.87353027 -0.53039056 -0.03442561
0000c0 95 22 39 3f 67 6b 8c 3e b8 c7 78 3f 0d 84 81 be
       0.72318393 0.2742569 0.97179747 -0.2529606
0000d0 51 06 62 bc 7b 22 87 bf 12 54 b4 3e 57 cc 82 3f
       -0.013795451 -1.0557398 0.3522039 1.021861
0000e0 63 9a 5a 3f a4 b0 34 be cd 84 4b bf 95 51 b9 3f
       0.85391825 -0.17645508 -0.7949951 1.4478022
0000f0 74 9b 35 3e 4e e0 21 3f 43 ed 6f 3d ef 3d b4 be
       0.17735082 0.63232887 0.05857588 -0.35203502
000100 e6 69 a3 bf d0 d5 14 3f 01 b3 49 3f 0a bf 32 bc
       -1.2766693 0.5813875 0.78788763 -0.010909805
000110 c8 d3 35 3f cb 98 17 bf d8 60 b1 be 37 9b 67 3f
       0.7102628 -0.5921752 -0.34644198 0.90471214
000120 17 21 43 3e 22 02 21 3f a8 ac 6f bd 4e c5 8a bf
       0.19055592 0.6289388 -0.058514267 -1.0841463
000130 32 5b 36 3f f8 54 9e 3f 92 38 ba 3e 0f e2 1b bf
       0.71232903 1.236968 0.36371285 -0.60891813
000140 0b 74 b5 3f 59 9f e3 be 9d d9 4c bf a4 32 b4 3f
       1.4176039 -0.4445751 -0.8001955 1.4077954
000150 de 80 3a 3f c8 be 94 3f 21 4c be 3d 2b aa 5e 3f
       0.72852886 1.1620722 0.09291864 0.86978406
000160 23 d2 aa 3e 77 7b 1e 3f 31 67 64 bf 41 fd ee bf
       0.33363447 0.6190714 -0.8921996 -1.8671037
000170 6e 47 17 bf ba dd a2 be 3f 8b 83 bf e1 88 fc be
       -0.5909337 -0.3180979 -1.027687 -0.4932318
000180 fd fd 3f bf 3f 1a 70 3f 5f 89 0c be 85 39 bf 3d
       -0.7499693 0.9379005 -0.13724278 0.09337143
000190 fd 55 d9 3f c5 2c a3 bf f3 8b fe 3d ec 6b 52 bd
       1.6979367 -1.2748038 0.12429037 -0.051372454
0001a0 40 e5 c7 3f 42 d6 93 3f c1 79 cd be 96 8f 83 bf
       1.5616837 1.1549761 -0.40131953 -1.0278194
0001b0 b5 3c 8c bf cd 5e 58 3f dd fa 86 be 3e 3b 35 bd
       -1.0956026 0.84519655 -0.26363268 -0.04424595
0001c0 c9 d1 6e 3f 30 ad 82 3c 8d 93 5a 3f 7c 74 43 bf
       0.93288857 0.015951723 0.85381395 -0.76349616
0001d0 e9 e9 ce be 76 48 e5 3e e5 46 4c be 8e da df be
       -0.40412834 0.44781846 -0.19948919 -0.43721431
0001e0 0f 3a 2f bd 20 73 43 3f d5 2d 84 bf d9 d0 ca 3e
       -0.04277998 0.7634754 -1.0326487 0.39612463
0001f0 1d 90 7d be 5d 23 52 3f 2e 7f 82 bf a1 d6 36 bf
       -0.24762006 0.8208521 -1.0195062 -0.7142125
000200 41 53 35 bf 48 91 0c bf 0f 18 c8 3e 02 fe a1 be
       -0.7083016 -0.5490918 0.39080855 -0.31639105
000210 79 32 b3 3d c4 77 92 bf d0 90 21 3d 7c ab e3 be
       0.08749861 -1.14428 0.039444745 -0.4446677
000220 fb 98 c2 3f 92 54 b8 3e 77 5f 50 bf bb ed 81 be
       1.5202936 0.36002022 -0.8139567 -0.25376686
000230 0f a8 dd 3e 16 bc fe 3e 16 8c 23 3f f7 e7 54 bf
       0.4329228 0.49752873 0.6388563 -0.8316645
000240 6a 92 2f bf 84 0b c5 3e 2d 5b 4a 3f ff 83 3a 3f
       -0.68582785 0.38485348 0.79045373 0.7285766
000250 2a 48 fa 3e a0 ff a6 be 1a 31 0f 40 2b 4d 08 be
       0.48883182 -0.326169 2.237372 -0.13310687
000260 cd 20 8e bf 7e 04 cb bd 48 56 59 bd c5 0a f5 bc
       -1.110376 -0.09912966 -0.0530608 -0.029912362
000270 df a2 29 bf cc 22 b9 bd f9 82 42 be b4 d8 6d 3f
       -0.66264147 -0.0903984 -0.18995275 0.9290879
000280 5e 36 58 3e ae ed 21 3f ab 79 9c 3c 09 44 76 bf
       0.2111449 0.63253295 0.019100985 -0.96197563
000290 c4 43 07 3f 8f a5 fe bf d8 99 88 3f ea 68 a3 be
       0.5283778 -1.9894274 1.0671949 -0.3191598
0002a0 e4 f6 22 3e c3 5d a2 be b2 39 d8 3f 93 37 ef 3e
       0.15914494 -0.3171216 1.6892607 0.46722087
0002b0 42 59 0c 3f c2 11 bd bf 70 2f c0 bd 30 66 04 3e
       0.54823697 -1.4771044 -0.09384048 0.12929606
0002c0 a7 10 0f bf c6 16 2c be 26 8a 6b bf 17 1f 8f 3e
       -0.55884784 -0.16805562 -0.9200767 0.27953407
0002d0 71 c5 6a 3e 0b c4 96 bd f1 05 05 bf d5 33 eb bd
       0.2292688 -0.07361611 -0.5196219 -0.114844956
0002e0 89 2c 14 bf 1f 95 47 3f e0 75 59 be cf 76 8c 3e
       -0.57880455 0.77961916 -0.21236372 0.27434394
0002f0 e5 c9 64 3f 15 94 e8 3e a9 26 5a 3f b6 51 9a 3e
       0.89370567 0.45425478 0.8521524 0.30140465
000300 c7 f9 01 3f 84 a2 b6 3d 25 5a a3 3c 48 b4 5a bf
       0.50771755 0.08917716 0.019940445 -0.8543134
000310 62 2d c6 be f4 66 d3 bb d6 ce 8c 3f ac 23 a9 bf
       -0.387065 -0.006451482 1.1000621 -1.3214011
000320 45 03 65 be 59 9f 4d be 2b 3f e2 be 9f 7f 7d bf
       -0.22364528 -0.20080318 -0.44188818 -0.9902286
000330 d9 bb 85 3e 6b 1a 93 be 21 83 31 3f 4f 8e 05 bf
       0.2611988 -0.28731093 0.6934071 -0.5217027
000340 a4 00 8b 3f 61 06 8d 3f e8 41 97 be f5 f0 1d 3f
       1.085957 1.1017572 -0.2954247 0.61695796
000350 c6 17 18 bf 14 72 2d 3e a4 23 f1 3d 26 f7 2f 3d
       -0.59411275 0.16938049 0.11774376 0.04296031
000360 ff 73 e2 be d6 e2 5a bd f1 d8 1b 3f 79 76 11 bf
       -0.44229123 -0.053438984 0.608779 -0.568214
000370 74 ab 59 3e d0 2f 11 3e 26 60 8d 3e 42 ab 81 3f
       0.2125681 0.14178395 0.27612418 1.0130389
000380 89 65 05 3f 9a ed 9d 3e 73 b1 72 bf 45 85 d0 3e
       0.52108055 0.30845338 -0.94802016 0.40726677
000390 37 1e aa bd 2b 69 3b bf b2 28 21 bf c3 2a 61 bf
       -0.08306544 -0.7320735 -0.6295272 -0.87955874
0003a0 e3 eb 08 3e 93 b8 38 3f 35 ac bf bf 85 50 9f 3f
       0.13371234 0.7215664 -1.4974428 1.2446448
0003b0 b9 1d 03 3f be 70 41 bf 99 9a 3d 3f 9c 21 62 3e
       0.5121723 -0.75562656 0.7406402 0.22083133
0003c0 99 71 25 3f 22 8d b0 bf d5 7d 59 bf 71 c3 d8 3e
       0.6462646 -1.379307 -0.8495763 0.4233661
0003d0 37 55 9b 3e c7 f7 b5 be 17 b6 48 3f 6c bd 48 3e
       0.3033845 -0.35540602 0.7840285 0.19603509
0003e0 24 7d 61 bf ad 91 f4 3b 4c 87 be be 4a a2 8a bc
       -0.88081574 0.007463655 -0.37212598 -0.016923089
0003f0 8d eb 95 3f 1b 92 98 3e 0e b4 41 bf c4 28 bd be
       1.1712509 0.2979897 -0.75665367 -0.36945164

network_body.linear_encoder.seq_layers.0.bias f4 [128]
000000 f9 17 cf b9 37 5c 14 bb 1a d5 88 bb 9c 43 23 39
       -0.00039499978 -0.0022637972 -0.0041757943 0.00015570078
000010 c0 34 dd 39 00 21 2c 39 0f 43 8e b8 3a be db ba
       0.00042191707 0.00016415492 -6.783578e-05 -0.0016765066
000020 74 66 f4 ba b2 73 2b 3a f5 41 c2 ba e8 78 3f 38
       -0.0018646256 0.0006540372 -0.0014820682 4.565055e-05
000030 9d 93 f5 3a 26 24 c2 3a f2 30 85 3a b1 30 ae 3a
       0.0018736009 0.0014811798 0.0010161682 0.0013289658
000040 46 75 7c b8 fa 2e 44 3a 64 29 f4 b7 a1 45 04 ba
       -6.01907e-05 0.00074838067 -2.910634e-05 -0.0005045776
000050 cc 3e 69 ba 89 d5 2c ba e8 30 15 bb 0b d7 b0 39
       -0.0008897602 -0.00065930985 -0.0022764746 0.00033729555
000060 4a d3 90 ba a2 f5 25 bb b4 a6 a1 b9 a3 c1 35 ba
       -0.0011049297 -0.002532341 -0.00030832516 -0.0006933456
000070 5f 99 ae b9 46 70 67 3a ee 54 ab b9 7f 18 19 bb
       -0.00033302137 0.0008828681 -0.0003267894 -0.0023360548
000080 8a 31 1b 3a 61 e5 66 b9 11 15 4d ba 3c 9b 8b b9
       0.00059201627 -0.0002201996 -0.00078232685 -0.00026627805
000090 20 38 ba ba 1d 15 ad ba dc 00 93 3a 74 9c 99 ba
       -0.00142074 -0.0013205145 0.0011215466 -0.00117196
0000a0 c4 48 6c 3a 6e ad e9 3a 5e 1b 09 3b f2 15 a2 3b
       0.00090135285 0.0017828175 0.0020920853 0.0049464637
0000b0 b5 61 ab bb 07 26 95 3a 96 79 c9 3a cc 0f 2e 3b
       -0.0052301534 0.0011379131 0.0015371318 0.0026559709
0000c0 64 21 cb b9 ae c9 4d b9 9e 99 b6 ba e5 cb 0a b8
       -0.00038744055 -0.00019625455 -0.001393128 -3.3091655e-05
0000d0 4b 00 28 ba 17 6f ac ba ea 22 8d 3a 71 eb be ba
       -0.0006408735 -0.0013155666 0.0010767851 -0.0014566017
0000e0 bb 69 05 ba 80 48 cf ba fa db 22 ba 31 56 c2 ba
       -0.00050893024 -0.0015814453 -0.00062125886 -0.0014826712
0000f0 83 37 2a 3b 6c b7 08 37 dc 17 b4 ba d6 23 51 3b
       0.002597303 8.148938e-06 -0.0013740021 0.003191223
000100 d4 a4 73 ba 5a 28 95 39 f2 01 0c ba e7 cf 25 ba
       -0.00092942757 0.0002844956 -0.0005340866 -0.00063252304
000110 8d 34 e7 ba d1 8a 1f bb 35 c4 21 bb d8 f8 03 3a
       -0.0017639563 -0.0024344216 -0.00246836 0.0005034334
000120 97 ff d0 3a 7c 38 cf 3a 08 36 97 ba 88 ef 65 b8
       0.0015945312 0.001580968 -0.0011536488 -5.4820935e-05
000130 e8 97 51 ba 83 d2 6b ba 9c 42 ae ba 4e ab f7 3a
       -0.0007995353 -0.0008995907 -0.0013294998 0.0018895657
000140 72 8c 66 ba 98 c6 3d ba 73 64 8e ba 46 c2 dd b9
       -0.00087947317 -0.00072393706 -0.0010863676 -0.0004229715
000150 e4 29 cf 39 b8 c8 48 ba a2 0a b8 b9 fd af 3a 3a
       0.00039513328 -0.0007659304 -0.00035103137 0.0007121561
000160 a7 e9 ca 39 3c 60 70 39 fc 60 8c 3a 9f 4a af 3a
       0.00038702527 0.00022924034 0.0010710056 0.0013373679
000170 b2 49 1c 3b 8a 48 b2 ba 5f 01 95 3a d0 78 ff ba
       0.0023847637 -0.0013601941 0.0011368206 -0.0019490961
000180 fd b1 fc 39 fe 0b bc 3a f0 a2 2f 3b 99 fd 47 ba
       0.00048197797 0.0014346836 0.00268 -0.00076290366
000190 da 35 49 b9 b9 74 37 ba 31 01 30 ba c0 f2 9e ba
       -0.00019188915 -0.0006998289 -0.0006714045 -0.0012126788
0001a0 6b 7c 02 3b 78 bc 54 bb 76 26 43 ba 24 ea 85 ba
       0.0019910585 -0.003246097 -0.0007444391 -0.0010216874
0001b0 da da f3 ba a2 87 ae b9 ae ff 7c 3a 9c d0 13 3b
       -0.0018604652 -0.0003328892 0.00096511364 0.002255476
0001c0 53 5f 30 38 75 55 3a b9 1f 49 84 ba c5 1b 32 bb
       4.2050448e-05 -0.00017770178 -0.0010092593 -0.0027177196
0001d0 cd 91 f6 3a 22 06 05 b9 bd 62 a5 ba 8a a8 b0 39
       0.0018811763 -0.00012686153 -0.0012617927 0.00033694907
0001e0 87 ea 84 ba 65 2d c3 39 a3 3d 01 39 db 4a 9c b9
       -0.0010140695 0.0003722712 0.0001232536 -0.0002981041
0001f0 1a fe 5b 3b 36 6c 67 3a c6 91 b5 b7 1e fb 31 bb
       0.0033568204 0.00088280754 -2.1644762e-05 -0.0027157734

network_body.linear_encoder.seq_layers.2.weight f4 [128, 128]
000000 f0 59 7d bd e3 78 25 bd 3c 15 1d 3e 91 de 8e bd
       -0.06185335 -0.04039849 0.15340132 -0.06976045
000010 c6 59 f1 bd 89 00 cd 3d 4a 6d 58 3d 10 47 e9 3d
       -0.11784701 0.10009868 0.0528386 0.11390507
000020 4f ea c5 3c a6 d1 ee 3d 53 27 1f 3e f5 9f a0 3d
       0.024159579 0.11661081 0.15542345 0.078430094
000030 00 ab e1 3d a8 fa ae 3c 78 5e 8b bd 80 ff be bd
       0.11018944 0.021359757 -0.06805128 -0.093260765
000040 4f d4 81 3d 8a 2a d1 3d 37 3b a4 3c b0 bc 5f bc
       0.06339323 0.10213192 0.020047767 -0.013655826
000050 6f ec a8 3d 4c b6 a8 3c b6 f5 f0 3d dd 1f de bc
       0.08248221 0.020594738 0.11765616 -0.027114803
000060 16 37 06 3e 89 43 34 3d 8d 90 5f bd 32 b4 81 3d
       0.13106951 0.04400972 -0.054581214 0.06333198
000070 0d 3f c3 bd 51 2f 92 bd 73 cb a9 3b f4 02 c2 bc
       -0.0953351 -0.07137931 0.0051817237 -0.023683049
000080 23 ed 5a bd da 8f c0 3d f7 8c 06 3d 8b 08 7f 3d
       -0.053448807 0.094024375 0.03284928 0.062264007
000090 7d 32 41 bd c5 04 4b bd 84 88 c4 3d 73 f4 4a 3d
       -0.04716729 -0.049565095 0.09596351 0.04954953
0000a0 b9 3a c6 bd 46 5f b7 3b 8a 7d 29 bd a2 17 55 3d
       -0.09679169 0.0055960743 -0.04137949 0.05202449
0000b0 84 39 8a bd 98 69 a4 bd d4 e1 a7 bd 88 8e b2 3d
       -0.067492515 -0.08027953 -0.0819737 0.08718592
0000c0 8b 02 58 3d f4 78 c8 3d 78 72 d0 3d d8 52 42 bc
       0.0527368 0.09788695 0.10178083 -0.011860572
0000d0 96 de 24 3e c8 33 c8 3d d4 42 cf bd c0 2e 02 3d
       0.16100535 0.097755015 -0.10120168 0.031782866
0000e0 80 a5 08 be 0f 9b bd 3d d4 7b 3c 3d f7 08 03 3d
       -0.13344383 0.09258091 0.04601653 0.03199097
0000f0 ab bb aa 3d db c9 13 3d a3 71 b4 bd 4d c4 d9 3d
       0.08336576 0.036081176 -0.08810737 0.106331445
000100 57 19 e7 bd 49 64 1b bd 73 3f 23 3e 2e d0 ea 3b
       -0.1128413 -0.037937436 0.15942173 0.0071659302
000110 dc c6 b8 3d 66 02 a4 bd 96 32 4c 3d 36 a0 d7 3d
       0.090223044 -0.0800827 0.04985293 0.10528605
000120 f6 be 5f be a7 18 de 3c 24 f8 10 3e 3a 20 2d 3d
       -0.2185019 0.027111365 0.14157158 0.04226706
000130 bd 01 80 bc b8 b7 93 bd 5f e0 08 3e 6c aa 13 bd
       -0.015625829 -0.07212776 0.13366841 -0.0360512
000140 b7 b3 2d 3d c9 49 e4 3d ca c5 21 bc 34 22 c2 bd
       0.042407718 0.11146886 -0.009873817 -0.0947918
000150 ee 16 e4 bd b9 bf d6 bd f6 64 d8 bc 1d e3 6c 3d
       -0.11137186 -0.10485787 -0.02641533 0.05783378
000160 69 aa 3d bc fe 78 16 3d 99 63 8c bd 64 71 d8 3d
       -0.0115762735 0.03673648 -0.06854934 0.105685025
000170 03 fe e7 3d 9d 95 4b be f8 9e 98 3d c2 55 08 3c
       0.11327746 -0.19881292 0.07452196 0.0083212275
000180 58 95 49 3d 1f e2 19 bd 02 f0 98 bc b8 de 94 3d
       0.04921469 -0.03756916 -0.018669132 0.07269043
000190 80 37 00 bb e6 85 87 bc fe 7b 24 3d 51 8c 4e 3e
       -0.001956433 -0.01654334 0.04015731 0.20170714
0001a0 5a c9 0c 3e 27 76 49 bd 40 ac c5 3c 52 d1 ad 3d
       0.13748685 -0.049184944 0.024129987 0.0848719
0001b0 c8 21 3b 3e ad 2d 0b be 82 66 5e 3c 73 6a b1 bc
       0.18274605 -0.13591643 0.013574244 -0.021657204
0001c0 9c a2 20 3b b6 07 52 3d 9e 5c 01 3e 8c 52 0a 3d
       0.0024510985 0.051276885 0.12632987 0.03377013
0001d0 44 c8 5b 3d 33 89 06 3e 9c 02 cc 3d 81 81 b6 bd
       0.053657785 0.13138275 0.09961435 -0.0891142
0001e0 99 a8 35 bd 41 97 d8 bd 5f ad 3e bd 61 73 0f 3c
       -0.04435024 -0.105757244 -0.04655206 0.008755536
0001f0 b4 17 b9 bd 23 10 1a bd de c3 12 3b db 0c c9 bb
       -0.09037724 -0.037613045 0.0022394578 -0.0061355657
000200 b5 0b 6b 3d 1d 95 15 bd 55 ab b2 bc 92 8f 77 3d
       0.05738421 -0.03651916 -0.021810213 0.060439654
000210 82 16 19 3c 14 97 04 3e c9 8e 5b bd b1 56 83 bc
       0.009343745 0.12948257 -0.053602967 -0.016032549
000220 08 60 11 be 12 f5 92 bd 06 fd b0 3b 22 0a b6 3d
       -0.1419679 -0.0717565 0.0054012565 0.088886514
000230 91 a1 1d bb 3d fd 9c 3c f9 8e c7 bc ed 43 17 3c
       -0.00240526 0.019163722 -0.024360167 0.009232503
000240 84 94 85 bc 1d 9c 68 3c 84 b7 07 be ee d7 47 bd
       -0.01630617 0.014197377 -0.132536 -0.04878991
000250 05 bb a1 bd 56 23 cf 3d 42 31 1e 3d 0f dd e6 bc
       -0.07896999 0.10114162 0.038621195 -0.02818158
000260 67 d8 00 3e 25 9c b7 3d 88 10 91 bc 1b 2b 1a be
       0.12582551 0.08965329 -0.017708078 -0.15055506
000270 b6 9e cc 3b 9d 09 c3 bc c5 36 60 bd f2 27 a2 bd
       0.0062445058 -0.023808295 -0.054739732 -0.07917775
000280 52 67 2a bd 47 03 ec bc 8e c9 aa 3c 82 1a ba 3d
       -0.04160244 -0.028810157 0.020848062 0.09087087
000290 5c 60 e3 bd 3c 09 00 be 4b 3c 96 3d 15 97 4e bd
       -0.111023635 -0.12503523 0.07335719 -0.05043705
0002a0 66 bf 1d bd d6 c9 d3 3c 6d b6 43 be ec 3f e4 3d
       -0.03851261 0.025853079 -0.19112559 0.11145005
0002b0 25 8e 45 bd f6 1e c7 bd 01 dd 91 3d 73 58 60 bc
       -0.048231263 -0.09722702 0.07122231 -0.013692963
0002c0 42 62 76 bd c0 d8 9c 3d 17 f2 1f bd 42 93 9a 3d
       -0.0601523 0.07658529 -0.039049234 0.075476184
0002d0 85 76 3a 3d 11 cc 04 3d e2 72 72 3d 2d 47 42 bd
       0.045523185 0.032421175 0.059191592 -0.04743116
0002e0 e0 03 9e 3d a4 97 ce bd 86 70 06 3e ac c2 56 3d
       0.07715583 -0.10087517 0.13128862 0.052431747
0002f0 5a c4 08 3d fa 41 2e 3e e2 a3 16 bd bf a0 96 bb
       0.03339038 0.17017356 -0.036777385 -0.004596799
000300 de d9 00 be 4f 28 44 bc 15 16 03 be 8c c3 6f be
       -0.1258311 -0.011972501 -0.12801392 -0.23414439
000310 e6 45 d4 3d 2c 62 59 bd 9e 1f 50 bc c2 66 92 3d
       0.103648946 -0.05307214 -0.012702851 0.07148506
000320 62 12 84 bd b8 8f d2 3d 12 bd d0 bd 55 42 3c bd
       -0.06448819 0.102813184 -0.10192312 -0.045961697
000330 d3 d9 ee bc f7 68 c3 bb f6 0e ef bd 99 e5 b0 3d
       -0.029156601 -0.0059634405 -0.116727754 0.08637542
000340 18 de 9d bd cf fe 4c 3c de 4b ce bd 63 ad 90 3c
       -0.07708377 0.012511923 -0.10073064 0.017660802
000350 07 4e 9b bc 0c 43 ac 3d b3 95 95 bb d5 32 3e 3d
       -0.018958105 0.08411226 -0.0045649647 0.046435196
000360 e0 d2 8b bc 7d e0 a2 3c c6 3d 2f bc df bc 51 3c
       -0.017068326 0.019882435 -0.01069588 0.012801378
000370 fe 9f 6b 3d e3 44 2e bd 49 a1 a3 3c f8 83 cd bd
       0.057525627 -0.042546164 0.019974368 -0.10034937
000380 cc 0d 1e 3e 16 6c 8c 3a 3b 24 29 3d 96 44 3f 3e
       0.1543495 0.0010713364 0.041294318 0.18678507
000390 39 10 be 3d 35 5c 84 bb 81 a8 ac bc d5 b4 f1 bd
       0.09280438 -0.0040393122 -0.021076443 -0.11802069
0003a0 7a 59 3b 3c 15 d1 13 3d ef 35 bc bc 5d 22 41 3e
       0.011434907 0.036088068 -0.022974936 0.18860765
0003b0 8a 45 4f 3c 56 86 0c bd e0 d5 a2 bd 11 c0 0a be
       0.012650857 -0.0343078 -0.0795095 -0.1354983
0003c0 98 8b 86 3d 87 bf 63 3d bc cd 94 bd ae 99 e4 bd
       0.06569594 0.055602577 -0.07265803 -0.111621246
0003d0 94 12 17 3d be ba bb bd 54 bf ac bd 70 ab 05 bd
       0.03688295 -0.091664776 -0.084349304 -0.0326342
0003e0 b6 3b 6e 3c 5a 9b 98 bd 38 ef e7 3c 7d ee 15 3e
       0.014540603 -0.07451506 0.02831231 0.14641757
0003f0 a7 b0 bf bd 70 aa a0 3d c9 ef d2 bd 3c 03 c3 3d
       -0.09359866 0.078450084 -0.10299642 0.09522101

network_body.linear_encoder.seq_layers.2.bias f4 [128]
000000 e7 01 1e ba 9d c5 42 bb 53 2a d0 39 e6 94 7a bb
       -0.0006027505 -0.0029719837 0.00039704386 -0.0038235723
000010 3d 62 b3 b9 39 b1 03 3a 19 a0 44 ba 0e 47 94 ba
       -0.00034214734 0.00050236617 -0.0007500663 -0.001131268
000020 42 2d 2c b9 bb 86 2b 3b e4 57 42 3a 23 1d 1b bb
       -0.00016420058 0.0026172835 0.00074136094 -0.002366849
000030 ea a2 4c ba 9b f9 8a b9 4f 41 11 3a c1 66 43 bb
       -0.00078062585 -0.00026507382 0.0005541043 -0.0029815885
000040 b7 5d 22 bb e2 52 18 ba ce b7 2e ba 21 6f 0f 3a
       -0.0024775097 -0.00058106903 -0.0006664962 0.00054715766
000050 bc 85 28 3a 75 e3 43 bb 2f 5c cc b9 a4 78 8c 3a
       0.00064286194 -0.0029890214 -0.00038978594 0.0010717106
000060 f4 0e 72 ba 59 de 64 39 ad 1b fc b9 20 d4 27 ba
       -0.00092337956 0.00021826605 -0.00048085806 -0.00064021535
000070 1f 2e 97 b9 79 4d 00 3a bd 5e 42 3b 64 fb b7 ba
       -0.00028835327 0.0004894357 0.002965852 -0.0014036712
000080 ae 46 50 ba f5 c0 31 3b 67 d8 3c ba c7 18 8c ba
       -0.00079451024 0.0027123068 -0.00072038773 -0.0010688537
000090 b7 4b 53 ba df a4 02 ba ea c0 90 39 f0 d3 fb b9
       -0.00080602936 -0.0004983674 0.00027609552 -0.00048032356
0000a0 22 34 99 ba 05 3b 3c ba ac 1e b6 3a 85 90 c3 ba
       -0.001168851 -0.00071804255 0.0013894639 -0.001492039
0000b0 b9 5a d4 38 36 3e 80 3a cf 38 d2 3a 0f e8 c1 b9
       0.00010125846 0.0009784165 0.0016038659 -0.00036984726
0000c0 53 12 34 ba 02 39 5f ba 73 58 a9 ba 38 95 bb ba
       -0.00068691856 -0.000851527 -0.0012920037 -0.0014311438
0000d0 8a 5d 50 3b f5 5c 8b ba 47 a9 8e ba 5f 10 07 bb
       0.0031794035 -0.0010632562 -0.0010884189 -0.0020609123
0000e0 56 a6 bb ba 64 0d 53 ba 4f 3f 68 3a 84 75 ef 39
       -0.001431654 -0.00080510066 0.00088595314 0.00045673188
0000f0 a1 fc bf b9 96 47 00 bb 60 42 04 b9 c3 bb 89 ba
       -0.00036618582 -0.0019573919 -0.00012613228 -0.0010508228
000100 86 25 72 ba 95 3b 3e 3b f4 94 7f 3b d5 79 69 ba
       -0.0009237159 0.0029027213 0.0038998695 -0.0008906399
000110 8e e5 64 bb b3 3c 1c b8 3c 5c df b7 6a 0c 99 ba
       -0.0034926864 -3.724983e-05 -2.6626622e-05 -0.0011676673
000120 1f 01 1e ba e6 78 bc ba 18 21 87 38 7e a7 e3 38
       -0.0006027389 -0.0014379292 6.443466e-05 0.00010855401
000130 26 35 3e ba 6a 10 ad 3a df af ac ba de 89 72 ba
       -0.00072558445 0.0013203744 -0.0013174972 -0.0009252111
000140 2f eb 02 ba 34 2f 59 3b a7 30 a3 ba 98 7d 3b 3a
       -0.00049941515 0.0033139708 -0.0012450413 0.0007152199
000150 12 f2 3c 3a 0a 1d 84 ba 8b d2 b0 ba 78 73 15 ba
       0.0007207702 -0.0010079455 -0.0013490481 -0.0005701105
000160 03 15 b0 ba d4 63 73 ba e7 f1 8b 3a 36 02 7e ba
       -0.0013433996 -0.000928459 0.0010676951 -0.00096896605
000170 2a 68 80 b9 69 60 17 ba f9 21 6d ba b2 a4 9e 38
       -0.0002449167 -0.0005774559 -0.0009045895 7.564704e-05
000180 b7 f5 a1 39 ee e9 6f 3a 74 d1 9f 39 3a 1d 33 3a
       0.00030891385 0.00091519847 0.00030482898 0.0006832663
000190 3f 3e 5f b9 3a 17 4a bb 8e 53 02 3b 01 26 fc b9
       -0.00021290126 -0.0030836598 0.0019886228 -0.000480935
0001a0 01 a5 8b ba f1 a4 8c ba 55 b2 b2 b8 d4 f1 85 3a
       -0.0010654033 -0.0010730309 -8.520918e-05 0.0010219165
0001b0 04 4b 93 b8 bd 0d e1 b9 9e 48 fa ba 85 cd 19 ba
       -7.023479e-05 -0.0004292558 -0.0019095128 -0.00058671116
0001c0 ce e9 66 ba 6e 5b e3 3a 8e fe 80 ba a3 a3 0f 39
       -0.00088086433 0.0017345974 -0.0009841488 0.00013698502
0001d0 d3 95 88 bb ba b4 10 ba ca 95 91 39 11 87 99 ba
       -0.004168251 -0.00055200944 0.00027768157 -0.0011713227
0001e0 df 6c 21 39 ba b5 8f ba ed ae a7 3a 49 5d f1 ba
       0.00015394714 -0.0010964193 0.0012793221 -0.0018414642
0001f0 db 39 0f ba 90 e4 03 39 ef c9 a9 39 e0 46 b9 b8
       -0.0005463638 0.0001257828 0.00032384644 -8.834689e-05

action_model._discrete_distribution.branches.0.weight f4 [5, 128]
000000 0b 34 1f bc 7f 5d 8a bb 59 5e 55 bc 52 26 7e 3b
       -0.009716998 -0.0042225714 -0.0130229825 0.0038780165
000010 7b d1 27 3a 51 45 ee bb 6c 22 fd bb 76 4a 5d 3b
       0.00064017595 -0.0072714468 -0.0077250507 0.0033766306
000020 7e 5c e2 3b a0 d2 98 3b 0f dc 8b bc ef 1a a6 3a
       0.0069079986 0.0046637803 -0.017072706 0.0012672822
000030 01 56 24 bc 47 be c4 bb 77 7b 09 3b 08 68 95 3c
       -0.010030271 -0.006004128 0.0020978132 0.018238083
000040 8b b4 d2 3b 46 9c 24 ba d3 1a 02 bc 31 4a 8b 3c
       0.006430214 -0.000627939 -0.007940966 0.01700315
000050 aa 47 fd b9 10 22 69 3c 8b 0a 43 3b 21 97 36 bc
       -0.00048309314 0.014229313 0.0029760923 -0.01114443
000060 09 bb 0d bb a7 7a b3 ba 6a 7d 94 bc 13 fc ef 3b
       -0.0021626374 -0.001369317 -0.018126208 0.0073237508
000070 22 2b 2f 3b 7a 57 de 3a 15 c5 7f 3b 33 f4 5d bb
       0.002672859 0.0016963326 0.0039027382 -0.0033867478
000080 8c 29 97 bb ee f7 b8 ba 17 25 a0 3c c4 cd 24 3c
       -0.004613107 -0.0014111975 0.019548936 0.010058824
000090 d6 89 4b 3a 1d d4 b8 3b d0 1e 5f bc c3 05 0c bc
       0.00077643746 0.0056405202 -0.013618186 -0.008546296
0000a0 64 8c 04 bc 1f b3 19 3c 33 03 b9 3b 4d cb 51 ba
       -0.008090112 0.009381085 0.0056461333 -0.00080030115
0000b0 31 2d 9f 3b f9 b4 40 bc b5 38 a7 3c 17 ec b5 3b
       0.004857682 -0.011761897 0.020412782 0.0055518257
0000c0 60 b6 09 3b ff 91 84 ba 76 a2 fc 3b 60 e7 bd 3b
       0.0021013245 -0.0010114311 0.0077097965 0.0057954043
0000d0 39 78 61 bc 05 93 bb 3a 08 65 0d 3c 0f 09 b2 3b
       -0.0137615735 0.0014310783 0.008630045 0.005433209
0000e0 14 91 a1 3b 64 31 49 bb 21 02 5a bb 8c 94 23 ba
       0.0049306247 -0.0030699605 -0.003326543 -0.0006240092
0000f0 42 7a e8 3b 5b 1e ce 3b c0 ed 4b 3c 0b 50 2b 3c
       0.0070946524 0.0062902397 0.012446821 0.010456095
000100 29 38 47 bc 01 37 b0 3b 6c 6b ef bb 91 16 37 bb
       -0.012159386 0.0053776507 -0.007306507 -0.0027937035
000110 1f 3e 0e 3b 50 ef 0d 3b 15 00 c7 bb b5 14 22 3b
       0.0021704508 0.0021657534 -0.006073008 0.002473158
000120 cd 4d 9b 3b de 90 23 bb a6 f3 4c 3c c2 4f 21 3c
       0.004739499 -0.0024958174 0.012509262 0.009845676
000130 6b 8a 00 3c 74 2e 8f 3b ea d2 04 3b 0d 54 ff bb
       0.007845501 0.0043695513 0.0020267316 -0.007792002
000140 ed 52 1c 3c 50 a2 d9 bb cd e7 a5 3b d9 6b 31 bc
       0.009541255 -0.0066416636 0.005063033 -0.010828936
000150 4c a7 0d bc 41 ba 68 3c 72 4f 44 3b 12 07 83 3a
       -0.008645844 0.014204563 0.002995458 0.0009996614
000160 19 4b a1 3b 46 46 71 bb 43 1e 21 3b 64 f9 73 bb
       0.0049222824 -0.0036815568 0.0024584688 -0.0037227506
000170 80 c5 3c 3a cd 6c 13 3c 7b 80 9e 3a 41 ff 42 bc
       0.00072010607 0.008998108 0.0012092734 -0.011901678
000180 25 fe 2e 3b 3e bd d1 ba 48 5a a7 3c fe 9e 34 3b
       0.0026701775 -0.0016001833 0.020428792 0.0027560587
000190 f8 57 1f bc f0 f4 05 bc b3 c9 23 bc bc 33 38 bc
       -0.009725563 -0.008176073 -0.009996819 -0.011242803
0001a0 56 af f4 39 30 92 6f bc 13 98 cd 3b 7e c6 ef 3a
       0.00046669942 -0.014622256 0.006274232 0.0018293408
0001b0 db 9b c7 bc d7 95 17 3b 51 b2 50 3c b9 40 b3 3a
       -0.02436631 0.0023130083 0.012737826 0.0013675905
0001c0 64 18 c2 b8 6d d5 f8 bb 7b 18 a2 bc 8f 3a 38 ba
       -9.255184e-05 -0.0075938017 -0.019787064 -0.0007027769
0001d0 cf c4 10 3c 7c 13 58 3c 29 57 70 bb 44 71 96 bb
       0.008835985 0.013188239 -0.0036673045 -0.004591139
0001e0 0e 9b 43 bb 1b 84 93 bb 95 f3 4a bc 58 91 82 bb
       -0.0029847058 -0.004501832 -0.012387176 -0.0039846115
0001f0 e8 69 f6 bb 9f 04 b9 3b e4 cb 9b ba a9 ff 87 3c
       -0.007519949 0.005646303 -0.0011886326 0.0166014
000200 96 63 32 bb 51 ae 64 bb 9a f9 48 bb c9 2f 94 3a
       -0.0027220002 -0.003489394 -0.0030666352 0.0011305745
000210 ab 8b 0d 3c d9 9c e4 bb d6 97 52 3c 71 1a 11 bb
       0.0086392565 -0.0069767055 0.012853583 -0.0022141004
000220 be d7 b6 3c a1 36 2c bb 13 7d 33 bc 4a 98 87 bb
       0.02231967 -0.0026277679 -0.010955113 -0.0041380273
000230 e6 6d e5 3b af 61 4a bc ce d4 87 3a 8a e5 29 3c
       0.0070016263 -0.012352391 0.0010363103 0.010369668
000240 0d e7 06 bc 3e bd 80 3a fd eb ba bb 46 16 02 bc
       -0.008233798 0.0009822024 -0.0057044015 -0.007939881
000250 f7 89 0e 3c cb 64 e1 b9 ec ee 7a 3b ee 76 c3 3b
       0.008699886 -0.0004299044 0.0038289381 0.0059651053
000260 1a a8 e4 ba f9 31 e0 3b e2 45 70 3a 7b 8a 99 bb
       -0.0017445118 0.0068418947 0.0009165687 -0.0046856976
000270 e3 ae 86 bc 2d 57 3a 3c c4 84 01 bc bf 72 17 bc
       -0.016440814 0.011373323 -0.007905189 -0.009243666
000280 d2 99 ee 39 1f 0f dd 3c 52 37 65 39 ca 72 5c 3b
       0.00045509503 0.02698475 0.0002185975 0.0033637756
000290 b6 f4 ee 39 a9 ae 9e bc b0 c2 bc 3a 02 0a 0b bb
       0.0004557722 -0.019370394 0.0014401283 -0.0021215682
0002a0 91 a9 2b ba 1e 86 09 3c a4 77 b3 39 43 e0 8e 3a
       -0.00065483997 0.008393792 0.0003423068 0.0010900575
0002b0 28 af 39 bc 6c 0c 73 3a e7 dd 55 3c 94 f2 03 3c
       -0.011333264 0.00092715654 0.013053394 0.008053441
0002c0 b4 f8 6a 3c eb 9f e9 bb b9 d5 5d 3c b3 dc 92 ba
       0.014341522 -0.0071296594 0.013539725 -0.001120469
0002d0 ed aa ee bb 7b fa 05 bc a0 73 96 3c 14 ab f0 ba
       -0.0072835595 -0.008177395 0.018365681 -0.0018361532
0002e0 48 5a 20 bb d2 69 4d 3c d0 53 43 bb 4d a1 b1 3b
       -0.0024467874 0.012537437 -0.0029804595 0.00542084
0002f0 1c 4b 2a 3c 99 a0 bf 3c 24 1b c3 bb 43 aa 0a bb
       0.010393884 0.023392009 -0.005954163 -0.0021158613
000300 57 99 61 bb e4 94 12 3b c1 92 28 bc e6 e7 11 3c
       -0.0034423673 0.0022366578 -0.010288895 0.008905387
000310 ae 14 02 3c 5c 71 26 bc 25 ea b7 3b 0c 22 06 bc
       0.007939501 -0.010158863 0.005612629 -0.008186828
000320 b4 f5 e2 3b bb d8 3b 3a da 86 42 bc 05 1c 76 3b
       0.0069262628 0.0007165779 -0.011872971 0.0037553322
000330 27 df f8 3b 84 71 80 bb 99 26 99 3b 08 95 8a bb
       0.007594961 -0.003919782 0.0046737907 -0.0042291917
000340 a3 d6 ae bb e6 4c 42 bc 2e 07 6f bb af ba 3d ba
       -0.0053356453 -0.011859154 -0.0036472785 -0.0007237596
000350 e3 a7 1c bc 80 6c 21 3b 62 c3 e1 ba 88 46 31 bc
       -0.009561512 0.0024631321 -0.0017224366 -0.010820039
000360 e2 3b 77 3c 1a 9b 85 3b c9 34 e5 bb 69 f7 41 3c
       0.015089961 0.0040773274 -0.006994818 0.011838772
000370 4d a0 3f bc 3a 56 79 bc ff 5f 83 3a cd bc 7d 3c
       -0.0116959335 -0.015218312 0.0010023116 0.015486908
000380 f9 8e 5c bb d5 86 f4 ba 16 42 63 bc 21 3f 13 3b
       -0.0033654554 -0.0018655906 -0.013870737 0.0022468048
000390 cf d4 5b ba dd da 26 bc 54 f5 be bc 92 c1 6c 39
       -0.0008385898 -0.010184017 -0.023310341 0.00022578824
0003a0 82 d6 2b bc 7d 85 8f ba 5d 0e 43 bc 3e 5d 85 bb
       -0.010488154 -0.0010949817 -0.01190528 -0.004069953
0003b0 47 a2 35 bc f5 6e bb 3a b6 b9 d9 3c 9e 3e 2a 3c
       -0.011086053 0.0014300036 0.026577812 0.010390906
0003c0 af 47 a3 bb e6 0f 53 bb 28 0b 06 3b f3 46 7b 38
       -0.0049829106 -0.003220552 0.0020453427 5.990914e-05
0003d0 0a f5 17 bb f4 89 1f bb 01 aa 8f 3b 24 ad 43 3c
       -0.0023186826 -0.00243437 0.0043842797 0.011943135
0003e0 dc c2 85 bc 5f cd 86 bb b6 c6 70 3b 37 89 15 bc
       -0.016328268 -0.0041138376 0.0036739535 -0.009126953
0003f0 d1 36 0c bb 6b 2b 06 3c 03 e1 1f 3c 71 de a4 bc
       -0.0021394978 0.008189063 0.009758237 -0.0201256

action_model._discrete_distribution.branches.0.bias f4 [5]
000000 55 df 7c 39 88 0d dc b9 fd 3a 19 ba 15 05 8f b9
       0.0002411579 -0.00041971751 -0.0005845277 -0.00027278872
000010 ab 52 c0 b8
       -9.1706715e-05

critic.network_body.linear_encoder.seq_layers.0.weight f4 [128, 2]
000000 46 71 c0 be 6f 1f 89 3f b3 da bb 3b a7 48 38 3f
       -0.3758642 1.0712718 0.005732858 0.7198586
000010 e6 14 90 bd 50 ea c7 3f bd ac f9 be 39 3c 15 bf
       -0.07035236 1.5618382 -0.487646 -0.5829502
000020 c8 c7 9b 3e f5 d2 18 bf cd 14 53 bd c2 ba 91 bf
       0.30425858 -0.59696895 -0.05153351 -1.1385119
000030 c0 e2 9a be 3b 35 46 bf 6b 1d 8e bf 32 88 6e 3d
       -0.30251122 -0.77424973 -1.1102728 0.058235355
000040 41 7a 6c 3f 3a 1c 7e bf 05 ee 22 3d 58 32 ae be
       0.92374045 -0.9926182 0.039777774 -0.34022784
000050 f5 1a 8b 3e 62 c1 8b 3e 3e d4 c9 be 32 11 f9 3e
       0.27169004 0.27295977 -0.3941974 0.4864593
000060 bc d7 59 3e 2e 80 4f 3e 36 cd 5f 3f 95 19 d6 3f
       0.21273702 0.2026374 0.874225 1.6726557
000070 ee 44 db be 8a 99 9d bf d0 82 95 3f 17 b4 1e be
       -0.42826027 -1.2312481 1.1680546 -0.15498386
000080 b3 4f 31 be cb 36 8a bf f2 89 f1 3e 49 78 d4 3f
       -0.17315559 -1.0797971 0.47175556 1.6599208
000090 be 74 08 3f 2c f0 8b 3f a3 ba 63 3f 60 1b 08 bf
       0.53303134 1.093267 0.8895666 -0.5316677
0000a0 09 21 10 bf 1a c3 8f 3c 6f 62 cc 3d 89 34 e7 3e
       -0.5630041 0.017549086 0.09979712 0.4515727
0000b0 cc ed 87 3f f0 b0 a6 bf c9 06 96 be ae 4d 22 bf
       1.0619445 -1.3022747 -0.29302052 -0.6339978
0000c0 09 7d 54 3e 80 cf 60 bf e9 ef 5a 3f bf 98 14 3f
       0.20750822 -0.8781662 0.85522324 0.5804557
0000d0 ad e4 dd 3e 03 37 63 3f e2 61 46 3e 30 8e 96 3f
       0.43338528 0.88755816 0.19373277 1.1762142
0000e0 fc 65 5f 3f a3 27 1f 3f 44 c4 13 bf 8a 3d 82 3f
       0.8726499 0.62169856 -0.5772135 1.017503
0000f0 4e 25 4a 3d f3 82 88 bf 4e cd 02 bf 24 41 98 bf
       0.049351983 -1.0664963 -0.5109452 -1.1894879
000100 b8 f2 10 3f 18 4e 07 bf c4 14 d8 3d d5 ff ba be
       0.5662036 -0.52853537 0.10550836 -0.3652331
000110 93 57 85 be 73 8b a5 bf 51 8e b0 be 25 db dc 3c
       -0.26043376 -1.2933182 -0.3448358 0.026959965
000120 13 73 b3 be 04 03 1b 3e 32 c7 81 3f 2a 7a ab 3f
       -0.35048732 0.15137869 1.0138915 1.3396657
000130 d0 3e eb 3e 8d 1f 48 3e b6 7b 03 be 4c 3d 34 3f
       0.4594636 0.19543286 -0.1284016 0.7040603
000140 a6 32 87 3f 16 15 0f be 09 c0 7a be 88 2b 2d 3e
       1.0562332 -0.13972887 -0.24487318 0.16911137
000150 0f c5 36 bf 80 fa a6 3f e3 c7 aa be e2 ce 02 3f
       -0.7139444 1.3045197 -0.33355626 0.5109693
000160 2f a4 49 bd 54 ef 43 3e 19 47 c0 3e db 06 d8 3e
       -0.049228843 0.19134265 0.37554243 0.4219273
000170 ca f7 bd 3e 34 c1 f2 3d 11 01 38 3f 3f 24 84 3e
       0.3710311 0.11853257 0.7187663 0.25808904
000180 ad b0 81 3e 06 68 66 bf b3 84 2e 3e ed 1f 1e 3f
       0.25330105 -0.9000248 0.17042808 0.61767465
000190 2c 7f 18 3f 76 49 72 3e e5 90 0b bf ce 5b 86 bf
       0.5956905 0.23660836 -0.54517967 -1.0496767
0001a0 b2 e3 26 bf fe a2 84 3f cc 57 db be da 53 b1 3e
       -0.65191185 1.0362241 -0.4284042 0.34634286
0001b0 6b 2d 8a 3e 18 2d 63 3e 89 52 b7 3e aa 0e 97 3f
       0.26987776 0.2218517 0.35805157 1.180135
0001c0 65 8b 34 3f 2e 38 ed 3e a9 34 ed 3e 5d 87 72 be
       0.705252 0.46331924 0.4632924 -0.2368445
0001d0 21 fa a1 be 33 c9 06 3e 26 2f ac 3f d6 07 92 3f
       -0.31636146 0.13162689 1.3451889 1.1408641
0001e0 d8 0f 37 bf 91 0c 98 bf ba bc 65 3e 07 ae 91 3e
       -0.7150855 -1.1878835 0.22435275 0.28453085
0001f0 fd 55 bd be 46 37 31 bf 6a 8b c6 bc 64 a1 47 3e
       -0.36979666 -0.69224966 -0.0242364 0.1949516
000200 c1 23 bf 3d 08 55 60 be 36 57 f4 bd 35 38 48 bf
       0.093329914 -0.21907437 -0.11930697 -0.78210765
000210 03 7b 3a 3e 4b 84 e4 be 6e 3e 5a bf 1c 64 3a be
       0.18210988 -0.44632182 -0.8525151 -0.18202251
000220 9c 70 1f bf 34 07 dd 3e 00 b0 00 bf e4 f6 36 3e
       -0.62281203 0.43169558 -0.50268555 0.17867619
000230 ab 37 3e be a8 b7 b4 bd 85 a2 8b 3f 18 c0 30 3e
       -0.18575923 -0.08824092 1.0908972 0.17260778
000240 3e ad 14 3f 7c a2 92 3f 08 59 07 3e 4e 12 09 3f
       0.58076847 1.1455836 0.13217556 0.53543556
000250 aa 2c 76 bd bf 22 1e 3f 38 f6 86 3e 2e 86 6c 3e
       -0.06010119 0.6177177 0.26359725 0.2309806
000260 52 61 69 bf f2 bd da 3e 09 f9 58 3f 60 6e 21 be
       -0.91164124 0.42723042 0.84755 -0.15764761
000270 bd 89 02 bf 18 a9 86 3f 2e e2 b6 bf fe 5b 76 3d
       -0.5099142 1.0520353 -1.4287775 0.060146324
000280 b9 ab 69 3f 0f 70 8a bc 76 04 49 3e 0f d8 5b bd
       0.9127765 -0.016899137 0.19630608 -0.053672846
000290 30 5e 0d bf ce a4 2a be 2e fa 8a 3f 9a e0 02 bf
       -0.55221844 -0.1666443 1.0857599 -0.51123965
0002a0 08 6f 06 bf 70 d5 5e be b5 b0 26 bf 0e f2 df 3e
       -0.5251317 -0.21761107 -0.65113384 0.4373936
0002b0 39 50 8b 3e 07 e5 31 3e 38 04 90 be 9c f6 76 3e
       0.27209643 0.17372523 -0.2812822 0.24117512
0002c0 e5 98 3a be ee bc 2e 3d 91 71 84 3c eb ca 4c 3f
       -0.18222387 0.042660646 0.016167434 0.7999713
0002d0 2c da 64 3c 99 db 5b 3e bc a5 04 3f ff 82 44 3f
       0.013968032 0.21470489 0.5181539 0.76762384
0002e0 68 0e 3f bf d9 7c a6 be 20 5c a1 3e c5 0f 8e 3f
       -0.7463136 -0.32517126 0.31515598 1.1098562
0002f0 6a f3 8a bf 35 26 29 3f 8e 11 02 3f 74 e5 e0 be
       -1.0855534 0.66073924 0.50808036 -0.4392506
000300 d0 4b 7e 3f d6 75 56 bf 94 4b 07 bf b7 9c f4 3d
       0.9933443 -0.83773553 -0.528497 0.119439535
000310 4f 05 4d bf 14 4c f6 3e d4 d9 23 3e 4f 9d be bf
       -0.80086225 0.48104918 0.16001064 -1.4891757
000320 81 a3 20 3e 9d 31 46 bf 53 3d db 3f fa ae 5c bf
       0.15687372 -0.77419454 1.712809 -0.86204493
000330 ec 2f 5e 3f 17 b8 c7 bd 13 14 32 3e 41 a8 ff 3f
       0.8679187 -0.09751909 0.1739047 1.9973222
000340 53 ad dc be 3f a1 3d bc 4a 69 97 bf 31 05 08 3e
       -0.43100986 -0.011574089 -1.1829007 0.1328323
000350 ca e9 8d 3e 32 e5 ee bd 1d 17 ab be 38 95 7b 3e
       0.2771743 -0.11664809 -0.33416072 0.24568641
000360 78 74 87 3e d5 e1 85 3e c1 ff d5 bf 5c 89 12 3f
       0.26456046 0.2614886 -1.6718675 0.57240844
000370 27 e9 80 3f e6 79 40 bf 28 db 13 bd ac 9c d9 be
       1.0071152 -0.75186 -0.036097676 -0.42502344
000380 b9 de d3 be c5 b6 84 3f 39 2b af bd 90 60 16 bf
       -0.4138086 1.0368277 -0.08553166 -0.5874109
000390 7d 0a e4 bf ac ff 58 bf da 03 00 3e 7e 5d 5e 3c
       -1.7815701 -0.84765124 0.12501469 0.013572095
0003a0 3b d4 94 3e c3 14 15 bf 4c 81 8c bf d4 2b 58 3f
       0.2906817 -0.58234805 -1.0976958 0.84441876
0003b0 81 08 ed be 4a d8 56 3d 87 10 7e bf 4d 03 a2 bf
       -0.4629555 0.052452363 -0.9924397 -1.2657257
0003c0 d3 87 31 bf 9f cc eb 3e 97 2c 68 3f b0 93 92 bf
       -0.69347876 0.4605455 0.9069304 -1.1451321
0003d0 4c c0 90 bf 56 4b ab 3f 99 2b ff 3e 0e db 17 bf
       -1.1308684 1.3382366 0.4983795 -0.59318626
0003e0 9b 89 63 bf 75 39 bc bf f5 af f0 bb 44 b6 ba 3f
       -0.88881844 -1.4705034 -0.0073451945 1.4586873
0003f0 e2 c3 c0 be 97 cc 57 bf 0e bc bf 3e c4 f4 e4 3e
       -0.37649447 -0.84296554 0.37448162 0.4471799

critic.network_body.linear_encoder.seq_layers.0.bias f4 [128]
000000 2b 06 be bb 82 a4 69 bb 87 42 97 3b a1 1c bb 3a
       -0.005799075 -0.0035651033 0.004616085 0.00142755
000010 8b 5e 6f 3a 4f f0 b1 38 e3 44 bf 38 f2 a8 7a ba
       0.00091312145 8.484779e-05 9.120421e-05 -0.0009561918
000020 cc fc 31 39 fa 97 97 ba 0b 72 8c 3a 02 c0 2e bb
       0.0001697421 -0.0011565678 0.001071514 -0.0026664739
000030 d8 cb 02 3a 37 c6 59 bb cd 95 1d ba af be 89 ba
       0.00049894815 -0.0033229718 -0.0006011397 -0.0010509099
000040 2b 6f 84 ba 6e e7 b8 3b 0e c6 23 bb 7a f7 a3 ba
       -0.0010103931 0.005642823 -0.0024989876 -0.0012509667
000050 d7 6a 1d ba 00 0b a4 ba 6c 70 ec b9 2d bf 5a ba
       -0.0006004995 -0.0012515485 -0.0004509719 -0.00083445275
000060 0c 98 3b 3a f4 03 fd 39 54 20 93 3a 33 86 8f bb
       0.00071561406 0.00048258866 0.0011224844 -0.0043800115
000070 e4 ce 7c 3b f8 ae c2 3b 52 2c 8e ba 7b 73 6d 3a
       0.0038575465 0.005941268 -0.0010846949 0.00090580405
000080 68 4d be 3a b9 23 5e bb a4 3b d5 b9 b5 ef 05 ba
       0.0014518918 -0.0033895804 -0.00040670962 -0.00051092665
000090 b0 96 bb ba ce d9 66 3b 15 b5 6a 3a 63 bf 84 3b
       -0.0014311876 0.0035225037 0.0008953375 0.0040511354
0000a0 6f 00 3d 3a 43 60 95 bb ec bb a9 3b 8a b0 92 3b
       0.00072098424 -0.0045585944 0.0051798727 0.0044766115
0000b0 97 ec b0 ba 9c 40 f3 ba 0a 54 97 b9 37 ea 01 ba
       -0.0013498244 -0.0018558684 -0.00028863578 -0.000495586
0000c0 c6 c0 a8 ba 96 02 d0 3a 29 cb 8a ba c9 8e 84 bb
       -0.0012874834 0.0015869911 -0.0010589111 -0.0040453416
0000d0 e9 85 a7 bb 97 83 4c ba 59 af 13 bb 5d d9 72 bb
       -0.005112399 -0.0007801591 -0.0022534935 -0.0037055828
0000e0 00 58 31 bb 20 7a 13 3a d6 2b 5e ba e6 0e ee 39
       -0.0027060509 0.0005625803 -0.000847516 0.00045405998
0000f0 cf 2d 98 ba d7 b3 92 bb 08 aa cc ba 9d 57 b7 3a
       -0.0011610332 -0.004477005 -0.0015614638 0.0013987903
000100 d2 90 5b 39 a0 c8 6f ba b5 f4 84 ba 62 cf 7a 3a
       0.00020939417 -0.0009147022 -0.0010143729 0.00095676456
000110 7b 6d 71 bb 28 45 25 b9 c4 67 a8 ba 03 8a 33 ba
       -0.0036838937 -0.00015761389 -0.0012848307 -0.00068488735
000120 3a 4b 2f bb b7 43 af ba 22 d5 6d 3b 03 45 73 3b
       -0.002674772 -0.0013371621 0.0036290367 0.0037119992
000130 f8 28 3c 39 a0 7b d8 ba 88 2c c2 3b da 49 8d 39
       0.00017944339 -0.0016516335 0.0059257187 0.0002694864
000140 9c 77 a2 ba 7a 36 95 39 f9 9e 99 3a 3e 51 2f bb
       -0.0012395266 0.00028460083 0.0011720351 -0.0026751305
000150 52 63 31 bb ec ad 9d 3a 3b 2f 13 ba 49 54 2d bb
       -0.0027067256 0.0012029982 -0.0005614643 -0.0026447943
000160 c7 f7 9e 39 86 13 86 3b 86 2a 1c 3b e9 6d 2b ba
       0.00030320717 0.004091683 0.0023829057 -0.000653951
000170 13 44 db ba 29 96 b6 3a 9a b6 96 ba 1b bf 3e ba
       -0.0016728662 0.0013930249 -0.0011498511 -0.0007276402
000180 44 08 35 3a f7 82 03 3a 57 2b 35 ba 3a 33 25 ba
       0.0006905834 0.00050167687 -0.000691106 -0.0006301884
000190 19 ab 13 3a 52 c1 88 ba df f9 e2 39 ea 6c 84 bb
       0.00056331005 -0.001043359 0.00043292248 -0.004041304
0001a0 52 0b 4f ba 95 6a bf b9 6b e9 dc 3a 73 f5 9a 3a
       -0.000789811 -0.0003650977 0.0016854232 0.0011822417
0001b0 eb 4c 11 ba ba 14 51 b8 0f e9 aa ba e8 14 e9 39
       -0.00055427727 -4.9848786e-05 -0.0013039428 0.000444568
0001c0 ef 01 ce 3b 9e 6c c4 38 2d 39 a2 3a 80 88 c0 ba
       0.0062868516 9.36624e-05 0.0012376659 -0.0014689118
0001d0 af 5d a1 ba 27 da f6 b9 96 8c 65 3b 30 6e b3 b9
       -0.0012311245 -0.00047083313 0.0035026423 -0.00034223637
0001e0 ac 69 19 bb 36 4f 1f ba 72 37 69 3b a6 18 01 bb
       -0.0023408933 -0.0006077172 0.0035586026 -0.001969853
0001f0 53 f7 c9 ba ec 73 bd 3b 3a 6f 4b 39 2e 8d a1 3a
       -0.0015408791 0.005781641 0.00019401024 0.00123254

critic.network_body.linear_encoder.seq_layers.2.weight f4 [128, 128]
000000 d4 1f 53 3b c3 11 29 3d 48 b2 c4 bd df 61 93 3d
       0.0032215016 0.041276705 -0.09604317 0.07196402
000010 36 ef 4c bd df 8d 5b bd 16 60 de 3d d8 d1 17 3d
       -0.050032817 -0.053602096 0.10858171 0.037065357
000020 16 d2 ad bd e0 83 c0 3d 79 13 96 3b 0b b7 a2 bd
       -0.08487336 0.09400153 0.004579958 -0.07945069
000030 89 79 4f 3c 53 ab 93 bd 6b 25 bd 3d 6b aa 6e 3d
       0.012663254 -0.07210412 0.092356525 0.058267992
000040 25 9f 6f bd d5 89 0d bd 8e 30 b8 bc 6c ba 6a 3d
       -0.05850138 -0.034555275 -0.02248409 0.057306692
000050 88 31 e6 3c fe 74 14 ba 7e 5c 8c bd 57 be 67 3e
       0.02809979 -0.0005663185 -0.06853579 0.22631203
000060 95 17 b5 3d ff ec 95 bd 31 ea 35 3d 9b cd 86 bd
       0.088423885 -0.07320594 0.044412795 -0.06582185
000070 ff 35 eb bd 3b 95 4f 3e 45 5d 18 3c b9 2e 2b 3e
       -0.11484908 0.2027177 0.009299581 0.16717042
000080 23 85 fd bc b5 b8 c6 bd 60 24 84 3c 43 d1 e2 3c
       -0.030947274 -0.09703199 0.016130626 0.027687674
000090 97 fd 05 3c 5f 21 04 3c f5 0d d0 bd fa ad 6a 3b
       0.008178136 0.008064597 -0.10158912 0.0035809265
0000a0 dc e0 15 bc 00 49 ae 3d 31 de f0 3d 9e a9 87 bd
       -0.009147849 0.085100174 0.1176113 -0.06624149
0000b0 96 33 d5 3b a5 52 16 3c 53 93 87 bd 04 54 56 bc
       0.0065063937 0.009174977 -0.06619897 -0.013081554
0000c0 b2 15 c0 bd cc 26 3d be 41 5b 34 3c 7f 9b 0e 3e
       -0.09379138 -0.18471831 0.011008085 0.13926505
0000d0 84 02 11 3d 6e ae 44 bd c8 08 df 3d 81 61 55 3b
       0.03540279 -0.04801791 0.10890347 0.0032559338
0000e0 88 dd f1 3d 11 b4 a7 bd da 00 7e 3d db a3 83 3d
       0.11809832 -0.08188642 0.06201253 0.06427737
0000f0 50 b1 3f 3d 00 00 4c 3d 08 26 b1 bd 40 ad 7e 3d
       0.046799958 0.049804688 -0.08649832 0.062176943
000100 66 4b c3 bd 9d e6 2b 3e ff bd 06 bd a3 76 87 3c
       -0.095358655 0.1678719 -0.03289604 0.016536063
000110 cb e0 18 be 22 38 57 bd 61 8d cf bd a7 af 26 be
       -0.14929502 -0.052543767 -0.10134388 -0.16277944
000120 05 82 21 3d e6 ba 80 bd f5 bb 2e 3d e3 ff a3 3c
       0.039430637 -0.06285648 0.04265972 0.020019477
000130 1a be 7e bd 55 ef e3 bd cb 55 ab bd de 86 e2 3d
       -0.062193014 -0.11129633 -0.08365973 0.1106088
000140 c6 bb ea 3d e2 1c 89 bd a8 0a 6e be 73 1c 23 3d
       0.11461596 -0.06694962 -0.23246253 0.039822053
000150 cc ef db bd 8c ba 35 3d 1e be 0e 3d 4c 1f de bd
       -0.10739097 0.044367358 0.03484928 -0.10845813
000160 f9 b2 a0 bd 93 25 25 bd a9 21 fc b9 a5 d4 7d 3d
       -0.07846636 -0.040319037 -0.00048090264 0.06197037
000170 8d e4 7e 3c bb 65 1a bb 16 34 e7 3a d7 79 6e 3d
       0.01555742 -0.0023559171 0.0017639424 0.058221664
000180 47 31 a4 3c 29 11 23 3e b9 8b e9 3d fd f4 ac bc
       0.020043029 0.15924515 0.11403603 -0.021112913
000190 27 08 4f bc 97 be 50 bb 8c e9 8a bd 8e 35 b4 bd
       -0.012636221 -0.0031851882 -0.06782827 -0.08799277
0001a0 12 7d a5 bd c9 e4 c4 3d c5 4c c0 3d f6 74 72 bd
       -0.08080496 0.0961395 0.093896426 -0.059193574
0001b0 61 df 69 3e 0d 0e d1 3c 88 c5 7f 3d f7 2f a5 3b
       0.22839119 0.025519395 0.06244424 0.0050411182
0001c0 a3 fb 1b 3d 1e 92 34 38 ac bf 97 3c ca d7 cc 3d
       0.038081776 4.3051426e-05 0.018524013 0.10002096
0001d0 bc b9 18 3e 1d 0b 4a 3c f2 96 c1 3a ea f0 e1 bd
       0.14914602 0.012331751 0.0014769717 -0.11032279
0001e0 1c f7 68 3d 40 f7 69 3c 2b 18 62 3d c3 e5 b7 3d
       0.056876287 0.01428014 0.05519883 0.089793704
0001f0 0d 96 0d 3e 16 33 2c bd 33 0a 85 3d d6 b4 4f bd
       0.13826771 -0.042040907 0.06496086 -0.050709568
000200 c3 0b 50 3d 8d d7 31 bd 36 b4 ad 3d 45 21 4a 3d
       0.050792467 -0.043418456 0.08481638 0.049348135
000210 36 75 7e 3d 3f be 4d bd 13 e2 52 bd 96 03 e3 3d
       0.0621235 -0.05023026 -0.051485132 0.11084668
000220 f8 63 13 3e 1d 62 18 be af 88 42 3d ea ad a5 bd
       0.14393604 -0.14881177 0.047493633 -0.08089812
000230 ce ee 6a bb 9a 3a 4a 3d 83 41 37 bd c7 3d 9c bd
       -0.0035847905 0.049372293 -0.04474021 -0.076289706
000240 92 eb d0 bd 8c d2 ba 3c 9e 9d 93 bc 46 59 be 3d
       -0.102011815 0.022805475 -0.018019494 0.09294371
000250 f8 47 3b 3d b4 1d 34 bd 3c 06 b2 3d 00 8a 0c 3d
       0.04572293 -0.04397364 0.08692595 0.034311295
000260 dd e8 fe bd a8 75 82 3d b6 44 1e 3d 46 bc 4f 3d
       -0.12446759 0.063700974 0.038639747 0.05071666
000270 68 58 3b 3d 48 0f 57 3d 83 5e 37 3d 38 ef 17 3e
       0.045738608 0.052504808 0.044767868 0.14837348
000280 9c f1 2a 3d cd e0 19 be b5 bd dc bd c5 0e ac bc
       0.041734323 -0.15027161 -0.10778371 -0.021003136
000290 af e3 74 bd c0 35 88 bd ef 74 6f 3d 50 16 e1 bd
       -0.05978745 -0.06650877 0.058461126 -0.10990584
0002a0 d5 98 41 3d d8 08 7a bd 20 36 e4 bd ce fe a1 3d
       0.047264893 -0.06104359 -0.11143136 0.07909928
0002b0 8e 86 9e 3d 4e 4c ad 3b 13 be db bd 95 ba da bd
       0.07740508 0.0052886372 -0.10729613 -0.10680119
0002c0 8c 75 ad bd 14 91 50 bd b7 df 10 3e c8 85 03 be
       -0.08469686 -0.050919607 0.1414784 -0.12844002
0002d0 ac 3b 34 bd 86 c6 e0 3d 60 18 9e 3d 2e de 5c 3d
       -0.04400222 0.10975365 0.07719493 0.053922825
0002e0 47 15 5b bd 34 4e 93 3d 12 0a 8a 3d 32 b1 90 bd
       -0.05348709 0.071926504 0.06740202 -0.07065047
0002f0 11 43 88 3d 05 f5 4b bd 5a 23 ca 3c e4 97 51 bc
       0.06653417 -0.049794216 0.02467506 -0.012792561
000300 f5 91 b7 bd c0 71 9c bd 3f 51 49 bc 0e 98 ae bd
       -0.08963386 -0.076388836 -0.012287437 -0.08525096
000310 d1 53 9b bd 9a 9a 20 bd 7f 1b 09 3e 4e e6 fd 3c
       -0.07584346 -0.03920994 0.13389395 0.030993607
000320 fa a2 1d bd 32 e0 0d bd 59 21 1b 3e 50 4f c5 bd
       -0.038485505 -0.034637637 0.1514944 -0.09634268
000330 3d a7 39 3e 2f 89 bb 3c bf 4e 4e 3d 93 e3 a9 3c
       0.18130203 0.022892563 0.050368067 0.020738399
000340 f3 4e 84 3d 36 e3 93 3d ff 81 bb 3c a1 03 af 3d
       0.06460371 0.072210714 0.022889135 0.08545614
000350 a9 14 51 bd bc b0 90 3d 90 9f 54 bd 0f be ae bd
       -0.051045094 0.070649594 -0.051909983 -0.085323445
000360 6d c9 86 bd e6 69 df bd 79 15 bd 3c a7 1d 95 bd
       -0.06581388 -0.109088704 0.023081528 -0.07281046
000370 aa 09 c9 ba 93 3d 6c be 7e d0 24 be 53 1f 43 3d
       -0.0015337963 -0.23070364 -0.16095158 0.047637295
000380 3a d6 61 3c c6 1c 4a be 1a 41 9e bd 41 10 15 3e
       0.013783986 -0.19737539 -0.07727261 0.14556982
000390 fc 8a 56 3d e4 fe c5 3c 02 a9 d7 3d 80 3b 08 bd
       0.05237864 0.024169393 0.105302826 -0.03325987
0003a0 eb c2 a5 bc 85 04 3e bd e8 ff 88 3c 9d 2d 1c 3d
       -0.020234546 -0.04639103 0.016723588 0.038129438
0003b0 f5 57 b1 3d 6d c4 ec bd 9a f5 3f bd 6e c2 b7 bd
       0.086593546 -0.11560903 -0.046865083 -0.089726314
0003c0 ad 56 e5 3d 58 c4 57 3d 4a f9 e7 3d c5 13 16 3e
       0.11198173 0.052677482 0.11326845 0.14655979
0003d0 f9 08 82 bd 2d 06 8a 3c 1d 00 00 3c 3d 55 bc bc
       -0.06349368 0.016848648 0.007812527 -0.022989864
0003e0 c4 52 bb bd 5f 04 d9 bc 18 ff 5f 3d 6b f7 1a 3e
       -0.09146646 -0.026491342 0.054686636 0.15133445
0003f0 45 b1 34 3e 44 8a 71 3d 20 98 44 bd e2 92 1a bd
       0.17645748 0.05896975 -0.04799664 -0.037737735
