results/BasicRotation1/BasicAgent.onnx (onnx, 83273 bytes, 6 tensors)

action_model._discrete_distribution.branches.0.bias f4 [5]
00000000: 4bbd 653c b993 9cbc eb39 a8bc 002c 9c3b
00000010: 8840 a93c
0.014022182 -0.019113408 -0.02053543 0.0047659874 0.020660654

action_model._discrete_distribution.branches.0.weight f4 [5, 128]
00000000: bdad 04bc 3b6a 7ebb 6d33 643c dd04 92bc
00000010: 6716 81bc 0d0f b43b 5fb3 713c 7bbb 27bc
00000020: 9edb da3c b89f 2a3c a0d3 f73b 2ac0 91bc
00000030: bb6c 06ba 0b19 6dbc d418 39bc 633b 69bc
00000040: f1ca 073c 0943 de3c 6bd5 a5bc aa56 01bb
00000050: 1d47 ecbb 22ed ae3c 2cf9 e93b 8478 7cbc
00000060: af54 a4bc 7664 e93b 8e60 193c a14c 75bb
00000070: 7ee6 5dbc 8596 a4bc e3ad 8f3b f01e f23c
00000080: 8441 bd3b 5951 733c ca49 e63b ea4d e33c
00000090: 9d1e 8bbc bf60 77bc 356b 283c da2e c33b
000000a0: 6fc6 893c 8205 9a3c d0d7 83bc e446 cebb
000000b0: 9a74 a33c 3998 2ebc c698 69bb e589 9e3b
000000c0: 7839 44bc cfd1 823c 75db 01bd 47dd 2dbc
000000d0: 64a5 80bc 5657 833c b483 043c 806a 573c
000000e0: e969 46bc fbe8 febb 5380 ee3c b4e6 0dbc
000000f0: 3f71 25bc 0195 9dbb 6234 f03b fdf4 9d3c
00000100: 5256 8cbc 6d47 c3ba 21f7 9abb 45ff f9bc
00000110: cbb4 633c 8779 a23c 84c9 1bbc 0bdc ccbc
00000120: c7c1 753c 2e8f 64bb 0369 273c 3cf5 263c
00000130: 71e3 393c 96a6 35bc 4ce1 7c3b a94c bcbb
00000140: 6372 ac3c dff2 1ebc 9c0a 23bb 2940 a03c
00000150: e4ef 5d3c dbc5 263c a49b c2bc bfef 833c
00000160: 5ac1 a4bc 7bca a93c d2c0 65bc 528d 85bc
00000170: c8ee aebb 6633 3d3c f604 80bc f08a 19bc
00000180: d2fd 4b3b 5adf 653c 9436 8ebb 02b6 753b
00000190: 3f19 ea3a c600 a0ba f1e8 b03c 7faf 0e3b
000001a0: 5753 213c 61d2 393c dc98 d5bc a331 d4bb
000001b0: ed45 e2bc 5950 cb3b 91aa 5b3c b3cd c23c
000001c0: b5ea 203c d809 0d3b f7d8 163c 1a51 623b
000001d0: add7 8abc 8726 d63b cf9f 26bc 919e 41bc
000001e0: a343 a3bc 47c6 b63c 9ec3 853b fb01 b4bc
000001f0: 063c ef3b e157 1b3c 1aab b83c 93f4 92bb
00000200: 1720 c0bc 49cb ebbc ae5d cebb f253 f6bc
00000210: 4067 c1bc f9f2 5ebb d217 b83b 8674 7ebc
00000220: 1784 21bc e4c9 8dbb 4c4d aabc 6009 9837
00000230: ef16 f0bc 29d2 203d 2b08 46bc b468 8dbc
00000240: b2c5 503c 38d3 253c 2cf6 1dbc c63a faba
00000250: f4a8 40bc c82e 2f3c 8de1 a33c dc04 2a3b
00000260: 62d3 f4bb bc93 fa3c ca67 b23b 022a a2bc
00000270: 8c80 0e3a ad17 10bd 5256 9cbc 22f0 4d3c
00000280: faf2 f8bc 4307 543a 01b9 3cbc 6b91 253d
00000290: b38d 97bc 0f20 95bb 7c17 a43c 8232 abbc
000002a0: d3bf 1abd b382 81bc 73c5 bfba 9e95 5dbc
000002b0: 8880 acb8 9e0d a2bb bac7 cc3c 9443 fcbc
000002c0: 64c7 ddbc b404 363b 0280 39bc 37c9 8fbc
000002d0: 9630 b93b 88e8 11bd af5e 9b3c 8cfc 2b3c
000002e0: 409a 82bc cbc5 e1bb 3f6a efbb 4886 a53c
000002f0: 61f1 2f3c ac6f 32bc e019 163c c96a 9a3c
00000300: eb9f 713c 93a0 003b f200 243b 2259 0dbd
00000310: ea71 8e3c 9d08 263c e3d0 ecbc 8c53 d7bb
00000320: d4a4 043d 011f 9b3c 443d abbc 482f edbc
00000330: 9288 313c 2d40 31bd 5eea 153c 29f8 53bc
00000340: f5c2 5fbb 40dc b8bb 06f8 4ebd 7dbc 93ba
00000350: 796d 24bc 4344 9ebc 71b3 d6bc dae0 103c
00000360: 4ffd 5abb 4742 a13c 90af bfbc 5455 813c
00000370: a867 303d f302 aabc d4c5 f4ba 4f44 48bb
00000380: fd7d 8839 5b53 0e3d afb3 14bd 2a0a c739
00000390: 853f 48bc 5c10 55bc 6661 e83b 44a1 9a3c
000003a0: df06 f83c dae9 373c 8c2a c2bb 852b 16bd
000003b0: 8e65 27bd 4cb2 1cbc 11e6 a93c 6038 cf3b
000003c0: afa3 afbc b231 04b9 feee eb3c 76db 82bc
000003d0: a37d 09bb 87ac 82bc f37b dabc 5b77 8d3c
000003e0: d42d bfbc 4da3 6b3c a102 8fbb 4f77 0dbd
000003f0: 9821 633c f609 5ebc 9299 773c 0c97 bcbc
-0.008098063 -0.0038820643 0.0139282765 -0.017824585 -0.015757753 0.0054949583 0.014752238 -0.01023757
0.02671605 0.0104140565 0.0075630695 -0.017791826 -0.00051278964 -0.014471303 -0.011297423 -0.01423535
0.008288131 0.027131574 -0.020243367 -0.0019735494 -0.007210626 0.021353308 0.0071402993 -0.015409593
-0.020059912 0.0071225716 0.009361399 -0.0037429708 -0.013543723 -0.020091305 0.0043847426 0.029555768
0.0057756323 0.014850938 0.0070278393 0.027747113 -0.016982371 -0.01509875 0.010279466 0.005956513
0.016818253 0.018801454 -0.016094118 -0.006295072 0.01995306 -0.01065641 -0.0035644039 0.0048382157
-0.011976592 0.015969185 -0.03170343 -0.010611839 -0.015703864 0.016032856 0.008088041 0.01314795
-0.012110212 -0.0077792383 0.029113924 -0.008660961 -0.010097801 -0.0048090224 0.0073304633 0.019281859
-0.017131004 -0.0014898606 -0.004729167 -0.03051723 0.013898085 0.01983334 -0.009508494 -0.025007268
0.014999813 -0.003487538 0.010217908 0.010190304 0.01134573 -0.01108708 0.0038586436 -0.0057464433
0.021050638 -0.00970146 -0.002487815 0.019561844 0.013545964 0.010179008 -0.023755856 0.01610553
-0.020111728 0.020726433 -0.014023023 -0.016302738 -0.0053385235 0.011547899 -0.015627366 -0.009371504
0.003112663 0.014030302 -0.0043400023 0.0037492518 0.0017860307 -0.0012207262 0.02159545 0.0021772084
0.00984653 0.011341662 -0.026073866 -0.0064756437 -0.027621234 0.0062046465 0.013407365 0.023779726
0.0098215835 0.002152076 0.009207002 0.0034533204 -0.016948545 0.0065353545 -0.010169937 -0.01181759
-0.019929713 0.022311343 0.0040821573 -0.0219736 0.0073008565 0.009481401 0.022542525 -0.004484722
-0.023452802 -0.028783457 -0.0062977886 -0.030069325 -0.023608804 -0.0034019335 0.005618074 -0.015530711
-0.009858153 -0.0043270458 -0.020788811 1.8124178e-05 -0.02930781 0.039262924 -0.012086908 -0.01726184
0.012742447 0.010121159 -0.0096412115 -0.0019091002 -0.011759032 0.010692306 0.020005012 0.0025942838
-0.007471488 0.030588023 0.0054445015 -0.019795422 0.0005436025 -0.03517883 -0.01908413 0.012569459
-0.030389298 0.000808824 -0.011518718 0.040421885 -0.018500185 -0.004550941 0.02003073 -0.020898107
-0.037780594 -0.015809393 -0.0014630988 -0.013524441 -8.22554e-05 -0.004945471 0.02499758 -0.030793943
-0.027072616 0.00277738 -0.011322023 -0.017552001 0.005651544 -0.03562215 0.018966047 0.010497224
-0.015942693 -0.006890034 -0.0073063667 0.020205632 0.010738702 -0.010890882 0.0091614425 0.018849747
0.0147476 0.001962696 0.0025024978 -0.03450883 0.017388303 0.0101338895 -0.028908199 -0.006571239
0.032383755 0.018935682 -0.020903237 -0.02895321 0.010835784 -0.043274093 0.009150116 -0.012937584
-0.0034143303 -0.00564149 -0.050529502 -0.0011271384 -0.010035866 -0.01931966 -0.026208611 0.008842671
-0.0033415144 0.019684924 -0.023399144 0.015787758 0.043067604 -0.02075336 -0.001867468 -0.0030558293
0.0002603381 0.034747463 -0.036304172 0.0003796381 -0.0122221755 -0.013004389 0.007091689 0.018875726
0.030276714 0.011225188 -0.005925482 -0.036662597 -0.040868334 -0.009563994 0.020739587 0.006323859
-0.021440355 -0.00012607014 0.028800484 -0.015973788 -0.0020979426 -0.015951408 -0.026670432 0.017268827
-0.023337282 0.014382196 -0.004364327 -0.03453761 0.01386299 -0.01355218 0.015112298 -0.023021244

network_body.linear_encoder.seq_layers.0.bias f4 [128]
00000000: 2a3b a23c b441 e33c 9280 bdbc 64a0 e83c
00000010: 18b3 4dbc 2ebe 0b3d 71d1 b03c 0c8f bfbc
00000020: d51e d63c 3283 0a3d 0b07 ee3c f64b ea3b
00000030: 2e70 993c 34e4 c73c 31a5 4d3d 8f40 153d
00000040: fdf9 e6bc 205b 933c 4848 453c 47bd 483b
00000050: 18d6 163d 8389 7b3c 634d 243d a1d8 0ebd
00000060: 83ca 8a3c a85b 943c ebb5 473c 84f2 c3bc
00000070: 337a 933c 1cf6 4e3d fbf4 243d 3c64 8e3c
00000080: 38f2 db3c 8e03 923c 112d 2f3d 7f80 7bbc
00000090: edbc 4d3a 0c01 30bc 8376 293d 12d5 abbc
000000a0: 4e88 b839 eefd b4bc 21fe 9abc 5fd2 463c
000000b0: 0850 a43c f80e 14bd 685d 863c 3957 06bd
000000c0: d13f 93bc 3e4a 283d 8d39 a33c d2ac eabb
000000d0: 2aa5 e93b 84ba e23c 11dd 44bc 3234 99bb
000000e0: 652c 08bd 3a3d b5bc 2009 47bd 72d5 503c
000000f0: 6c21 1b3d 57bf 523d 559b e5bb fe64 ed3c
00000100: 4059 823a 2432 533b 587e be3c e316 ee3c
00000110: 020b e6bc 1c95 0f3d 88d5 5abc 64e5 cabc
00000120: e4f8 f53b 3aab 3a3d 3bda 84bc a36f c5bc
00000130: 2ab2 18bd 1fda 0fbc 1b6f a93c 981e ed3c
00000140: 7d66 dd3c 3446 50bd c8b0 ac3b 3cc5 2bbc
00000150: 609c 1f3d eafe 4abc 2951 673c 72d1 87bc
00000160: e499 83bc 6a7c 113d 3a50 0dbd a88b 083d
00000170: d783 53bc b00f 09bd b63b ccbb d284 cabc
00000180: 7351 a73c 11a2 30bd 028f 753c 0c80 3b3c
00000190: 218b 9ebb 2188 953c 7d2e a3bc 8aed e03c
000001a0: 63b9 14bd d34f ea3b eaa1 503d 5e3e cc3c
000001b0: d00b 173d b8e6 853c 0a64 863c f9a3 de3c
000001c0: f1c0 233d b119 54bc d346 39bc 3f7a 163d
000001d0: 7a23 51bc 15aa c1bc 1aba 4a3d 4a19 f63c
000001e0: fe4e 71ba c405 173d 09f8 803a c75a be3c
000001f0: f5d0 8cbc bea7 de3c 1132 7dbc 7f89 1b3b
0.019803602 0.02774129 -0.023132596 0.028396793 -0.012554906 0.034116916 0.021584244 -0.02338364
0.026137749 0.033816524 0.029056093 0.0071501685 0.01873025 0.024400808 0.050206367 0.03643852
-0.028195376 0.017987788 0.012041159 0.0030630396 0.03682527 0.01535261 0.040112864 -0.034874562
0.016942268 0.018110111 0.012189369 -0.023919351 0.018002605 0.050527677 0.040272694 0.01738178
0.026848897 0.01782396 0.042767588 -0.01535046 0.00078482815 -0.010742437 0.041372787 -0.020975623
0.0003519677 -0.02209374 -0.018920006 0.012135117 0.020057693 -0.036147088 0.016401961 -0.032798026
-0.017974766 0.041086428 0.019924903 -0.007161715 0.007130285 0.027676828 -0.012015597 -0.0046754116
-0.033245463 -0.022123922 -0.048592687 0.012746202 0.03787367 0.051452007 -0.0070070424 0.02897882
0.0009944811 0.003222593 0.023253605 0.029063648 -0.02808142 0.03505431 -0.013356574 -0.024767585
0.0075064767 0.04557345 -0.016217342 -0.024101084 -0.037279285 -0.008780031 0.020682862 0.028945252
0.02702641 -0.0508482 0.0052700974 -0.010484036 0.03896749 -0.012389878 0.014118471 -0.016579363
-0.016064592 0.03551904 -0.034500338 0.03333631 -0.012909851 -0.033462226 -0.006232704 -0.024721537
0.02042458 -0.04312331 0.014987709 0.011444103 -0.004838363 0.018253388 -0.019919628 0.027457017
-0.03630961 0.007150629 0.050935663 0.024932083 0.0368765 0.016345367 0.016405124 0.027177798
0.039978925 -0.012945578 -0.01130839 0.036737677 -0.012764806 -0.023640672 0.049493887 0.030041356
-0.0009205191 0.036870733 0.0009839545 0.023236645 -0.017189482 0.027179595 -0.015453831 0.0023733077

network_body.linear_encoder.seq_layers.0.weight f4 [128, 23]
00000000: 2baf 63bd 0943 033f c684 73bd 9e33 1bbf
00000010: 5471 ddbd 0bbd 04bd b332 a5be ba7f b3bc
00000020: c4c6 9cbd f901 7c3e b85c 73be 696b b5be
00000030: 16b1 b2bd f54c 4a3e 0664 463d 1551 8dbe
00000040: 78cc 5bbd a1c4 8b3d 45ce 4b3e e723 68be
00000050: 4b7e 81be dd15 d93e d81b 5f3e 0c44 7cbd
00000060: 0e34 813d ec62 743e 8c34 1fbe b89a 9bbe
00000070: 6c00 3d3e 47d3 bc3c ff8b 58be e2e2 84bb
00000080: b1de 303e d931 6bbd 57b0 253f d6e6 04be
00000090: 2acd bebd 2c69 bfbd b989 3fbd fdad 813e
000000a0: e009 8fbd 8735 eb3c 6c07 30bf 4aa7 89bd
000000b0: 6f96 613d 1152 1b3e d383 d7be 017a bc3e
000000c0: 828b 61be 737d 3bbe 8954 e53b 9466 ea3d
000000d0: 9d54 d7bd 2cac 26be c20b d9bd f327 093e
000000e0: 8534 46be ed08 c8bd d794 aabe 9cd0 7fbe
000000f0: 85e7 d3bc 5e2e 193e 28b0 b5be 94ec 27bf
00000100: f92f 3fbe 59c9 5ebe d238 95be 5c6e 0e3c
00000110: 8cfd bbbe df18 a8be da97 a93d a828 1f3e
00000120: 1425 2fbe d031 163e e0e7 943e 29b7 393e
00000130: 5e7e 4ebe a2ba 693e 7696 41be 8129 3dbd
00000140: 95bd 39be c1bb bcbc 7f4a 403e 1744 b2bd
00000150: 9fb7 09be 9ee5 ff3d 5158 003f 142e d3bd
00000160: c2ff 993d b8f7 ce3c f127 113f 4629 a43d
00000170: 86dd 7f3d 1690 48bd b9b3 ab3c 875f ac3d
00000180: 4328 883e c4cc 35be aa57 833e e5b0 493d
00000190: 3246 873d 5d32 1ebe 8bc1 6e3e 87d4 70bd
000001a0: d7b9 85bd 71fb eb3e 8da5 e4be 54dc c33d
000001b0: 1a1d 8e3d a2f0 c73d 91e8 31be ecc7 2dbe
000001c0: 65e7 4fbe 3889 98be 2a52 0f3c fd1a f6bb
000001d0: b5b0 c13e 6752 633d 0f7c e4bd 2ff1 24be
000001e0: a313 183e 6c84 033f 9d09 01bc d55f 1d3e
000001f0: c809 b8be 9d3d 76bc 86db 4c3e dea9 05bf
00000200: c743 0d3e 1a7b 133e 7d98 a63e 8f3b 88bc
00000210: 92d7 263e 2d35 1e3e 4d85 5dbc 39f7 8d3e
00000220: 41e7 8bbe b342 ddbe eb98 8a3c be37 d73d
00000230: babe 55be a915 673e d602 bf3d 2c40 fd3d
00000240: 6aff de3d cd0e a63e 6931 423e 091b 9f3e
00000250: 3bf8 dfbd c71e 873e f8ca dfbe e940 55be
00000260: 9ad9 b93c 9eb4 0a3e 83c4 003e 85e2 f33e
00000270: 5aa0 623e 6e12 c53e 6598 243e a4c9 803d
00000280: d05f d03d 126e c83e 7888 a1be 2ad7 78be
00000290: 3e61 a7bd 569d 2dbe f723 53be 347f f23e
000002a0: 07b9 183d 48e6 8e3e 4bd7 b1bc 0b41 853d
000002b0: bff7 77be be5a 7c3e 9024 3abe e3b2 9abd
000002c0: 708d a4be 790d babd 0cc0 39bc 15e9 813e
000002d0: b32d 17be 82e7 29be 31bd a03b fc2e 0bbc
000002e0: 3db0 7f3d 30eb 86be 39b4 853e 7f66 ffbd
000002f0: 0bfb dabd 57c1 543e 2b27 71ba 7b9e 9d3e
00000300: fb26 fe3e cb95 563e f648 93be 5fd9 e83d
00000310: 9342 2f3b 003e ed3e c83a 41be 5fc4 a23d
00000320: 8f06 4fbe ac61 66bc 0cbe cdba 9e04 7bbe
00000330: 9144 e23d 1f7f aa3e 56a5 7fbc 17f2 98bd
00000340: 4bb3 56bd 46db 403e afa0 b2bd 0a6d 893d
00000350: 48e4 bb3b facb 443c bd32 93be fcee 26bc
00000360: 6f50 283e 6de2 e6be f52d e5bc 5c04 45be
00000370: 64ab 053e 2cc7 e13e 96c8 e0bd 4ecb da3d
00000380: a598 e53c e514 b2bd 2078 cd3e 8903 59bd
00000390: a435 1abd 2976 08bd 7070 0bbf a32b 9a3d
000003a0: 710f 22bd c3c9 353d 8b88 a7bd d2b4 0abf
000003b0: 7778 ba3d 93af a23e 1c8a 103d 9e9b 13bd
000003c0: 2232 36bd 41e3 c4bc f257 4ebe 8afd 28bd
000003d0: 8b22 423e 6878 803e 2138 f83c 76c4 fd3e
000003e0: bdd4 a43e 3652 c8bd ccaa ecbc 0d99 c03d
000003f0: 7573 babd ba7d a23e 0e35 84be 58c3 113d
-0.055586975 0.5127416 -0.059452794 -0.60625637 -0.10812631 -0.032406848 -0.32265243 -0.02191149
-0.07655099 0.24610128 -0.23765838 -0.3543351 -0.08725183 0.1975592 0.048435234 -0.27600923
-0.053661793 0.06824613 0.19902904 -0.22669946 -0.25291666 0.42399493 0.21787965 -0.061588332
0.06308757 0.2386586 -0.15547389 -0.3039148 0.18457192 0.023049964 -0.21147154 -0.004055367
0.1727245 -0.057420585 0.647222 -0.12978682 -0.09316476 -0.09346232 -0.046762202 0.25328055
-0.069843054 0.028712047 -0.68761325 -0.06721361 0.055075105 0.15168025 -0.4209276 0.36811832
-0.22025874 -0.18309574 0.0069986028 0.114453465 -0.105141856 -0.16276616 -0.10597946 0.13394146
-0.19355972 -0.097673275 -0.3331668 -0.24981922 -0.025867233 0.14959094 -0.3548596 -0.65595365
-0.18670644 -0.21756496 -0.29144913 0.008693304 -0.36716878 -0.32831475 0.082809165 0.15542853
-0.17103988 0.1466744 0.29083157 0.18136276 -0.20165393 0.22825101 -0.18905053 -0.04618216
-0.18138726 -0.023038747 0.18778418 -0.08704393 -0.13448952 0.12494968 0.5013476 -0.10311523
0.07519485 0.025264606 0.5670157 0.08015685 0.06246712 -0.048965536 0.020959722 0.08416658
0.26593217 -0.17753893 0.2565282 0.049240965 0.066051856 -0.154489 0.23316018 -0.058796432
-0.06529587 0.46090272 -0.44657555 0.09563509 0.069391444 0.09762694 -0.17373873 -0.16970795
-0.20303114 -0.2979219 0.008747617 -0.0075105415 0.3783013 0.055498507 -0.11156475 -0.16107629
0.14851241 0.51373935 -0.007875827 0.15368588 -0.35944963 -0.015029338 0.20005617 -0.5221232
0.13795386 0.14402428 0.32538214 -0.016629962 0.16293171 0.15449972 -0.013520551 0.27727678
-0.2732487 -0.4321495 0.01691862 0.10508679 -0.20873538 0.22566856 0.09326713 0.123657554
0.1088856 0.32433167 0.18964161 0.31075314 -0.10936018 0.2639067 -0.4370954 -0.20825543
0.022686768 0.13545462 0.12574963 0.47633758 0.22131482 0.38490623 0.16073759 0.0628846
0.10174525 0.39146477 -0.3154943 -0.24300829 -0.08172844 -0.1695455 -0.20619188 0.47362673
0.03728583 0.27910066 -0.021709105 0.065065466 -0.24215601 0.2464399 -0.1817801 -0.07553651
-0.32139158 -0.09084601 -0.011337291 0.2537314 -0.14763527 -0.1659222 0.004905366 -0.008495089
0.062423933 -0.2635131 0.2611406 -0.124707215 -0.10692414 0.20776878 -0.0009199257 0.30784974
0.49639115 0.20955579 -0.28766602 0.11369585 0.0026742562 0.46336365 -0.1887008 0.07947611
-0.20217346 -0.014061373 -0.0015696897 -0.2451348 0.11048234 0.3330011 -0.015603384 -0.0746805
-0.05241708 0.18833646 -0.08722054 0.06710251 0.0057340004 0.012011522 -0.28749648 -0.010188814
0.16436933 -0.45094624 -0.027976016 -0.19239944 0.13053662 0.4409727 -0.10975759 0.106833085
0.028026888 -0.086953916 0.4013071 -0.052981887 -0.037648812 -0.03331581 -0.5446844 0.07527854
-0.039565507 0.044381868 -0.081803404 -0.5418216 0.09105008 0.31774577 0.03528796 -0.03603708
-0.044481404 -0.024034144 -0.20150736 -0.04125742 0.1895849 0.25091863 0.030300202 0.4956395
0.32193556 -0.097813055 -0.028890036 0.09404192 -0.09104053 0.31736547 -0.25821728 0.035586685

network_body.linear_encoder.seq_layers.2.bias f4 [128]
00000000: 8be0 183d ae06 a13c ace9 093d e019 163c
00000010: 0fc1 25bc bb87 39ba 44f0 d23c f2c7 f13c
00000020: a36c e23c c72f 0b3c b702 323d 8fd2 22bc
00000030: 1b0e 693c 6de6 a2bc c176 7e3c bd10 da3b
00000040: 4ff8 c1bc 5621 b13b cc68 19bb 0362 19bc
00000050: 2432 553c eb53 fb3c 0aa2 d7bc d978 b0bc
00000060: 04e0 16bb e667 c3bc 2a53 05bc 053a 053d
00000070: 3aaf 7a3c f521 093d b90f 053d 3aed df3c
00000080: df0c 153d a342 65bb cdf9 20ba 20f3 2bba
00000090: 30c3 12bc 6177 ae3c b49c e5bb e17e 153d
000000a0: f604 773c c29e 2a3d c7df 9cbc 7078 11ba
000000b0: 039a 65bb 1162 81bb dfd2 cbbc c27f 213d
000000c0: f570 003d 6a8e 543c 5913 15bc 143b e63c
000000d0: e8c2 833c 2ec5 b73c eeea ec3c 16b1 0ebc
000000e0: c5e1 e6ba 2616 41bc 8b4f 0a3d d7f0 0fbd
000000f0: cd57 9e3b 54ee 183c c9c4 76ba 9153 c33c
00000100: b4cd ebbc 2297 70bc 35f6 16bc b0ba 9e3b
00000110: 7d57 3abc d67a 823c 87ba c83c 014b 67bc
00000120: e9e0 ad3b 0de3 efbc 37bd 023d 6f7c 583c
00000130: 75ae a93c cac3 233d ee8a db3c cea4 fe3c
00000140: 3cd3 283d 3d10 f3bb 2f63 f03c 9602 033d
00000150: 576e f23c 5cc3 003c 15c1 d93a 26da c13c
00000160: 6151 a4bc 9f79 da3c fbc4 d53c 602d 07bd
00000170: 9985 c3bc f700 d23c a635 dcbc c59d 933c
00000180: 4851 b33c 8fb9 a2bc b92e 7a3c 306d 173d
00000190: ecff 403a a2d7 153c 147d c13c cc2f 1fbb
000001a0: bccf 71bb f51a a83b 7f37 b63b c927 903c
000001b0: 0d7f 023d 16d3 1a3d 086e 4bbc 9703 6d3c
000001c0: 2aef 203d f613 7abc ea14 2abc b5eb 103c
000001d0: 274e b1bc 7c77 3fbb c5a8 ad3c 6560 103c
000001e0: 7664 a23b 1095 173c 523d 10bc 8d35 c33c
000001f0: 6b12 083d 6f0b c53c 37d2 063c ef41 2b3d
0.037323516 0.019656505 0.033670112 0.0091614425 -0.01011683 -0.00070774154 0.025749333 0.029514287
0.027639693 0.008495278 0.04345962 -0.009937896 0.014224554 -0.019885266 0.015531243 0.0066548274
-0.023677973 0.0054055853 -0.002340841 -0.009361747 0.013012443 0.030679664 -0.026322383 -0.021542
-0.0023021707 -0.023853254 -0.008137504 0.032526035 0.015300566 0.03347965 0.032485697 0.027334798
0.036389228 -0.0034982346 -0.0006140739 -0.0006559361 -0.008957669 0.021297159 -0.007007206 0.036497954
0.015076866 0.04165531 -0.019149674 -0.00055492576 -0.0035034425 -0.003948458 -0.024880825 0.03942848
0.031357724 0.012973407 -0.009098851 0.028104343 0.01608415 0.02243289 0.028920617 -0.008709213
-0.0017614892 -0.011785066 0.033767264 -0.035141792 0.004832244 0.009334166 -0.00094134785 0.023843559
-0.02878461 -0.01468447 -0.009213974 0.004844032 -0.011373398 0.015927713 0.024503006 -0.014117003
0.0053063524 -0.029283071 0.03191873 0.013213261 0.02071307 0.03998164 0.026799645 0.031084444
0.041217074 -0.0074177072 0.02934417 0.031984888 0.02959363 0.007859077 0.0016613329 0.023663592
-0.020058336 0.026669322 0.026094904 -0.033002257 -0.023867415 0.025635226 -0.02688105 0.018019566
0.021889344 -0.019863872 0.015269929 0.036969364 0.0007362354 0.009145649 0.023619212 -0.0024289964
-0.00368975 0.0051301667 0.005560815 0.017597096 0.031859446 0.037798963 -0.01241637 0.014466188
0.039290585 -0.015263548 -0.010380963 0.008845259 -0.021643711 -0.0029215505 0.02119864 0.008812045
0.0049558235 0.009251848 -0.008803682 0.023829246 0.03322069 0.024053304 0.00822883 0.041810926

network_body.linear_encoder.seq_layers.2.weight f4 [128, 128]
00000000: 3c72 2a3e 8931 293e a1d0 04be 7efb f33d
00000010: a118 8bbd c981 91bd 1a47 2f3e 22ab 2e3c
00000020: b740 2ebc 2ad8 0f3e ce30 9ebd 585b bfbd
00000030: 2aa7 843e eb12 84bc 06d6 c7ba 905b 213d
00000040: 688b 1cbb c8b1 b23d add9 9e3d 61d6 29bd
00000050: 2538 2f3e 1357 93bd 8aa3 293e 2c53 30be
00000060: 259a 063e c22e cabd 7e9d b6bc 9db2 17bd
00000070: c535 50bd eb72 8f3d f71c f23d 12f5 5cbe
00000080: 5daa 1c3d d147 373d 1cfe 743d 3531 5e3d
00000090: 5f5f afbd 84e6 b63c 0ea2 12bd e58d 143c
000000a0: cc18 463e 54d6 9d3c 06df a0bd e4d2 0cbc
000000b0: c034 e73c f361 12be 1a74 3f3d c7c9 6ebe
000000c0: 3d78 c8bd ad99 a03d 5b10 273d 700b 083d
000000d0: 2abf c1bd 3f13 833d c120 84ba 9e8a b6bc
000000e0: 2974 8f3d 3b80 543c 26aa dfbd fdee d83d
000000f0: e419 643d 1b8a 223e 7387 01be 10e0 17bc
00000100: 48cf aeba 2980 23bd 9d39 263d 559d 2bbd
00000110: 1678 a53c d3d8 a83b e61c 56bd 51f9 153e
00000120: 9453 bbbd 88e3 193d 31ea 1bbd f24f 54bc
00000130: f411 29bd 3b9d 3b3d 09f5 163e 75aa f63d
00000140: db34 27bd 14b2 2dbd 7246 5c3d fc87 99bd
00000150: c495 393e 162d 7b3d f976 e1bc c1b9 01be
00000160: befb d9bc a060 383e cbe9 2bbe 31a1 3b3d
00000170: fa02 7cbd fec8 1bbc f574 c13d 4c75 ce3d
00000180: 2b97 9ebe a0ae 23bc fa19 a63d 1aa1 863d
00000190: f8e4 d5bc 855d 8abd c60f 1abe c46c 603c
000001a0: b97e 7dbe dde8 e03d 9859 343e eaed e03d
000001b0: 04aa db3a eed4 19be 9851 90bb 4143 933d
000001c0: c5c6 f73c 81c4 0d3d cb5e 183e 8378 603c
000001d0: a0f5 84bd e58a abbd caac 1f3e 84a8 c0bc
000001e0: c2a2 8a3d 1d05 71bc 0be3 5cbd 1366 833c
000001f0: a061 c73c b38b 533e 12d5 c5bd 5a27 ebbc
00000200: b8e5 e8bc 6010 d1bd a9f0 62bd 23e5 733d
00000210: 2483 dabd 7a22 e33d afcf f13c 15ad 0f3d
00000220: c7c2 623d 913c 303c 30c7 263e 3e07 893d
00000230: cf41 8339 b33f ffbd 524b a93d 1ecc 8a3d
00000240: 0b59 2dbe cfe6 ff3d 4578 bc3d c14a 833c
00000250: a26e b5bd 8e84 8cbd a1f8 6a3d bb0b f7bd
00000260: 47ed 003e 2ee7 8cbd 86d9 8d3d 00dd 8cbb
00000270: b343 163e d5f3 393e 0ecf 1dbe 2e58 da3c
00000280: 5944 743e 9996 2f3d f52a c23d d73e f43b
00000290: 0665 c13d 6477 863d 2281 c43a 4e20 433c
000002a0: 8c9e 033e b011 43ba d2e5 753b a786 923b
000002b0: 1902 623c 3a60 e4bd 0bc7 fe3d 0b17 78bc
000002c0: 5975 9abd 8d43 e13c d34d a33c 6c60 e4bc
000002d0: 83a8 13be fb2b 1f3e 2d27 cc3d f694 92bd
000002e0: 800d d23c 34c8 adbd 9186 19be cf47 f53c
000002f0: 2ea2 b1bc 38a3 763d 4455 6abd 13d3 033d
00000300: 4540 51be c8f9 61bd 2837 7c3d 7606 32bc
00000310: 7a3b 39bd dcb1 063d 8d57 febb 5c38 febc
00000320: f17b 73bd 192f be3d 1bde 43bc 1bf6 083e
00000330: 5691 e33d 58df 7c3b 1a10 733e b92f e43d
00000340: f143 063e 2e2f b7bd 6846 be3d 2e38 1d3e
00000350: c4cf 853d 518f aebc 04a7 6b3c de43 633c
00000360: b14a 8bbb 636a 19be ff9c 063d 95d9 c9bd
00000370: 1944 863d 03d4 36be c2fc 813e af52 e13d
00000380: f4d1 8b3d 7d74 20bd 937a b3bd e9d1 b7bc
00000390: 7197 07be ec5d 9a3c 61c4 f0bd c9b1 833d
000003a0: f660 b4bd 7960 953d 3267 a73c 7ac9 ca3d
000003b0: 799e 7e3a d706 bcbd 6ab5 383d cc34 58bd
000003c0: 3a0d b2bc 897a d83c 4d0d 243c ae1c 273e
000003d0: f660 143e 5f19 fcbd 8344 c1bd 6687 883d
000003e0: 9343 703c f35b 123e 0d42 c73b 86d2 9e3c
000003f0: ed1a 453d 3161 4ebd 33b4 8fbc 2156 cfbb
0.1664514 0.16522802 -0.1297021 0.11913203 -0.06791807 -0.07104833 0.17116967 0.010660918
-0.010635546 0.14047304 -0.077241525 -0.09343594 0.25908786 -0.016122302 -0.0015246279 0.03939396
-0.0023886804 0.08725315 0.07756362 -0.041464213 0.17111261 -0.071943425 0.16566291 -0.17219228
0.13144739 -0.098721996 -0.022291895 -0.037035573 -0.05083253 0.07004341 0.11821931 -0.21577862
0.03824841 0.044746224 0.05981265 0.054246146 -0.085631125 0.022326715 -0.03579908 0.009067033
0.19345397 0.019267239 -0.07855038 -0.008595202 0.028223395 -0.14295177 0.046741582 -0.2331916
-0.09788559 0.07841811 0.040787082 0.033214033 -0.0946029 0.06400155 -0.0010080562 -0.022282895
0.07004578 0.012970026 -0.10921125 0.105924584 0.055688754 0.15872996 -0.12649326 -0.009269729
-0.0013336921 -0.039917145 0.040582288 -0.04189809 0.020198863 0.0051528006 -0.052273653 0.14645888
-0.09146801 0.037570506 -0.03806514 -0.012958514 -0.041276887 0.045804244 0.14741911 0.12044231
-0.04082189 -0.042406157 0.05377812 -0.0749664 0.18123537 0.061322294 -0.02752255 -0.12668516
-0.026609298 0.1800561 -0.16788404 0.04580802 -0.061526276 -0.0095083695 0.09446136 0.10080966
-0.30974707 -0.009990364 0.081104234 0.065736964 -0.026110157 -0.06756119 -0.1504508 0.013697807
-0.24755372 0.10981915 0.17612302 0.109828785 0.0016759043 -0.15022632 -0.004404258 0.07190562
0.030246148 0.03461123 0.1487991 0.013700607 -0.06492162 -0.083761014 0.15593258 -0.023517855
0.06769325 -0.014710692 -0.053927463 0.016039884 0.024338543 0.2065876 -0.096597806 -0.028705288
-0.028429851 -0.102082014 -0.055405293 0.059544694 -0.10669544 0.1109056 0.029517977 0.035077173
0.055361535 0.010756628 0.16286922 0.066908345 0.00025035298 -0.124633215 0.08266319 0.067772135
-0.16928498 0.12495195 0.09202627 0.016026856 -0.08858992 -0.0686122 0.057366017 -0.12062784
0.12590514 -0.068800315 0.06926255 -0.004298806 0.14674263 0.18159421 -0.15411016 0.026653375
0.23854198 0.04286823 0.0948085 0.00745378 0.09443097 0.06565741 0.0014992098 0.0119095575
0.1285345 -0.00074412953 0.0037521017 0.004471618 0.013794445 -0.11151166 0.12440308 -0.015142213
-0.075419135 0.027498031 0.01993457 -0.027878009 -0.14419751 0.15544121 0.0996841 -0.07157318
0.025641203 -0.08485451 -0.1499274 0.029941468 -0.021683779 0.06021425 -0.057210222 0.032183718
-0.20434673 -0.05516985 0.06157604 -0.010865798 -0.045222737 0.032884464 -0.0077619017 -0.031032734
-0.05944437 0.09286327 -0.01195481 0.13375132 0.11111705 0.0038585272 0.23736611 0.11141915
0.13111855 -0.08944546 0.09290773 0.15353462 0.06533769 -0.021308573 0.014383081 0.013871161
-0.0042508473 -0.1498199 0.032864567 -0.098559536 0.06555957 -0.17854314 0.2538815 0.11002099
0.06827155 -0.039173592 -0.087636136 -0.02243896 -0.13241364 0.018843614 -0.11756206 0.06430394
-0.08807556 0.07293791 0.02043495 0.0990171 0.00097129453 -0.09180992 0.045094885 -0.052784726
-0.021734823 0.026425617 0.010012937 0.16319534 0.14490113 -0.12309527 -0.09436896 0.0666645
0.014664548 0.14292888 0.006080872 0.019387495 0.04812138 -0.050385658 -0.01754198 -0.006327406
