results/3Obstacles2/BasicAgent/BasicAgent-499997.pt (torch, 497479 bytes, 33 tensors)

network_body.linear_encoder.seq_layers.0.weight f4 [128, 24]
00000000: b592 e1be 2d92 083e bb22 81be f6b0 5bbe
00000010: 4961 2ebe 3510 8ebe ef4b c9be 559e 28be
00000020: 56b4 243d 0dea a73d b899 a8be 56bb 8fbe
00000030: cbb7 273e c4fe ea3c d2f2 3ebc 6374 18bd
00000040: 918b f4bd 554d 973d c4a5 543e a15f 6ebe
00000050: 08bb 133d 179f 263e cde4 6f3b ac05 c53e
00000060: 67d2 dd3e d673 c63b c67f e2be 572e 223d
00000070: 592a 443d 1db3 afbe 7a53 b13d 7f2d 9fbd
00000080: b6d1 89bd 68a2 ba3e 2502 c93e 9601 7dbe
00000090: 29b7 6ebe 62b0 57bd 01e6 9e3e 3e36 e23d
000000a0: 0932 353e 8c40 5ebe ad91 593e ccf0 4c3e
000000b0: 4090 803e 8428 593e 7d99 2fbd db3a 253f
000000c0: 5608 11bd 0979 7abd c2b7 d8bd a16a d3be
000000d0: 49f2 4d3d b6c3 c03e 3b0b 363f a6c6 8cbd
000000e0: 8512 22be f408 723d b65e 493e ee27 753e
000000f0: 2383 b8bc 8a28 d6bb 30f9 1e3d a325 3cbd
00000100: 3f2c cf3e 42d6 883e ea6d 883e 6629 9cbd
00000110: e907 c0bd e676 dcbd 037e 96bd 64b0 0ebf
00000120: a070 57bc 14f9 65bd af0a 0e3e 2d09 2ebe
00000130: d476 09bd fbdf c1bd 0a98 d93c 1619 babe
00000140: d4c7 65be ae06 53be 9101 d7bd ed3b 8dbc
00000150: 22c4 8ebd 15c1 8cbe 5bd6 7cbe 4e3c 96be
00000160: 5fa4 adbe b4f2 9bbd fb67 0fbe 810d d1be
00000170: 9931 c43d 5443 0d3e f3ac c4bd a3c3 26bf
00000180: 05a7 03bf afd0 c73d 3519 123f 0a35 c73e
00000190: 6660 8b3d 6a37 073f 81b6 293d 53bc 853e
000001a0: 1afa 093f f8dc 893e 53b9 363d b019 15be
000001b0: 2cda b63e 0366 083e 85bd 333d 4429 0e3e
000001c0: 2a23 233d 723a 29be 910e 64be 78f0 6ebd
000001d0: 48b0 d4be 3415 3cbe c435 07be 419e 52bc
000001e0: 8bbc 0dbf ca1e 3abe 4fa4 fcbc f8ec abbd
000001f0: 5364 d63d 7cb8 143e c4bc a7bd 472c aa3d
00000200: 02e9 c73e 8e78 98bd 6b52 87be 401e 133e
00000210: 1dbe d63e c696 d3be d772 2e3e 2570 1ebd
00000220: 8e08 68be 011c 25ba 47b4 513e 69fe a1be
00000230: a812 08bd 38df 9ebe 8415 033d be94 3a3f
00000240: 6e00 503e e569 4d3e 0fe7 843e c5d0 b43e
00000250: ef3d 33be ac05 15bd df05 04be 2058 35be
00000260: f6b0 8b3e dcfb 153f f1e5 0ebe b583 8d3e
00000270: b1da 87be a2f4 8fbc 26dc e33e ec96 f33a
00000280: f49b 7dbe 48da 363e 953a 583e b668 a13d
00000290: 96e0 aabd 347f aabd 24b1 d23d 699d 5b3f
000002a0: 1d23 9cbd 8382 aabd b2a4 4ebe 2963 5d3e
000002b0: 429a 993e 4aa3 b0bd ba49 a33d 9978 f43e
000002c0: 181a 563e 8bac 0cbe acbe 8b3e c73e 3b3e
000002d0: d54e 1dbe c68c 3abd 3f9b c1be e56b 9cbe
000002e0: 29d0 9c3d 22db d2be 650d 8c3e 3009 a43d
000002f0: 05d4 efbd 4d5c ca3d 052c a03e adc2 1f3f
00000300: fa02 3ebf 95c6 acbc cb35 7d3e f40a ddbe
00000310: 94eb b4be 3341 bb3d 859e c83d d729 b83d
00000320: 26cd 8d3d 4bd3 9a3c 869c 95be 6b32 fb3d
00000330: ee6b c03d 5e93 f0bd 5a5b b23d 80dc 9cbd
00000340: d0a7 3b3e 335b d5be 5d0f ae3d 24d8 003d
00000350: 72af a7be 38ab 7b3e 2dd0 56bb 2379 13bf
00000360: 7a1f 1cbf 7a78 2dbe a611 b73d ce77 aebe
00000370: f2fd 11be fbc4 7cbe d556 8dbe 0b22 1c3e
00000380: c86e 9b3d 2b56 8c3d 20f0 563c 3b24 9dbd
00000390: da52 e53e da97 0b3d c04c 50be 1c24 f63d
000003a0: fe5c 28bb 6500 9fbe 30e9 643e b95b a1bd
000003b0: f0a3 e43d 9f5d e83d 5e50 963c b49b 193d
000003c0: 845a c73e 8e18 323e d5ba 5fbf 8af2 b7bd
000003d0: 8eb1 453e 4555 d9be f028 e8be 7ffc 73be
000003e0: 1be3 923e 4fdc 633e 600f cabe a939 a83c
000003f0: 4708 3fbd c5d5 a23e ece7 6a3e caff d3bd
-0.4405724 0.13337012 -0.2522181 -0.21454224 -0.17029299 -0.2774674 -0.39315745 -0.16466649
0.040211044 0.081989385 -0.32929778 -0.28072613 0.16378705 0.028685935 -0.011654573 -0.03722037
-0.11940683 0.07387797 0.2076636 -0.23278667 0.03606704 0.16271625 0.0036604882 0.3848089
0.43324587 0.006056289 -0.44238108 0.039594974 0.04789195 -0.3431634 0.086585 -0.077723496
-0.06729452 0.3645203 0.3925945 -0.24707636 -0.23312058 -0.052658446 0.31034854 0.11045502
0.17694868 -0.2170431 0.21246977 0.20013732 0.25110054 0.21206862 -0.042870987 0.6454293
-0.03540834 -0.061150584 -0.10581924 -0.4129229 0.05027989 0.37649316 0.71110886 -0.06873827
-0.15827377 0.05909057 0.19665036 0.23941013 -0.022523468 -0.0065355944 0.038811862 -0.04593433
0.40463445 0.26725966 0.26646358 -0.076250836 -0.09376509 -0.107648656 -0.073482536 -0.557379
-0.0131494105 -0.056145743 0.13871263 -0.16995688 -0.03356059 -0.09466549 0.026561756 -0.36347264
-0.2243951 -0.20608017 -0.10498346 -0.017240489 -0.06971003 -0.2749106 -0.24691145 -0.29342884
-0.33914468 -0.07614651 -0.14004509 -0.40830615 0.095797725 0.13795215 -0.096033 -0.6514227
-0.51426727 0.097566 0.5706971 0.38907653 0.06805496 0.5281893 0.041433815 0.26120242
0.5389725 0.26926398 0.044610333 -0.1456058 0.35713327 0.13320164 0.04388191 0.13882929
0.039828457 -0.16526201 -0.22271182 -0.058334798 -0.41540742 -0.18367463 -0.13204104 -0.0128551135
-0.5536582 -0.18175808 -0.030840067 -0.083948076 0.10468354 0.145235 -0.08190301 0.083092265
0.39044958 -0.07444869 -0.26430067 0.14367008 0.4194192 -0.41325969 0.17035995 -0.038681168
-0.22659513 -0.00062984234 0.20478927 -0.31639412 -0.033220917 -0.31029677 0.03200294 0.7288321
0.20312664 0.20059927 0.25957534 0.3531553 -0.17504095 -0.036382362 -0.12892865 -0.17709398
0.27283448 0.5858743 -0.13954903 0.27639547 -0.26534036 -0.017572705 0.44503897 0.0018584407
-0.24766523 0.17856705 0.21116097 0.078813 -0.083436176 -0.08325043 0.10287693 0.85787064
-0.07623885 -0.083256744 -0.20180014 0.21619858 0.30000502 -0.08624895 0.079730466 0.4774826
0.20908391 -0.13737695 0.2729391 0.18285666 -0.15362103 -0.04554441 -0.37813756 -0.30551067
0.07656891 -0.4118281 0.2735397 0.08009565 -0.117103614 0.09880886 0.31283584 0.62406427
-0.7422329 -0.021090785 0.24727552 -0.4317242 -0.35335982 0.09143295 0.0979586 0.08992355
0.069238946 0.01889958 -0.2922098 0.12265476 0.09395586 -0.11746858 0.0870883 -0.076592445
0.18325734 -0.41671142 0.08499024 0.031456128 -0.32751042 0.24577034 -0.003277789 -0.57606715
-0.6098553 -0.1694049 0.08938913 -0.3407578 -0.14257029 -0.24684517 -0.2760531 0.15247361
0.07589489 0.06852373 0.013118774 -0.07672926 0.44789773 0.034080364 -0.20341778 0.12018606
-0.0025690193 -0.31054989 0.22354579 -0.07878823 0.11164081 0.11345982 0.018348869 0.037502006
0.38936245 0.1739218 -0.8739446 -0.089818075 0.19306013 -0.42447868 -0.45343733 -0.23826788
0.28688893 0.2225201 -0.39464855 0.020535307 -0.046638753 0.31803718 0.22940034 -0.10351522

network_body.linear_encoder.seq_layers.0.bias f4 [128]
00000000: adfc 9bbd 82c4 a33c 45be 503d 6eb4 04be
00000010: aca0 16bd e67b 89bc 4c71 8f3d 1525 17be
00000020: c606 d6bb 7ccc efbd 52df ad3d cef2 12bc
00000030: eed4 e7bc d9d8 42bc 9906 cdbc 0579 083e
00000040: 2e9a cbbc 9505 22bd 7405 95bd c488 5e3d
00000050: e4c8 a7bd 5ec5 8abd 4095 063d e2fd 9bbd
00000060: 3a6d 593d d9b6 85bc e023 103d 9523 ecbb
00000070: 06bf 91bc 8a1a aebd 5580 a33b a954 63bd
00000080: 57df c7bd b70d 643d a6f8 8fbc fa67 78bd
00000090: ef25 89bd e087 e03c b346 a9bc aa13 3b3d
000000a0: 3da6 9e3d 6af9 0a3d 70e7 c5bd e3e8 2f3d
000000b0: 5c8d abbd f32a acbd 42ba 30be c6d1 213c
000000c0: 6ba5 0b3b 8207 f53c f063 a9bd 809b a9bd
000000d0: 3958 043d a00a 143d 5a47 1bbd 34ad c1bd
000000e0: 847e 1e3c 27a8 6f3d ecb8 eebc 0dff b53b
000000f0: f823 133c 71f0 f23c b128 34bc 82f1 bcbd
00000100: cc3b 8dbd 56d9 a03d df23 59bc a0e0 ed39
00000110: 027d babd a043 25bc fa6d 33be aeaf c7bd
00000120: 5c18 94bd 89c1 20bd 18fe 24be 775a 12be
00000130: 5bab 82be cc49 053e a07b 7dbd a4c5 18be
00000140: 64a0 153d c1af be3c 05b4 ab3d 7fb0 c33d
00000150: dd06 033d cfcd 3b3d 5daf 663d c1c7 54be
00000160: 4074 0cbe 4702 bc3d 4944 aabc a812 28bc
00000170: 812e d33d 36bf 22bd 691c fdbd c2d1 08bd
00000180: be98 973d 5dde 8c3d b326 d8bd 32a2 46bd
00000190: 7e69 34be 5052 56bd fde2 373d 6896 8cbd
000001a0: 1f06 4dbc e2f7 7a3d ab8e 07bd 8620 1d3d
000001b0: 78b0 683d b85d 0a3d 4096 a1bd 88e0 573e
000001c0: 7660 8c3c 587a a9be a020 69bd 586b 823c
000001d0: 726d 0fbe 1485 133d 376b 813d e582 c9bd
000001e0: 68bf e7bd e74f 613d c9f5 b43d 6a55 2cbd
000001f0: 59ee 0f3e 2eff a6bc 27f9 d93c 266f bb3c
-0.076165535 0.019991163 0.050962705 -0.12959453 -0.036774322 -0.016782712 0.070040315 -0.1476024
-0.006531569 -0.11708924 0.084898606 -0.008969022 -0.028299775 -0.011892521 -0.02502756 0.13327415
-0.024853792 -0.039556105 -0.07276431 0.05432965 -0.08192614 -0.06775926 0.03285718 -0.07616784
0.053082682 -0.01632254 0.035190463 -0.00720639 -0.017791282 -0.08501156 0.0049896636 -0.05550066
-0.097593956 0.055677142 -0.01757462 -0.060646035 -0.066966884 0.02740854 -0.020663595 0.04567305
0.07746551 0.033929266 -0.09663284 0.042946707 -0.083765715 -0.084066294 -0.17258552 0.009876674
0.0021308314 0.029910807 -0.08271015 -0.082816124 0.0323107 0.036142945 -0.037909843 -0.09456864
0.009673718 0.058509972 -0.029140912 0.005554086 0.008980744 0.029655667 -0.01099603 -0.092257515
-0.06896171 0.078539535 -0.013253181 0.0004537152 -0.091058746 -0.010086924 -0.17522421 -0.09750305
-0.07231209 -0.03924707 -0.16112554 -0.14292322 -0.2552136 0.13016433 -0.061885476 -0.14919144
0.036529914 0.023277165 0.083839454 0.09555148 0.031988967 0.04585057 0.056319583 -0.20779325
-0.13716221 0.09180122 -0.020784514 -0.010258354 0.10311604 -0.039733134 -0.123589344 -0.033403166
0.0740218 0.0687835 -0.10554256 -0.048494525 -0.17618367 -0.052324593 0.044894207 -0.06864625
-0.012513666 0.061271556 -0.033095043 0.038361095 0.05680892 0.033780783 -0.07889986 0.21081746
0.01713584 -0.33101153 -0.05691588 0.015920326 -0.14006594 0.036015585 0.06319278 -0.09839419
-0.11315805 0.05500784 0.08835942 -0.042073645 0.14055766 -0.020385351 0.026608063 0.022880148

network_body.linear_encoder.seq_layers.2.weight f4 [128, 128]
00000000: bd22 0b3e a946 b33d e908 8c3d dc59 c23c
00000010: 2199 bf3c c27e 02be a385 54bd 0005 5fbe
00000020: 6581 21be f5f0 a9bd f270 95bd 01d6 79bd
00000030: acfc 233d 1f6a 183e fd0e 24bd 1329 47bd
00000040: 70d9 92ba b3b7 5e3d 112b 5ebb 9f24 893c
00000050: 658d 6abb 3935 1bbd ac31 23bd 701a 9fbd
00000060: dfb1 06be fd6c afbd efd8 20bd d99d 633c
00000070: 8ee7 20be fce2 0a3d 09a1 c93d c0ac 17be
00000080: 8629 33be 832e 913d 50e9 ff3d 80ea 48be
00000090: a485 b93d ab88 d1bd 632f 79be 42d8 af3d
000000a0: 79d7 203e b625 923d c91e 39be c940 473d
000000b0: de54 373d a9b9 91bd 499d 61bc feae 47bd
000000c0: b6c3 053e 4f98 9c3d 3ea7 8c3d 3697 9bbd
000000d0: 3c57 ea3c 42bf 9fbd b038 493c fbc8 26be
000000e0: 410f 49be d606 3bbe f15b 183d 32c7 25bc
000000f0: e739 a9bd 2d69 953d ebcc 383d f981 d93d
00000100: 8c7d 08bd 9aa7 e6bd 8d75 1dbe 82aa 313c
00000110: 72e1 07be 4ce1 713d 65dd 87bd b0a6 babd
00000120: 2034 56bc 78fe 6abe 5db6 bc3c 5102 eebc
00000130: 3201 ffbc f930 e6bc 137c 24b9 53db 153d
00000140: fa91 e53d d0e4 353d 9c1f b3bc 37d7 54bd
00000150: 3f9d 36bd be2e 4f3e 779a d43b c4fe 343d
00000160: 624e 3bbd 2cce 653d 732c 983d 02e1 5b3d
00000170: a1f9 0ebe bdd8 883c ca5d b13d fd7d 8fbd
00000180: 06b5 e3bd 2f15 24be 7d4d eebd cc21 ab3c
00000190: 2a37 15be 4454 d9ba 3b1b 153d 17a3 18be
000001a0: 4720 febc 7166 86bd 4c75 e83d f303 b5bd
000001b0: 2758 aebd 2e5a 3bbe 61cc bf3d 056a 75bb
000001c0: cd25 eebd fb51 aebc 6194 703e 08ce 773d
000001d0: ca07 283c a1e2 9fbc ad9f 0abd 9ffe a9bd
000001e0: e236 c93d f892 ebbd 2f74 843d 08de 73be
000001f0: b539 323e 7edc 1aba 885e 4cbe b056 2f3e
00000200: 7077 9abc fe94 fdbd 9534 de3d f6ee 7abc
00000210: 5328 73bb 03bc 79bd 8f3f 1abc 5abc ffbd
00000220: 822a 9dbd 0a70 8abe 46ab 91bd 7651 bb3d
00000230: cbac ad3c f3bd 2abd 9392 fabd 8868 a83e
00000240: 1487 85bd 1f1a 34bd 5264 fabc 16f5 b13d
00000250: 07e1 10bd a544 003e b9a4 553e 9134 7abd
00000260: 506b 1f3e 5c46 aabd 22aa a9be 82ab c63d
00000270: 0571 28be ac73 ae3d c0d5 2e3d e1a2 b2bd
00000280: 63cf 54ba 485c 51be 6df3 94be e248 893d
00000290: 2fbd 0fbe a1dd 93be 8fb0 33bd 8321 cfbe
000002a0: a1c0 c23e ecd4 d8bd 221d 14be c18b ea3d
000002b0: 5952 31be 1b7a 61bd d1b2 8dbd 39c8 e9bd
000002c0: cdf3 5abe 2d27 933d def1 92bd 6d60 5dbc
000002d0: 6ed0 273e e524 033d f88f 1bbe 8057 39be
000002e0: e7cc 303e bee9 5abd d159 e4bd 50fe 39be
000002f0: 4e98 d9bd 2d2a f8bc 5cae 51be e3e6 dcbd
00000300: d326 dd3d 73f5 82bb e249 a13b 3b24 743b
00000310: 7d3f 96bd 34e3 05be 4de8 a6bd 2a41 cfbd
00000320: 3eaa eb3d 53f2 58be 954a a9bc b298 b33a
00000330: 0c31 34be 18e0 3f3e 4543 e4bd 2768 0bbe
00000340: 431c 3b3d a24a 49bd fb36 1fbe 7957 b43e
00000350: e918 f93d 3b9d 6b3d c197 3a3e 60b8 4b3d
00000360: 3488 e23c c588 833e 68c0 cebc ac9b 623d
00000370: a7b2 853e b524 4fbe af3d f2bd b63b 823c
00000380: 8132 a3bc cf78 83be 491f 44bc cc1c febc
00000390: 778c 13be 9c7b 57be 8d80 3f3d 2ab0 dbbc
000003a0: 5edf fcbd 1324 21be 2282 b9bd ca79 06be
000003b0: 6299 05be 7412 a63d 3db5 38bc 8f01 6d3e
000003c0: 56c3 013d 2edd 80be 3e5e adbd a831 aebd
000003d0: dd17 27bd 3057 063e 13ef 233d 766a c7bd
000003e0: cdc0 aabc b53b c73e 7859 26be 7443 9dbd
000003f0: 2d25 283e 7531 5bbd ca94 5bbd 6c08 1cbd
0.1358747 0.08753712 0.06837637 0.023724489 0.023388447 -0.12743667 -0.05188526 -0.21779251
-0.15772016 -0.08297912 -0.07296933 -0.060995106 0.04003589 0.14884232 -0.040053356 -0.048623156
-0.0011203717 0.054374408 -0.0033900181 0.016741095 -0.0035789844 -0.037892554 -0.039842293 -0.077687144
-0.1315379 -0.0856571 -0.039269384 0.013892614 -0.15713331 0.033907875 0.09845168 -0.14811993
-0.17496309 0.070889495 0.12495673 -0.19620705 0.09058693 -0.102311455 -0.24334483 0.0858617
0.15707196 0.07136099 -0.1807815 0.04864577 0.04475867 -0.0711549 -0.01377041 -0.04875087
0.13062939 0.07646238 0.068678364 -0.075972006 0.02860605 -0.078001514 0.012281582 -0.16287605
-0.19634725 -0.18264326 0.037197057 -0.010118293 -0.08262997 0.07295451 0.0451173 0.106204934
-0.033322856 -0.11262436 -0.15376873 0.010843875 -0.13269594 0.05905275 -0.066340245 -0.09113824
-0.013073951 -0.22948635 0.023036176 -0.029053839 -0.0311285 -0.028099524 -0.0001568648 0.036586117
0.112094834 0.044407666 -0.021865658 -0.051963057 -0.044583555 0.20232674 0.00648814 0.044188276
-0.04572905 0.056104824 0.07430353 0.05368138 -0.13962413 0.016704911 0.08660467 -0.07006452
-0.11118512 -0.16023706 -0.116358735 0.020890139 -0.14571825 -0.0016580899 0.036402922 -0.14905964
-0.03102125 -0.06562508 0.113504976 -0.08838644 -0.085129075 -0.1829612 0.09365154 -0.0037447226
-0.11628304 -0.021279326 0.23494102 0.06049922 0.010255763 -0.019517245 -0.033843685 -0.08300518
0.09824921 -0.115026414 0.06467473 -0.23815167 0.17404826 -0.00059074897 -0.19957936 0.17122912
-0.01885578 -0.12381934 0.10849873 -0.015315762 -0.0037102893 -0.060970318 -0.009414568 -0.12487097
-0.07674123 -0.27038604 -0.07112746 0.09146397 0.021200558 -0.041685056 -0.12234988 0.3289225
-0.06519905 -0.043970224 -0.030565415 0.086893246 -0.035370853 0.12526186 0.20863618 -0.061085287
0.1556828 -0.08314201 -0.33137614 0.09700681 -0.16449364 0.085181564 0.042684317 -0.08722473
-0.0008118061 -0.20445359 -0.2909197 0.067033544 -0.14037012 -0.28880027 -0.04386955 -0.40455255
0.3803759 -0.105874866 -0.14464238 0.11452437 -0.1731657 -0.05504809 -0.06918872 -0.114151426
-0.21382065 0.071852066 -0.07175039 -0.013511759 0.16388103 0.032017607 -0.15191638 -0.18099785
0.17265664 -0.05344557 -0.111499436 -0.18163419 -0.10624753 -0.030293548 -0.20476669 -0.10786226
0.10798421 -0.003996545 0.0049221376 0.003725304 -0.07336328 -0.13074952 -0.081497766 -0.10119851
0.115070805 -0.2118619 -0.020665446 0.0013702123 -0.17596835 0.18737829 -0.11145643 -0.1361395
0.04568125 -0.04914344 -0.15548317 0.35222986 0.12162954 0.057522994 0.18221952 0.04973638
0.027652837 0.25690284 -0.02523823 0.05532424 0.26112863 -0.20228846 -0.118281715 0.015897613
-0.019921543 -0.25678107 -0.01197035 -0.03101959 -0.14409052 -0.21043247 0.046753455 -0.0268174
-0.123472914 -0.15736417 -0.09058024 -0.13132396 -0.13046792 0.081089884 -0.011273679 0.23145126
0.031680427 -0.25168747 -0.08465241 -0.08505565 -0.040794242 0.13119197 0.04002292 -0.09737103
-0.020843888 0.3891274 -0.16245067 -0.07678881 0.16420431 -0.053513963 -0.053608693 -0.03809397

network_body.linear_encoder.seq_layers.2.bias f4 [128]
00000000: ad1c 13bb 3bb5 9e3d 8608 273d d3cc 863d
00000010: 6b5f 8a3d 07f1 5b3d f355 93bd f005 bdbc
00000020: ee76 af3d e4ef ac3c 7a5e 9f3d 9187 613d
00000030: e60d 8ebd 80df 0cbc 4df6 533d ad74 1ebc
00000040: c7fb 503d bf2c 8cbd 3cde b5bd d409 1bbd
00000050: 865f 363d db71 47bd e906 7e3d 9e3d ac3d
00000060: c63d ed3b d03c e33c 6c8b de3d b1ae 9b3d
00000070: 5894 22bd ec63 9f3d 8022 1b3d 03c7 66bd
00000080: 7e49 b83d 1ce8 833d 1c0a 6e3d bb25 033e
00000090: e692 22bb d5d4 123d a7e6 aa3d 13d2 633d
000000a0: fa74 13bb c74c a73c 7f78 043c 55fe 533d
000000b0: 8a7f 8fbd f7ae 47bd e74e 003d 42b0 a53d
000000c0: a066 5abb b6f4 9ebc f392 fd3d e774 953d
000000d0: 7b24 5cbd d4b9 eabd bd2c dabd ef62 f23c
000000e0: 3c9b 523c d175 4d3e de67 503d 36f5 d33b
000000f0: 01de 54bd 022c b23c bd9c ea3d b88c 36bc
00000100: b4c2 a03d 7370 32be 88fb 7b3d 93c0 143c
00000110: 3d2c 783c 56de 603d 200c 563d f4af 03bd
00000120: da7f 3c3d fff9 423d f233 053e 7655 5bbd
00000130: 9317 2d3d efa4 263d 5184 853d 5a72 ac3d
00000140: 4368 933c bc92 453d 6848 0cbd 05ca fe3d
00000150: 2f79 01be 0c62 96bd 625a 213e 7717 dfbc
00000160: c217 3a3c e7fb f83d 8782 843d f1d3 e3bc
00000170: fc13 e5bc 0ad0 25bd 4f35 ca3d 9152 ac3d
00000180: c0a7 223c 669c d53d 7683 82bd afe3 453d
00000190: f985 a8bd 7931 d8bc 3b14 f2ba 34f6 013d
000001a0: bd00 a53d 5206 563d 0f11 87bc 63a3 993d
000001b0: a58b e5ba c696 e13c 09e8 a23d f749 4e3d
000001c0: e26f c03d 7e75 dd3d 995a 373c 06a7 943d
000001d0: 6a1e 4d3d 91e0 843c bbb4 2b3d c298 993d
000001e0: 422c 9fbd 4830 b23d da9d 8b3d 2595 033d
000001f0: cc5c 783d 0375 e8ba d842 b33d 172f 653d
-0.0022447512 0.07749411 0.040779613 0.06582036 0.06756481 0.05369666 -0.07194128 -0.02307412
0.08567606 0.021110483 0.07781692 0.055060927 -0.06936245 -0.008598208 0.051748563 -0.009671372
0.051021364 -0.06844472 -0.088802785 -0.03785117 0.044524692 -0.048692565 0.06201831 0.0841019
0.00724003 0.027738959 0.10866436 0.07601679 -0.039692253 0.077827305 0.0378747 -0.056342136
0.089983925 0.06440756 0.05811511 0.12807362 -0.0024806797 0.035847504 0.08344775 0.055620264
-0.0022500143 0.020422352 0.008085369 0.05175622 -0.07006748 -0.048750844 0.031325247 0.08090259
-0.003332533 -0.019403797 0.12381544 0.07297688 -0.053745728 -0.11461225 -0.106530644 0.02958819
0.012854394 0.20064475 0.050880305 0.0064684404 -0.051969532 0.0217495 0.11455677 -0.011141948
0.07849637 -0.17425708 0.061519176 0.009079116 0.015147266 0.054899536 0.052257657 -0.032150224
0.046020366 0.047601696 0.13008097 -0.0535483 0.04225881 0.040684637 0.06519378 0.08420248
0.017994052 0.04823564 -0.03424874 0.12440876 -0.12643884 -0.0734292 0.15757135 -0.027232869
0.011358203 0.121574216 0.064702086 -0.027811022 -0.02796363 -0.040481605 0.09873449 0.08414186
0.00992769 0.10430221 -0.063727304 0.04831284 -0.08228678 -0.026390778 -0.0018469164 0.03172894
0.080567814 0.05225212 -0.016487626 0.07501867 -0.0017512931 0.027537715 0.079544134 0.050363507
0.0939634 0.108134255 0.011191034 0.0725842 0.050077833 0.016220363 0.041920405 0.07499839
-0.077721134 0.08700615 0.06817217 0.032124657 0.060635373 -0.0017735068 0.08752984 0.05595311

action_model._discrete_distribution.branches.0.weight f4 [5, 128]
00000000: 07e1 e43b c232 233d dedb c53c 8b62 b93b
00000010: 6b40 9e3c 1d8e 243b 7d8a ef3d 453f 393d
00000020: ff83 333d 911a c13d 9eb5 3cbd d649 1e3d
00000030: e0b5 c43d 8d53 ce3d 20a5 9abd 99a7 ff3d
00000040: d90c 073d 08c6 d9bc a2ae f83c 81a5 243d
00000050: 3b8b 9b3c a093 993d a165 81bd f40d 5dba
00000060: 8d98 dc3b 659b 7d3d b27b a3bc accf 093c
00000070: 7d57 323d b3bb 943d 3980 29bd 267e b43c
00000080: 22ba 96bd e1e3 943d 0330 2a3d 2bcf 6ebb
00000090: cf58 7b3d a7ed f7bc acf0 c43d 924e 9d3d
000000a0: 41f2 e53c f237 5d3d 362a 803d 8e2c e73c
000000b0: 779f 233d 8b7a 883d ae4d c23a b049 85bd
000000c0: fd51 c33c 1710 d3bc 2aaf 03bd 2280 bb3c
000000d0: db20 c03d 4894 b83d 76f1 e23d 4b60 6d3d
000000e0: 595d 6a3d 9ef6 16bd e55f f63d 6f1e d73d
000000f0: 04ea d43c 7939 143d d90e f1b8 2ce0 243d
00000100: 7a3d 9a3d 9944 ac3c 2b7e 1c3c 6217 fd3c
00000110: 1128 cd3d c3fb d2bc d7ed 2e3d d2eb 8c3d
00000120: fcd8 ec3d c08c a1bc d540 6fbd 11e1 ee3d
00000130: e7ff b5bc ff3d f93d 1776 d13b ab27 c83d
00000140: 7eb8 843d 55fc 443d db74 8a3d c7a8 bb3c
00000150: 0d86 ad3d 3bbb fb3c a505 b53c b366 a13d
00000160: 65ef 2abd 6d7d 73bd a395 563c ee4b 003d
00000170: 54c6 b33d 5170 35bb 346d 173d cb58 d83d
00000180: 7faf 293d 7b8b ed3b 7c88 3e3d ebc1 3e3d
00000190: e6f0 433e 0395 5e3c 11b4 9d3d e4d4 e43d
000001a0: f2fe 83bd 318f d23d cef8 d83d a41f a23c
000001b0: 78f1 7b3d b0c2 823d aa44 753d ad7e b33d
000001c0: 348b 32bd 2a13 003c 295a bdbc 271b 1f3d
000001d0: 9b2e 58bc be0a 55bd 86e8 1c3d 8fc4 733d
000001e0: 9ddc c03d 13ff 473c f6f9 bcbb 624e 503c
000001f0: d40e d0bc 8dca ccbc d26d e23c 1090 833d
00000200: 9714 ae3c 814f 51be 664d ef3d e157 03be
00000210: 076a b13c 6749 293c 3ed6 ae3d 6458 cc3d
00000220: e1bb babb 9419 45be d212 6d3d 6ec8 70be
00000230: f2bc 9a3d 37e2 6c3d 74fe 153d df88 edbd
00000240: b867 02be 65b4 f33d 11bc c73c 7f69 ad3d
00000250: 3e09 0a3e 7238 423d 4988 ab3d eae9 28be
00000260: 3ada 8f3d a163 bb3d a0a3 71be 33d3 ef3d
00000270: 042d 113d 3e26 27be 210c 0f3e e341 1a3c
00000280: 3911 22be 00b5 0dbe d5b0 8fbd ad4f 113e
00000290: 7d21 fd3d 673f aabb a398 8ebe ed03 93bc
000002a0: 373d be3d 6a3e 6ebd 23e0 de3c 7f09 afbd
000002b0: 1e86 103c 0ae7 4d3d 9c14 993d 3713 c7bd
000002c0: 0d40 b73d 3625 0a3e 401a b53d 7edd 01be
000002d0: 3fdb 993d 4063 3a3d 7340 823c 740a 0c3e
000002e0: dc6a e13d 9d37 093e 2944 edbd d186 12be
000002f0: ca86 223d 36b8 dc3d c646 363d 3dac 923d
00000300: 8bdb c5bd e0c1 803d c882 853c 6dae cc3d
00000310: 8cab 0abe 17b9 0a3e a26b 5b3e fd8d ae3d
00000320: d548 1bbe 72ff 5bbd 18e0 663d 1900 6b3c
00000330: 5ece d13d 6121 b5bd 44bc 0fbe de4f 99be
00000340: ea36 993d ffec 49be 2c6a c03d 1d42 4cbe
00000350: 316c e0bd 944c ea3d 0511 223b ce43 9d3d
00000360: 8052 84ba d165 2bbe 8e5e 11bc 9d32 5e3d
00000370: 3eea d63d 9ab6 903c 175a bdbc e7f3 31be
00000380: b394 fa3d 6ab7 38be debf 0c3d 0433 773d
00000390: 2f04 8b3d 57cc 9c3d 0c96 d83d 43bd 2abe
000003a0: 9342 4dbc 875c 4dbe 621f 873d 1400 00be
000003b0: 9203 993d 0263 fb3c 786e 43be f0b3 60be
000003c0: 1e49 8c3d f47f b93c 8e7c 8d3d 53d3 5f3c
000003d0: a464 0f3e 3887 1c3c c798 ef3d 820f 51be
000003e0: 16e0 3b3d 5aa3 6d3c 044a 7abd 71a3 3bbe
000003f0: 1dc8 b53d a0c7 f73d 5de0 71be 7ad2 6abe
0.006984833 0.03984333 0.024152692 0.005657499 0.019317826 0.002510912 0.116963364 0.045226354
0.043827053 0.09428895 -0.04607164 0.038644634 0.096050024 0.1007453 -0.07551026 0.124831386
0.032971237 -0.026583686 0.030356709 0.0401969 0.018987289 0.0749886 -0.06318212 -0.000843256
0.0067320527 0.061915774 -0.019956443 0.008411329 0.043540467 0.07262363 -0.04138205 0.022032809
-0.07359721 0.07270027 0.041549694 -0.00364394 0.06136399 -0.030264689 0.09616217 0.07681002
0.028069617 0.05400843 0.06258051 0.028219488 0.039947 0.06663998 0.0014824176 -0.065081954
0.023842806 -0.025764508 -0.03214947 0.022888247 0.09381267 0.090126574 0.11081211 0.05795316
0.05721793 -0.036856286 0.12030009 0.105038516 0.025990494 0.036187623 -0.00011494541 0.04025285
0.07531257 0.021028804 0.009551565 0.030894939 0.10017408 -0.025754815 0.04270729 0.06880917
0.11564824 -0.019720435 -0.058411438 0.11664022 -0.02221675 0.12170028 0.0063922512 0.09773191
0.064805016 0.048092205 0.0676057 0.022907628 0.08472834 0.030728927 0.022097418 0.078809164
-0.04173221 -0.059445787 0.0130972 0.031322412 0.087780625 -0.0027685354 0.03696938 0.10563811
0.04142713 0.0072492934 0.04651688 0.046571653 0.19134864 0.013585332 0.077003606 0.11173418
-0.06445111 0.10281218 0.10594331 0.019790478 0.06150958 0.0638479 0.059879936 0.08764396
-0.043589786 0.007817069 -0.02311428 0.038844254 -0.013194705 -0.052012198 0.03830769 0.059513625
0.09417079 0.0122068105 -0.0057671024 0.012714 -0.025397696 -0.024998927 0.027640257 0.06423962
0.021250052 -0.20440485 0.116846845 -0.12826492 0.021657003 0.010332442 0.08536957 0.09977797
-0.0056986664 -0.19248039 0.057879277 -0.23513958 0.0755557 0.057832923 0.03661962 -0.11598372
-0.12734878 0.11899642 0.02438167 0.084673874 0.13480088 0.04741711 0.08375604 -0.16495481
0.07024045 0.09149862 -0.23597574 0.11710205 0.03544332 -0.16323182 0.1396947 0.009415123
-0.15826882 -0.13838577 -0.0701615 0.1419055 0.12359903 -0.0051955464 -0.27850828 -0.017946208
0.092890196 -0.05816499 0.027206486 -0.08546733 0.0088210385 0.050269164 0.07474634 -0.09720462
0.089477636 0.13490757 0.088428974 -0.12682149 0.07512521 0.04550481 0.015899872 0.13675863
0.1100671 0.13400121 -0.11585266 -0.14309241 0.039679326 0.10777323 0.04450109 0.07161758
-0.09661015 0.06286979 0.016297713 0.099942066 -0.13542002 0.13547169 0.21427777 0.08523176
-0.15164502 -0.05371041 0.056366056 0.014343285 0.102444395 -0.08844257 -0.14036661 -0.29943746
0.07481177 -0.19719313 0.09395251 -0.19947095 -0.10958136 0.11440387 0.0024729383 0.07678948
-0.0010095388 -0.16738059 -0.008872641 0.054247487 0.10493897 0.017665196 -0.023114247 -0.17378198
0.122353934 -0.18038717 0.034362666 0.060351387 0.06787907 0.07656162 0.10575494 -0.1667376
-0.01252808 -0.20054828 0.06597783 -0.1250003 0.07471384 0.030686859 -0.19085109 -0.2194364
0.068498835 0.02264402 0.069085225 0.013661223 0.14003235 0.009553723 0.11699062 -0.20416072
0.045868002 0.014504278 -0.061105743 -0.18324067 0.08876059 0.12098622 -0.23620744 -0.22931853

action_model._discrete_distribution.branches.0.bias f4 [5]
00000000: c6bb 6cbd d2d6 703d f149 13be f6d5 883d
00000010: 6b07 d53d
-0.057796262 0.05879862 -0.14383675 0.06681435 0.104018055

critic.network_body.linear_encoder.seq_layers.0.weight f4 [128, 24]
00000000: 8099 383e 4166 57bc 5bd2 50bf 4736 43bd
00000010: 462a b83e 2637 35be f283 b43e 4306 a93e
00000020: afa8 87bd dd40 b2be abac 8b3d a4ef ebbe
00000030: 2b53 c23e 42ff af3e 7c05 423e ffbd a4be
00000040: b2ea 773e a06f c5be 9573 8b3e 51a6 a6be
00000050: 1c81 123f fef5 76be e5be d9bc 818e c53d
00000060: 47c4 13bc 0f63 c6bd 4dc8 60bf 503f c13d
00000070: db09 4a3e feae 11bf e68b 02be d2f0 7b3e
00000080: fb8f 4fbe 0c65 96be 9a48 413e 4e40 9bbe
00000090: cb34 36be 6854 78be cd5a 80be 3bda afbe
000000a0: e12c 203f ddde 8dbf a38d a0bd be51 cb3e
000000b0: 6357 883e 5ccb 82bd 3f13 563d 10f9 153c
000000c0: 59d1 df3e 729c 153d 0bfd 223f 1898 053f
000000d0: 7755 1ebe acff 723e c40d 733e 2ee4 c2bc
000000e0: 1a68 513e 70c1 643e 6040 6dbd dc7e df3d
000000f0: 11b9 22bf 1259 24be 1a8c c13e 36af ab3e
00000100: 2b04 dbbe 9b60 913e 72f1 d4be 33b0 d2be
00000110: 55e3 da3e aac7 9bbe 860d 9dbd fa73 3b3e
00000120: 0dfd efbe 6e26 3dbe 47f5 263f 7043 1abf
00000130: 31d1 02bf d816 603f 50a8 4ebe 1481 c83d
00000140: c7fa bc3e 4c53 42bf e143 b83c 04c7 b13e
00000150: b141 823e 897d ebbe 37bd c3be 1f45 e3bd
00000160: 09a0 44bf 5ca9 963e 62eb af3e 5ea9 51bf
00000170: d840 c33e b2ad f33d bbaa 3e3e 74d3 d7be
00000180: 7ef5 ebbe 8b08 1c3d 3aaa a23e 15b8 753e
00000190: 681c bd3d 6dc1 b93d 3148 2fbf bbf8 773d
000001a0: 03ad 00bf 716a f1bd 04b4 f83d 0b2b 4d3e
000001b0: 2124 f3bd 1e1c 2dbd 86d8 b5be 0d8c b13e
000001c0: e9c2 183e 79a4 1dbe 9057 64bf 9809 503d
000001d0: cc18 07bd 6134 31be fcd9 b2bd b532 babd
000001e0: b20d 8d3d b2ff 9abd b94e 173f 8466 8bbc
000001f0: 25ad 10be 973e 283e c2bd a33d b7a5 f7be
00000200: 7451 db3e 18a5 7bbd bc2e 4bbe 2469 90be
00000210: bd28 94bd 429a 98be bdfc 163e 62e7 34be
00000220: a87c 113d 3775 eb3e 6cca 0a3f d45f 6abd
00000230: 0dcb 803e 3a68 fabd 19b3 11bd 0906 753f
00000240: 76fd 3e3d 2afb 2e3e 6040 fb3c c452 df3e
00000250: 1599 20bd 22c9 10bf 7cf9 513e dfe1 9ebe
00000260: 364d b9bd 6818 313e acfc febe ee87 0abf
00000270: a3d3 77bd 622e 14bf 475e 733e e61b a93e
00000280: 6809 e63d a04c 20bf 9200 25bf 455b 9dbe
00000290: 95bb 9a3d 4730 1f3e b8a8 89bd 06e8 04be
000002a0: c94c 9ebe 1890 ebbd 70ea 24bf d156 57bc
000002b0: 8d42 96bc a6dc 9a3c 233e 21bf af31 22bf
000002c0: f108 babe e5e0 c9bd d69e 25bd 0ef4 dc3d
000002d0: f3db 2cbe 3ae4 943e 6c67 dabd 1c34 a6bd
000002e0: 6984 43bd d08c 263e 9b76 15be 2a6a e43d
000002f0: 1c5c 9fbe bd05 5b3c 4411 303e c55c 8d3e
00000300: 0986 033e 25c3 063e 5c8c 1fbf d175 d0bd
00000310: eba4 ac3e 78a3 8ebe 83f2 a1be 56a6 dcbe
00000320: 0371 b3be f948 883d 086e c13e 4a86 fbbd
00000330: 9bb7 cebe e435 81ba c722 c5be 73d6 e63e
00000340: c3ea 1dbe c42d 443e aa80 cfbe 449d a6bc
00000350: 457a fabe 5f54 803e 9c00 cfbd 6aa5 3ebf
00000360: 52be 5dbe b8e0 abbe 00f6 cebc 5b88 2e3e
00000370: 5f08 b53e 8342 19bf 38db 16be cd7a 70be
00000380: ab08 5b3e c820 9cbd 9661 d33e 66d0 09bf
00000390: 1b9e b63e 5c08 8dbe 4968 1cbc ed66 b8be
000003a0: ed24 1e3d 5433 d0be 08d2 763e 6826 843d
000003b0: a13e 45be 6bd2 0b3e 05b5 823d 682a bc3d
000003c0: a27c 9dbe 133c bebe f1e1 4a3e e63c d3be
000003d0: 90c6 07bf bc79 8f3d fccd 0ebe b560 d2be
000003e0: 67ac f43e 1847 453d f9d0 dfbd 394b ea3e
000003f0: b29f 56be 6eb0 863e 6f30 b7bd 50fb 46be
0.18027306 -0.013146938 -0.81570977 -0.047659185 0.35969752 -0.17696819 0.35256916 0.3301259
-0.06623971 -0.34815112 0.06820043 -0.4608127 0.37954077 0.34374434 0.18947405 -0.32176206
0.24210623 -0.38561726 0.2723662 -0.32548764 0.57228255 -0.24117276 -0.026580283 0.09646321
-0.009018964 -0.09686863 -0.87805635 0.09435904 0.19730322 -0.5690764 -0.1274868 0.24603584
-0.20269768 -0.29373968 0.18875352 -0.30322498 -0.17793576 -0.24250948 -0.25069275 -0.34346184
0.6256848 -1.1083637 -0.07839515 0.39710802 0.2662917 -0.06386444 0.05226445 0.009153619
0.43714407 0.03652615 0.6366736 0.521852 -0.1546229 0.23730344 0.2373572 -0.023790445
0.20449868 0.22339416 -0.05792272 0.109128684 -0.6356364 -0.16049603 0.37802202 0.33532113
-0.42776617 0.28394017 -0.41590458 -0.41150054 0.42751566 -0.3042577 -0.07668595 0.1830596
-0.4687275 -0.18471691 0.65218014 -0.6025915 -0.5110045 0.87534857 -0.20181394 0.09790245
0.36910078 -0.7590835 0.022493305 0.3472215 0.25440744 -0.45994213 -0.38230297 -0.11097168
-0.76806694 0.29426086 0.3435927 -0.8189906 0.3813541 0.11898364 0.18619816 -0.42153513
-0.46085733 0.038094085 0.31770498 0.23996003 0.09233934 0.09070096 -0.6846953 0.060539942
-0.50263995 -0.1178788 0.1214371 0.20035951 -0.118721254 -0.042263143 -0.35516757 0.34677163
0.14918102 -0.15394773 -0.8919611 0.0507904 -0.032982633 -0.17305137 -0.087329835 -0.09091703
0.06887378 -0.07568301 0.59104496 -0.017016657 -0.1412855 0.16430126 0.07995178 -0.48368618
0.4283558 -0.061436743 -0.19842046 -0.28205216 -0.07234333 -0.2980519 0.1474485 -0.1766639
0.035519272 0.45987865 0.5421512 -0.057220295 0.25154915 -0.12226911 -0.03557119 0.95712334
0.046628438 0.17087999 0.030670345 0.43617833 -0.03920849 -0.56556904 0.20505327 -0.310317
-0.0904793 0.17294466 -0.49802148 -0.5411366 -0.060504567 -0.57883275 0.23766433 0.33029097
0.11232263 -0.6261692 -0.64453995 -0.30733696 0.0755531 0.1554576 -0.06721634 -0.12979135
-0.30917957 -0.11502093 -0.64420223 -0.013143257 -0.01834228 0.018904041 -0.6298544 -0.6335706
-0.36334947 -0.09857348 -0.04043468 0.10788737 -0.16880779 0.29080373 -0.106642574 -0.08115408
-0.047733698 0.16264653 -0.14596026 0.11153062 -0.3112496 0.013368067 0.17194086 0.2760984
0.12844099 0.13160379 -0.62323546 -0.10178722 0.33719572 -0.27859092 -0.31630334 -0.43095654
-0.3504716 0.066545434 0.3777926 -0.12281473 -0.40374455 -0.000985798 -0.38503096 0.45085487
-0.15421586 0.19158083 -0.4052785 -0.020338662 -0.4892141 0.2506437 -0.10107538 -0.7447115
-0.21654633 -0.33569884 -0.025263786 0.17044203 0.3535795 -0.59867114 -0.14732063 -0.23484345
0.21390025 -0.0762344 0.4128539 -0.53833616 0.356675 -0.2754544 -0.009546348 -0.36016026
0.038609434 -0.4066416 0.24103558 0.06452638 -0.19262172 0.13654487 0.06382183 0.09187776
-0.3075915 -0.37155208 0.19812752 -0.412574 -0.5303736 0.07005641 -0.13945764 -0.41089407
0.47787783 0.048163503 -0.1092853 0.45760515 -0.20959356 0.2630648 -0.08944785 -0.19431806

critic.network_body.linear_encoder.seq_layers.0.bias f4 [128]
00000000: cea1 aabe 2c0c f8be 2627 1a3f 3038 b63e
00000010: 14e6 96be 5056 253f 5d52 393d 7902 3d3e
00000020: f3bc e3be cc3a c5be 2825 a23e 3324 033f
00000030: 4420 af3e 665a ccbe 35e8 5b3e 4044 7a3e
00000040: 0d75 fbbe 139c 0d3e b350 c83e 23f9 a9be
00000050: 1593 373e 8971 e23e 96a7 06be ada5 723e
00000060: b82d 9c3e 5917 da3e 4e07 fb3e 86e0 a3be
00000070: 7712 c43e 5c5c 2a3f 76ab a3be 3d62 9b3e
00000080: 92b1 f93e aa3b d3be 5e60 f03e d9cf e1be
00000090: 77a3 fd3e a109 373f a4bd 1f3e be16 b3be
000000a0: d16b 083f e16b d73e e957 0d3e 25e1 e8be
000000b0: 7e50 863e f8c7 ff3d 5754 e5be 81b4 f7be
000000c0: 3769 9b3e a4f5 063f 99d2 9cbe fdc2 0b3f
000000d0: 4aae c63e 4274 d63e 4830 c93e 587e a3be
000000e0: f43b 0b3f d7da eb3e 1feb ee3e c7a3 21be
000000f0: 3a5b efbe 25bb ee3e 4702 aebe a8bd 23be
00000100: ff33 a43d d1d1 e0be 45ae 04bf 0c98 f8bd
00000110: 8480 f43e e235 053f 1cda 283f b393 6e3d
00000120: 2908 7abe cef6 54bd 2dfa 2dbd 9303 483e
00000130: 0be8 abbe c0fd fa3e 7d7a d5bd ef17 9dbe
00000140: 4822 a03e a072 2e3f d0cc 69be e799 83be
00000150: 9b4e 0c3f 5cb1 ed3e ebea b1be c25f dd3e
00000160: 3e96 b6be 2cc2 f83e e5c1 003e f701 c93e
00000170: 853a e53e d046 80bd fed8 c13e 2dd8 293f
00000180: 6fed 213f a70c a43d 0e65 ecbe 718e c53e
00000190: 5c1f bdbe 4e9f 3dbe d2df a4be d041 d7be
000001a0: ca3d e83e 531f ae3e e801 063f b5ba babe
000001b0: f9ad 143f be71 f0be a022 07bf 68e6 063f
000001c0: b095 d63d ced6 0f3f c680 09bf e0e7 abbe
000001d0: 38b7 033f 8960 75be f5a1 55be 165a 093f
000001e0: 3526 adbe 5f95 da3e 1a9a d43c 8283 a7be
000001f0: bac2 bb3e 462b ebbe 69c4 f2be db74 cdbe
-0.33326572 -0.48446786 0.60215986 0.35589743 -0.2947241 0.6458483 0.045244563 0.18457974
-0.44480094 -0.3852142 0.31668973 0.5122711 0.34204304 -0.3991272 0.21475299 0.24440098
-0.4911274 0.13829069 0.3912407 -0.3319789 0.17927201 0.44227245 -0.13149866 0.23696013
0.3050363 0.42595938 0.4902901 -0.32007235 0.38295338 0.6654718 -0.31966752 0.30348387
0.48768288 -0.41256458 0.46948522 -0.44103888 0.49538776 0.7149907 0.15599686 -0.34978288
0.53289515 0.42074493 0.13803066 -0.45484272 0.26233286 0.12489313 -0.4479091 -0.483799
0.3035371 0.5271857 -0.30629423 0.54594404 0.38804847 0.41885573 0.39294648 -0.3193233
0.54388356 0.460654 0.46663758 -0.15785132 -0.46749288 0.46627155 -0.33986112 -0.15990317
0.0801773 -0.43910077 -0.51828414 -0.12138376 0.477543 0.52035344 0.6595781 0.058246326
-0.24417175 -0.051993184 -0.042474914 0.19532613 -0.33575472 0.4902172 -0.104237534 -0.30682322
0.31276155 0.68143654 -0.22832036 -0.25703356 0.5480744 0.46424377 -0.3474954 0.4323712
-0.356615 0.4858564 0.12573965 0.39259312 0.4477121 -0.062635064 0.37860864 0.66345483
0.6325292 0.08010226 -0.4617085 0.38585237 -0.36937988 -0.18517801 -0.3220201 -0.42042398
0.4535964 0.34008273 0.5234666 -0.3647057 0.5807796 -0.46961778 -0.5278721 0.5269532
0.104777694 0.5618714 -0.5371212 -0.33575344 0.51451445 -0.23962606 -0.20862563 0.53653085
-0.33818212 0.42692086 0.025952388 -0.3271752 0.36672002 -0.45931453 -0.47415474 -0.40128216

critic.network_body.linear_encoder.seq_layers.2.weight f4 [128, 128]
00000000: dbdf 0d3e f270 b4be 7e4c ba3d 3656 09be
00000010: 9b61 11be 5e29 863e 229e 483e a2f0 83be
00000020: da49 8dbd e91c 2bbe a62f d6bc 3709 cabd
00000030: 3cb2 e83c be05 86be 7b98 563d e68d cb3d
00000040: 2db3 c03d bb3d 3d3d 1b1f 8dbc e975 f7bc
00000050: 98ec 263e d3b5 813e aef2 5bbc 41f3 db3d
00000060: 023a 3e3e 9cea 243d 674f 3a3e 89b5 c33d
00000070: 30a8 a7bc 9ea6 cf3e c374 89bb 583b 2a3e
00000080: 3dd2 1a3d a690 fd3d 7be4 2b3e bab8 3d3c
00000090: 77ad 143e c9e3 973e d41f 923e ac1f 193e
000000a0: f876 1d3e cf77 b33b 8ee0 b9bb 0262 ecbd
000000b0: 3d71 d5bd 1073 403d d51f 6abd b2d8 85be
000000c0: 2898 063e c47c 493e f6cf bcbe 8f3d 783e
000000d0: 1187 be3d dd37 2e3e 70d4 6bbe c90c a5be
000000e0: f9c6 403e 566e e23d 6413 153c ddf8 923e
000000f0: d417 063d 610c 003d b590 a73d ec55 0a3e
00000100: 150a 283e fa25 e7bc 708d 93be 34c4 e03e
00000110: 6160 563e 5c43 5e3d 445b f73d 166b d6bd
00000120: ccbd 163e d57d 213d 8e4a 843e b9ae cd3d
00000130: b92a 02be 18d2 a03e 1e49 c43d 56f4 15be
00000140: 41d8 ff3d 09a9 893e 0d2b 0c3e cbcd 1dbe
00000150: 54a3 06be 9504 043e 02f2 a53e 82d9 ce3c
00000160: b177 0bbe bdce 083d d0fa 9bbd 181b 3a3d
00000170: deb8 0a3e 98d7 803e 5bff f33d 79ba 5d3e
00000180: 3c97 033e fc02 453e 88ae 683e 0434 283e
00000190: d0b6 27be 1271 e53d d12c 433e 27d2 b8be
000001a0: 523e 3d3d 1f96 b0bc c62d 6e3e 6c69 26bf
000001b0: e82b bf3d 2e7f ee3c 50f2 9fbe 714e 95bc
000001c0: bc42 b2bd bcd2 953e d277 e3be 36d9 fc3d
000001d0: 524a 323e ea3c e6bc 987e 9c3d 5e83 113e
000001e0: 9a43 fb3d 5bf2 60bd 7630 113e 235c 133e
000001f0: 6d02 1e3e 0e3a 4dbc 7086 b63d 9fac 25be
00000200: 6631 5e3e e599 ad3c a3a3 1fbe f31a 87be
00000210: 908a 6e3e 3b46 80bd 21b6 c1bc 53dc 4fbd
00000220: 39d3 f63d c02a 0d3e 8cf5 6cbb ae8e 053e
00000230: 4936 76bd 5d6f f33d e455 093e f05d 11be
00000240: 82d8 c0bd d36d 9d3c 3b7a 6dbd 3782 80bd
00000250: 84a3 8d3d 22f8 1cbd bc0a 443e 5952 70bb
00000260: b0c2 d13c 2055 c63d 0a02 89bd 437f 553e
00000270: b09a 55bd 74b6 b3be 2a0b 4c3d 7ebd 3d3e
00000280: a967 35be a09d d43e ab08 a7bd 1b0d d83d
00000290: 1d18 4fbe cb51 7fbe 7cdf 9b3d bd1e 41bd
000002a0: 1d52 aabb 5d5c d23d 82f9 7b3e 2583 063d
000002b0: 54a0 46be a6fc c03d 9ed8 0e3e 2107 e03e
000002c0: 197a 8e3d e1af b4bd f29d 69be e4bd c3be
000002d0: 97c7 17be c01e a73b 5799 c6be bbf6 ee3d
000002e0: 3515 4a3d b06b 063e ce5a f23d a5c0 cdbd
000002f0: e876 10be d32b e0bc 0249 a03e 9571 70be
00000300: 1348 443e 3a0e 9dbc 639d 36be 3bdc 653d
00000310: 055b 22be a0c1 babd c9bf 02bf 18a9 4dbd
00000320: 8bbf 033e 997a ca3c fe43 d13d 4774 9a3e
00000330: c9ef 3b3f 336b 1f3e 21ff 983e e8ca a93e
00000340: 9eff 6c3e 8ca0 90be ad18 333e 0689 833e
00000350: fa8c 04bd ab55 47bd 3543 d93d 0a2c 4fbd
00000360: 8697 fdb9 117c 983d eb5f a6be eeae 02be
00000370: 57cb 483e 2cd4 d9bd 2ba1 9abe 3241 15be
00000380: 0c74 babe 073d 8ebc db9a ac3d f177 7dbd
00000390: db57 343e 3dc7 193e ace4 853b 73dd 203e
000003a0: 05ce 98be f0cc 68be 6a6c b2be a4dc a43d
000003b0: 5898 cebd 2232 ae3e 8e12 033e bb02 99be
000003c0: f1c7 513e c2f2 23be 2007 9d3b 371f 213e
000003d0: f764 53be 9166 a03e 08fb 9a3e 6d7d 0abd
000003e0: 7ed3 b43e 4c19 7dbe b258 09bc d352 533d
000003f0: 062b 993d fe5d 453e a8ed 14bd ccf2 4bbd
0.13854925 -0.3524242 0.09096621 -0.13411793 -0.1419739 0.26203436 0.19591573 -0.25769526
-0.06898852 -0.16710247 -0.026145767 -0.09865039 0.028405301 -0.26176256 0.05239151 0.09939174
0.09409175 0.04620145 -0.017226746 -0.030207591 0.16301191 0.25334033 -0.013424559 0.107397564
0.18576816 0.040262803 0.18194352 0.095561095 -0.02046594 0.40556806 -0.0041948273 0.166242
0.037798155 0.12381105 0.16786377 0.011579687 0.14519297 0.29665974 0.28539908 0.14953488
0.15377414 0.005476929 -0.005672521 -0.11542131 -0.10421989 0.046984732 -0.057159264 -0.26141888
0.1314398 0.196765 -0.36877412 0.24242233 0.093031056 0.17013498 -0.23030257 -0.32236317
0.18825902 0.11056201 0.009098861 0.28705493 0.032737568 0.031261805 0.081818976 0.13509339
0.16410096 -0.02821635 -0.28818846 0.4389969 0.20935203 0.054263458 0.120779544 -0.10469644
0.1472084 0.039426643 0.2583813 0.10043091 -0.1271161 0.3141029 0.095842585 -0.14643988
0.12492419 0.26886776 0.13688298 -0.15410535 -0.13148242 0.12892373 0.324112 0.0252502
-0.13619877 0.033400286 -0.07616198 0.045435995 0.13547084 0.25164485 0.119139396 0.21653165
0.1285066 0.1923942 0.22722828 0.16426092 -0.16378331 0.11203207 0.19060065 -0.36097834
0.04620201 -0.021555958 0.23259649 -0.6500461 0.09334546 0.029113378 -0.31239557 -0.01822588
-0.08704135 0.2926234 -0.44427353 0.12346117 0.17411163 -0.028105218 0.07641333 0.14210269
0.12268753 -0.05491863 0.14178643 0.14390616 0.15430613 -0.012526048 0.08912361 -0.16179131
0.21698532 0.021191547 -0.15589766 -0.26387748 0.23295045 -0.062633954 -0.023646416 -0.050747227
0.12052006 0.13785839 -0.00361571 0.13042709 -0.060110364 0.11886475 0.13411671 -0.1419599
-0.094162956 0.019217407 -0.057977896 -0.062748365 0.06915954 -0.038322575 0.1914472 -0.0036670177
0.02560553 0.09684205 -0.06689842 0.20849328 -0.052149475 -0.35100138 0.049815334 0.18529317
-0.17715324 0.41526508 -0.0815595 0.10549375 -0.20224042 -0.24933545 0.07610986 -0.047148455
-0.005197777 0.10271523 0.24606898 0.032839913 -0.19397098 0.09423189 0.1394982 0.4375544
0.06956882 -0.08822609 -0.22814158 -0.38230813 -0.14822231 0.005100101 -0.38788864 0.11668154
0.04933663 0.13127017 0.11833726 -0.1004651 -0.14107859 -0.027364647 0.313057 -0.23480828
0.19168119 -0.019171823 -0.17833476 0.05611823 -0.15855034 -0.09118962 -0.5107389 -0.05021009
0.12866037 0.024716662 0.102180466 0.30166838 0.7341276 0.15568237 0.29882148 0.33162618
0.23144385 -0.28247488 0.17489882 0.25690478 -0.03236101 -0.048665684 0.10608522 -0.05057911
-0.00048368814 0.07445539 -0.32495055 -0.12762043 0.19608818 -0.10636172 -0.30201086 -0.14575651
-0.36416662 -0.017363084 0.08427974 -0.061881963 0.17611639 0.1501741 0.0040860977 0.15709476
-0.2984468 -0.22734427 -0.34848338 0.08049896 -0.10087651 0.34022623 0.12800047 -0.29884896
0.20486428 -0.16010574 0.004792109 0.15734564 -0.20643984 0.31328252 0.30269647 -0.03381102
0.35317606 -0.24716681 -0.008382963 0.05159266 0.07478909 0.19274136 -0.03635946 -0.049792096

critic.network_body.linear_encoder.seq_layers.2.bias f4 [128]
00000000: 62ed 323f 4f36 07be ae8d 023f 41d4 2d3f
00000010: e140 88be 814a 16bd efb1 ccbe 2aa8 4abe
00000020: 213c 27be ff46 f33e a4b6 1bbe f258 f53e
00000030: 9afd c9be 930a ed3e 3695 62be b887 c0be
00000040: 3ed0 70be 3968 22be c774 243f 57b3 bcbe
00000050: 5e9e 7abe b2fa d23e a1c2 1d3f 1e02 0a3f
00000060: 427f 8abe 2379 3fbe 0288 083f fa2d acbe
00000070: 5491 40be 43a2 e03e 43fa 0c3f e67e b7be
00000080: 5f25 db3e 2db5 83bd 27ee 45be a370 223f
00000090: 167d 233f 9572 0d3f 0367 fdbe 2298 1f3f
000000a0: 1070 093f 2f44 c5bd de20 0d3f 989d bbbe
000000b0: 07bb ee3e a52c 173f 02fe aebe 4882 57be
000000c0: ec37 b4be a0c4 083f 1cf2 ce3e a633 b9be
000000d0: d193 53be a070 ec3e 8b41 203f e200 a2be
000000e0: 403b f73e f7c8 b9be 8967 053f 7f64 e03e
000000f0: 7fc1 38be 3c82 093f f815 243f 2f6a dabe
00000100: 0da5 1c3f 6a18 0a3f c996 0dbe ad46 c0be
00000110: 2927 b5be ee82 a43e c347 f1be 275f fd3e
00000120: d809 e63e 4622 84be 45ba 093f 0fd6 d83e
00000130: 9edd 203f ddc0 ec3e 60ed 0a3f a964 193f
00000140: b808 063f 4912 003f 1153 8bbe cc0a 2a3f
00000150: bfe5 2e3f 2298 40be e270 82be 5099 68be
00000160: 578e 87be 6a13 c9be 2e07 1d3f f5e0 d7be
00000170: 01ad 5fbe efef 013f bd80 1abe 72ef a7be
00000180: 31a4 e93e 4a25 143f 2133 50be b434 a0be
00000190: 66a1 8b3e b330 27be 4695 193f 09bf 0d3f
000001a0: b262 213f e21b bebe aa9f a2be 4984 5dbd
000001b0: 3f53 62be e792 f03e 2b63 143f daf2 f63e
000001c0: 489c 03bf 9f9d eebd 28aa ee3e 1bd0 1cbe
000001d0: bbef debe eb4a 003f 0668 1d3f ca13 f13e
000001e0: 5798 ed3e 6756 20be 050b b1be a9cb d2be
000001f0: c17f f83e 6476 8fbd 6570 093f 7c7e 2b3f
0.6989347 -0.13204311 0.50997436 0.67902 -0.26612 -0.036692146 -0.39979503 -0.19790712
-0.16331531 0.47515103 -0.1520639 0.47919422 -0.39451295 0.4629713 -0.22127232 -0.37603545
-0.23516938 -0.1586007 0.6424069 -0.36855575 -0.24474475 0.4120689 0.61625105 0.5390948
-0.27050215 -0.18698554 0.5333253 -0.33628827 -0.18805438 0.43873796 0.5506937 -0.35839003
0.4280195 -0.06431041 -0.19329129 0.6345312 0.6386274 0.55252963 -0.49492654 0.6234151
0.5368662 -0.096321456 0.55128276 -0.36643672 0.46627066 0.590525 -0.34178168 -0.21045792
-0.35198915 0.53425026 0.4041909 -0.36172217 -0.20661856 0.46179676 0.6260001 -0.316413
0.48287392 -0.36286137 0.5211111 0.43826672 -0.18042563 0.53714347 0.6409602 -0.42659137
0.6118935 0.539435 -0.13827051 -0.3755392 -0.3538144 0.3213114 -0.47125062 0.49486658
0.44929385 -0.258074 0.5379985 0.42350814 0.6283816 0.46240893 0.54268456 0.5991922
0.52357054 0.500279 -0.27211812 0.66422725 0.68319315 -0.18808034 -0.25476748 -0.22714734
-0.26475784 -0.39272624 0.6133908 -0.42163816 -0.2184334 0.50756735 -0.15088172 -0.3279987
0.4563308 0.578694 -0.20332004 -0.3129021 0.27271575 -0.16327171 0.599934 0.5536962
0.6304122 -0.37130648 -0.3176244 -0.054081235 -0.22102068 0.46987078 0.5796382 0.48232156
-0.5141034 -0.116511576 0.46614194 -0.15313761 -0.43542275 0.50114316 0.6148685 0.4708541
0.4640529 -0.1565796 -0.3457872 -0.41171005 0.48534968 -0.07005003 0.53687125 0.66989875

critic.value_heads.value_heads.extrinsic.weight f4 [1, 128]
00000000: 6fed c53e a092 72bf 6e51 943e d251 883e
00000010: a032 64bf bfb4 87bf 78be 4fbf c70c 6dbf
00000020: ab08 46bf 29c4 a63e 2d34 2cbf 2d2d 443e
00000030: b8a4 40bf 4058 5c3e ebcc 30bf 8881 17be
00000040: ce1b a2bf d88a 96bf 79e3 aa3e 2585 63bf
00000050: 09f7 82bf a355 903e 04cf 9f3e 8d5c 843e
00000060: 47a1 92bf 442a 0dbf 988c 6e3e cfac 57bf
00000070: 2ec2 83bf 16c0 cf3e 6483 b73e c819 47bf
00000080: 1c42 df3e 7903 68bf d722 53bf a3f2 b63e
00000090: a8f3 073e 1e3f f03d 9703 18be 1a32 873e
000000a0: ed79 0f3e ab37 3dbf a973 523e 55df 85bf
000000b0: 1259 a13e aa6e 663e e149 fdbe 3f82 48bf
000000c0: 1c3f d9be 9b05 b03e b245 8a3e cc72 0cbf
000000d0: fd8d cfbe 968c d43e 2e3f 863e e4e9 c6be
000000e0: 5103 0c3e e7f4 6dbf ffb7 983e 217c 983e
000000f0: b991 83bf 31b7 a33e 2590 8a3e 4765 23be
00000100: a25c b73e b647 cd3e 1dc0 27bf 6974 60bf
00000110: 5c20 09be 9da2 f63e f9a9 1dbf 714f 773e
00000120: df5a ac3e 7ae1 19bf e65c 903e 6692 c03e
00000130: e19f 2a3e 34d5 913e 232b c03e 0553 703e
00000140: ed68 d93e 9a5d 723e 866d 1abf a193 ad3e
00000150: 9e2b 743e 71c8 20bf 82d3 55bf d155 84bf
00000160: 0ad5 32bf d434 8cbe f30e a63e 0281 4ebf
00000170: c7b1 7ebf c339 a13e d25f fdbe 9d5b 29bf
00000180: 84c8 863e 3aa6 ab3e 7940 ccbe c06c f5be
00000190: 323e 323f c698 55bf d547 ab3d f782 9a3e
000001a0: 68ae 9f3e 795e 6fbf b712 83bf 9839 90bf
000001b0: d767 8ebf 90d3 943e d149 033e f978 753e
000001c0: 4e5d 83be e399 46bf 9f0f 713e e415 6bbf
000001d0: 469d 58bf d822 843e 0380 873e 888b 393e
000001e0: 85e8 283e ba60 3cbf 83e3 1abf d284 27bf
000001f0: fa66 753e ef7c 4bbf ecc6 a03e a201 9f3e
0.3865771 -0.9475498 0.28968376 0.26624924 -0.8913975 -1.0602034 -0.8115001 -0.9259762
-0.77356976 0.32571533 -0.67267114 0.19157858 -0.7525134 0.2151804 -0.6906268 -0.14795506
-1.2664735 -1.1761122 0.33376673 -0.8887504 -1.0231639 0.28190336 0.31212628 0.2585186
-1.1455468 -0.5514262 0.2329582 -0.8424806 -1.0293634 0.40576237 0.3584243 -0.77773714
0.43605125 -0.906303 -0.82475036 0.35731992 0.13276541 0.11730789 -0.1484512 0.26405412
0.14011355 -0.7391307 0.20551933 -1.045878 0.31513268 0.22503152 -0.49470428 -0.7832374
-0.4243096 0.34379277 0.27006298 -0.54862666 -0.40538016 0.4151351 0.26220077 -0.3885032
0.1367314 -0.92951816 0.29827878 0.29782203 -1.0278846 0.319757 0.270631 -0.15956603
0.3581286 0.40093774 -0.65527517 -0.8767763 -0.1339125 0.4817094 -0.6158748 0.24151398
0.3366308 -0.60109675 0.28195876 0.37611693 0.16662551 0.28482974 0.3753291 0.2346917
0.42462865 0.23668519 -0.6032337 0.33901694 0.23844764 -0.6280585 -0.8352586 -1.0338689
-0.6985632 -0.27384055 0.3243328 -0.806656 -0.99490017 0.3148938 -0.49487168 -0.66155416
0.26324856 0.33525258 -0.3989294 -0.47934532 0.6962615 -0.8343624 0.0836331 0.30178043
0.3118775 -0.9350353 -1.0240086 -1.1267576 -1.112544 0.2906766 0.12821127 0.23971929
-0.25657123 -0.7757856 0.23541115 -0.9183028 -0.8461498 0.25807834 0.26464853 0.18119633
0.16494949 -0.73585093 -0.60503405 -0.6543704 0.23965064 -0.7948751 0.31401765 0.31055933
