results/SelfPlay_Flag_NoTool_Single_3/BasicAgent.onnx (onnx, 221276 bytes, 6 tensors)

action_model._discrete_distribution.branches.0.bias f4 [5]
0	0x00000000	0.0
1	0x00000000	0.0
2	0x00000000	0.0
3	0x00000000	0.0
4	0x00000000	0.0

action_model._discrete_distribution.branches.0.weight f4 [5, 128]
0	0x3c769d27	0.0150521165
1	0xbbdc3d97	-0.0067212093
2	0xbc91d675	-0.017802456
3	0x3b6cf7d2	0.0036158455
4	0x3a96cedc	0.0011505741
5	0x3c1fd2b9	0.00975483
6	0x3c6179ef	0.013761981
7	0xbc06849e	-0.008210329
8	0xbc34dbeb	-0.011038761
9	0x3bc327d3	0.005955675
10	0xb76254bd	-1.3490379e-05
11	0xbc1bfbc4	-0.009520475
12	0xbbade85e	-0.0053072413
13	0x3bb58804	0.005539896
14	0x3afcfd83	0.0019301627
15	0xbad57afb	-0.0016287261
16	0x3bf4c9e2	0.0074703554
17	0xba9ed3c6	-0.0012117557
18	0xbb9a2ca3	-0.004705028
19	0xbc246bae	-0.010035438
20	0xbc08ddfa	-0.008353705
21	0x3ca985e6	0.02069373
22	0x3c31948c	0.010838639
23	0xbbee46e2	-0.0072716335
24	0xbbe2cea0	-0.0069216043
25	0xbc5f9492	-0.013646262
26	0xbbbe73e0	-0.005812153
27	0xbc6d2bdf	-0.014475792
28	0x3b5904b0	0.0033114366
29	0x3b9f3303	0.004858376
30	0xbc700138	-0.014648728
31	0xbc5f3e27	-0.013625658
32	0xbb26996b	-0.0025421034
33	0x3c0d27f7	0.008615485
34	0xbc6f2e23	-0.014598402
35	0x3ba6a059	0.005085033
36	0xbb3a13fb	-0.0028393257
37	0x3c04ac32	0.008097695
38	0x3b7d8c72	0.0038688448
39	0x3b4054f2	0.0029347506
40	0xbb92245e	-0.0044599017
41	0x3bb79ecb	0.0056036464
42	0xbc2730da	-0.010204518
43	0xbb9b493d	-0.0047389553
44	0xbc53824f	-0.012909486
45	0x3c0f7783	0.008756521
46	0xbc187bf2	-0.009306895
47	0x3a03089c	0.00049985363
48	0x3c086289	0.008324274
49	0xbae62c33	-0.001756078
50	0x3c03ec92	0.008052008
51	0x3c9d8fbf	0.019233583
52	0x3b1ca602	0.002390266
53	0xbc8961da	-0.016770292
54	0x3baa8e57	0.0052049565
55	0x389368c0	7.0290174e-05
56	0x39dffb28	0.00042721
57	0xbbfef5bf	-0.00778076
58	0xbc184689	-0.009294161
59	0xbbcec962	-0.006310628
60	0x3bf27597	0.0073992717
61	0x3c123c37	0.008925489
62	0x3bff5843	0.007792504
63	0xbb6756c7	-0.0035299526
64	0xbc40dd0a	-0.01177145
65	0x3c3b6e07	0.011439807
66	0xb8f31c65	-0.00011592432
67	0xbb908b1b	-0.004411114
68	0x3c13d3e7	0.009022689
69	0x378771fa	1.6146329e-05
70	0x3ba2a5c7	0.00496361
71	0xbb9aabf1	-0.004720204
72	0x3ab7ffc3	0.0014038015
73	0xbba8c787	-0.0051507386
74	0x3c231164	0.009952877
75	0xbc986723	-0.018603867
76	0x3afff133	0.0019526839
77	0x3bb3d01b	0.0054874546
78	0x3c3dd0a9	0.011585393
79	0xbc1917fb	-0.009344096
80	0x3b5d73a7	0.0033790858
81	0xbc072bdd	-0.008250204
82	0x3b9c179e	0.0047635576
83	0x3c0d15da	0.008611167
84	0xbb8da410	-0.0043225363
85	0x3b1de068	0.0024090055
86	0xbc3b88ef	-0.011446222
87	0x3b3bcf8f	0.002865765
88	0x3adf2a60	0.0017026179
89	0x39d403cb	0.00040438617
90	0x3bf7fd95	0.007568071
91	0x3c218936	0.009859374
92	0xbb9deb32	-0.004819297
93	0x3bed7c77	0.0072475034
94	0xbbaff439	-0.00536969
95	0xbb970fdf	-0.0046100463
96	0xbb9fe3c5	-0.004879447
97	0x3bd8a0c8	0.0066109635
98	0x3b6ccc23	0.0036132417
99	0xbbd2e99d	-0.0064365403
100	0xbc3a5667	-0.011373139
101	0x3c861381	0.016366722
102	0x3bc93b41	0.006141097
103	0xbc027373	-0.007962096
104	0xbc13f931	-0.00903158
105	0x3c30538e	0.0107621085
106	0xbc1c0921	-0.009523661
107	0x3afcb8ff	0.0019281207
108	0xbb800fb2	-0.003908121
109	0xba0200c9	-0.00049592234
110	0x3c10b2a7	0.008831657
111	0x3b7d93cf	0.0038692837
112	0x3bd90f9f	0.0066241766
113	0x3b660203	0.0035096414
114	0x3b0df83e	0.0021662856
115	0xbc8fa7bb	-0.017536035
116	0x3bb0386c	0.0053778198
117	0x3affc840	0.0019514635
118	0x3be39df2	0.006946319
119	0xbcd90355	-0.026490847
120	0x3c835e41	0.016036155
121	0xbbb83cab	-0.0056224666
122	0x3bb5739d	0.005537464
123	0x3b95c2d6	0.0045703454
124	0x3c915141	0.01773894
125	0x3bfd4ed7	0.0077303457
126	0x3aab390f	0.001306327
127	0x3b44922e	0.0029994356
128	0xbc51a1a5	-0.012794887
129	0xbb7eda6a	-0.003888751
130	0x3c19c32a	0.00938491
131	0x3adba692	0.0016758016
132	0xbc88514f	-0.016640333
133	0xbba6adc9	-0.005086635
134	0xbc35c4e8	-0.011094309
135	0x38fb2f75	0.00011977452
136	0xbc532b4a	-0.012888739
137	0x3b28e5a3	0.002577164
138	0x3b2bdb07	0.002622308
139	0x3c7a3eab	0.01527373
140	0xbba4c769	-0.0050286544
141	0x3b9164ba	0.0044370564
142	0xbb8a0fc5	-0.0042133057
143	0xbc59e702	-0.013299705
144	0xbb5a60d8	-0.0033321884
145	0xbb50ec82	-0.003187925
146	0xb49c291d	-2.9087178e-07
147	0x3b658a82	0.0035025184
148	0xbbfd05ff	-0.007721662
149	0xbb004982	-0.0019575064
150	0x3c4212b6	0.011845281
151	0xbad176b0	-0.0015980806
152	0xba5c5187	-0.00084044825
153	0x39f65a75	0.00046988172
154	0x3ad1641a	0.0015975267
155	0x3bf4bc4a	0.007468735
156	0xba4387f5	-0.0007458919
157	0x3bec5ecb	0.0072134486
158	0x3ba6e2ea	0.0050929682
159	0x3c0f9166	0.008762693
160	0x3c00ca57	0.007860742
161	0x3c4fe625	0.012689148
162	0x3c85a711	0.016315015
163	0xbbddcf0f	-0.006769068
164	0x3b49dc73	0.0030801564
165	0x3c07611a	0.008262897
166	0xbc334fc9	-0.010944315
167	0x3c4a5817	0.012350104
168	0x3b5666b3	0.0032715022
169	0xbc0262a6	-0.00795809
170	0xbb4c7bcd	-0.003120172
171	0xbc177e83	-0.009246471
172	0x3c265603	0.010152343
173	0xbbf30683	-0.0074165477
174	0xbb781510	-0.003785435
175	0x3beb106a	0.0071735876
176	0xbc208d19	-0.009799265
177	0x3b5a92f7	0.0033351758
178	0xbb354cb2	-0.0027664122
179	0xbb1fc7e1	-0.0024380612
180	0xbbe8ed7b	-0.007108388
181	0x3c8ecacb	0.017430684
182	0x3c968b7b	0.018377056
183	0x3be04512	0.0068441713
184	0x3b772a95	0.003771459
185	0x3b6df222	0.0036307652
186	0x3c079edb	0.00827762
187	0x3c408317	0.011750004
188	0x3c25f82f	0.010129972
189	0xbbb7512e	-0.005594394
190	0xbbe3031f	-0.0069278623
191	0xba6a0572	-0.0008927203
192	0x3c2e4028	0.010635413
193	0x3cc1f583	0.02367664
194	0x3b62c450	0.0034601875
195	0x3ad0afd0	0.0015921537
196	0xbbe5f14a	-0.0070172893
197	0xb9e8d505	-0.000444092
198	0x3badd8f6	0.005305405
199	0xbcca500e	-0.024696376
200	0x3b905983	0.004405202
201	0xbb9ef539	-0.00485101
202	0x3ad241ea	0.0016041372
203	0xbb7bea38	-0.0038439166
204	0xb918131d	-0.0001450297
205	0x3b46ac6b	0.0030315171
206	0xbb333a08	-0.0027347822
207	0x3b121564	0.0022290582
208	0xbbfb3737	-0.007666494
209	0xbadb608b	-0.0016737146
210	0x3b3bda50	0.002866406
211	0x3ba200f7	0.0049439627
212	0x3a4cbcef	0.0007810136
213	0x3c9a8642	0.018862847
214	0xbb7e8e9d	-0.0038842328
215	0x3bf31e4d	0.0074193836
216	0xbc84b8b3	-0.016201353
217	0x3b646532	0.0034850356
218	0xbc169ef0	-0.009193167
219	0x3c54e065	0.012992953
220	0x3aa669b8	0.0012696302
221	0x3c82652f	0.015917389
222	0xbc84e30b	-0.016221544
223	0xbba32920	-0.0049792677
224	0x3c631ab3	0.013861346
225	0x3a89fe93	0.001052814
226	0x3af590dd	0.0018735189
227	0x3ab9397b	0.001413151
228	0xbc47ec8f	-0.012202396
229	0x3b1adb03	0.0023629076
230	0xbb2b6098	-0.0026150104
231	0x3acdc5a7	0.0015699164
232	0xbc78a71a	-0.015176559
233	0xbce5a948	-0.028034821
234	0x3c2fa6e7	0.010720945
235	0x3c926fde	0.017875608
236	0x3c9a6bc7	0.01885022
237	0xbb5c5aaa	-0.0033623376
238	0x3b06ca21	0.0020567256
239	0xbb1c7c0a	-0.0023877644
240	0x3c057876	0.008146396
241	0x3c09eb7e	0.008417962
242	0xbafcabbb	-0.0019277254
243	0x3a925533	0.0011164307
244	0x3c03537b	0.008015509
245	0xbc304080	-0.0107575655
246	0xba871a4f	-0.0010307523
247	0xbb56da05	-0.0032783758
248	0x3b2ac60c	0.0026057987
249	0xbaff2c82	-0.001946822
250	0x3c34af8e	0.011028184
251	0x3ba5f548	0.00506464
252	0x3c4c613d	0.012474355
253	0xb99c9c42	-0.0002987106
254	0xbbe90917	-0.0071116793
255	0xba098e0a	-0.0005247301

network_body.linear_encoder.seq_layers.0.bias f4 [128]
0	0x00000000	0.0
1	0x00000000	0.0
2	0x00000000	0.0
3	0x00000000	0.0
4	0x00000000	0.0
5	0x00000000	0.0
6	0x00000000	0.0
7	0x00000000	0.0
8	0x00000000	0.0
9	0x00000000	0.0
10	0x00000000	0.0
11	0x00000000	0.0
12	0x00000000	0.0
13	0x00000000	0.0
14	0x00000000	0.0
15	0x00000000	0.0
16	0x00000000	0.0
17	0x00000000	0.0
18	0x00000000	0.0
19	0x00000000	0.0
20	0x00000000	0.0
21	0x00000000	0.0
22	0x00000000	0.0
23	0x00000000	0.0
24	0x00000000	0.0
25	0x00000000	0.0
26	0x00000000	0.0
27	0x00000000	0.0
28	0x00000000	0.0
29	0x00000000	0.0
30	0x00000000	0.0
31	0x00000000	0.0
32	0x00000000	0.0
33	0x00000000	0.0
34	0x00000000	0.0
35	0x00000000	0.0
36	0x00000000	0.0
37	0x00000000	0.0
38	0x00000000	0.0
39	0x00000000	0.0
40	0x00000000	0.0
41	0x00000000	0.0
42	0x00000000	0.0
43	0x00000000	0.0
44	0x00000000	0.0
45	0x00000000	0.0
46	0x00000000	0.0
47	0x00000000	0.0
48	0x00000000	0.0
49	0x00000000	0.0
50	0x00000000	0.0
51	0x00000000	0.0
52	0x00000000	0.0
53	0x00000000	0.0
54	0x00000000	0.0
55	0x00000000	0.0
56	0x00000000	0.0
57	0x00000000	0.0
58	0x00000000	0.0
59	0x00000000	0.0
60	0x00000000	0.0
61	0x00000000	0.0
62	0x00000000	0.0
63	0x00000000	0.0
64	0x00000000	0.0
65	0x00000000	0.0
66	0x00000000	0.0
67	0x00000000	0.0
68	0x00000000	0.0
69	0x00000000	0.0
70	0x00000000	0.0
71	0x00000000	0.0
72	0x00000000	0.0
73	0x00000000	0.0
74	0x00000000	0.0
75	0x00000000	0.0
76	0x00000000	0.0
77	0x00000000	0.0
78	0x00000000	0.0
79	0x00000000	0.0
80	0x00000000	0.0
81	0x00000000	0.0
82	0x00000000	0.0
83	0x00000000	0.0
84	0x00000000	0.0
85	0x00000000	0.0
86	0x00000000	0.0
87	0x00000000	0.0
88	0x00000000	0.0
89	0x00000000	0.0
90	0x00000000	0.0
91	0x00000000	0.0
92	0x00000000	0.0
93	0x00000000	0.0
94	0x00000000	0.0
95	0x00000000	0.0
96	0x00000000	0.0
97	0x00000000	0.0
98	0x00000000	0.0
99	0x00000000	0.0
100	0x00000000	0.0
101	0x00000000	0.0
102	0x00000000	0.0
103	0x00000000	0.0
104	0x00000000	0.0
105	0x00000000	0.0
106	0x00000000	0.0
107	0x00000000	0.0
108	0x00000000	0.0
109	0x00000000	0.0
110	0x00000000	0.0
111	0x00000000	0.0
112	0x00000000	0.0
113	0x00000000	0.0
114	0x00000000	0.0
115	0x00000000	0.0
116	0x00000000	0.0
117	0x00000000	0.0
118	0x00000000	0.0
119	0x00000000	0.0
120	0x00000000	0.0
121	0x00000000	0.0
122	0x00000000	0.0
123	0x00000000	0.0
124	0x00000000	0.0
125	0x00000000	0.0
126	0x00000000	0.0
127	0x00000000	0.0

network_body.linear_encoder.seq_layers.0.weight f4 [128, 292]
0	0x3da41e11	0.08013547
1	0xbd610da3	-0.054944646
2	0xbca0b537	-0.01961766
3	0xbde62529	-0.112375565
4	0x3cca567e	0.024699446
5	0x3d9d9c58	0.07695836
6	0x3c1b1584	0.009465579
7	0x3c919add	0.01777404
8	0xbc01400d	-0.007888806
9	0xba91f5e0	-0.0011135899
10	0x3c36886d	0.011140925
11	0x3d925906	0.07145886
12	0xbd87d7eb	-0.0663298
13	0xbda3f2bb	-0.080052815
14	0x3cac03bc	0.020997874
15	0x3c09418a	0.008377442
16	0x3c84ca97	0.016209884
17	0x3bca3140	0.006170422
18	0xbd9b23a7	-0.075751595
19	0xbd9c6202	-0.07635881
20	0x3d81b630	0.06333578
21	0x3c92ea1d	0.0179339
22	0x3cf4c172	0.029877398
23	0xbbda4d6a	-0.0066620605
24	0xbae6b1fc	-0.0017600651
25	0x3d33eddc	0.043928012
26	0xbd1cf85f	-0.038322803
27	0x3d869957	0.06572216
28	0xbd826a67	-0.06367951
29	0xbd537853	-0.051628422
30	0x3cacb5ec	0.02108284
31	0xbd234c07	-0.039867427
32	0x3e08cb62	0.13358834
33	0xbd59ff51	-0.053222004
34	0x3cce8e3e	0.02521431
35	0x3bac32fe	0.005255102
36	0xbbab8f2a	-0.0052355723
37	0xbd526af5	-0.051371533
38	0xbcdefcdf	-0.027220188
39	0xbc9f547d	-0.019449467
40	0xbce06f84	-0.027396925
41	0xbd3181d4	-0.043336704
42	0xbc3719fc	-0.011175629
43	0x3d101416	0.035175405
44	0x3c1fa7c4	0.009744588
45	0x3c27cf76	0.010242334
46	0x3b805003	0.003915788
47	0xbc024886	-0.007951861
48	0x3c9856ec	0.018596135
49	0x3dcc8480	0.0998621
50	0x3da1742f	0.078834884
51	0xbd09db91	-0.03365666
52	0x3d19b57d	0.037526596
53	0xbe25b8d4	-0.16183788
54	0xbcd25201	-0.025673868
55	0xbd6ee230	-0.058321178
56	0xbd29e06a	-0.041473784
57	0x3d51b05d	0.051193584
58	0x3d71beb7	0.05901977
59	0x3db43bb4	0.0880045
60	0xbd181ac8	-0.037134916
61	0x3c3888e2	0.011263104
62	0xbba39c8f	-0.0049930285
63	0xbdf36570	-0.11884582
64	0xbc779123	-0.015110287
65	0xbd0527fe	-0.032508843
66	0x3cc1baf0	0.023648709
67	0xbd9c2d0e	-0.07625781
68	0xbcbe5177	-0.023232205
69	0xbc899a03	-0.016797071
70	0x3c67131c	0.014103677
71	0x3bd9e7f0	0.0066499636
72	0xbe12cf84	-0.14336973
73	0x3c440001	0.011962892
74	0x3da5fed5	0.08105246
75	0x3d110f1c	0.0354148
76	0x3e011ea1	0.1260934
77	0xbd4aed18	-0.049542516
78	0xbd7df06c	-0.061996862
79	0xbcbea276	-0.023270827
80	0x3c90628b	0.017625114
81	0xbd276769	-0.040870104
82	0x3d815f4e	0.06317006
83	0x3d1c4e5d	0.03816067
84	0xbd246c62	-0.040142424
85	0xbd7a18c0	-0.06105876
86	0xbddcc4df	-0.10779738
87	0x3db08024	0.08618191
88	0x3e029467	0.12751924
89	0xbc0c5dd3	-0.008567291
90	0xbcc20dbc	-0.02368819
91	0x3ca32c89	0.019918697
92	0xbbd6961e	-0.006548657
93	0x3b9219d2	0.0044586444
94	0x3c10090f	0.008791222
95	0xbd34b950	-0.04412204
96	0x3bfa3a73	0.007636362
97	0x3c606862	0.013696762
98	0xbcefca68	-0.02927132
99	0x3aa35893	0.001246231
100	0x3d632c5f	0.055462237
101	0x3c95153b	0.0181986
102	0xbcbf0e76	-0.023322325
103	0xbdb257cd	-0.08708153
104	0xbd87b4c3	-0.066262744
105	0x3c6b1c74	0.0143500455
106	0x3d2938df	0.041314002
107	0x3ca81acb	0.020520588
108	0xbd1ed2b7	-0.038775172
109	0x3de77866	0.11302261
110	0xbcb4b6c3	-0.022059804
111	0xbd8c46aa	-0.068494156
112	0xbd877e63	-0.06615903
113	0x3d31282b	0.043251198
114	0x3d0171b1	0.031602565
115	0xbd821adf	-0.063527815
116	0xbd1ead9b	-0.03873978
117	0xbd2e3554	-0.042531326
118	0x3d1d1b38	0.038356036
119	0x3bcc46ba	0.006234017
120	0xbc45cf44	-0.012073342
121	0x3a4b76f3	0.000776156
122	0xbd27b3d6	-0.04094299
123	0xbd1b79fd	-0.037958134
124	0xbdd0488a	-0.10170086
125	0xbc3f2005	-0.011665349
126	0xbd260b6f	-0.040538248
127	0xbc17b15e	-0.009258596
128	0x3d078f8d	0.033095885
129	0xbb0b4f03	-0.0021256811
130	0xbdbc0ce7	-0.091821484
131	0x3d8dbdc6	0.06920962
132	0x3ce0c4db	0.027437618
133	0xbd99e286	-0.07513909
134	0xbc8d13b8	-0.017221317
135	0x3ca35d6e	0.019942012
136	0xbc27c542	-0.010239901
137	0xbdace50f	-0.08442127
138	0x3d2f8388	0.042850047
139	0xba46da48	-0.0007585627
140	0xbd4f011c	-0.050538167
141	0xbb7fc699	-0.0039028286
142	0xbc26850c	-0.010163557
143	0xbb99cd95	-0.0046936967
144	0xbd2240fb	-0.03961275
145	0xbceecad2	-0.029149447
146	0x3dad6e88	0.08468348
147	0xbdf0e7a1	-0.1176293
148	0x3d822705	0.06355099
149	0xbd613095	-0.054977972
150	0x3da9d07f	0.082917206
151	0x3d5c14dc	0.05373083
152	0xbd517f22	-0.051146634
153	0x3d92da7f	0.07170581
154	0xbd930566	-0.07178764
155	0xbd1dc842	-0.03852106
156	0xbd3e0efb	-0.046401005
157	0xbd6a580b	-0.05721287
158	0x3d31f5db	0.043447357
159	0xbd33afa0	-0.04386866
160	0x3cb4f3f7	0.022088988
161	0x3cca51d5	0.024697224
162	0x3dd0bea4	0.10192612
163	0x3d8a1841	0.06742907
164	0x3d07b875	0.033134896
165	0x3c82e581	0.015978577
166	0xbdc3a98e	-0.09553824
167	0xbdc4f318	-0.09616679
168	0xbd765dd9	-0.060148094
169	0x3d5654b1	0.05232686
170	0x3cae3203	0.021264082
171	0x3c822ddf	0.015891014
172	0x3d2dcfed	0.04243462
173	0xbcad17c5	-0.021129498
174	0xbc4e1483	-0.012578133
175	0xbd661000	-0.056167603
176	0x3cce3ffa	0.02517699
177	0x3ca08609	0.019595163
178	0x3be1dff7	0.006893154
179	0xbcab3afd	-0.020902151
180	0x3c8ad1e9	0.016945796
181	0x3d9cae63	0.07650449
182	0xbcce10b9	-0.025154458
183	0xbd693376	-0.056933843
184	0xbacd08f5	-0.0015642928
185	0x3ce7d370	0.028299063
186	0x3d5dccf8	0.05415055
187	0xbd1118cc	-0.03542404
188	0x3d9c19fb	0.07622143
189	0xbccc55ba	-0.024943221
190	0x3b439b0d	0.0029847056
191	0x3d889c56	0.06670444
192	0x3d3c3df2	0.045957513
193	0xbcaa3fae	-0.020782318
194	0xbce2342f	-0.027612774
195	0xbc645d2a	-0.013938228
196	0x3cfefa6b	0.031125268
197	0xbc1185ea	-0.008882025
198	0xbd669738	-0.056296557
199	0x3de0e716	0.10981576
200	0x3d9d552b	0.0768226
201	0xbd124ce1	-0.03571785
202	0xbd9cd0e7	-0.076570325
203	0x3cece05c	0.028915577
204	0xbc7e581f	-0.015523939
205	0xbcaa74b9	-0.02080761
206	0x3d15bd23	0.036557328
207	0x3bbe8fdc	0.005815489
208	0xbdee28d4	-0.11628881
209	0xbd23d1e7	-0.0399951
210	0xbc3c0634	-0.011476088
211	0xbc9d45eb	-0.019198379
212	0x3d9c562e	0.07633625
213	0xbc7b6f54	-0.015346367
214	0xbd88194b	-0.06645449
215	0xbdfb515a	-0.12271376
216	0x3d130b07	0.03589919
217	0x3cc05075	0.023475865
218	0x3ba6ed4d	0.0050942064
219	0xbdb6943d	-0.08914993
220	0x3d6d306f	0.057907518
221	0xbd9f9350	-0.077917695
222	0xbc8104f0	-0.015749425
223	0x3c0ad881	0.00847447
224	0x3d164813	0.03668983
225	0x3d7628b2	0.060097404
226	0x3dafe32c	0.085882515
227	0xbd4a049a	-0.049320795
228	0x3db253ec	0.08707413
229	0xbd5eb81d	-0.054374803
230	0xbc161aa5	-0.009161626
231	0x3c833805	0.016017923
232	0x3d934954	0.071917206
233	0xbda07423	-0.07834651
234	0x3e2c75d7	0.16841827
235	0x3cbf0419	0.023317384
236	0xbd9c26ea	-0.0762461
237	0xbdd4a6ca	-0.10383375
238	0x3d190c61	0.03736532
239	0xbd0b9a9b	-0.03408299
240	0x3d273320	0.04082024
241	0x3d04b4ea	0.032399096
242	0x3d4b207b	0.049591523
243	0x3cad5ee9	0.02116342
244	0xbdb90412	-0.090339795
245	0x3d6a443d	0.057193983
246	0xbd2f26b1	-0.04276151
247	0xbd1d90c8	-0.038468152
248	0x3d3016e8	0.042990595
249	0xbd79f265	-0.06102218
250	0xbd94013e	-0.072267994
251	0xbc9e1b4f	-0.019300131
252	0xbb58781b	-0.0033030573
253	0xbcf55c63	-0.02995128
254	0xbb633738	-0.0034670364
255	0xbbbe202a	-0.005802174

network_body.linear_encoder.seq_layers.2.bias f4 [128]
0	0x00000000	0.0
1	0x00000000	0.0
2	0x00000000	0.0
3	0x00000000	0.0
4	0x00000000	0.0
5	0x00000000	0.0
6	0x00000000	0.0
7	0x00000000	0.0
8	0x00000000	0.0
9	0x00000000	0.0
10	0x00000000	0.0
11	0x00000000	0.0
12	0x00000000	0.0
13	0x00000000	0.0
14	0x00000000	0.0
15	0x00000000	0.0
16	0x00000000	0.0
17	0x00000000	0.0
18	0x00000000	0.0
19	0x00000000	0.0
20	0x00000000	0.0
21	0x00000000	0.0
22	0x00000000	0.0
23	0x00000000	0.0
24	0x00000000	0.0
25	0x00000000	0.0
26	0x00000000	0.0
27	0x00000000	0.0
28	0x00000000	0.0
29	0x00000000	0.0
30	0x00000000	0.0
31	0x00000000	0.0
32	0x00000000	0.0
33	0x00000000	0.0
34	0x00000000	0.0
35	0x00000000	0.0
36	0x00000000	0.0
37	0x00000000	0.0
38	0x00000000	0.0
39	0x00000000	0.0
40	0x00000000	0.0
41	0x00000000	0.0
42	0x00000000	0.0
43	0x00000000	0.0
44	0x00000000	0.0
45	0x00000000	0.0
46	0x00000000	0.0
47	0x00000000	0.0
48	0x00000000	0.0
49	0x00000000	0.0
50	0x00000000	0.0
51	0x00000000	0.0
52	0x00000000	0.0
53	0x00000000	0.0
54	0x00000000	0.0
55	0x00000000	0.0
56	0x00000000	0.0
57	0x00000000	0.0
58	0x00000000	0.0
59	0x00000000	0.0
60	0x00000000	0.0
61	0x00000000	0.0
62	0x00000000	0.0
63	0x00000000	0.0
64	0x00000000	0.0
65	0x00000000	0.0
66	0x00000000	0.0
67	0x00000000	0.0
68	0x00000000	0.0
69	0x00000000	0.0
70	0x00000000	0.0
71	0x00000000	0.0
72	0x00000000	0.0
73	0x00000000	0.0
74	0x00000000	0.0
75	0x00000000	0.0
76	0x00000000	0.0
77	0x00000000	0.0
78	0x00000000	0.0
79	0x00000000	0.0
80	0x00000000	0.0
81	0x00000000	0.0
82	0x00000000	0.0
83	0x00000000	0.0
84	0x00000000	0.0
85	0x00000000	0.0
86	0x00000000	0.0
87	0x00000000	0.0
88	0x00000000	0.0
89	0x00000000	0.0
90	0x00000000	0.0
91	0x00000000	0.0
92	0x00000000	0.0
93	0x00000000	0.0
94	0x00000000	0.0
95	0x00000000	0.0
96	0x00000000	0.0
97	0x00000000	0.0
98	0x00000000	0.0
99	0x00000000	0.0
100	0x00000000	0.0
101	0x00000000	0.0
102	0x00000000	0.0
103	0x00000000	0.0
104	0x00000000	0.0
105	0x00000000	0.0
106	0x00000000	0.0
107	0x00000000	0.0
108	0x00000000	0.0
109	0x00000000	0.0
110	0x00000000	0.0
111	0x00000000	0.0
112	0x00000000	0.0
113	0x00000000	0.0
114	0x00000000	0.0
115	0x00000000	0.0
116	0x00000000	0.0
117	0x00000000	0.0
118	0x00000000	0.0
119	0x00000000	0.0
120	0x00000000	0.0
121	0x00000000	0.0
122	0x00000000	0.0
123	0x00000000	0.0
124	0x00000000	0.0
125	0x00000000	0.0
126	0x00000000	0.0
127	0x00000000	0.0

network_body.linear_encoder.seq_layers.2.weight f4 [128, 128]
0	0x3d7232c0	0.05913043
1	0x3e1a3931	0.1506088
2	0xbe184c48	-0.14872849
3	0xbe1d10ef	-0.15338491
4	0xbdcff019	-0.10153217
5	0x3ca6f788	0.020381704
6	0x3cbed13a	0.023293126
7	0x3d229ca4	0.039700165
8	0xbd28b54c	-0.041188523
9	0x3d81b53a	0.06333394
10	0xbd565f43	-0.052336942
11	0x3c9b3c31	0.0189496
12	0xbd2acf77	-0.04170176
13	0x3e310345	0.17286403
14	0xbc0850f1	-0.008320079
15	0x3d9ef87d	0.07762239
16	0xbe00141b	-0.1250767
17	0x3c2ace24	0.010425124
18	0x3da04835	0.078262724
19	0x3e31bf50	0.17358136
20	0x3c861c93	0.016371047
21	0xbdbbb280	-0.091649055
22	0x3dc3f203	0.095676444
23	0xbdb73c18	-0.08947009
24	0xbe1c701f	-0.15277146
25	0x3d8b8b93	0.06813731
26	0xbdd81fcc	-0.1055294
27	0x3c930b28	0.017949656
28	0xbd242da3	-0.040082585
29	0xbe0d31ff	-0.13788603
30	0xbde3e6bc	-0.111279935
31	0xbd6e692d	-0.058205772
32	0xbd4c7f82	-0.04992629
33	0xbcb27771	-0.02178547
34	0xbe494505	-0.19655235
35	0x3df48b2b	0.11940607
36	0xbda584a1	-0.080819376
37	0xbdae85ec	-0.08521637
38	0xbd2721bc	-0.040803656
39	0xbdec62e5	-0.115423
40	0x3cefca89	0.029271381
41	0xbcf345ac	-0.029696308
42	0x3df3c622	0.11903025
43	0xbd16eada	-0.036845066
44	0x3e74a245	0.23890026
45	0xbda48772	-0.08033647
46	0x3b949010	0.004533775
47	0xbdd97838	-0.10618633
48	0xbd669eaa	-0.056303658
49	0xbe17cac7	-0.14823447
50	0x3bb1de92	0.005428144
51	0x3d64c768	0.05585423
52	0xbc2e654f	-0.010644271
53	0x3d271c7d	0.040798653
54	0xbdc85daf	-0.09783494
55	0xbd8a8ccb	-0.067651354
56	0x3e304f90	0.1721785
57	0xbda452ff	-0.08023643
58	0xbd9862f3	-0.07440748
59	0x3d922dfc	0.07137677
60	0xbd5cd771	-0.0539164
61	0x3c45ed33	0.0120804785
62	0xbbbecdc2	-0.005822868
63	0x3d3bba50	0.04583198
64	0x3cd5ad5e	0.026083644
65	0xbb87d7ce	-0.004145599
66	0xbdc1dcb0	-0.09465921
67	0xbd83a7c3	-0.064284824
68	0xbd568551	-0.052373234
69	0xbc7739a4	-0.015089426
70	0x3db3acbf	0.08773183
71	0xbcb99e09	-0.022658365
72	0xbc5212f7	-0.012821904
73	0xbcfa09e4	-0.030522294
74	0xbbaa5c42	-0.0051989863
75	0xbd987234	-0.074436575
76	0xbdfe580a	-0.12419136
77	0xbdb2caa1	-0.08730055
78	0xbd082e56	-0.033247314
79	0x3db96392	0.09052195
80	0x3e251e81	0.16124918
81	0x3cb0e468	0.021593288
82	0xbc6633aa	-0.014050404
83	0xbd5bb4a0	-0.053639054
84	0x3d89f3db	0.06735965
85	0x3dbd43c3	0.0924144
86	0xbd92832d	-0.07153926
87	0x3e41723c	0.18891233
88	0xbd178033	-0.036987495
89	0x3da8b8de	0.082383856
90	0x3e45806a	0.19287267
91	0xbe17561f	-0.14778946
92	0x3c0c413d	0.008560476
93	0xbe04b266	-0.12958679
94	0xbe31c29a	-0.17359391
95	0x3cb80926	0.0224653
96	0xbd3aa945	-0.045571584
97	0x3dbf67a0	0.09345937
98	0x3ded4311	0.115850575
99	0xbe050cf7	-0.12993227
100	0x3d8c40b8	0.068482816
101	0xbd655601	-0.055990223
102	0x3da39d7f	0.07989024
103	0x3c9281d3	0.01788417
104	0x3d23903d	0.03993248
105	0x3ce3a18c	0.027786992
106	0xbc759d07	-0.0149910515
107	0xbcd72d05	-0.026266584
108	0x3caf7231	0.021416755
109	0x3d86e682	0.065869346
110	0x3d92b1de	0.07162832
111	0xbbc3d2aa	-0.005976041
112	0xbcc51a9c	-0.02406054
113	0xbde7098f	-0.1128112
114	0xbcd35167	-0.025795652
115	0x3d151436	0.036396228
116	0xbdd21f05	-0.10259823
117	0xbd8b1282	-0.067906395
118	0xbe1cf96c	-0.15329522
119	0x3d10e529	0.035374794
120	0xbd675a07	-0.05648234
121	0x3d86126f	0.06546485
122	0x3d8e748c	0.06955823
123	0xbcedb843	-0.029018527
124	0xbd8b1c0c	-0.06792459
125	0x3e14c506	0.14528283
126	0x3c4951d6	0.012287578
127	0x3cc63c72	0.024198744
128	0x3d6d7187	0.057969596
129	0xbd7c52bc	-0.06160234
130	0x3d6ed9d8	0.05831322
131	0xbb4b9f44	-0.0031070272
132	0xbcf0e8e3	-0.029407924
133	0x3dbcc5a6	0.09217386
134	0x3d3e6b03	0.046488773
135	0x3d95c6cb	0.073133074
136	0x3c909337	0.017648323
137	0xbd74e675	-0.059790093
138	0xbc83fa80	-0.016110659
139	0x3d8fcb81	0.07021237
140	0x3e0cf58f	0.13765548
141	0xbd1e1522	-0.038594373
142	0xbdb459d3	-0.08806195
143	0xbdcabd59	-0.098993964
144	0xbd66f1d8	-0.056382984
145	0x3cca076e	0.024661746
146	0x3cbc61c9	0.022995846
147	0x3cd3edfa	0.025870312
148	0x3c6a5d6e	0.014304502
149	0x3b4c1624	0.0031141127
150	0xbd6c40a3	-0.05767883
151	0x3d81d0ff	0.06338691
152	0xbd5409b3	-0.051767062
153	0x3e0882d4	0.13331157
154	0x3d390ee2	0.04518021
155	0xbd583453	-0.052784275
156	0xbde32849	-0.11091668
157	0xbc323b73	-0.010878432
158	0xbd1042b1	-0.035219852
159	0x3cb06305	0.021531591
160	0xbd00223b	-0.031282645
161	0x3d1f2919	0.038857553
162	0x3d4c59bf	0.049890276
163	0xbd316cf4	-0.043316796
164	0x3cc03125	0.023460934
165	0xbcfee6be	-0.031115886
166	0xbc679416	-0.0141344275
167	0x3d319cbd	0.043362368
168	0x3d99a9f1	0.07503117
169	0x3daaf5c1	0.08347655
170	0x3d10ba31	0.035333816
171	0x3b622bd3	0.0034510985
172	0x3d26162d	0.040548492
173	0x3e00ebfd	0.12590022
174	0xbdb10349	-0.08643205
175	0x3d5e59db	0.05428491
176	0xbbabdd0c	-0.0052448567
177	0x3da150fd	0.078767754
178	0x3d35411d	0.04425155
179	0x3e19c33a	0.1501588
180	0xbc1150a6	-0.008869326
181	0xbdbd04ea	-0.09229453
182	0x3d81ff57	0.0634753
183	0x3d2719cc	0.040796086
184	0x3bce046e	0.006287149
185	0x39805e4b	0.00024484316
186	0x3da96681	0.08271504
187	0x3c9f372e	0.019435491
188	0xbdcf2905	-0.10115246
189	0xbcb5add6	-0.022177618
190	0xbda3819a	-0.07983704
191	0xbdc17cfa	-0.094476655
192	0x3cd1f208	0.025628105
193	0xbd434ab7	-0.047678676
194	0x3cea5879	0.02860664
195	0xbe27e6ed	-0.16396685
196	0xbc8c83c8	-0.017152682
197	0xbcd5598a	-0.026043672
198	0x3d648868	0.05579415
199	0x3dd42cb6	0.103600904
200	0x3cd024d3	0.025408184
201	0xbe41d053	-0.18927126
202	0xbcf858a1	-0.030315699
203	0xbd36b3f1	-0.0446052
204	0x3e6eeb32	0.23331907
205	0xbd7bf387	-0.061511543
206	0xbc02a741	-0.007974447
207	0x3d665cf5	0.056240994
208	0xbe41ffc5	-0.18945225
209	0xbccd244c	-0.025041722
210	0xbe431159	-0.19049586
211	0xbdb30a90	-0.08742249
212	0xbd3780b4	-0.044800475
213	0x3d38ef58	0.04515013
214	0x3dafad50	0.085779786
215	0xbe293033	-0.16522293
216	0xbd9611fa	-0.073276475
217	0xbd7a6c88	-0.06113866
218	0x3d8c0f5c	0.06838867
219	0xbdb4804c	-0.08813533
220	0x3ca10c36	0.019659143
221	0xbd929400	-0.07157135
222	0x3dcead75	0.10091678
223	0xbd2bd9f1	-0.041955892
224	0x3b1d42dc	0.002399615
225	0xbda6168d	-0.0810977
226	0x3de3a7a7	0.111159615
227	0x3d04279a	0.03226433
228	0x3d762720	0.060095906
229	0xbb6d24df	-0.0036185307
230	0xbd98c281	-0.07458974
231	0x3c8e823d	0.017396087
232	0x3d30f776	0.043204747
233	0xbd8c97e8	-0.06864911
234	0xbd72caf0	-0.059275568
235	0x3d955da3	0.072932504
236	0x3e4f1e73	0.20226459
237	0xbe056a2e	-0.13028786
238	0x3d5657e6	0.05232992
239	0xbbf6ded7	-0.007533889
240	0x3d698e2e	0.05702036
241	0xbd9d09bb	-0.076678716
242	0xbd9f656b	-0.07783016
243	0x3bb5a790	0.0055436566
244	0x3e267b50	0.16257977
245	0xbc9b2eea	-0.018943269
246	0x3e1b9f71	0.15197541
247	0x3d9175ee	0.071025714
248	0xbd91e39f	-0.071234934
249	0xbd7d6a02	-0.061868675
250	0x3d772faa	0.06034819
251	0x3cd56fba	0.026054252
252	0xbd77df3a	-0.06051562
253	0x39a879b4	0.00032134133
254	0xbc1c4fca	-0.009540508
255	0xbdc66f56	-0.096892044
