results/MovingObstacles_LSTM_DR1_10/BasicAgent/BasicAgent-4999951.onnx (onnx, 138150 bytes, 6 tensors)

action_model._discrete_distribution.branches.0.bias f4 [5]
00000000: c9be 0ebf ca9f 6f3f 5547 25be de31 203e
00000010: 9651 cdbc
-0.55759865 0.93603194 -0.16140492 0.15644023 -0.025063317

action_model._discrete_distribution.branches.0.weight f4 [5, 128]
00000000: cb00 d23d d71c c33e 8fc9 df3e 04e5 063f
00000010: 1d37 e6bd b438 fb3e fe63 87bd 1a04 c93c
00000020: 7177 a13e d860 f63d 4bda 92be 2c99 633e
00000030: eae9 653e d9d6 9c3e 99d4 953e 5064 1fbf
00000040: 5587 fb3c 49d5 023f c622 21be a8a4 69bf
00000050: e76c f8be d5e5 9ebc 3c2f b23d d9c3 b93d
00000060: c429 aa3e ee52 923d eb0b 78be 06e7 1b3f
00000070: a284 69bf f3b8 253d de47 3fbd 1c52 5a3e
00000080: 6fcb 29bf 4c62 023d 2acd b6bf e7bb 71bd
00000090: f861 fbbd 1f3f a03e d7cc 433e e79d 613e
000000a0: aa64 b2bd d436 c4be bad4 13bf 256d 88bf
000000b0: 22eb 323d 7abf cd3c dae1 96bd 397f b13d
000000c0: ca2f c63e 49a7 50be 531c b03e 7d8c 033f
000000d0: 0248 1e3f 6994 883e 0974 01be d37a 7fbf
000000e0: cbb2 f73e 1980 253e 1839 de3e 9fc0 af3c
000000f0: b5fd 98be 4a66 573e 1942 953e c866 1d3e
00000100: 1f86 6d3e cac3 2bbf 9b37 ad3e 2f89 283f
00000110: 439e 9f3e 4d9c 933d c1ed cbbd 373a 813e
00000120: a0aa 613e 624a 67bf 1fb1 39be 2ec0 953e
00000130: 9b30 00bf f431 2fbf aa80 a33e 6ae3 783f
00000140: 5005 d5be 5ec2 c13d 058c 4c3d f7ce 17be
00000150: e17f 74bd e738 fdbe 6670 953e abf6 dfbf
00000160: 4e6e a9be 97af 69bf dd21 db3e bf59 92be
00000170: b8b0 d03e f62f 8d3e 938a d9be 52b9 4d3f
00000180: 65aa 81bf ecf2 753d f1e8 d8be 4a63 1a3e
00000190: 1fbc c83c 3ebe 8c3e 674d 34bb 42bd c03e
000001a0: 5380 85be 0ca6 923e f786 9a3e 60ef 7f3e
000001b0: a887 893d 866d d3be 7eb3 d73e b0fd 64be
000001c0: 5d32 c33e 4f54 8f3c 71a9 d2be 072c 7bbe
000001d0: f089 e13e 37bf 24be 32ac 8a3d bef2 9c3e
000001e0: c30a a0be 6e26 0ebf 5d28 c2be cd18 3a3e
000001f0: f01a e1bd 9383 003e 12c8 c3bd c888 9d3e
00000200: 5e39 23bf a7ea 0a3e 549a 9f3e 9153 803e
00000210: edf9 7bbf 64f1 10bf e2f3 c23e 26d5 b3bd
00000220: d131 64bf 5520 21bf abb0 f9be 6124 ac3d
00000230: a23e be3e 1113 a9be e3fb 26bf 709f 4cbf
00000240: eafd 50bf 69a3 d1be a97d a33e 259a 96be
00000250: 100a b3be d561 1ebf 541b 6bbf 78a9 703d
00000260: b50d 90be 527d 60bf 4ffd e13e fdd5 2f3d
00000270: a93f 013e 18dd 6cbf 079e f3be 86ec a1be
00000280: 5ad5 eb3d f908 f6be 1671 03bf f7e9 38be
00000290: 54c1 e5bc ddeb 42be 8759 84bf 8e68 933e
000002a0: 7045 dbbe 0488 07bf 6c1a efbd b225 363e
000002b0: 2048 88be 3b6c 38bf 864c 183b addd 043f
000002c0: 6d87 14bf 0be3 5ebf 160c 6abe 4526 1abf
000002d0: 9e98 1d3f 9df1 17bf 29a0 50bf 0393 1ebf
000002e0: b334 1cbf 4d82 2bbe f2f4 1bbc 3fd8 a83e
000002f0: e208 e4bc 7a30 8b3e e37c 073e 0f09 0abf
00000300: 2665 823e 56bc 19bf 8ec7 763d e54c 51bf
00000310: ac36 3e3e b434 b53e 3e92 fa3e 20f4 35bd
00000320: 038b 44bf 87f2 d83b f254 1e3f 96ef 0abf
00000330: fc5d 4ebf 03d3 393d 80ce aebd a3d0 01bf
00000340: b4dc 9fbe 39bf 1cbe 88fa 1ebe 61bc 54be
00000350: 1ace 8a3e 5c43 25bf 65ee 68bf 6c01 343f
00000360: 651d 6cbf 9fcf 4b3c 1fb0 a4be 0a79 64be
00000370: f793 95be 1058 61be 458d 1fbe 0da4 cfbe
00000380: abbf 73be 16d8 8ebe 5d29 97bf 4c6b 673d
00000390: 8e11 b33c e660 a03d 0d25 b73e 1ca1 2c3d
000003a0: 1b9e c2be 0f6c f7be d184 80bf a7d8 52bf
000003b0: f278 53bf 3085 76bf 1540 c6be 95c3 83be
000003c0: 521c 8bbf 6512 76bf 38ff dc3e 0982 3fbf
000003d0: 922c 2dbd 179a 3abf bc33 84bf 4204 4dbe
000003e0: 47e5 86bf 1750 27bf 4051 09bf 0f22 6ebf
000003f0: 3ae0 b9be 9be7 d83e bebb 85bf 55a0 3e3f
0.102540575 0.3810794 0.43708465 0.526932 -0.11240981 0.490667 -0.06610869 0.024538089
0.3153644 0.1203019 -0.2868217 0.22226399 0.22452512 0.30632666 0.29263762 -0.6226244
0.03070418 0.511067 -0.15735921 -0.9126687 -0.48520586 -0.019396702 0.087004155 0.09070558
0.3323499 0.07144724 -0.24223296 0.6089939 -0.91218007 0.040459584 -0.046699397 0.21320385
-0.6632604 0.031832024 -1.4281361 -0.05901709 -0.122745454 0.31298158 0.19121109 0.22032891
-0.087106064 -0.3832308 -0.5774647 -1.0658308 0.04368127 0.025115717 -0.073672965 0.08666844
0.38708335 -0.20376314 0.3439661 0.51386243 0.61828625 0.26675728 -0.1264192 -0.9979679
0.48378596 0.16162147 0.43402934 0.021454154 -0.29881063 0.21035114 0.2915199 0.15371239
0.23195694 -0.67095625 0.33831486 0.65834326 0.31175432 0.072075464 -0.09957457 0.25239727
0.22037745 -0.90347874 -0.18133973 0.29248184 -0.50074166 -0.684356 0.319341 0.97222006
-0.41605616 0.09460901 0.04993822 -0.14825045 -0.059692267 -0.49457476 0.29187316 -1.7497152
-0.33091968 -0.91283554 0.42799273 -0.28584096 0.40759826 0.27575654 -0.42488536 0.803609
-1.0130125 0.06004612 -0.4236522 0.15076938 0.024503766 0.27488893 -0.0027511956 0.37644392
-0.26074466 0.2864231 0.30181095 0.24993658 0.067153275 -0.41294497 0.4212913 -0.22362399
0.38124362 0.017496256 -0.411449 -0.24528514 0.4405055 -0.16088568 0.06771125 0.30653948
-0.3125821 -0.5552739 -0.3792142 0.18173523 -0.10991466 0.12550192 -0.09559645 0.30768418
-0.6375941 0.13566075 0.3117243 0.25063756 -0.9842823 -0.5661833 0.38076693 -0.08780889
-0.89138514 -0.6293996 -0.487676 0.08405376 0.3715716 -0.3302236 -0.652281 -0.7993078
-0.8163744 -0.40944985 0.3193181 -0.29414478 -0.34968615 -0.6186803 -0.91838574 0.058755368
-0.28135458 -0.87691224 0.44138572 0.042928685 0.1262194 -0.9252486 -0.47581503 -0.31625766
0.11515303 -0.4805372 -0.5134443 -0.18058 -0.028046288 -0.19035287 -1.0339822 0.28790706
-0.42826414 -0.5294192 -0.116749614 0.17787817 -0.26617527 -0.72040147 0.002323897 0.5190075
-0.58019143 -0.8706519 -0.22856173 -0.60214645 0.61561 -0.5935305 -0.81494385 -0.6194307
-0.6101791 -0.16748925 -0.009518849 0.32977483 -0.027836267 0.27185422 0.13231234 -0.5392007
0.25467795 -0.60053 0.060248904 -0.81757957 0.18575543 0.35391772 0.489397 -0.04442227
-0.76774615 0.0066207084 0.61848366 -0.5427183 -0.8061216 0.045367252 -0.085354805 -0.5070898
-0.3122307 -0.1530732 -0.15525258 -0.20774986 0.27110368 -0.6455591 -0.9098876 0.7031467
-0.9223235 0.012439637 -0.3216562 -0.22311798 -0.2921445 -0.2200625 -0.15581234 -0.40554848
-0.23803584 -0.27899235 -1.1809498 0.05649881 0.021858957 0.07830982 0.35770455 0.042145833
-0.3801125 -0.4832463 -1.0040532 -0.82361835 -0.8260642 -0.9629698 -0.38720766 -0.25735155
-1.0868018 -0.9612182 0.43163466 -0.7480779 -0.042278834 -0.7289137 -1.0328288 -0.20021155
-1.053872 -0.6535658 -0.536396 -0.9302072 -0.36303884 0.423642 -1.0447919 0.744634

network_body.linear_encoder.seq_layers.0.bias f4 [128]
00000000: c4de 1c3e 3278 37be 1436 3b3e c2b3 5cbe
00000010: 295d 81bc c716 e3bd bdd9 f3bd 931c 083e
00000020: 9757 9ebe c774 9abd 0e09 3cbe 179b d93d
00000030: 4d9d 353d bd86 8dbe 75f7 a1bc 904d fdbd
00000040: c644 87bc 0633 0c3e cf54 0dbd 63d0 42be
00000050: b8e9 97be f6c9 35be 1308 adbe f85c cc3d
00000060: e280 173e 631e 503e 5d8b 5ebe 15d7 513e
00000070: 4bfb 86bd 4f0e 5cbc ee36 76bd bf7d 3fbd
00000080: 078b bfbd 0540 85be 360b 9bbd 6f48 fd3d
00000090: 2211 4d3d a893 f7bd 3bb7 b8be b7a1 bdbe
000000a0: dc72 88bd 76eb 11be dce1 8abe d25f 553d
000000b0: 5db3 3abe 8da6 e0bd 0954 0c3d b680 d7bb
000000c0: b50a 10be 6d54 02be ee61 65bd 8b78 5dbe
000000d0: a928 bdbd dc8f 02bf 0219 f33d 8428 933d
000000e0: d034 86be d6a3 4fbe b03b 0dbe 3732 a7be
000000f0: 970f acbd 5653 d8be 4a2f 943b c2f8 f9bc
00000100: 1355 8cbe 1185 02be 8bcd 91be 40b6 3ebe
00000110: 34fc 6f3d 1212 c8bd a9f2 b13b b991 7f3e
00000120: b193 d0bd 89d4 38be 540b 353d df7b a7bd
00000130: 705f f8bd 5a82 56be 6720 48bb bdf6 8d3c
00000140: bf09 3ebe 4e93 febd 6515 8fbd 4049 a13d
00000150: 6990 d1bd a8f9 11bd 4904 673e 6852 03be
00000160: 5189 43be 952c 1cbe e526 e2be 17fc efbe
00000170: 9376 363e 0855 01be fb33 b1be 0eee bdbe
00000180: 7237 5bbc 242e c2bd d367 5a3e 4f4a 9ebd
00000190: 6044 ddbd 9a81 693c 6a0c 573d 84f8 89be
000001a0: d58b 02bd b9aa 57be 9d06 f3be 2690 06be
000001b0: 1077 10be 6352 38be baa1 8fbe 7841 ec3c
000001c0: 22db 47be e1e4 69be e489 adbe 6a31 b9bc
000001d0: dca5 acbd 4a9c 9cbd fba5 95bc f205 323d
000001e0: 7acf 73bc 8a75 503d 5699 c0bd 8cbb 04be
000001f0: d2ba 73be 2e2c debd c23f efbd 71f4 7dbe
0.15319353 -0.17916945 0.18282348 -0.21552947 -0.015791493 -0.11088329 -0.11906765 0.1329215
-0.309262 -0.07541805 -0.18362829 0.10625284 0.044339467 -0.2764186 -0.019771317 -0.123683095
-0.016512286 0.13691339 -0.034504708 -0.19024806 -0.296705 -0.17752823 -0.33795223 0.0997867
0.14795259 0.20324092 -0.2173285 0.20492204 -0.06590899 -0.013431146 -0.06011098 -0.04675078
-0.09352689 -0.26025406 -0.07570498 0.12367331 0.050065167 -0.1208871 -0.36077294 -0.3703744
-0.06662533 -0.14249977 -0.27125442 0.052093334 -0.18232484 -0.10969267 0.03425983 -0.006576623
-0.14066584 -0.12727518 -0.056001596 -0.21628015 -0.09236271 -0.5100076 0.11870004 0.07185462
-0.26212168 -0.20277342 -0.137923 -0.32655498 -0.08401411 -0.4225108 0.004522239 -0.030514125
-0.27408656 -0.12746073 -0.2847713 -0.1862421 0.05859013 -0.09769072 0.0054305387 0.24957933
-0.1018442 -0.18049826 0.044200256 -0.081779234 -0.12127578 -0.20948163 -0.0030536891 0.017329568
-0.18558405 -0.1243044 -0.069865026 0.078752995 -0.10232622 -0.03563848 0.22560228 -0.12824404
-0.19095351 -0.15251382 -0.441703 -0.46872017 0.1781867 -0.12630093 -0.3460997 -0.37095684
-0.013379918 -0.09481457 0.21328668 -0.07729017 -0.10804057 0.014252091 0.052502073 -0.26947415
-0.031871635 -0.2106122 -0.47465983 -0.13140926 -0.14107919 -0.18000178 -0.28053075 0.028839812
-0.19517186 -0.22841217 -0.33894265 -0.02260657 -0.08430073 -0.07646997 -0.018267622 0.0434627
-0.014881009 0.050893344 -0.094042465 -0.12962168 -0.23801735 -0.1084827 -0.11682083 -0.24800278

network_body.linear_encoder.seq_layers.0.weight f4 [128, 130]
00000000: 06bc 093f 404a edbd cec5 9b3c b37d 733e
00000010: 414d 133e bac0 bb3d 54a0 1a3f 4f58 f7be
00000020: e847 5abd 7e7f 42be d60b 933e cfdf 603e
00000030: 13fb 313c a600 d43d 1b4d 6d3c f34e b7be
00000040: 68fc 7d3e 7b8b cd3d 0a04 ad3e 55cf 99be
00000050: d89a 69be f8c1 e9bd 6a28 383e 838c 183c
00000060: a249 1e3e 6194 4dbd 553b f4bd e1d1 7abe
00000070: 82a2 e13c fdeb c03c c6b0 54bd 7505 623d
00000080: 72ee 123e 869c 0f3e d9b7 efbc 07b5 ff3c
00000090: 7e18 84bd 6292 8d3e 5260 793d b207 29bd
000000a0: b420 503e 90f2 183e af94 ca3e b544 083e
000000b0: bde2 e13d 8a3e 31be 7269 ac3e baa1 543e
000000c0: 430a 303e e62c 2f3e d162 843e d9bd 3fbe
000000d0: 1bb3 483e 26ed 803e 69ac 873d c60b 913e
000000e0: fa14 873e 9eff 013f 592a 1b3e 0884 473e
000000f0: 03ab c43c fb1d 1d3e 2805 533e ed36 383f
00000100: 4be3 183d 6abb c03d 7288 cf3d b1dd a53e
00000110: 6871 2d3e d895 e2bd 0c97 4b3e b8cd a93e
00000120: 7840 1abe 7047 2b3e dc30 883e 7cdd 2dbf
00000130: 4b4c 20bd 00a4 8cbe 8749 7cbf f334 62be
00000140: ca47 96be 67fb 5cbe 98b4 55bf 3da5 35bf
00000150: 59b0 903e 2112 22bf 48da 69bf 9b7e d13c
00000160: d884 bdbe 9f15 cebe 568c a2be 183b c8be
00000170: d249 fa3e a94d 66be 6899 13bf cb0d 363f
00000180: 4d8d 91be 4aa5 eebd 8e39 553e fc09 8cbb
00000190: 928c b93e 5b3a d9be 40a0 f0be f916 95bd
000001a0: 313e 363d a932 5fbe 017c 063e 9092 a0be
000001b0: bd6b ad3e 8f2d 96be 2ce8 f4be 7824 913e
000001c0: a90c d5bb a481 aebc 2270 c93d ebfc e03d
000001d0: b91e a73e e726 efbe 392c febd f427 723f
000001e0: 7c98 fcba 86c3 77bd 4f28 babd 2bec 223f
000001f0: 55fe f13e e30d 94be f0bc 773c 84cb 2cbd
00000200: 18f8 953e 01f6 44be 628c 80bf fcc6 ca3e
00000210: 502a 973d 1e76 75bf b33e 863e 8b71 1f3d
00000220: cc61 60be 6dde 083f 18c7 d83c 98be 50bf
00000230: b3b8 c43e 5bed d53d 28ee 4cba f0dd b0be
00000240: f131 0cbe e176 b9be 2b4d 263e 0f89 053e
00000250: 334a 5ebd b2a5 85bd 2775 1dbe ea31 c3be
00000260: b861 263e 38fe 4b3e 0c42 8bbe 5996 623e
00000270: b9ee 613c eaad 353e b091 4a3d e5c1 26be
00000280: 7406 8fbe 12c2 f23c f7b4 cebc 9eea 3a3d
00000290: d917 92be 9a91 e8bd 258e 2abf 80b1 fb3d
000002a0: 00bd 093d a147 95be d4ef 54be 1852 b2be
000002b0: 60bb 6bbf e126 4a3e 6cc1 c53c f55e 6dbe
000002c0: fb2a 0bbe a902 7bbe f86c 24bf f80c 6abe
000002d0: 7166 3cbc 599e 6c3c 4272 803d f2e5 a9be
000002e0: 67ee 0cbf ca65 8cbe 028b d4bd 4ebe 1fbe
000002f0: 6a95 eb3d 335d 4dbe ecec 00bf 2587 e2bc
00000300: 38be 15be 525a 443e 222f 77be 9e96 75be
00000310: b47e d5be bfea 183e 850c 74bd 0d55 a5be
00000320: 0d5f 57bd a4a7 01bb e566 e8be bc80 e6bd
00000330: cc3d ccbd bedb 053f e813 fb3c 0923 143e
00000340: f3e7 0e3f f68a cb3e 336e 1dbe e526 223f
00000350: e62a 203f 9b1c 12bf fa34 413f f930 cc3e
00000360: 0e57 073a 2f2e bf3e dce6 e3bc 2fda 19bd
00000370: 4e5e 0a3f 5ca7 e7be da95 0a3f 58d1 b43e
00000380: 1466 ecbd f487 5b3c 9b55 023e 96f2 5d3e
00000390: 2ca6 063e fd5a 05be a22c 4a3e 3618 26bd
000003a0: 8c0c acbe ea75 ab3e dabc b5be dc36 da3e
000003b0: f289 d73e aa7c aabe ea53 a23c ab97 be3b
000003c0: d26a fabd 797a 4c3f b201 36bf 13e6 003f
000003d0: 3fd2 5e3e 980d 0b3e b3d7 dfbd 78d6 84bd
000003e0: 382f 0b3e 2c90 193f 400e 8dbf 225a f73e
000003f0: 980d cd3d dd2b cf3e 9c9d 073d 3ac9 043e
0.53802526 -0.11586428 0.019015219 0.23778419 0.14384939 0.09167619 0.6040089 -0.48309562
-0.05329123 -0.18993947 0.28719968 0.21960376 0.010863083 0.10351686 0.014483715 -0.3580242
0.24803317 0.100363694 0.33792144 -0.30040994 -0.22812974 -0.1141395 0.17984167 0.009310844
0.15457776 -0.050190333 -0.11925379 -0.24494125 0.02754331 0.023550028 -0.051926397 0.055180985
0.14348772 0.14024553 -0.02926247 0.03121425 -0.06449984 0.27650744 0.060882874 -0.041267104
0.20324975 0.1493628 0.39566562 0.1330746 0.11029575 -0.17309013 0.33674198 0.20764819
0.17191415 0.17106971 0.2585664 -0.18724765 0.19599573 0.2518093 0.066246815 0.28329295
0.2638319 0.50780666 0.15152873 0.1948396 0.024007326 0.15343468 0.20607436 0.7195881
0.03732614 0.094107464 0.10133447 0.323957 0.16937792 -0.11063737 0.19881839 0.33164763
-0.15063655 0.1672647 0.26599777 -0.67916083 -0.03913526 -0.27468872 -0.98549694 -0.22090511
-0.29351646 -0.21580277 -0.8347869 -0.7095526 0.28259543 -0.6330891 -0.91348696 0.025573066
-0.37015414 -0.4025087 -0.31747693 -0.39107585 0.48884445 -0.22490562 -0.57655954 0.71114796
-0.28428116 -0.1165262 0.20822737 -0.004273651 0.3624006 -0.42427334 -0.4699726 -0.07279772
0.044492904 -0.21796669 0.13133241 -0.31361818 0.3387126 -0.29331633 -0.47833383 0.28348136
-0.0065017533 -0.021302052 0.09835841 0.1098574 0.32640627 -0.46709368 -0.124107786 0.94592214
-0.0019271518 -0.0604892 -0.090897195 0.63641614 0.47264352 -0.28916845 0.01512073 -0.042186275
0.29290843 -0.19234468 -1.0042841 0.39604938 0.07381117 -0.9588336 0.2621971 0.038926642
-0.21912307 0.53464395 0.026462123 -0.81540823 0.38422164 0.104456626 -0.00078174705 -0.34544325
-0.13690926 -0.3622351 0.16240375 0.13040565 -0.05426998 -0.065257445 -0.15376721 -0.3812402
0.16248214 0.19921196 -0.27198827 0.22127666 0.013789826 0.17742124 0.049455345 -0.16284902
-0.2793461 0.029633556 -0.025232775 0.045633905 -0.2853382 -0.11355896 -0.66623145 0.12289715
0.03362751 -0.2915621 -0.20794612 -0.34828258 -0.92082787 0.19741394 0.024140082 -0.23180754
-0.13590614 -0.24512734 -0.64228773 -0.2285651 -0.011499033 0.01444205 0.06271793 -0.33183247
-0.55051273 -0.2742141 -0.10378076 -0.15599939 0.11503108 -0.20055084 -0.50361514 -0.027652333
-0.14623344 0.1917508 -0.24139073 -0.23983237 -0.4169823 0.14933299 -0.059582252 -0.3229145
-0.052580882 -0.001978376 -0.45391002 -0.11255023 -0.09972724 0.52288425 0.03064914 0.1446649
0.55822676 0.39754456 -0.15374069 0.633406 0.6256546 -0.570749 0.7547146 0.39881113
0.00051628135 0.37339923 -0.027820043 -0.03756159 0.5405015 -0.45244873 0.54134905 0.35315967
-0.11542907 0.013399113 0.12727968 0.2167457 0.13149327 -0.1302299 0.19743589 -0.040550433
-0.33603323 0.334884 -0.35495645 0.4261998 0.4209743 -0.33298236 0.019815404 0.00581642
-0.122274056 0.7987438 -0.71096337 0.50351065 0.2175989 0.13579404 -0.10929813 -0.06486219
0.13592231 0.59985614 -1.1019974 0.48310953 0.100123584 0.40463153 0.033109292 0.12967387

network_body.linear_encoder.seq_layers.2.bias f4 [128]
00000000: f631 4b3e 74b5 50be 1b52 debd fd42 6fbd
00000010: 0807 bd3d 5138 883e 65d7 953e ba0b 963e
00000020: a14a a0bd a1d5 853e 880b 33bd b033 96bd
00000030: 56bb 03bd ae6d 55bd 7c54 263d 0c02 793e
00000040: ace9 003e 3477 e53c 3bf2 e13d 1c2a a2bd
00000050: 666c 84be 2f16 4b3e 43df b23e 5d70 c93d
00000060: 7bc7 233b d5da 483e 7f95 5b3e 9f75 2abe
00000070: 0136 11be 2582 b13e e37b fa3d 9f4a 413e
00000080: c7c8 b0be 1f9d 213e af6a 1abe 3870 30be
00000090: c0c7 afbc 6df0 633e c884 b83d 3d9c a6bd
000000a0: e8d5 513e 4cb0 723e 810e 24be 33bc e53d
000000b0: 6066 fc3c 9e8c 1bbb 4895 7dbd d4d7 d33e
000000c0: d2fe 513e e021 583e 0a05 a1bd 91ff f03d
000000d0: 7424 e03d 7081 793e 4e9c 033e 990d d53d
000000e0: be3e 563e 98ea cb3d 190a 5e3d 7ed4 38be
000000f0: 9f7b 273e c5d4 8ebd 39b4 96bd 9617 ab3d
00000100: c190 87bc ff77 7a3e 778a cc3c 3909 b63e
00000110: 80cf df3d a919 893e b88c 753e 51a5 83be
00000120: ca1d 173e 2b81 99bd 77db 723e aefe 733d
00000130: 385d e73e 8096 2b3d 811e 7b3d 77a9 823e
00000140: 1efc ed3d 1b95 a13d 7c0c d8bb 844a ddbd
00000150: 161e 4c3d a7da a33b 754e 383e 5d54 3c3e
00000160: fe58 d23d baa5 43be 7b3f cb3d 5ea4 04bf
00000170: dd40 d0bd f251 91be bbdb a73e f052 013e
00000180: 7df9 84be 7706 9bbb cebc 7e3e 7b7d 0ebe
00000190: 2d9e 82be 5bb4 c1bd cd80 233e daba 0abe
000001a0: 51c8 283e 8f59 e2bc 2bd8 913e 7fba cb3e
000001b0: c47c 0d3e dba5 a43e 4244 a93e 06eb 48bd
000001c0: 1d00 9c3e 8989 2b3e 4fde f63e 43be f33e
000001d0: fff2 423e 28cb 323e 5270 9e3e 7bd5 0fbe
000001e0: 45a6 bd3e ce9f 353e bfb1 123e 4e90 b53e
000001f0: eaf4 c5bd 785d 983e 804f ca3e 1c0c 0a3f
0.19843277 -0.20381719 -0.10855504 -0.058413494 0.09229857 0.26605466 0.29265895 0.29305822
-0.07826734 0.26139548 -0.04371217 -0.07334077 -0.03216108 -0.05210655 0.040607914 0.24317187
0.12589139 0.028010942 0.1103253 -0.07918188 -0.2586395 0.19832681 0.3493596 0.09835885
0.0024990726 0.19614728 0.21443747 -0.16646431 -0.14180757 0.34669605 0.12230661 0.18876122
-0.3452818 0.15782593 -0.15079759 -0.17230308 -0.021457553 0.22259684 0.09009701 -0.08135269
0.20491755 0.23700064 -0.16021158 0.11217537 0.030810535 -0.0023734937 -0.061909944 0.413756
0.20507362 0.21106672 -0.07862289 0.117674954 0.10944453 0.24365783 0.12852594 0.10402984
0.20922372 0.099568546 0.05420885 -0.1804981 0.16355751 -0.06974176 -0.073585935 0.08354108
-0.016548516 0.24459837 0.024968369 0.3555391 0.10928249 0.2677739 0.23979461 -0.25712064
0.14757457 -0.0749534 0.23716532 0.059569053 0.45188308 0.041891575 0.061308388 0.25519916
0.11620353 0.07889768 -0.006593285 -0.10805228 0.04983338 0.0050004306 0.17998679 0.18391557
0.1027088 -0.19106188 0.09924217 -0.51813304 -0.10168622 -0.28382832 0.3278483 0.12629294
-0.25971594 -0.0047309953 0.24876711 -0.13915055 -0.25511304 -0.09458228 0.15967102 -0.1354784
0.16482665 -0.027630595 0.28485236 0.39790723 0.13817126 0.32157788 0.3305989 -0.04905226
0.30468836 0.16751684 0.48216483 0.47606096 0.19038008 0.1746031 0.3094507 -0.1404628
0.37040916 0.17736742 0.14325617 0.35461658 -0.09665854 0.2975881 0.3951378 0.5392473

network_body.linear_encoder.seq_layers.2.weight f4 [128, 128]
00000000: 27ca 57be 0d38 29be 19e8 683e c0e8 833c
00000010: 649d 1bbe 1231 6e3d bf6b 97be a4e8 13be
00000020: 4b32 a23e c6ef 57be 0e14 463e e8f5 cfbe
00000030: f788 013e 012d df3d 97be 383d 8585 42be
00000040: c1c7 5bbc b3aa 8bbe 6b21 203f 985a a4be
00000050: adb7 0fbe 64b7 ca3d 5923 a4be 6649 92be
00000060: 27bc 8f3e 59be d8bc 6a61 d33d 93a2 cbbd
00000070: 468e e0be d1ca 28bf ff59 17be f25d a2bd
00000080: 71a9 bdbc 4920 3ebe 83c6 293e 9e39 bd3e
00000090: 5d46 fcbe 9e24 b43e a36c 1cbd 0fa9 813e
000000a0: 2f94 e3bd e510 06bf f4f3 8c3e 7e4a 89bd
000000b0: 2307 0cbe 0e0f a9bc 5c87 e73d 2b69 813e
000000c0: 09ad 44be e067 13be 926a 07bf de38 96be
000000d0: ff3e e0bd 0617 a6be c0d5 c1bd d975 88bd
000000e0: 0618 c2bd 67b0 e2bd 9a3f c53d 32e1 31bd
000000f0: d6b5 17bf 19c7 143d e2c9 09bf 21a6 adbd
00000100: 03d9 9bbe 81f6 d0be c6d3 ebbc 839a 7c3e
00000110: 87f1 1bbe 5c62 0c3d c95e 303e 2933 3f3e
00000120: 2381 78be f899 e83e f180 acbe e88b 9d3d
00000130: 951a 703d e28b c23e d103 c5bd 0f69 95be
00000140: c4e3 82bc 3750 cdbe da16 d4be 259e f1be
00000150: fe01 43be 94b8 d6be 62ca a7bd 1a65 34be
00000160: 0866 db3d 46d2 783d 26f3 f23e 8d3f 69bf
00000170: 43a1 ca3d b9cd 913d f6df 3b3d 7a15 683e
00000180: 6ded 6fbe 9b67 33bd 1487 a4bd 53ab bd3e
00000190: 45d2 a73c 13f3 613e 6e72 093e d83f e7be
000001a0: 1142 37be 9759 8bbd 1d7d 3cbe e574 953d
000001b0: 1700 00bd 0180 98be 7cd6 19bf 8e7d d4be
000001c0: c760 4a3e 5a9e 993e 6a3b e2be 2380 85bc
000001d0: 8454 043f 7d0c 5fbf 90ad b7be 7f1b 3abe
000001e0: 116a 4fbe 6b1b 0cbf 5757 933e 4b67 3bbf
000001f0: 37aa 57be 7611 df3d 65be c7be 5dd9 c1bd
00000200: 187e 9cbd ef4f b2be ae7c 40bd c445 8dbd
00000210: 5b70 c53e 5395 4ebd fa0b 063f 2f50 6b3e
00000220: 146f 9ebe e3f5 423d 796a 60bc cd1d 143e
00000230: fd6c 1a3e a9af 323b c252 2e3e 6474 00be
00000240: da76 a53e fd2d e23d ae1f 6cbe 872f 32be
00000250: feca 19bf 5274 df3e bd89 b93d 52e7 b9be
00000260: ac3e 24be 7993 1a3e 48ea f43e 8b88 95bd
00000270: 98c9 4a3e 3d88 ecbd 5ae0 0abf 0636 f63e
00000280: 8bd4 d73e 7f41 5bbe 0e27 c0be 191a 8d3e
00000290: 6605 f7be 9a3d 843e 5221 e3be 5f72 5abe
000002a0: eca7 52be 8134 54be a334 91be d61f 3d3e
000002b0: 5e56 63be 09cc 953e 4118 e03d d2c2 473e
000002c0: 0cda a9be c380 e63d c17f ecbd 6e5c c1be
000002d0: 7ead a53e 83c0 913e 629f 3d3d 38fc 2abe
000002e0: bab7 0fbf d704 573e 280e 9dbd 9664 2e3d
000002f0: fe0f 00bf 2ad7 b4be 205a d43e 167d fdbe
00000300: c7cc a8be f186 d9bc b64a 18bf 0bf6 febd
00000310: b699 d7bd 1f3b 90bd f02d d2be 6011 1f3e
00000320: 9d66 9dbd a3b4 22be 7353 48bd 39b0 96bb
00000330: 1b5c 2dbe 99e7 b9bd 21e8 ae3e 4fed e0be
00000340: b1ac 1f3f 7332 0a3d 9e2e d93d 61ec b2bc
00000350: c5ad ce3e e8b5 1e3d 8057 6fbe 598c 0a3e
00000360: 026b 9ebe 4e14 bebe 5234 1cbf 54ea 5f3e
00000370: cb02 efbd e3db 053e ad47 3dbf 2873 debe
00000380: 6981 a23e 685b 823e d101 963c 82f7 87bd
00000390: 9ae2 1a3f 274e dc3e be42 943d 866d 5c3e
000003a0: 2b01 14bf 7d29 07be 1b87 043e a902 273f
000003b0: 6d78 ca3e fa78 02be 1a8b 49bf 61a8 b9be
000003c0: 9208 fcbe c915 1f3e b6e1 aabe f9d7 c03d
000003d0: b2a7 b93e 23d1 4fbe ebf0 dbbc d044 b3bd
000003e0: 070b 93be 239e 853e 5da3 abbe fd41 43be
000003f0: 1789 9cbe 3a6a 4a3e 748d 7c3e f617 c5be
-0.21073209 -0.16525288 0.22744788 0.016102195 -0.15196759 0.058152266 -0.2957439 -0.14444214
0.31678995 -0.2108756 0.19343588 -0.406173 0.12649904 0.10897256 0.045103636 -0.18996246
-0.013414324 -0.2727867 0.6255099 -0.32100368 -0.1403491 0.0989826 -0.32058218 -0.28571624
0.28073236 -0.026457952 0.10321315 -0.09943118 -0.43858546 -0.65934473 -0.14780425 -0.07928075
-0.023152085 -0.18567003 0.16579632 0.3695802 -0.49272433 0.35184187 -0.03818954 0.25324294
-0.11112248 -0.5236953 0.2752987 -0.067036614 -0.13674597 -0.020637061 0.113051146 0.2527555
-0.19206633 -0.14395094 -0.5289699 -0.2934026 -0.109495156 -0.3243944 -0.09464598 -0.06663103
-0.09477238 -0.11068802 0.09631272 -0.043427654 -0.59261835 0.036322687 -0.53823674 -0.08478952
-0.30439004 -0.40813068 -0.028787505 0.24668317 -0.15228854 0.03427349 0.17223658 0.1867186
-0.24268012 0.4542997 -0.33692124 0.076927006 0.0586191 0.37997347 -0.096198685 -0.29181716
-0.015977748 -0.40100262 -0.41423684 -0.47190967 -0.19043729 -0.41937697 -0.08192898 -0.17616692
0.1071282 0.060747407 0.47451133 -0.91112596 0.098940395 0.071193166 0.045867883 0.22664443
-0.23430414 -0.043799978 -0.080335766 0.37044773 0.020486007 0.22065382 0.13422558 -0.45165896
-0.17896296 -0.06804197 -0.18407102 0.072976865 -0.031250086 -0.2978516 -0.600929 -0.4150204
0.1976348 0.30003625 -0.44185954 -0.016296452 0.5169146 -0.8712843 -0.35874605 -0.18174551
-0.20255305 -0.54729337 0.28777573 -0.7320449 -0.21061026 0.10892002 -0.39012447 -0.09465287
-0.07641238 -0.3482661 -0.046993904 -0.06898072 0.38562283 -0.050435375 0.52362025 0.22979806
-0.3094412 0.047597777 -0.01369726 0.14464493 0.15080638 0.0027265346 0.17023757 -0.125444
0.3231724 0.11043928 -0.2305896 -0.17400943 -0.60075366 0.43643433 0.090594746 -0.36309296
-0.16039532 0.15095319 0.47834992 -0.07301434 0.19803464 -0.11549423 -0.54248583 0.48088092
0.42154345 -0.21411704 -0.37529796 0.27558973 -0.48246306 0.25828248 -0.4436136 -0.21332692
-0.2057187 -0.20723154 -0.2836047 0.18469176 -0.22200915 0.2925723 0.10942126 0.19507912
-0.3317417 0.11255028 -0.115478046 -0.3776583 0.32358927 0.28467187 0.046294577 -0.16697776
-0.5613972 0.2099794 -0.07668716 0.042576395 -0.500244 -0.35320407 0.4147501 -0.49509495
-0.32968733 -0.026553603 -0.59489 -0.12449273 -0.10527365 -0.070425265 -0.41050673 0.15533972
-0.076855876 -0.1588922 -0.04890771 -0.004598644 -0.16929667 -0.09077377 0.34161475 -0.43931052
0.6237288 0.03373952 0.10604595 -0.02184123 0.4036695 0.038747698 -0.23373222 0.13530101
-0.30941015 -0.37124866 -0.61017334 0.21866733 -0.116704546 0.13072161 -0.73937494 -0.43447232
0.31739357 0.25460362 0.018311413 -0.06639005 0.60502017 0.43028376 0.072392926 0.21526155
-0.5781428 -0.1319942 0.12942164 0.65238434 0.39545003 -0.12741461 -0.7872788 -0.36261275
-0.4922529 0.15535654 -0.3337533 0.094161935 0.36260754 -0.20294623 -0.026848277 -0.08753359
-0.2871935 0.2609721 -0.33523074 -0.19068141 -0.3057334 0.19767085 0.24663335 -0.38494843
