results/SelfPlay_Flag_NoTool_Multi_2/BasicAgent/BasicAgent-999939.onnx (onnx, 180314 bytes, 6 tensors)

action_model._discrete_distribution.branches.0.bias f4 [5]
-0.5219768 0.6847995 -0.4906637 -0.118319854 0.24082023
00000000: 46a0 05bf 054f 2f3f 4638 fbbe ae51 f2bd
00000010: 9499 763e

action_model._discrete_distribution.branches.0.weight f4 [5, 128]
0.45399338 0.22188468 0.07820151 0.10559633 0.27562204 0.14274867 0.20229572 0.119099505
0.2615339 0.20491108 0.19844732 0.24388638 0.22266707 0.13113214 0.056129754 0.18052974
0.20187503 0.20550805 0.21970001 0.29805538 0.14218594 0.07751677 0.29336262 0.38050008
0.33742514 0.16746831 0.21374853 -0.17095645 0.036566313 0.037771378 -0.04489489 -0.16178896
0.065658644 0.22803664 0.12792483 0.25069192 0.13415466 0.10380053 0.3282159 0.04895525
0.24060759 0.20105937 0.23337476 0.34492722 0.11153436 0.20770049 0.23414172 0.1987011
0.16030969 -0.27266884 0.32058308 0.23645598 -0.009120559 0.42072582 0.26861098 0.1056986
0.021646878 0.22652756 0.2857435 0.22615317 0.14184096 0.31763953 0.18622673 -0.14363258
0.32020092 0.19743297 0.0026070115 0.22997932 0.1325638 0.10742502 0.20568086 -0.010083666
0.26546317 -0.11890926 0.40091163 -0.19956383 0.3519538 0.047517296 -0.032620173 0.03863989
-0.15077263 0.10209223 0.08297719 0.19508676 -0.06803584 -0.22066775 0.05188122 -0.32300705
-0.04559249 -0.05479146 0.32422248 0.383718 0.2741972 0.24248992 0.30059576 0.24985369
0.2795998 -0.14016739 0.40757173 0.33610028 -0.00248025 0.16750838 0.24351883 -0.034165163
0.15695967 0.09538523 0.39405337 0.17416276 -0.03052238 -0.2644819 0.13814458 0.17117815
0.2908724 0.0063402746 0.21573399 0.28224662 0.18945587 -0.15401152 0.15017106 0.22875643
-0.024471318 0.017780589 0.024342842 0.06569785 0.021230126 0.13674292 0.16755994 0.32267314
0.100365974 -0.18123908 -0.23563689 0.33372688 -0.4520232 0.4017203 0.33940715 -0.5980098
0.18713032 -0.19493845 -0.074897595 0.285169 -0.009936755 -0.14410667 -0.05028717 -0.28726056
0.042717308 -0.00032277475 -0.3009946 0.26193768 0.1047052 -0.012546193 -0.041027755 -0.027663572
0.23748358 0.29400507 -0.00043091597 0.53817135 0.24084908 -0.02509898 -0.3329974 0.036814906
-0.23911536 -0.11427633 0.013507219 -0.10379993 0.28152576 0.19472575 -0.050631117 0.09571808
0.37489724 0.27837646 -0.3268003 -0.11655095 0.14555521 -0.050293196 -0.123478875 -0.064569876
-0.27180493 0.037865914 -0.34848753 0.3251155 0.067268685 -0.17418393 -0.2544187 -0.0857906
0.039691314 -0.23825125 0.014192558 0.1709439 -0.3150135 0.017857037 -0.05180886 -0.52311075
0.02608789 0.028254855 0.08044367 -0.24857473 0.4549591 0.31478965 -0.06550539 0.36414033
-0.013852086 0.12308733 -0.35570678 0.24585758 0.32196656 0.34796825 -0.6085316 -0.07016335
-0.001577415 -0.005842529 0.16745731 0.119511016 0.10677764 -0.13375418 -0.18496783 0.15328309
-0.17627484 0.32758516 0.26794252 0.1422984 0.09513474 0.2062441 0.11904026 0.074753605
-0.11572845 -0.12028002 -0.34720865 0.072305955 0.045640364 -0.04921315 -0.11342023 0.14651944
-0.13698919 0.21166182 -0.06953662 -0.21638812 0.3662348 0.10271793 -0.4581044 0.122950174
-0.3824697 -0.023205925 0.45253724 0.20115396 -0.33673298 0.009872003 0.008444096 0.089906655
-0.029610071 0.3635405 0.12916617 -0.19945757 0.077251896 0.076348275 0.4197178 0.02226698
00000000: d271 e83e bd35 633e 1d28 a03d e342 d83d
00000010: 551e 8d3e b52c 123e 9c26 4f3e 71ea f33d
00000020: c5e7 853e 36d4 513e c635 4b3e 5abd 793e
00000030: d602 643e 8147 063e 50e8 653d cadc 383e
00000040: 54b8 4e3e b470 523e 0af9 603e b79a 983e
00000050: 3199 113e 1dc1 9e3d a033 963e e8d0 c23e
00000060: fdc2 ac3e d07c 2b3e e5e0 5a3e 350f 2fbe
00000070: 8fc6 153d 29b6 1a3d b4e3 37bd 01ac 25be
00000080: 0a78 863d 7082 693e bafe 023e b15a 803e
00000090: d75f 093e 5f95 d43d ea0b a83e 4d85 483d
000000a0: d661 763e 82e2 4d3e cbf9 6e3e 4d9a b03e
000000b0: 206c e43d 70af 543e d9c2 6f3e 4d78 4b3e
000000c0: 3928 243e 409b 8bbe 7723 a43e 8421 723e
000000d0: 666e 15bc 6069 d73e 6187 893e 8278 d83d
000000e0: cb54 b13c d7f6 673e f94c 923e b294 673e
000000f0: c23e 113e a6a1 a23e 38b2 3e3e 6b14 13be
00000100: 60f1 a33e de2b 4a3e 65da 2a3b b37f 6b3e
00000110: cebe 073e a601 dc3d 019e 523e f635 25bc
00000120: caea 873e b386 f3bd 4a44 cd3e 765a 4cbe
00000130: 4a33 b43e 7fa1 423d bb9c 05bd dc44 1e3d
00000140: 2464 1abe bb15 d13d f2ef a93d d3c4 473e
00000150: 6056 8bbd baf6 61be 6781 543d 2e61 a5be
00000160: 31bf 3abd 036d 60bd 7d00 a63e b076 c43e
00000170: 9363 8c3e 474f 783e b0e7 993e a5d9 7f3e
00000180: b427 8f3e 0a88 0fbe 3ead d03e 5615 ac3e
00000190: b18b 22bb 5187 2b3e 005d 793e c5f0 0bbd
000001a0: 09ba 203e 5559 c33d 5dc1 c93e b957 323e
000001b0: 120a fabc 2c6a 87be c675 0d3e 5349 2f3e
000001c0: 3aed 943e 14c2 cf3b 5fe9 5c3e a182 903e
000001d0: b800 423e 32b5 1dbe 71c6 193e 203f 6a3e
000001e0: 1378 c8bc 99a8 913c a46a c73c 988c 863d
000001f0: cdea ad3c 5606 0c3e d594 2b3e 6a35 a53e
00000200: ad8c cd3d bd96 39be cc4a 71be 40de aa3e
00000210: 966f e7be 48ae cd3e c6c6 ad3e 2c17 19bf
00000220: 179f 3f3e f29d 47be e963 99bd ac01 923e
00000230: c5cd 22bc b390 13be ebf9 4dbd d113 93be
00000240: 58f8 2e3d 183a a9b9 f71b 9abe b21c 863e
00000250: ae6f d63d 8c8e 4dbc b80c 28bd b79e e2bc
00000260: e52e 733e d587 963e 90ec e1b9 99c5 093f
00000270: 24a1 763e 609c cdbc a37e aabe 3acb 163d
00000280: a8da 74be b509 eabd 624d 5d3c 0f95 d4bd
00000290: 2524 903e 3066 473e 9362 4fbd d707 c43d
000002a0: 88f2 bf3e 5c87 8e3e 5e52 a7be 44b2 eebd
000002b0: 6d0c 153e 3d00 4ebd 7ee2 fcbd 363d 84bd
000002c0: 042a 8bbe 4a19 1b3d f56c b2be 8a75 a63e
000002d0: 2ac4 893d 465d 32be 2b43 82be fbb2 afbd
000002e0: 5c93 223d 23f8 73be e787 683c eb0b 2f3e
000002f0: 7349 a1be ec48 923c 8735 54bd 96ea 05bf
00000300: 45b6 d53c ba76 e73c a7bf a43d 608a 7ebe
00000310: 66f0 e83e 1c2c a13e b127 86bd 9a70 ba3e
00000320: dcf3 62bc 3615 fc3d 331f b6be 17c2 7b3e
00000330: cdd8 a43e e528 b23e bac8 1bbf cdb1 8fbd
00000340: 44c1 ceba af72 bfbb ee79 2b3e 31c2 f43d
00000350: 3cae da3d dbf6 08be 3568 3dbe 3ef6 1c3e
00000360: 6481 34be 3eb9 a73e c32f 893e acb6 113e
00000370: 01d6 c23d a731 533e 61cb f33d 6b18 993d
00000380: 0a03 edbd 5f55 f6bd 55c5 b1be 2515 943d
00000390: 64f1 3a3d ba93 49bd de48 e8bd 3109 163e
000003a0: e546 0cbe e0bd 583e 3769 8ebd d994 5dbe
000003b0: 2183 bb3e c75d d23d a98c eabe 4dcd fb3d
000003c0: 12d3 c3be 5a1a bebc f6b2 e73e 4efb 4d3e
000003d0: 4468 acbe 2fbe 213c 1b59 0a3c fb20 b83d
000003e0: d290 f2bc fb21 ba3e 2344 043e 9b3e 4cbe
000003f0: 3e36 9e3d 7c5c 9c3d 40e5 d63e 3e69 b63c

network_body.linear_encoder.seq_layers.0.bias f4 [128]
-0.13276577 0.035292663 0.00030559048 -0.12099049 -0.060572226 0.026756605 0.051885117 0.019508585
-0.17393026 -0.00281826 0.022347933 -0.16763936 -0.032049473 -0.014620805 -0.040422644 0.0013360791
-0.11710899 0.053280238 0.029887605 0.030186266 -0.09135665 0.11029428 0.005209343 0.043474935
-0.03627584 0.030607438 -0.06429261 -0.045638807 0.026896317 -0.014948639 0.026125371 -0.07880688
-0.0014741736 -0.0046586115 -0.23934835 -0.1671217 0.03844469 0.083949536 -0.10365189 -0.07763273
-0.037307173 0.05921504 0.08940885 -0.19159454 -0.07988621 -0.14471859 -0.1402267 0.04369414
0.053928208 0.01699845 -0.15476702 -0.010780707 0.0050643063 -0.02933244 -0.0087800305 -0.014034043
-0.0586728 -0.16659991 0.062234104 0.065602414 0.046662714 -0.050947975 0.01541754 -0.02531857
0.023758858 -0.0706767 -0.05427842 0.08630382 -0.08327026 -0.11550369 -0.0037522397 0.023401689
0.0008462967 -0.06921901 -0.035739772 -0.02752706 0.068103775 -0.04448812 -0.16985825 -0.058524523
-0.030922286 -0.037129827 0.09252444 0.064772524 -0.04563137 0.031669766 0.033654932 -0.007859537
-0.05338847 0.10499517 0.0020793022 0.07871911 -0.054729845 0.032592725 -0.074545845 -0.05090792
-0.005716471 -0.103933915 0.014819454 -0.009259401 -0.018282892 -0.123084225 0.03194303 0.00945825
0.05706116 -0.13286747 -0.024070589 0.014670406 -0.03935409 -0.07550681 -0.011918823 -0.025871957
-0.0710975 -0.058298063 -0.0074722343 0.03130026 0.022925848 0.00926958 0.012698631 -0.0056482847
0.07003831 -0.08293913 0.0056776726 -0.123922996 -0.05706859 0.039373092 -0.05002818 -0.032598775
00000000: c0f3 07be 0a8f 103d a937 a039 ddc9 f7bd
00000010: 951a 78bd ab30 db3c 7d85 543d 78d0 9f3c
00000020: c61a 32be 8fb2 38bb 0313 b73c a7a9 2bbe
00000030: 4f46 03bd 1a8c 6fbc 3792 25bd 601f af3a
00000040: d7d6 efbd 613c 5a3d dad6 f43c 3049 f73c
00000050: 3219 bbbd f8e1 e13d 23b3 aa3b c612 323d
00000060: fa95 14bd 73bc fa3c d8ab 83bd c2ef 3abd
00000070: aa55 dc3c 23eb 74bc e004 d63c 8065 a1bd
00000080: 0f39 c1ba 44a7 98bb bc17 75be f321 2bbe
00000090: 2e78 1d3d bced ab3d 7147 d4bd e9fd 9ebd
000000a0: 68cf 18bd 788b 723d fd1b b73d 5c31 44be
000000b0: 629b a3bd 1c31 14be 9797 0fbe a0f8 323d
000000c0: d3e3 5c3d 5540 8b3c 3f7b 1ebe 90a1 30bc
000000d0: 7bf2 a53b 964a f0bc 1eda 0fbc 0bef 65bc
000000e0: e452 70bd 2b99 2abe 30e9 7e3d 8f5a 863d
000000f0: 6721 3f3d d3ae 50bd da99 7c3c e468 cfbc
00000100: f0a1 c23c f2be 90bd 0c53 5ebd 0fc0 b03d
00000110: 9989 aabd 338d ecbd 23e8 75bb e6b4 bf3c
00000120: 03da 5d3a b2c2 8dbd de63 12bd 6e80 e1bc
00000130: fe79 8b3d 2d39 36bd 52ef 2dbe 69b7 6fbd
00000140: bc50 fdbc 7215 18bd 747d bd3d 75a7 843d
00000150: f6e7 3abd 28b8 013d c1d9 093d 4ac5 00bc
00000160: dead 5abd b507 d73d e744 083b 7c37 a13d
00000170: 672c 60bd f37f 053d 7eab 98bd d384 50bd
00000180: 3c51 bbbb 4edb d4bd 4ccd 723c beb4 17bc
00000190: 01c6 95bc 9513 fcbd b2d6 023d c7f6 1a3c
000001a0: f7b8 693d 690e 08be af2f c5bc 245c 703c
000001b0: c131 21bd 50a3 9abd 2b47 43bc 6df1 d3bc
000001c0: 919b 91bd f3c9 6ebd a5d9 f4bb b434 003d
000001d0: fdce bb3c 70df 173c eb0d 503c 3f15 b9bb
000001e0: 3f70 8f3d fedb a9bd c50b ba3b 57cb fdbd
000001f0: c1c0 69bd ae45 213d 59ea 4cbd 4b86 05bd

network_body.linear_encoder.seq_layers.0.weight f4 [128, 212]
-0.11976431 0.056195468 0.058654588 -0.5240018 0.0005041571 0.09571285 -0.70610297 0.00571296
0.082481235 0.46351108 -0.30238444 -0.21080448 -0.24906127 0.14246406 0.039151922 0.5227584
-0.6176382 -0.18281816 -0.45579177 0.122752585 0.112924345 0.4900912 -0.027116619 -0.12828232
-0.44151783 0.24709667 -0.0309327 0.367422 -0.12715147 -0.010282814 -0.14152703 0.25418675
0.10345581 0.30201966 -0.5922142 0.06546843 -0.3284092 0.09037782 -0.09223127 0.26596445
-0.2383884 -0.20726083 0.1339454 -0.32161275 -0.19007736 0.16887973 -0.34184182 -0.022445967
0.08294957 -0.26951417 -0.31793562 6.133823e-06 -0.45663685 -0.28052634 -0.09540334 -0.24710025
-0.17562124 0.48956305 -0.70751846 -0.6060297 -0.117637984 -0.6475539 -0.38478482 -0.025487946
-0.5182231 -0.36911702 -0.06305484 -0.513143 -0.3645608 0.30500025 -0.67898136 -0.46847737
0.34698737 -0.6683821 -0.5542643 0.2935767 0.29309195 0.07167287 0.47139877 -0.01730753
-0.0180657 -0.16911529 0.26102298 -0.13014425 -0.5025843 -0.13094369 0.3097726 -0.44320184
-0.43553597 -0.01494718 0.20447478 0.21987541 -0.39425692 -0.058921464 0.15213762 -0.4770317
-0.028438766 -0.014160975 -0.14895667 0.06953331 -0.2714852 0.059981495 -0.081869505 -0.37925333
-0.06250583 -0.030317936 -0.09332822 -0.10373276 -0.4166061 0.17150624 -0.43347412 0.21449637
-0.10945567 0.03135954 -0.5124324 -0.16913356 -0.4114953 0.027942438 -0.6584475 -0.21277891
-0.04326987 0.0048603523 -0.7384555 -0.23656158 0.06882944 -0.007072696 -0.7854272 -0.496749
-0.12619467 0.34599012 0.07130463 -0.023275835 0.5334182 -0.13960637 -0.28426746 0.15030125
-0.29891524 0.031016218 -0.22703229 -0.2375957 -0.2055283 0.17621769 -0.4935298 -0.0457793
0.14023507 -0.36557114 -0.09923521 0.116271906 -0.09330834 -0.0053780125 0.18776628 -0.31164628
0.176915 -0.03314563 -0.36436638 0.021904765 -0.14835009 -0.36317068 -0.08857118 -0.041528948
-0.20975108 0.0727008 -0.1737732 -0.15868066 0.0457291 -0.26406965 0.048768975 0.021489918
-0.051438104 0.033600673 -0.10601364 0.06991687 0.0032935224 -0.017422695 -0.0080668805 -0.12690468
0.041801967 -0.019607715 -0.012201991 -0.09315855 0.086119175 -0.3347327 -0.043698918 -0.08729298
-0.2788935 -0.09616625 -0.17509216 -0.20109037 -0.08643544 -0.013039774 -0.39695477 -0.03831903
-0.07440722 -0.358894 -0.00088619365 0.031569444 -0.18085384 -0.0026499743 -0.09849642 -0.15620084
0.06452466 -0.06431247 -0.058271613 -0.24395794 -0.12625611 0.07602992 0.043893956 -0.02368234
-0.0012452317 -0.115921125 0.18167321 0.1946449 0.98962533 -0.3211581 -0.3623206 0.5035486
-0.33129078 -0.11805376 0.3111807 0.00937821 -0.13216846 -0.13527547 0.12825592 -0.06600622
-0.4034768 0.22031541 0.07590615 -0.07555675 -0.05053184 -0.14917693 -0.15618172 0.2643557
0.12864514 -0.16229494 0.23813917 0.053191055 0.016096247 -0.018638529 -0.0048390054 -0.113346964
-0.016799964 0.015969627 0.08159963 -0.23237236 0.007707375 -0.25632173 0.27463967 0.061690487
0.19371107 -0.11726342 -0.06223163 0.015169965 0.0044181957 0.05012447 -0.06920047 -0.018539228
00000000: fe46 f5bd 382d 663d cb3f 703d fb24 06bf
00000010: 6929 043a 1905 c43d 2ac3 34bf c833 bb3b
00000020: eceb a83d 5351 ed3e 22d2 9abe 21dd 57be
00000030: eb09 7fbe 19e2 113e c45d 203d 7fd3 053f
00000040: 891d 1ebf af34 3bbe 8a5d e9be b565 fb3d
00000050: e144 e73d 3ced fa3e ac23 debc 715c 03be
00000060: a00e e2be e906 7d3e 9366 fdbc bd1e bc3e
00000070: ff33 02be 3f79 28bc 76ec 10be c424 823e
00000080: a4e0 d33d 52a2 9a3e 5a9b 17bf 5014 863d
00000090: 4025 a8be 0218 b93d c0e3 bcbd 7e2c 883e
000000a0: 171c 74be 2f3c 54be fc28 093e 6daa a4be
000000b0: a4a3 42be cfee 2c3e e405 afbe 9be0 b7bc
000000c0: 77e1 a93d c3fd 89be 75c8 a2be 23d1 cd36
000000d0: 4ecc e9be 26a1 8fbe d462 c3bd d907 7dbe
000000e0: 0ed6 33be 02a8 fa3e ee1f 35bf c324 1bbf
000000f0: 2fec f0bd 18c6 25bf 8402 c5be 19cc d0bc
00000100: 45aa 04bf e8fc bcbe e522 81bd 575d 03bf
00000110: b7a7 babe fe28 9c3e b9d1 2dbf 44dc efbe
00000120: 54a8 b13e 171b 2bbf 44e4 0dbf af4f 963e
00000130: 2610 963e 3ac9 923d 2e5b f13e 85c8 8dbc
00000140: 85fe 93bc 8f2c 2dbe cea4 853e 8944 05be
00000150: 5da9 00bf 1a16 06be 849a 9e3e 5aeb e2be
00000160: 92fe debe 04e5 74bc d661 513e 0527 613e
00000170: 0bdc c9be a257 71bd f7c9 1b3e 803d f4be
00000180: 6af8 e8bc 6f03 68bc 1988 18be 7b67 8e3d
00000190: 1c00 8bbe 28af 753d 33ab a7bd 7e2d c2be
000001a0: 0e03 80bd 525d f8bc de22 bfbd d771 d4bd
000001b0: 654d d5be 559f 2f3e 52f0 ddbe f0a4 5b3e
000001c0: 4b2a e0bd dc72 003d c52e 03bf 5931 2dbe
000001d0: 83af d2be 8ae7 e43c 0490 28bf b7e2 59be
000001e0: bf3b 31bd 9743 9f3b 6b0b 3dbf 333d 72be
000001f0: 73f6 8c3d 13c2 e7bb c211 49bf e355 febe
00000200: 2d39 01be 9e25 b13e 2908 923d f7ac bebc
00000210: 188e 083f f9f4 0ebe 818b 91be 92e8 193e
00000220: 6b0b 99be b915 fe3c 277b 68be 4a4c 73be
00000230: 0376 52be 6972 343e f0af fcbe 1383 3bbd
00000240: c899 0f3e 242c bbbe d43b cbbd f71f ee3d
00000250: 7118 bfbd 0a3a b0bb ce45 403e 1a90 9fbe
00000260: 3529 353e b6c3 07bd 3b8e babe 9f71 b33c
00000270: 16e9 17be 82f1 b9be cf64 b5bd 421a 2abd
00000280: fdc8 56be 28e4 943d 9af1 31be 2f7d 22be
00000290: 704e 3b3d 2334 87be fac1 473d a00b b03c
000002a0: c3b0 52bd dca0 093d ae1d d9bd 9330 8f3d
000002b0: 23d8 573b 0aba 8ebc f32a 04bc 4df3 01be
000002c0: 8a38 2b3d 5ca0 a0bc dcea 47bc e9c9 bebd
000002d0: 405f b03d 1662 abbe a3fd 32bd a9c6 b2bd
000002e0: 21cb 8ebe d0f2 c4bd 5c4b 33be a2ea 4dbe
000002f0: 1005 b1bd c7a4 55bc a83d cbbe 6af4 1cbd
00000300: d062 98bd f4c0 b7be 734f 68ba f64e 013d
00000310: c031 39be 31ab 2dbb 7eb8 c9bd 1df3 1fbe
00000320: 8125 843d 42b6 83bd 37ae 6ebd 1cd0 79be
00000330: 4849 01be 93b5 9b3d 26ca 333d 7701 c2bc
00000340: 0b37 a3ba 0e68 edbd 8b08 3a3e fe50 473e
00000350: 1658 7d3f d66e a4be 1682 b9be 90e8 003f
00000360: f29e a9be 2bc6 f1bd 1453 9f3e 10a7 193c
00000370: 2b57 07be a785 0abe 8555 033e 452e 87bd
00000380: 8394 cebe 5d9a 613e af74 9b3d 7fbd 9abd
00000390: 7afa 4ebd d6c1 18be 1aee 1fbe a159 873e
000003a0: 8dbb 033e a530 26be c1da 733e ddde 593d
000003b0: 47dc 833c d4af 98bc 8590 9ebb 7422 e8bd
000003c0: 14a0 89bc bcd2 823c b51d a73d 05f3 6dbe
000003d0: 268e fc3b 9a3c 83be 929d 8c3e 2aaf 7c3d
000003e0: 325c 463e ce27 f0bd 98e6 7ebd 728b 783c
000003f0: 83c6 903b 514f 4d3d fab8 8dbd 94df 97bc

network_body.linear_encoder.seq_layers.2.bias f4 [128]
0.10350023 -0.11990127 0.025310898 0.16075371 -0.13661379 -0.05245146 0.09921851 -0.014446864
-0.09342498 -0.18033215 0.09875015 -0.116143465 -0.08244798 -0.16899392 -0.08508915 -0.007879795
-0.07589797 -0.23409607 -0.007817688 -0.046492897 -0.11254899 -0.3994551 -0.20671946 -0.08358203
0.14697874 0.03254515 -0.18591611 0.07463807 0.039771613 -0.08365032 -0.24585699 -0.20936914
-0.14865287 -0.06757325 -0.12694544 -0.24279854 -0.12195461 0.020585774 0.0061262436 -0.052689284
0.2630967 -0.099870406 -0.10349804 -0.088500984 -0.009916187 -0.26967877 -0.06040686 -0.003292093
-0.2297036 -0.08971839 -0.14068848 -0.04014259 -0.17717214 -0.12251269 -0.08045397 -0.23684627
-0.22358528 0.02987626 -0.0408504 -0.26538754 -0.20861316 -0.1845247 -0.11882247 0.013508381
0.054896317 0.00060637447 0.032004125 -0.13497083 0.05535076 -0.1307814 -0.13540474 -0.16454759
0.072530545 -0.22334982 -0.23748304 -0.23638909 0.08433478 0.3049083 -0.06867557 -0.12424802
-0.16450635 0.0019976536 0.15778674 -0.17294621 -0.21628311 -0.37036306 -0.24064374 -0.30845886
-0.20349501 0.10553611 0.12326265 -0.5718275 -0.3886403 -0.17711659 -0.20782696 -0.09525282
-0.12349764 -0.10228509 0.037097313 -0.10016001 -0.19485499 -0.047431853 -0.009296919 -0.17865671
-0.04901433 -0.28850985 -0.13697119 -0.15391405 0.100328326 -0.009524156 -0.056134377 0.005746013
-0.14244312 0.08769718 0.06060117 -0.1833617 -0.064727865 -0.3097851 -0.06893512 -0.25153148
-0.18203872 -0.14883555 -0.019688074 -0.39317796 -0.05731808 0.012354572 0.11403122 -0.011941801
00000000: eef7 d33d cc8e f5bd cd58 cf3c 9f9c 243e
00000010: 7ce4 0bbe 58d7 56bd 1333 cb3d 8ab2 6cbc
00000020: 9955 bfbd fea8 38be 853d ca3d a0dc edbd
00000030: 7dda a8bd be0c 2dbe 3843 aebd 411a 01bc
00000040: 6570 9bbd e1b6 6fbe c315 00bc 566f 3ebd
00000050: 1680 e6bd 6185 ccbe 44ae 53be 0e2d abbd
00000060: 9881 163e 104e 053d cb60 3ebe d8db 983d
00000070: 8fe7 223d dc50 abbd efc1 7bbe dd64 56be
00000080: 7538 18be d863 8abd fcfd 01be 2ea0 78be
00000090: 57c3 f9bd 7fa3 a83c a8be c83b b8d0 57bd
000000a0: 9cb4 863e db88 ccbd c8f6 d3bd 0140 b5bd
000000b0: 8177 22bc 5613 8abe 2f6d 77bd 28c0 57bb
000000c0: 6c37 6bbe 46be b7bd a410 10be 8e6c 24bd
000000d0: 9d6c 35be efe7 fabd 0dc5 a4bd d487 72be
000000e0: 8af3 64be 0fbf f43c c052 27bd e0e0 87be
000000f0: b09e 55be 0bf4 3cbe 3259 f3bd 4252 5d3c
00000100: f6da 603d 1af5 1e3a c216 033d cb35 0abe
00000110: 7bb7 623d 8feb 05be 8aa7 0abe 2a7f 28be
00000120: e58a 943d d1b5 64be c12e 73be fb0f 72be
00000130: b7b7 ac3d f11c 9c3e c7a5 8cbd bf75 febd
00000140: 5a74 28be 11eb 023b d992 213e d018 31be
00000150: 5279 5dbe 3aa0 bdbe 506b 76be 52ee 9dbe
00000160: ff60 50be 5123 d83d 2171 fc3d 4963 12bf
00000170: ddfb c6be 0d5e 35be 97d0 54be e913 c3bd
00000180: 55ec fcbd d87a d1bd 5af3 173d b120 cdbd
00000190: 1188 47be e747 42bd 1b52 18bc c9f1 36be
000001a0: 40c3 48bd 90b7 93be 2d42 0cbe a59b 1dbe
000001b0: f078 cd3d 350b 1cbc 29ed 65bd 0d49 bc3b
000001c0: 9cdc 11be 949a b33d ef38 783d 2bc3 3bbe
000001d0: 0b90 84bd 279c 9ebe db2d 8dbd bcc8 80be
000001e0: 5c68 3abe 5968 18be e248 a1bc 9f4e c9be
000001f0: 5dc6 6abd d56a 4a3c 3389 e93d 8ba7 43bc

network_body.linear_encoder.seq_layers.2.weight f4 [128, 128]
-0.3035384 -0.0023000701 -0.3357303 0.24458928 -0.31846583 -0.55144054 -0.1624411 0.35807556
-0.4976704 0.00027318936 -0.19274499 0.28637934 0.20611247 0.010367522 -0.21175727 0.14375624
0.0920282 -0.33176365 0.13095905 -0.015314657 -0.5509398 -0.26400128 -0.52122134 -0.3353806
-0.44116014 0.20715012 0.049472477 -0.5855949 -0.0721693 -0.07249098 -0.120676264 0.12704653
-0.0008612724 0.45307878 0.011434893 0.19083333 -0.2645516 -0.56884545 -0.13126272 0.22422981
-0.33778203 -0.44480658 -0.14416963 0.060279533 0.22526087 -0.30353028 -0.12627783 -0.48297694
-0.22655815 -0.200307 -0.08677403 0.23325664 -0.49000123 0.3087562 -0.20411617 -0.1224596
-0.19323426 -0.44049674 -0.18354781 -0.2543607 -0.1503911 0.16808064 -0.005841036 -0.29486397
-0.018174216 -0.40004468 -0.029076107 -0.14733966 -0.39144823 -0.33048478 0.29765123 -0.17436671
-0.17034501 0.10070699 0.17639898 -0.67514443 0.2903065 -0.23290968 -0.16342591 0.20705643
0.060936455 0.39422253 -0.7984045 -0.32145718 -0.7225255 -0.40225717 -0.7890881 -0.96078444
0.07484932 0.31089547 0.3959025 -0.31549582 -0.23225087 -0.06559731 -0.68062145 0.06471766
-0.025135214 -0.23511341 0.018372599 -0.43471003 0.04920765 0.07676306 0.025377214 0.066970944
0.05539824 -0.708749 -0.33350405 -0.0772457 0.36435652 0.06709391 -0.50674653 -0.5742811
-0.13998078 -0.010122097 0.08405435 -0.17677422 0.01924503 -0.18415844 0.15941784 0.18073575
0.14689769 -0.32059905 -0.13077752 0.17481643 -0.4121379 -0.35687107 -0.0035527605 -0.17016432
-0.067810416 0.0064194305 -0.011745755 -0.3515562 -0.35708338 -0.5223733 0.07780417 -0.33992556
-0.10015972 0.20152058 -0.24687715 0.09064314 0.27001625 0.13671304 -0.09177249 0.0009963304
-0.05707914 -0.15946627 0.17747104 -0.08910138 -0.023836419 0.27568513 0.435828 0.18883693
-0.40927052 -0.58544034 -0.14044873 0.28047022 -0.115664005 0.06565416 0.17096141 0.048785802
-0.035574894 0.3953201 -0.24054402 -0.48306587 -0.2923289 -0.05476676 0.29063243 0.13539013
-0.03616497 0.2130032 0.12841602 -0.26857537 -0.12907973 0.0426417 -0.13238177 0.287939
-0.049512807 -0.13843521 -0.14740787 -0.43007493 0.065966554 0.12369654 0.15778834 0.17514202
-0.20846544 -0.047904506 0.28064644 0.02232373 0.87114626 0.12470366 -0.431284 -0.21190588
0.18387547 -0.07507012 -0.29821095 -0.23478581 -0.24307956 0.060807347 0.19923776 0.19075005
0.22659925 0.16830474 0.070870295 0.25354764 -0.077701606 -0.030505665 0.06992184 0.0966262
-0.23196933 -0.09842333 0.075156026 -0.10960628 -0.17590843 0.11977085 0.45991525 0.13180384
0.4428025 0.07319707 0.23255113 -0.348207 -0.06837158 -0.18343757 -0.20879062 -0.5089649
0.33219734 0.1072576 -0.17147286 0.2012586 0.0754651 -0.09199581 0.1742009 0.31773162
0.10089472 -0.24428202 0.16727655 0.016338475 0.12988234 -0.034843057 0.20640561 0.2496036
-0.24020563 0.07645964 -0.43989938 -0.12853101 -0.3899714 0.15853453 -0.026025845 -0.05110251
-0.2900733 -0.06395234 0.6614425 0.109127186 -0.33679828 0.06610197 -0.014416438 -0.03141271
00000000: 6369 9bbe c6bc 16bb d8e4 abbe 9d75 7a3e
00000010: f40d a3be 352b 0dbf f656 26be ae55 b73e
00000020: a8ce febe db3a 8f39 f15e 45be 50a0 923e
00000030: 260f 533e 8adc 293c e6d6 58be d634 133e
00000040: 4879 bc3d eddc a9be 211a 063e 54ea 7abc
00000050: 640a 0dbf 2d2b 87be c36e 05bf 02b7 abbe
00000060: bedf e1be 291f 543e a7a3 4a3d 8ce9 15bf
00000070: 7fcd 93bd 2776 94bd 1e25 f7bd 7c18 023e
00000080: 03c7 61ba f1f9 e73e 6b59 3b3c d069 433e
00000090: 4f73 87be db9f 11bf bc69 06be 809c 653e
000000a0: c4f1 acbe b0bd e3be 34a1 13be ace7 763d
000000b0: c9aa 663e 5268 9bbe fa4e 01be c148 f7be
000000c0: dcfe 67be 471d 4dbe 95b6 b1bd d4da 6e3e
000000d0: 71e1 fabe 4b15 9e3e d403 51be 19cc fabd
000000e0: 34df 45be ca88 e1be f5f3 3bbe 913b 82be
000000f0: 2000 1abe 551d 2c3e 2966 bfbb 69f8 96be
00000100: 18e2 94bc a8d2 ccbe 0431 eebc 35e0 16be
00000110: e76b c8be 4d35 a9be be65 983e 308d 32be
00000120: ec6e 2ebe 773f ce3d efa1 343e 44d6 2cbf
00000130: 0ea3 943e e07f 6ebe 1f59 27be 9a06 543e
00000140: 8198 793d 89d7 c93e 3d64 4cbf 0996 a4be
00000150: 6ef7 38bf a7f4 cdbe ad01 4abf f8f5 75bf
00000160: 9a4a 993d b12d 9f3e bcb3 ca3e ab88 a1be
00000170: 2cd3 6dbe e257 86bd 353d 2ebf b18a 843d
00000180: 5de8 cdbc 92c1 70be 2282 963c 5092 debe
00000190: f68d 493d f435 9d3d e0e3 cf3c 1028 893d
000001a0: 44e9 623d 9370 35bf 0bc1 aabe fe32 9ebd
000001b0: f08c ba3e 8868 893d 24ba 01bf 1604 13bf
000001c0: 1f57 0fbe 27d7 25bc b024 ac3d 4d04 35be
000001d0: c1a7 9d3c 0894 3cbe 6e3e 233e cb12 393e
000001e0: 596c 163e 8f25 a4be 8bea 05be 1403 333e
000001f0: bd03 d3be ceb7 b6be 6ed5 68bb 8e3f 2ebe
00000200: 30e0 8abd 165a d23b 4471 40bc 2dff b3be
00000210: a2d3 b6be 42ba 05bf cb57 9f3d b90a aebe
00000220: 8a20 cdbd 695b 4e3e 5dcd 7cbe 1ca3 b93d
00000230: 923f 8a3e 81fe 0b3e 37f3 bbbd 4d97 823a
00000240: d1cb 69bd 204b 23be f8ba 353e c97a b6bd
00000250: 9844 c3bc 9a26 8d3e d924 df3e 785e 413e
00000260: e88b d1be 6bdf 15bf cbd1 0fbe cb99 8f3e
00000270: 40e1 ecbd b075 863d 8210 2f3e 9fd3 473d
00000280: fbb6 11bd 6567 ca3e 2c51 76be 6954 f7be
00000290: 22ac 95be 1c53 60bd c6cd 943e b6a3 0a3e
000002a0: b821 14bd 831d 5a3e 7d7f 033e b682 89be
000002b0: 7a2d 04be 10a9 2e3d 168f 07be be6c 933e
000002c0: f1cd 4abd f6c1 0dbe 17f2 16be c832 dcbe
000002d0: 7919 873d 9d54 fd3d 4493 213e 6e58 333e
000002e0: f777 55be 8437 44bd e4b0 8f3e 41e0 b63c
000002f0: 7103 5f3f a264 ff3d 42d1 dcbe dbfd 58be
00000300: da49 3c3e 5dbe 99bd 1baf 98be b16b 70be
00000310: d9e9 78be 2011 793d fc04 4c3e fb53 433e
00000320: a209 683e 1458 2c3e 7224 913d ffd0 813e
00000330: 0522 9fbd 04e7 f9bc 2f33 8f3d f5e3 c53d
00000340: 5e89 6dbe 2c92 c9bd 67eb 993d 4279 e0bd
00000350: 5721 34be 6b4a f53d 037a eb3e 96f7 063e
00000360: 02b7 e23e 58e8 953d e221 6e3e 3048 b2be
00000370: 6606 8cbd 0fd7 3bbe 35cd 55be 864b 02bf
00000380: c515 aa3e dfa9 db3d 9596 2fbe bc16 4e3e
00000390: 728d 9a3d 4d68 bcbd b961 323e b8ad a23e
000003a0: e4a1 ce3d 1125 7abe 8b4a 2b3e 44d8 853c
000003b0: e0ff 043e 98b7 0ebd fe5b 533e 1698 7f3e
000003c0: 77f8 75be df96 9c3d 7e3a e1be a29d 03be
000003d0: 55aa c7be e056 223e 2734 d5bc de50 51bd
000003e0: 7d84 94be 72f9 82bd 4c54 293f 137e df3d
000003f0: d370 acbe 7860 873d ec32 6cbc 9daa 00bd
