results/MovingObstacles_LSTM8_DR5_2/BasicAgent/BasicAgent-2999974.onnx (onnx, 204549 bytes, 8 tensors)

action_model._discrete_distribution.branches.0.bias f4 [5]
000000 13 0f c3 bc 60 b4 fc 3e 50 51 77 be 29 7e 72 bc
       -0.023810899 0.49356365 -0.24152112 -0.014800587
000010 19 e6 6e bd
       -0.058324907

action_model._discrete_distribution.branches.0.weight f4 [5, 128]
000000 5e b1 15 3e 9f 50 07 3e 7a 2c 91 bd de 34 3e bd
       0.14618441 0.13214348 -0.07088561 -0.046437137
000010 b5 09 75 3e 83 82 b1 3d ba e8 91 3e 01 d7 77 3e
       0.23929484 0.08667471 0.2849787 0.24203111
000020 a7 1e fe 3b 01 9e 13 3e 3f ca cd 39 1d 50 ff 3c
       0.007755119 0.14415742 0.00039251332 0.03116613
000030 61 a0 65 3e af 4a 07 3e 30 05 31 3e c8 1f d0 bd
       0.22424461 0.13212083 0.17287135 -0.10162312
000040 da 91 1b 3e b5 82 aa be c4 b1 0f 3e 98 3a f5 3d
       0.15192357 -0.33302847 0.14032656 0.119740665
000050 c6 eb d1 3d e7 58 30 3d f5 17 1d 3e 27 09 37 bd
       0.10250048 0.043053534 0.1534117 -0.044686463
000060 c6 87 8b 3e 31 85 2d 3e 2c 86 b2 bd 7c 79 a6 3e
       0.27252024 0.1694534 -0.087169975 0.3251456
000070 a8 17 2b 3d 25 c7 0a bc 3d 8d f8 bc 6c 07 27 3e
       0.041770607 -0.008470331 -0.030340785 0.16311425
000080 d4 66 25 3e e6 8e d5 3e 81 97 89 bd de 3f 39 3e
       0.16152507 0.41710585 -0.0671835 0.1809077
000090 0f 31 3c bc da a8 92 3e ae bc 94 3d 02 d0 12 3e
       -0.011486306 0.2864445 0.0726255 0.14337161
0000a0 a4 4e a5 3e 2b 7d d6 3d 19 54 21 3e 90 c6 95 3e
       0.3228656 0.10473093 0.15754737 0.29253054
0000b0 6f 9e f1 3d a7 7e bc 3d 3c 5f 78 3e 3f 57 89 3d
       0.11797797 0.092038445 0.24255079 0.06706094
0000c0 9d 2d fb 3d 68 77 66 3e f9 23 58 be f9 ce 2d be
       0.122645594 0.22506487 -0.21107472 -0.16973485
0000d0 e4 08 87 3e fd f5 dc 3d f7 57 71 3e 21 c4 3b 3e
       0.2637397 0.10789106 0.23568712 0.18336536
0000e0 15 a8 89 3e 65 7d d7 3b 6b 8c 67 bc dc 0f 54 bc
       0.2688605 0.0065762275 -0.014132599 -0.012943234
0000f0 4e 6c 90 3e 61 63 48 3e 26 99 44 3d 6e 4e a6 bd
       0.2820763 0.1956916 0.047997616 -0.08120428
000100 cf 0f bb bc b1 23 c6 bd 17 65 56 3e b2 9f 9f 3d
       -0.022834687 -0.09674776 0.20937 0.07794131
000110 f2 66 32 3e 6a e2 99 3e 22 dd 14 3e c9 44 fc 3d
       0.17422083 0.30055553 0.1453748 0.12317807
000120 ca 51 31 3e 99 4e 20 3e 09 e3 b3 3e 4b 0b 83 3e
       0.17316356 0.15654983 0.35134152 0.25594553
000130 ef aa bf 3d d1 17 eb 3d 4c 29 9f 3d 68 6d 4e be
       0.09358775 0.11479152 0.07771549 -0.20158923
000140 9d c0 79 bd 9e f7 04 3d e3 46 09 3e 0f 28 b6 3e
       -0.060974706 0.03246271 0.13405947 0.35577437
000150 41 08 29 3e 4d 44 f1 3c e4 4e 6c 3e 7b 5e 2d 3e
       0.16507055 0.029451514 0.2307697 0.16930573
000160 20 53 70 3e 72 f9 11 be b2 a8 ff 3d 2e 95 59 3e
       0.2346921 -0.14255312 0.12483348 0.21248314
000170 99 58 3c 3e 32 5a 3e 3e 98 14 02 3e c7 7b 93 3d
       0.18393172 0.18589094 0.12703168 0.07201343
000180 c9 42 a5 3d ac f5 ea 3d 3f 54 85 be e2 cc c1 3d
       0.08069379 0.114726394 -0.26040837 0.094629064
000190 26 67 3a 3d e2 1e 40 3e e9 3e 01 be 89 f0 5f 3e
       0.045508526 0.18761781 -0.12621655 0.218691
0001a0 8f f5 2b 3e bd 7b 56 3e 98 f5 8e 3e 32 3d 9e 3d
       0.16792892 0.2094564 0.27921748 0.07726516
0001b0 ba 3b d7 b9 03 aa e1 3d 59 71 e0 bd f2 ec 80 3d
       -0.00041052495 0.11018755 -0.10959119 0.06295194
0001c0 4e 0b 6e 3d 8d 41 90 3e 45 8d 9b 3e 55 75 f9 bd
       0.05811625 0.2817501 0.30381218 -0.121805824
0001d0 4a 47 23 3e a4 9a 35 bd 4f 1e 94 be 51 f5 48 3e
       0.15945163 -0.04433693 -0.28929374 0.19624831
0001e0 a4 17 a7 be 2f 68 26 3e 92 c6 8f 3d e9 94 3d 3e
       -0.32635224 0.1625068 0.07020296 0.18513836
0001f0 81 aa e7 3d cb 61 6a bc 63 63 04 3e 56 24 2d 3e
       0.11311818 -0.014305542 0.12928538 0.16908392
000200 86 44 74 be ba 20 c0 3e 36 2c 06 3e 4d f1 7a 3e
       -0.23854265 0.37524968 0.13102803 0.24506111
000210 11 e1 13 3e 54 ee c9 bd 15 64 94 bd c6 a0 10 be
       0.14441325 -0.098599106 -0.07245652 -0.1412383
000220 f3 1c 22 be cb 5c 7f 3e 8c 90 6f 3e 4a fb 23 3d
       -0.15831356 0.24937741 0.23394984 0.04003457
000230 54 12 79 3d f9 3e 65 3e d5 64 a2 bc da df 15 3e
       0.060808495 0.22387303 -0.019823471 0.14636174
000240 05 68 f2 3d b6 d5 b5 3e 79 cc 3f 3e e1 5b ac 3d
       0.118362464 0.3551461 0.18730344 0.08415962
000250 ee e3 39 3e 78 05 a5 3e 15 7f 0f be 5a 29 de 3d
       0.18153355 0.32230735 -0.14013322 0.10847731
000260 72 6b 4c 3e eb 5f c7 3c c7 ef 4f bd 89 68 aa 3e
       0.19962862 0.02433773 -0.05076578 0.3328288
000270 6f a1 d8 3d 5f 1e 14 3e c4 b7 e9 3d 9c b0 31 3e
       0.10577666 0.1446471 0.11412004 0.17352527
000280 6d 4e 3a 3e 33 5d ad bd 2e 60 2a be 4e 18 9c 3e
       0.1819398 -0.08465042 -0.16638252 0.30487293
000290 2b 92 f8 3d 36 77 a8 3e 6b d7 a2 bb 1a b8 59 3e
       0.12137254 0.3290345 -0.0049695275 0.21261635
0002a0 50 75 46 3c 97 fb 96 3e bc 34 83 3d 06 2a 52 3e
       0.01211293 0.29488823 0.06406543 0.20523843
0002b0 9b 6b e4 3e ee a2 4b 3d ba a5 c8 3d ca 9e 4c 3b
       0.44613346 0.04971593 0.09797235 0.0031222575
0002c0 61 f0 db 3d 40 7f d6 bc 70 b4 81 bc 87 24 b9 3e
       0.10739208 -0.026183724 -0.01583311 0.3616068
0002d0 07 7f 5e bd a7 4b 93 3d db 57 6c 3e 25 be 7d 3e
       -0.05432036 0.07192164 0.23080389 0.24779566
0002e0 0c 29 0c 3e 0f 6c 4b 3e ef 53 2c be ab a9 ef bd
       0.13687533 0.1986544 -0.16828893 -0.117022835
0002f0 2a a9 2a bc 65 59 96 3d e4 60 89 be 24 38 21 be
       -0.010416308 0.073412694 -0.26831734 -0.15744072
000300 0d a2 20 be a7 5e 88 3a bd 55 27 bc 30 b5 a2 3e
       -0.15686817 0.0010404185 -0.010213313 0.3177886
000310 46 7a 0f bd 5c 8e a5 bd 5c 3f 9d 3e 65 e8 b3 3d
       -0.03502872 -0.080837935 0.30712402 0.0878456
000320 12 ba da 3d 80 43 4c 3e f2 ef 4a 3e 8a 2f fe 3c
       0.10680021 0.19947624 0.19818094 0.031028528
000330 32 14 6e 3e 1c 1e 92 3b 1d 21 1d bc 13 1f 4b 3e
       0.23249891 0.0044591557 -0.009590414 0.19836073
000340 dd 9f 14 3d 9e 09 d2 bc c5 c7 53 3e 55 11 b1 3e
       0.03628527 -0.025639351 0.20681675 0.34583536
000350 c0 be 77 3e 92 d3 41 bd 59 dc 4c be 50 ab 98 be
       0.24193859 -0.04732091 -0.20005931 -0.298182
000360 e3 3d 78 3c 7e 1f 72 3e 62 d3 8b 3e 06 a0 a8 3d
       0.015151474 0.23644826 0.2730971 0.08233647
000370 b8 f6 7e 3e 03 0a fa bc 74 93 51 3d 47 9f 3a bd
       0.24898803 -0.030522352 0.051166013 -0.045562055
000380 1a 32 b2 3d 99 e2 ba 3d ed a1 7c 3e 00 0b 11 3e
       0.08700962 0.09125251 0.24671145 0.14164352
000390 28 94 5a 3e 71 45 a4 3e b8 7b ff 3d 8f 7d e5 3e
       0.2134558 0.3208423 0.12474769 0.44822356
0003a0 fb f7 0d 3e 5b 11 de 3d 3c 3c 34 3e 2e 63 1d 3e
       0.13864128 0.10843154 0.17601103 0.15369865
0003b0 b6 8b b0 3d f8 7c 0a 3d 53 ec 6b bd 10 26 5e 3e
       0.08620398 0.033810586 -0.057598423 0.21694207
0003c0 4c 8b e8 3d 1a 97 3e 3e 3a 1a e9 3d 92 26 0c 3e
       0.11354694 0.18612328 0.113819554 0.13686588
0003d0 cf dd 56 3e cf 57 98 3e e0 30 44 3e 1f 47 02 bc
       0.20983051 0.29754493 0.1915927 -0.007951527
0003e0 9f 48 85 3d ac 79 10 3e a6 39 66 be a0 ea 28 3e
       0.06507992 0.14108914 -0.22482929 0.16495752
0003f0 96 7e 27 be 1e 07 e9 bc 17 7a 54 be 71 10 d4 bc
       -0.16356882 -0.028445777 -0.20749699 -0.025886746

network_body.linear_encoder.seq_layers.0.bias f4 [128]
000000 00 d0 28 ba 28 28 78 3d c4 7d 98 3d cc 72 8e bb
       -0.0006439686 0.06058517 0.07445863 -0.004347181
000010 9b 6d 3a bd df 02 46 ba 44 f7 a9 3c 3e 84 f1 3c
       -0.045514684 -0.00075535284 0.020747788 0.029482003
000020 e6 d7 dc 3b 07 3e 2b 3d 5d 6f af bc 59 ff f0 3b
       0.0067396043 0.0418072 -0.021415407 0.0073546586
000030 91 a3 2c bd bf 4f 6d 3d 54 0d 30 3c a9 20 ef 3c
       -0.042148177 0.05793738 0.010745365 0.029190378
000040 0e a5 05 bd 3d 42 73 3d 03 d8 2f bd 13 9a 35 be
       -0.03262811 0.05938934 -0.042930614 -0.17734556
000050 54 b5 6a bd 1c a8 53 3d f3 4a d1 3b 78 a6 d5 3c
       -0.057301834 0.051673993 0.0063871085 0.026080355
000060 da 47 4f be 0f e6 b3 bc 43 2c ce 3c fd 8b 3e bd
       -0.20242253 -0.021960286 0.02516759 -0.046520222
000070 23 18 81 3d 22 b6 70 bd a3 23 a5 bd 76 94 1e bc
       0.06303432 -0.058767445 -0.08063438 -0.0096789505
000080 5c fc 15 bd 12 ee 9c bc a5 b0 ac bd 3a 20 88 3c
       -0.03661762 -0.01915649 -0.0843213 0.01661693
000090 83 43 b7 bd 99 59 48 bc 54 fe 2f bd 3b 9f 17 3c
       -0.08948424 -0.012228393 -0.042967156 0.009254272
0000a0 51 15 9e bc ca 40 02 3c aa 57 0f 3b 91 04 9a bc
       -0.019297274 0.007950017 0.002187232 -0.018801006
0000b0 0c 54 a0 3c fc 3c d7 bd 70 29 48 3b fa ba 69 bd
       0.019571327 -0.10509679 0.0030542277 -0.05706308
0000c0 9c 8b c2 bd 1b 8a 3e be 20 71 43 bd c6 0c c8 3c
       -0.094992846 -0.1860737 -0.047715306 0.024420153
0000d0 c7 b4 44 bc 7c fb 22 be 97 60 4c 3d b4 d5 3d be
       -0.012005991 -0.15916246 0.049896803 -0.18538553
0000e0 b0 dd 23 3d 12 60 63 bd 59 82 d4 bc 2f 47 65 bc
       0.04000634 -0.05551154 -0.02594106 -0.013994022
0000f0 25 d6 07 3d 67 a3 01 3d 85 8c cf bd da 45 43 be
       0.03316321 0.031649973 -0.10134224 -0.19069615
000100 81 2d ba 3a 10 7f 24 bd 00 d7 92 3d ea a7 31 be
       0.0014204235 -0.04016024 0.07169914 -0.1734921
000110 ac 6f 89 3c ba d1 11 bd 87 32 22 3d 1d 14 8d bd
       0.016776882 -0.0356004 0.039598968 -0.06888602
000120 75 c5 c4 bb f2 3d c7 3d 76 51 37 be 5e 52 50 bd
       -0.006004984 0.09728612 -0.17902169 -0.0508598
000130 47 f4 d7 bd 3e c0 cb ba 64 d3 4b bd 81 ed 81 3d
       -0.10544639 -0.0015544964 -0.049762145 0.063441284
000140 43 f2 28 3d 41 5f 5a 3c 9b 88 94 3d ef 49 43 bc
       0.041246664 0.013328374 0.07252618 -0.011919483
000150 1f db 3e bd 03 9a 09 bb 3e 42 04 be 0a 65 0a bd
       -0.04659569 -0.002099634 -0.12915894 -0.033787765
000160 b3 23 62 bd b4 75 17 be 51 20 49 bc ae ce 12 3c
       -0.055209827 -0.14790994 -0.012275771 0.008960409
000170 fe 04 6b bd 4c 6d 85 bc 5f c0 9f bc 1e 0c 37 bd
       -0.057377808 -0.016287468 -0.01950091 -0.04468929
000180 ea fc f4 3d 8a cb 5f bc c0 3d 55 bd 6a 72 16 be
       0.11962302 -0.013659367 -0.052060843 -0.14692083
000190 8c df 07 be f7 30 62 bc 3b 22 89 bd 61 0f 87 bd
       -0.1326887 -0.013805619 -0.06695982 -0.0659473
0001a0 aa 9c 7f be ea 97 6c bc 89 10 24 bd c0 80 6a bd
       -0.24962106 -0.014440516 -0.04005483 -0.05725169
0001b0 70 76 98 3c c9 06 0a 3d a9 5c 95 bc 0f 2a 38 be
       0.018611163 0.033697877 -0.01823266 -0.17984794
0001c0 54 de 60 3c 9d 4d 85 bc d3 cf b7 bc 9b fe ce bc
       0.013724882 -0.01627236 -0.022437965 -0.02526789
0001d0 e4 ac 21 3c e0 8c ea 3b 36 62 81 3c 4c b0 3e 3d
       0.0098678805 0.007157907 0.015793901 0.04655485
0001e0 a6 87 66 bd 9a b0 4c 3c 20 c7 58 bd 0e 2d 40 3d
       -0.05628171 0.012493277 -0.052924275 0.046917967
0001f0 a2 3f 2e bd 5b e2 b8 3a 56 7f ab 3d 2c e6 38 3d
       -0.042541154 0.0014105545 0.08373897 0.045141384

network_body.linear_encoder.seq_layers.0.weight f4 [128, 130]
000000 40 85 f4 3d 9a a9 eb 3d b2 cf 85 3d f9 17 b4 3d
       0.11939478 0.11506958 0.06533755 0.08793635
000010 fd d4 cb bd 42 9a 19 3e c6 96 d3 3e 1c 07 83 be
       -0.09952734 0.15000251 0.41325969 -0.25591362
000020 7d b6 1c 3e b9 0d 3e be 25 31 37 3e 6f 23 5b 3e
       0.15303989 -0.18559922 0.17889841 0.21400236
000030 67 e6 a3 3e b5 7f 92 be 69 79 00 3e 62 ba d3 3c
       0.3201172 -0.28613058 0.12546314 0.02584571
000040 80 b3 16 bd 7e e6 5a 3e 9a e0 22 bb d8 16 97 3d
       -0.03679228 0.21376988 -0.0024853111 0.07377404
000050 d1 d8 bc 3d 2a 4b 68 be 97 e2 0e 3e ef 0e e6 3d
       0.09221042 -0.22684923 0.13953625 0.11233317
000060 15 7c 04 bf 3f 3f 7d 3e 9c 14 3e 3d d1 43 9c be
       -0.51751834 0.24731158 0.046406373 -0.3052049
000070 a3 50 89 3d 9c ee c6 3c a0 36 ac bd c4 d5 40 3d
       0.06704833 0.0242837 -0.084088564 0.047078863
000080 bd 2a 1b 3d 2a fb 4f 3e cd 2b ae bc ab fe 4a 3d
       0.037882555 0.20310655 -0.02126112 0.049559277
000090 37 f3 16 be bc 2d 1b 3d bd 3a c3 bd 22 86 b5 3e
       -0.14741217 0.037885413 -0.09532688 0.35453898
0000a0 71 05 74 be 87 71 fc 3c 97 ec f1 3e 8a bc fe bd
       -0.238302 0.030815853 0.47250816 -0.12438305
0000b0 73 70 34 be 40 35 d4 3e 73 79 ac be b6 3d 9b bd
       -0.17621021 0.41446877 -0.33686408 -0.0758013
0000c0 8b 01 d6 3e a9 61 0b be 5e 91 31 be 24 22 5e 3d
       0.41798052 -0.13611473 -0.1734061 0.054231778
0000d0 d9 78 53 bd 2f 64 9b be 6d 43 6c 3e b3 c0 32 be
       -0.05162892 -0.30349872 0.23072596 -0.17456321
0000e0 b5 a7 1d be b1 ac f4 3c 28 36 ff 39 0e 16 b5 bc
       -0.15396006 0.029867502 0.0004867774 -0.022105243
0000f0 8e 6e 15 3e 44 d3 91 3c 6f 83 32 3d 8b 20 62 3d
       0.14592955 0.017800935 0.043582376 0.055206817
000100 16 dc 4b be 7a b4 21 3e 77 26 d7 3d 77 81 0a 3e
       -0.19908175 0.15791503 0.105053835 0.1352595
000110 3e 6c 98 bd d2 16 e8 3c b1 1f b3 bc 3f e0 4e be
       -0.074425206 0.028331194 -0.021865698 -0.2020273
000120 25 03 41 3e d6 dd 13 bd 0f f7 ec bd 51 3f 6e 3e
       0.18848856 -0.03610023 -0.1157056 0.23266341
000130 01 d3 57 3c 3b 0d 1c 3e 9f 04 b6 3e 29 97 6d 3e
       0.013172866 0.15239422 0.355504 0.23202194
000140 7b f7 ef be cb df cf 3d cc 4f 1b 3e 41 3a 36 3e
       -0.468685 0.10150107 0.15167159 0.1779566
000150 db 55 32 be 4e 23 fd 3e 1f 55 85 3d b9 50 d5 be
       -0.17415564 0.49440998 0.06510376 -0.4166315
000160 52 c2 a7 be e5 53 0d 3e 8d 8f 02 3e 28 19 ef be
       -0.32765442 0.13801534 0.12750073 -0.4669888
000170 f7 02 b5 be fb 36 32 3e 49 27 22 bd 2c 7e 64 be
       -0.35353824 0.17403786 -0.039588246 -0.22313756
000180 99 61 77 3d ab 45 e8 3d e6 a7 91 3c 3a a6 58 bf
       0.06039581 0.11341413 0.017780256 -0.8462864
000190 6c 3d c4 3d 39 1b 55 3e 11 51 04 be ee 1d 65 3c
       0.09582028 0.20811166 -0.1292155 0.013984187
0001a0 68 3f b5 bc 83 0c a0 3d c7 36 3e 3e 5d 92 c4 be
       -0.022124961 0.078148864 0.18575583 -0.38392916
0001b0 fb 08 1f 3e 0b 16 de 3d 6a 8f 3e 3e 23 55 bb bc
       0.1553077 0.10844048 0.18609396 -0.022867745
0001c0 99 09 05 bd 16 f7 7a be 5b 6a 88 3e 5d 51 85 bf
       -0.032479856 -0.24508318 0.26643643 -1.0415455
0001d0 08 e8 ad 3e 19 58 71 3e ef e4 fa 3a 82 04 c9 3e
       0.33966088 0.23568763 0.0019141714 0.39261252
0001e0 60 08 8c 3e de a5 a2 be 58 67 d4 3d f2 60 11 bf
       0.2735014 -0.31767172 0.10371274 -0.5678855
0001f0 ec 5c 58 3e c0 fe 90 3e f5 ae d4 3b 1f 57 91 bc
       0.21129197 0.2831936 0.006490583 -0.017741738
000200 7e 00 4e bd 32 a4 2a bf 4e 50 93 3e 3e ff 33 3d
       -0.050293438 -0.6665679 0.28772205 0.04394459
000210 7d b6 28 3d 54 7e 39 3d 4a 4a 13 3e e3 7e c0 3d
       0.04118966 0.04528649 0.14383808 0.09399202
000220 5d f1 ae bc c6 86 93 bc 90 4f ff 3d e7 53 a1 3d
       -0.021355325 -0.0180086 0.12466347 0.07877331
000230 f0 5b f9 3b 16 b9 d6 bc 2c c5 b1 be 64 0c 77 3e
       0.0076098368 -0.026211303 -0.34720743 0.2412582
000240 04 76 81 3d f5 86 9e 3e 59 f5 8c be 78 af de 3d
       0.06321338 0.3096234 -0.27530935 0.10873312
000250 8e 18 01 be 35 e9 7d 3e 31 2b 39 3d 37 9e 4a 3e
       -0.12607023 0.24795993 0.045207206 0.19786917
000260 af 4e d8 3d 85 2c f4 bc 17 d0 fe 3d b3 11 1e be
       0.10561883 -0.029806385 0.12442034 -0.15436439
000270 9b 62 68 3d cf 76 89 3e 50 86 59 bc 46 02 02 3e
       0.056734663 0.26848456 -0.0132766515 0.1269618
000280 87 43 26 3e ff ad 13 be f4 57 36 3d 9b 3f ff 3e
       0.16236697 -0.14421843 0.044517472 0.49853215
000290 3e 4f 81 be 24 5b e3 bd 74 b1 8f 3d ee aa fe bc
       -0.2525577 -0.11101368 0.070162684 -0.031087365
0002a0 be 72 82 3e a3 09 dc 3e 62 ec 64 be 80 55 df bd
       0.25478166 0.42976102 -0.22355798 -0.1090498
0002b0 9c d1 6a 3d 0c b1 88 3d 1e c8 1a 3e 3a 60 e8 3e
       0.057328805 0.06674394 0.15115401 0.45385915
0002c0 05 31 6e be f4 4d a9 bd 82 34 51 3d a2 05 6d 3e
       -0.23260887 -0.082668215 0.051075466 0.2314668
0002d0 ad f6 e1 3d 16 5b 9a 3e 77 86 43 bd ab ee b2 bd
       0.11033378 0.30147618 -0.047735658 -0.087369286
0002e0 6e da 3e 3e 6f e5 b8 bd 2c 50 51 3e d2 24 da 3e
       0.18638012 -0.09028136 0.2044074 0.42606217
0002f0 2a af 80 be 7d 1a ea bd 81 91 65 3e 31 4a 6c be
       -0.2513364 -0.114308335 0.22418787 -0.23075177
000300 26 c0 f0 bd 7d 0e e0 3e 67 fc a7 3c b6 57 d3 bd
       -0.117553994 0.43761054 0.020506097 -0.10319464
000310 fd aa d8 3e 33 a1 19 3e dc b2 ba bd 8b d3 b9 3e
       0.42317954 0.15002899 -0.09116146 0.36294207
000320 1b b3 72 bc bf a6 90 3c 16 03 04 3f da 30 4c 3c
       -0.01481321 0.017657636 0.5156721 0.012462819
000330 89 b9 e0 3d 63 b2 45 3e 48 1e 8f be ca 9e d0 bd
       0.10972888 0.1930633 -0.2795279 -0.101865366
000340 f3 07 b0 bd 7f e5 08 3e 99 5a 2c 3d 52 23 25 3e
       -0.08595266 0.13368796 0.04207859 0.16126755
000350 60 81 c2 3e c9 96 97 3d ce 19 8b 3c fd 06 34 3e
       0.3798933 0.07401807 0.016980078 0.17580791
000360 53 6f 82 3e 74 1e 80 3e a7 f2 b4 3e b1 64 89 3e
       0.2547556 0.25023234 0.3534138 0.26834634
000370 26 da c6 3d c0 ed 35 be 3a 2d 6b 3e ac bb d4 3d
       0.09709577 -0.17766476 0.22966471 0.10387358
000380 a1 19 91 3d 44 0a ac bd 68 c8 b0 3d 18 20 31 3c
       0.070849665 -0.084003955 0.086319745 0.010810874
000390 0b d0 08 be 29 73 58 be fc 7c 1b 3e 22 d7 2d be
       -0.13360612 -0.2113768 0.15184397 -0.16976598
0003a0 a4 9b b4 3d f5 3a 8c be e1 93 a0 be 85 12 58 3d
       0.088187486 -0.2738873 -0.31362823 0.052752037
0003b0 f9 eb b6 be 5d fd ba be 52 f5 8e 3e ae af 73 3d
       -0.35726908 -0.36521426 0.2792154 0.059493713
0003c0 ac f2 b2 3e dd a7 ad 3e 5b ff cc be 19 00 05 be
       0.3495077 0.33917132 -0.4003857 -0.12988319
0003d0 a3 f6 06 3b e9 44 40 be 19 62 5c 3e de 8c fb 3d
       0.0020593784 -0.18776287 0.21521796 0.12282728
0003e0 4d 82 21 3c 8a ee 2f bd 46 81 fd bd 47 c0 1c be
       0.009857726 -0.042952098 -0.123781726 -0.15307723
0003f0 d8 f5 25 3e 11 06 6b bd a4 fc 46 bd 7f 56 46 3e
       0.16207063 -0.057378832 -0.04858078 0.19368933

network_body.linear_encoder.seq_layers.2.bias f4 [128]
000000 9a c5 21 3e 08 a2 f7 bd 57 06 1f be 3b 10 10 bc
       0.15798035 -0.12091452 -0.15529762 -0.008792932
000010 ea 15 c4 bd cc 25 29 bc ab 12 b0 bb 5d 27 48 be
       -0.09574492 -0.010323953 -0.005373319 -0.19546266
000020 fa b7 7e 3c 40 f3 a0 be 09 7c a3 3c 7f f1 4e be
       0.015546793 -0.31435585 0.019956606 -0.20209311
000030 44 e8 b2 bd 26 69 9e 3d 0a f8 40 be c7 6a 02 3e
       -0.087357074 0.07734899 -0.1884462 0.12736045
000040 57 c8 dd bb c2 93 5c be 70 c1 5b be 1e 84 05 be
       -0.006768267 -0.2154074 -0.2146051 -0.1303868
000050 48 e9 88 bd 81 bd 27 bc 77 02 09 3e 78 32 92 bd
       -0.0668512 -0.010238052 0.13379847 -0.071385324
000060 57 8b 90 bd 7b 8d 67 3c 5a cd 77 3d b0 0f 9e be
       -0.07057827 0.014132853 0.060498573 -0.30871344
000070 e6 14 05 3e 36 91 12 bd c9 f4 93 bb db a1 b7 3b
       0.12996253 -0.035783015 -0.0045152646 0.0056040115
000080 5e ac d1 bd 1a c7 b0 3c 6f 4c 7b bd b5 ea 0b be
       -0.102379546 0.021579314 -0.06135219 -0.13663752
000090 53 83 cc bd f2 df 6c 3d 6a 53 96 bd 83 10 1c be
       -0.099859856 0.05783076 -0.07340129 -0.15240674
0000a0 10 fa e1 bd 0b f7 9b be a0 3e c2 3b b2 85 9b bd
       -0.11034024 -0.30461916 0.0059278756 -0.0759386
0000b0 39 97 d0 bd 1e 80 59 3c c5 8e 36 be 7e 88 1d be
       -0.101850934 0.013275174 -0.178279 -0.15384099
0000c0 e3 20 0d be e2 da 38 3e 97 83 ae 3d e0 a0 ba be
       -0.13782077 0.18052247 0.085211925 -0.36450863
0000d0 c6 d3 88 bd c0 ed d7 bd d7 a5 cb 3d 5d d4 20 be
       -0.066810176 -0.10543394 0.09943741 -0.1570601
0000e0 c8 3b 2c bd 91 e2 c0 bc 7a 45 c3 bc 9a 9e cb bd
       -0.0420492 -0.023545535 -0.02383684 -0.0994236
0000f0 30 04 83 be ac 39 7b bd 4f 80 dd 3d 73 a4 da bd
       -0.25589132 -0.061334297 0.108154885 -0.106758974
000100 37 1c c6 3d 15 0d aa 3d 24 ff 80 bc d7 f7 24 be
       0.0967335 0.083032764 -0.01574666 -0.16110168
000110 de 83 8f 3c 9c 8b 1c 3d aa 4c c6 3b 2e 1a 87 bd
       0.017518934 0.03821908 0.0060516195 -0.0659679
000120 91 ff e2 3c 34 b0 aa bc f4 a9 20 be 5c c4 a8 bd
       0.027709754 -0.020835973 -0.15689832 -0.082405776
000130 59 42 f7 bd 2f 02 f8 bd 06 23 f8 bd 8f b2 6e be
       -0.12073202 -0.121097915 -0.12116055 -0.23310302
000140 0b 18 88 be 5a d7 2e be 9b eb 00 be 9e be 68 3d
       -0.26580843 -0.17074338 -0.12589876 0.05682241
000150 12 42 c0 bd bc 0e cd 3d b7 33 43 3e fe d9 c6 3d
       -0.09387602 0.10012576 0.19062696 0.097095475
000160 6a 70 0f be 46 d0 eb 3c fb 36 e3 bd 50 39 b3 bd
       -0.14007726 0.028785836 -0.11094471 -0.08751166
000170 8e 76 c6 3b ea da b7 bd 8e e5 58 bb 33 89 13 bd
       0.0060566133 -0.089773014 -0.003309581 -0.036019515
000180 ee c2 d7 bd ab 6c 82 be 3f e0 59 3b bd 3b 6f bd
       -0.10535227 -0.25473532 0.0033245233 -0.05840658
000190 45 e0 10 bd 79 f2 d2 bd 48 fa 9f bd 37 7b d1 bd
       -0.03537013 -0.10300154 -0.07811409 -0.102285795
0001a0 94 f2 23 be ba 9e 40 bc 1e f5 e4 3c 9e 2e 07 be
       -0.16010505 -0.011756593 0.027948912 -0.13201377
0001b0 95 c0 59 bc 1d 0a 3c bd 35 81 2f 3d 1d 0c 74 bc
       -0.013290544 -0.045908082 0.04284783 -0.014895466
0001c0 71 54 64 be 6e 02 48 be 4d 89 cc bd dc 20 99 bd
       -0.22297837 -0.19532177 -0.099871255 -0.074769706
0001d0 13 06 27 be c6 97 e1 bd ff 3a d9 bd 1e da 88 be
       -0.16310911 -0.110152766 -0.10606956 -0.2672891
0001e0 26 a6 16 be 4c ad 5f 3d aa bb 6b 3d 22 da 90 bd
       -0.14711818 0.05460863 0.057552017 -0.070728555
0001f0 c7 f2 03 be 7f 97 4e be 2a 10 4c bd e8 2e b7 be
       -0.12885581 -0.20174979 -0.049820103 -0.35777974

network_body.linear_encoder.seq_layers.2.weight f4 [128, 128]
000000 d6 0c 04 3e 9c 26 c3 3d 3b da 9d 3c fb 8f fd bd
       0.12895522 0.095288485 0.0192691 -0.12380978
000010 ca 80 67 3e 7d a6 e0 be 5d c6 34 be 54 65 5b be
       0.22607723 -0.4387702 -0.17653795 -0.21425372
000020 34 78 2d 3e 08 ec 38 bc 8a 9a 82 3e ea ce 82 bb
       0.16940385 -0.011286743 0.2550853 -0.0039919512
000030 b8 d5 7b 3d 0a 58 3c 3e 0b 7f 0f bd e6 d0 18 bd
       0.061483115 0.18392959 -0.035033267 -0.037308596
000040 e1 c9 9a bd 2b ce 32 bd 8e 45 5d bd 25 17 9b 3d
       -0.075580366 -0.04365365 -0.05402141 0.07572774
000050 8e b5 3c 3d de 4e 1c 3e 52 26 4a 3e 73 77 31 3d
       0.04607158 0.1526446 0.1974118 0.043326806
000060 21 28 2a 3d 32 fe 02 3d e3 4f 5a 3e d0 c3 09 3e
       0.041542176 0.0319807 0.21319537 0.13453603
000070 d6 a5 06 be da ca 74 3d e7 0a 4c 3e a8 88 d5 3d
       -0.13149199 0.059763767 0.19926034 0.10426456
000080 22 1f 86 bd 6b 24 62 bd 03 fb 46 3e 6c 77 03 be
       -0.06548907 -0.055210512 0.19431691 -0.12838525
000090 2f 21 1b 3e eb 4e 9d 3e 2a 7f a0 be 3a fb 9d be
       0.15149377 0.30724272 -0.31347018 -0.30855733
0000a0 60 5b ab bd d8 e1 ab be 06 87 61 bc 64 a3 ca bc
       -0.08367038 -0.33570743 -0.013765102 -0.024736114
0000b0 29 cf 52 3d 0b 72 ce bc 6c 5d 50 bd 5c 91 2b 3e
       0.051467095 -0.025200864 -0.050870344 0.16754669
0000c0 3f ff 44 3e 6f 7d 01 3d 65 95 8d bd ab 15 72 bd
       0.19237994 0.031613763 -0.0691326 -0.059102695
0000d0 c9 90 8d 3e 90 72 05 3d aa 2f 1b be b6 b7 41 3c
       0.27649525 0.03257996 -0.15154901 0.011823585
0000e0 36 f7 bf 3b d7 fd 04 3d 4f 9a 30 be a0 8e d7 be
       0.0058583273 0.032468643 -0.17246364 -0.42101002
0000f0 13 98 22 be 05 16 48 be 9e 47 f4 3d 07 47 d4 3c
       -0.15878324 -0.1953965 0.119277224 0.025912775
000100 94 8e 49 bd 04 1a a6 3d 67 18 1d 3d 92 6c 94 bd
       -0.04920824 0.08110431 0.03835335 -0.07247271
000110 00 e1 cf 3d ad 1f 6f bd ae 03 e2 bd 2c 42 7c 3d
       0.10150337 -0.058379818 -0.11035858 0.061586544
000120 11 d6 c7 3d b4 f1 04 be ff e3 37 bd 49 df c0 3d
       0.09757627 -0.12982827 -0.04489517 0.09417588
000130 2e 08 01 bd bb 48 fe bd 95 6a 30 be 33 ef 1a 3d
       -0.03150194 -0.12416216 -0.17228158 0.037825774
000140 06 b3 98 bd b7 00 b7 bc 92 6f b4 3e 18 63 f1 3d
       -0.07456021 -0.022339208 0.3524137 0.11786479
000150 d4 60 e6 bd 09 af c7 3e 0c 0f e3 3c 22 9c 67 3e
       -0.11248937 0.3900073 0.027717136 0.22618154
000160 e3 08 b7 3c 62 12 57 be af 2d 8c 3e 3e 22 1d 3e
       0.022343105 -0.21003106 0.27378604 0.15345094
000170 62 e8 bd 3d 8d 21 8a 3e a3 f3 49 3e d6 d7 44 3e
       0.09272839 0.26978722 0.19721846 0.1922296
000180 bc 35 f6 3b 89 06 8b be b9 0e 08 be f7 d0 36 be
       0.00751373 -0.27153423 -0.13286866 -0.17853151
000190 27 da 45 3e 30 aa aa bd b6 7d 45 be c0 b7 de 3d
       0.193215 -0.08333242 -0.19286236 0.10874891
0001a0 95 74 0d 3e 28 d8 a9 3d 12 79 ed bc 93 24 a6 bc
       0.13814004 0.08293182 -0.028988395 -0.020281112
0001b0 bc 52 a2 bc b5 f3 51 3d c1 25 d4 3d 1e a6 3f be
       -0.019814841 0.051257808 0.103587635 -0.18715712
0001c0 46 ee 3d 3e 63 2f 50 3e e9 cd 64 3d 9e 8d 6c bc
       0.18547925 0.20330577 0.055860434 -0.014438061
0001d0 b7 4f 20 bc bd 37 c7 be 10 a7 86 3d 55 d6 bb 3d
       -0.0097846305 -0.38909712 0.065748334 0.0917174
0001e0 cf f2 75 3e 61 e6 22 be 55 21 35 bc 69 e0 d9 bd
       0.24018405 -0.15908195 -0.01105531 -0.10638506
0001f0 5c 42 fe bd 01 31 b1 bd d8 df 9f 3d 34 1d cb 3d
       -0.12415001 -0.08651925 0.07806367 0.099176794
000200 30 81 09 be e1 69 43 3e 9f 61 a1 be 23 97 b2 be
       -0.13428187 0.19083358 -0.3151979 -0.34880933
000210 50 31 8a 3e c9 11 25 be ae e4 92 be 02 ce 6b 3d
       0.26990747 -0.16120066 -0.28690094 0.05756951
000220 d2 24 8a 3e 83 04 c3 3b 6c fb 61 3e 63 36 a6 be
       0.26981217 0.0059514656 0.22068566 -0.3246337
000230 15 de b4 3e 7b 6c 97 bd 14 c0 46 3e 37 0b 14 bd
       0.35325685 -0.07393738 0.1940921 -0.036143508
000240 f9 ff 35 be 19 54 04 bf 2f 15 88 3e 0d 14 d5 3d
       -0.17773427 -0.5169082 0.26578662 0.10404215
000250 43 61 a3 3d 28 9d 68 be f2 4d 03 bd 91 cb 8c be
       0.079775356 -0.227162 -0.032056756 -0.2749906
000260 e8 d8 e9 3d b9 79 9f bd 0e b4 9f 3b dd 52 40 3d
       0.11418325 -0.07786889 0.004873759 0.046954025
000270 10 ba f1 be e6 6b 88 3c 23 91 b7 3d 65 59 90 be
       -0.47212267 0.016653012 0.089632295 -0.28193203
000280 12 cc b4 3d 72 23 03 3e af ef f3 3d db 03 16 bd
       0.08827986 0.1280649 0.119109504 -0.03662477
000290 76 f6 2a 3e 74 e9 ab 3e f0 9b 0f 3f 59 e1 e6 bd
       0.1669558 0.33576548 0.56097317 -0.112734504
0002a0 50 48 71 3d 9f cb 46 3e 9b 96 d2 be 56 49 a3 3e
       0.058906853 0.19413613 -0.41130528 0.31891888
0002b0 83 9b 53 be fc c8 5b 3e 5e 5e fa 3e f8 8b 6d 3e
       -0.20664792 0.21463388 0.4890012 0.23197925
0002c0 f1 5e 86 3d b3 d0 dc 3d 26 b6 eb 3e d0 a6 50 bd
       0.065610774 0.10781994 0.46037406 -0.050940335
0002d0 0e 82 c7 bd 3b 4a b7 be d2 e9 b0 bd 64 85 9c 3e
       -0.09741603 -0.3579882 -0.08638348 0.3057052
0002e0 7f 3d 9a be 1f ad 14 be c6 c5 ec be 86 aa 39 be
       -0.30125043 -0.14519165 -0.4624464 -0.18131456
0002f0 31 d5 b5 3e 02 38 b1 bd 56 0c 08 3e 50 13 d7 3d
       0.35514215 -0.08653261 0.13285956 0.105017304
000300 1b e2 10 be 85 c5 07 be 79 40 93 be c2 2d 93 3d
       -0.14148752 -0.13258941 -0.28760126 0.07186462
000310 52 e0 c4 be ce 2c 8d 3d e3 56 16 be 59 d7 13 3d
       -0.38452393 0.068933114 -0.14681582 0.036094043
000320 36 1b f8 3b 44 eb db 3c 85 34 0d bd 4a d0 20 be
       0.007571603 0.026845582 -0.034473915 -0.15704456
000330 64 93 45 3e b2 e0 1d be a3 17 ad 3d 52 ca 38 3e
       0.19294506 -0.15417746 0.08451774 0.18045929
000340 61 07 65 be e6 02 68 3e 0b 2b ab 3e 1e 79 f4 3d
       -0.22366096 0.22657356 0.33431277 0.11937164
000350 d2 30 e2 3e 92 e5 0e 3f 7b 27 63 3d 61 aa bc bc
       0.44177872 0.55819046 0.055457573 -0.023030462
000360 70 dc 24 3e 90 36 19 3e fa c0 a9 3d 5f 02 dc 3e
       0.16099715 0.1496222 0.082887605 0.4297056
000370 80 b8 6e 3e 3c ab 4f be ae 46 59 3d d9 5a 41 be
       0.23312569 -0.20280164 0.05304592 -0.18882312
000380 36 19 44 3e 91 bd e6 bc 95 9e 85 be de af 9a 3e
       0.19150242 -0.028166564 -0.2609755 0.302123
000390 ba f8 3a 3d 56 82 00 be 7f 88 a1 3e dd 30 60 3e
       0.04564736 -0.12549719 0.3154945 0.2189364
0003a0 db cb a0 3e f6 e4 dd 3d e4 e9 72 3e de db 1a 3d
       0.3140553 0.108346865 0.23722035 0.037807338
0003b0 00 6d 97 3c f3 05 9f 3e 2c 20 3e 3e 54 06 ce bd
       0.018484592 0.31059226 0.1856696 -0.10059801
0003c0 da fa 0d be a1 bb 99 3e 41 1f ef 3d 4a f1 28 be
       -0.13865224 0.30025962 0.11675883 -0.16498294
0003d0 1c fd 7c be b9 97 a5 bd 14 fa cb bc 06 a8 80 3e
       -0.24705929 -0.080855794 -0.02489952 0.25128192
0003e0 05 7f 50 3e ac 29 0f be 0b 4a 4f 3b 41 81 f4 be
       0.20360954 -0.1398074 0.0031629826 -0.47754863
0003f0 82 ea b7 3c 73 05 1b 3d 0d a1 bc be 32 94 6c be
       0.02245069 0.037846994 -0.36841622 -0.23103407

network_body.linear_encoder.seq_layers.4.bias f4 [128]
000000 c8 64 b3 bd 3f 23 9f 3c 79 c4 ae 3b 6b f5 21 bd
       -0.08759457 0.019425986 0.00533348 -0.03954069
000010 1e ae 11 bd 63 a8 56 be 2b fb be bd 1d 47 e3 bd
       -0.03556644 -0.20962672 -0.0932525 -0.11097548
000020 e1 64 29 bd 55 29 94 3d c9 41 70 be 5e 01 b4 be
       -0.04135597 0.07234446 -0.23462595 -0.35157293
000030 88 ee ef bd 75 5e e1 bd 58 8f 92 be bc 69 47 3c
       -0.11715418 -0.110043444 -0.28624988 0.012171205
000040 32 d0 27 bd 6c fa 53 bd bf f9 26 be ff 0e 0a be
       -0.040970035 -0.051752493 -0.16306208 -0.13482283
000050 66 9f e0 bd e7 ce 8b 3c 10 df bf bd d8 0a b3 bd
       -0.10967903 0.017066432 -0.09368718 -0.08742303
000060 20 3a 06 be 36 c6 6b bd cf 8b 59 be 71 68 d7 bd
       -0.1310811 -0.057562076 -0.21244739 -0.105179675
000070 c7 98 d1 be 1f 59 3c bc f5 3d a2 be e2 bb 83 be
       -0.40936872 -0.0114958575 -0.31687894 -0.2572928
000080 cb 42 f7 bd 86 10 53 be 82 ac 49 be be 58 fc bb
       -0.120732866 -0.20611772 -0.19694713 -0.0077010086
000090 b6 03 1d bd a8 82 1b 3e 95 f3 2c be 15 a7 ba bd
       -0.038333617 0.1518656 -0.16889794 -0.091138996
0000a0 d3 10 b0 bd 5f 34 23 be 4d 74 73 bc 80 f6 da bd
       -0.08596959 -0.15937947 -0.014859271 -0.106915474
0000b0 e4 0d 91 3e 0e 0c 3a be 24 5d 46 be d0 bc 26 be
       0.2833091 -0.18168661 -0.19371468 -0.16282964
0000c0 3b e7 2a be c1 44 93 be 58 4d ba be 14 f2 5f be
       -0.1668977 -0.28763393 -0.36387134 -0.21869689
0000d0 31 8c 7f be 28 3e 9b be 10 09 84 bd 53 ee 98 3c
       -0.24955823 -0.3032086 -0.06447041 0.01866833
0000e0 d8 cd cb bd 25 d7 62 bc 58 04 2d be 66 d3 94 bd
       -0.09951371 -0.01384524 -0.16896188 -0.072668836
0000f0 53 7e d6 3c db 53 17 3e 31 e2 38 3d d6 6c e1 3d
       0.026183283 0.14778082 0.045137588 0.11007087
000100 61 bb 96 3a e4 27 13 be c1 a3 82 be 0e fe 9d bd
       0.0011499935 -0.14370686 -0.2551556 -0.07714473
000110 dc 32 99 be b3 07 1e bd 9a 07 24 be 0f 5d 4b be
       -0.29921615 -0.03858156 -0.16018525 -0.19859718
000120 ee 3e 00 be c6 55 ad be 60 80 0d be 6f 9d 67 be
       -0.12524006 -0.33854502 -0.13818502 -0.2261865
000130 c4 30 1c 3d 51 ab c0 bd 18 2b 94 3d 93 9a 68 bd
       0.038132444 -0.09407676 0.07234782 -0.05678804
000140 43 c0 8e bd 30 a1 f9 bb 48 1f 35 3e 08 d3 51 bd
       -0.06970265 -0.007618092 0.17687714 -0.051226646
000150 fc 4f 52 bb b2 42 27 be fd e9 15 3c 07 41 fc 3c
       -0.0032091131 -0.16334036 0.009150025 0.030792726
000160 a5 89 1c be 16 97 03 3e 3f 6e ca 3d 84 78 04 bd
       -0.15286882 0.12850603 0.09884309 -0.032341495
000170 3c 8f 44 be fe bd 88 be b4 67 99 be 20 40 d5 bd
       -0.19195265 -0.26707453 -0.29961932 -0.104126215
000180 57 21 c5 bd 3a 55 a7 be 3c 33 2e bc 4b 7e db bd
       -0.096255 -0.3268221 -0.010632332 -0.10717448
000190 0e ba 5a be 3b bd 73 3d bf 14 31 be 3b fe 12 3e
       -0.21360037 0.059506636 -0.1729307 0.14354794
0001a0 57 e6 a3 be 77 fb b5 bd 61 88 6b be 5d 77 6d be
       -0.32011673 -0.08885854 -0.23001243 -0.23190065
0001b0 b1 ec 9e be c4 33 45 bd 2a 3a 62 be ef 44 27 3e
       -0.31039956 -0.04814507 -0.220925 0.1633489
0001c0 fa 92 7f be e6 27 53 be 66 83 03 be 68 4d 39 be
       -0.24958411 -0.20620689 -0.12843093 -0.18095934
0001d0 9f ec 71 be b4 8d 1b be c5 5e 73 bd 08 e8 a9 bd
       -0.2362542 -0.15190774 -0.05941655 -0.082962096
0001e0 a7 65 52 be d6 4a 72 be 1e bf f9 bd 9c 39 ff bd
       -0.2054659 -0.2366136 -0.12194656 -0.1246216
0001f0 e9 bb 6e be 9f 41 84 be 28 8d 38 be 77 39 1f be
       -0.2331387 -0.25831315 -0.18022597 -0.15549265

network_body.linear_encoder.seq_layers.4.weight f4 [128, 128]
000000 69 a9 9c be 61 d3 1f be d0 90 ad be b4 3a 52 be
       -0.30598 -0.15607978 -0.33899546 -0.20530206
000010 65 d9 d6 3c 92 a6 4c bc 5a af f8 bd 9c 5a a9 be
       0.026226709 -0.012490885 -0.12142821 -0.33076942
000020 14 bb c3 bd a6 50 1b bc 73 88 f3 3d 4b 5a 44 be
       -0.09557167 -0.009479677 0.1189126 -0.19175069
000030 e9 ab ad bc 67 af 4c be 81 6e 35 3d 51 84 bd bd
       -0.021200137 -0.19988786 0.044294838 -0.09253753
000040 75 53 a2 3d 20 ed 5b 3e 93 4d 8f be 34 b5 3e 3e
       0.079260744 0.21477175 -0.27988872 0.18623811
000050 ea 9b 97 3d 95 ab 82 bd a8 5b 9e be 48 2b c7 3e
       0.07402785 -0.06380383 -0.30929303 0.38900208
000060 4f d1 26 be a5 5d 27 be 8a 9c e4 bc de de 9f bd
       -0.16290782 -0.16344316 -0.027906675 -0.078061804
000070 88 17 fe bd eb 21 92 bc d2 3a 50 bd 72 bc 26 be
       -0.12406832 -0.017838439 -0.050837345 -0.16282824
000080 bb d8 c6 3e bb eb 91 be 43 9c 46 be 8f 3b 31 be
       0.38837227 -0.2850016 -0.19395547 -0.17307876
000090 e5 cf a0 3d e9 de b2 3e 40 e7 e0 bd f6 91 e7 3d
       0.07852153 0.34935692 -0.109816074 0.11307137
0000a0 fb 7e 03 bf 77 2d a3 3b af d8 8b 3c df d2 dd 3d
       -0.5136563 0.004979785 0.017071096 0.10831236
0000b0 19 44 0c 3c 32 f0 65 be ce 93 1c 3e ee 3b c1 3d
       0.008561158 -0.22454908 0.15290758 0.09435259
0000c0 c8 33 82 bd d4 68 d9 bd b0 b1 2c be 48 33 0c 3e
       -0.06357533 -0.106156975 -0.16864657 0.13691437
0000d0 00 b9 2e 3d 7d 6e cb bd 07 e6 ce be 0c 48 21 bd
       0.0426569 -0.09933183 -0.40409872 -0.03937535
0000e0 a7 2d a8 be 27 b6 4b 3e 02 30 60 bd 70 fb c3 bd
       -0.3284733 0.19893704 -0.054733284 -0.09569442
0000f0 ed b9 aa 3d cd 10 3e 3d 0b 8b 19 be f5 e1 57 3e
       0.08336244 0.04640274 -0.14994447 0.2108229
000100 23 e6 71 3e 97 fb 6a bd a8 b7 d9 3c a0 79 82 3d
       0.23622946 -0.05736884 0.026576832 0.063708544
000110 7c d8 8c be 0b e1 12 bd 1e af ce bd fa 7b 52 3d
       -0.27508914 -0.03585915 -0.10091995 0.051387765
000120 50 be c0 3d c3 fe dc bd 77 52 c8 bd c4 c5 3c 3e
       0.09411299 -0.107907794 -0.09781354 0.18434817
000130 77 b1 f1 bc d7 32 4d bc a1 96 66 bc 2c 71 10 be
       -0.029503567 -0.012524328 -0.014073999 -0.14105672
000140 f3 86 9f bd 23 96 c2 bd f7 77 52 3d 80 c8 25 3e
       -0.077894114 -0.095012926 0.05138394 0.16189766
000150 3c f6 3c bd 34 39 44 bd a9 f7 d8 bd 48 a2 68 3e
       -0.046133265 -0.047906116 -0.105941124 0.22718155
000160 75 c9 42 3d 17 cd 1d 3d 6e 98 9c 3c b5 c1 a1 be
       0.047555406 0.038525667 0.019115653 -0.315931
000170 16 b7 79 3e 03 61 15 be 56 50 2c 3d 88 91 ad bd
       0.24386248 -0.14587788 0.0420688 -0.084750235
000180 dc af 50 3b 95 e9 19 be e3 9e 04 3d f0 66 a2 bd
       0.0031843102 -0.1503051 0.03237809 -0.0792979
000190 e6 c6 68 3e 11 f1 1d be e7 6d 84 3d 44 0b 49 3b
       0.22732124 -0.15423991 0.06466275 0.003067688
0001a0 ca aa 6c 3e c8 7a 58 be c3 23 67 3d 3d e9 75 be
       0.23112026 -0.21140587 0.05643059 -0.24014755
0001b0 49 46 c0 be 4e 75 96 bd 85 d5 5a 3e 6f c4 17 3e
       -0.37553623 -0.07346593 0.21370514 0.14821027
0001c0 72 5e 15 3e f0 c2 92 3d 59 59 41 be b4 f1 1a be
       0.1458681 0.071660876 -0.1888174 -0.15131265
0001d0 22 9b 96 be 64 1d 55 3e 58 a0 8d 3e ac ab 99 3c
       -0.29415232 0.20811993 0.27661395 0.018758617
0001e0 f1 03 1e be 84 16 ec be 92 de 73 3d 70 16 c7 3e
       -0.15431191 -0.46110928 0.05953843 0.38884306
0001f0 ed 88 98 be 54 02 aa bd 26 ed 98 3e 6f b1 8b bc
       -0.29791966 -0.08301225 0.2986843 -0.01705238
000200 47 ac eb 3d 7d 7a b1 3d 61 68 f9 3d 65 e8 67 be
       0.11507469 0.08665941 0.12178112 -0.22647245
000210 64 df e9 3d e3 0c b0 be b9 8b 5a 3d 44 d0 01 bf
       0.114195615 -0.34384832 0.053355906 -0.50708413
000220 75 04 c2 3d d6 6d 4b be 76 86 8f 3d 44 9b d0 be
       0.09473506 -0.19866118 0.07008068 -0.40743458
000230 f5 a3 ad be e0 46 1e be f9 d3 15 be e0 0d b5 3b
       -0.33914152 -0.15456724 -0.14631642 0.0055253357
000240 79 6e 35 be 88 14 52 be bb 56 60 3e 74 a8 67 bd
       -0.17717923 -0.20515645 0.21908085 -0.056557134
000250 c7 c2 86 be a8 42 3f be 1a 89 75 bd 4a 0c 4f be
       -0.26320478 -0.18677771 -0.059945203 -0.20219532
000260 db 47 0c 3d 0c b5 91 bd 55 92 8d be 12 ac 2a bc
       0.034248214 -0.0711461 -0.27650705 -0.010417001
000270 3b 0f 75 3e b5 5e 90 be e6 eb 29 be d3 73 f2 bd
       0.23931591 -0.28197256 -0.16593894 -0.11838498
000280 bc 3d 10 be 2e 7b 6c be d4 8d 46 be 35 e6 b3 bd
       -0.1408605 -0.23093864 -0.1939004 -0.08784143
000290 b1 d2 d4 be a4 b6 a1 3d b6 ea a4 3d 80 3e 1a bd
       -0.41566995 0.07896164 0.0805258 -0.03765726
0002a0 7f e8 d4 3c 0b d5 b4 bd b3 75 fd bc 24 b1 b0 be
       0.025989769 -0.08829697 -0.030939912 -0.34510148
0002b0 57 f0 b2 be 18 aa 11 bd 7f 58 96 be ba 9e 6f be
       -0.3494899 -0.035562605 -0.29364392 -0.23400393
0002c0 54 1c f2 be 26 77 94 be 34 2c 8f be 83 dc 4c be
       -0.47287238 -0.28997153 -0.27963412 -0.20005994
0002d0 da ea 8d bb 10 5f 10 be 66 ba 56 be dc 7c 2d be
       -0.004330975 -0.14098763 -0.20969543 -0.16942161
0002e0 e5 de 07 3e 25 e2 9c be 4a 3f e0 be 60 02 2e be
       0.13268621 -0.30641285 -0.43798286 -0.16993093
0002f0 cd 76 f8 bd 70 e7 5c be 9b 6e 68 be d1 52 b6 be
       -0.121320345 -0.21572661 -0.22698443 -0.3561006
000300 63 e9 39 be 67 b9 02 3e a0 ec 16 be b6 c3 71 3e
       -0.18155436 0.12766038 -0.14738703 0.23609814
000310 43 ca 29 bd 0f 48 10 be 0d ee 6c be 1c de 9a be
       -0.041452657 -0.14089988 -0.23137684 -0.3024758
000320 64 1e 7b bc 66 f9 77 be 76 bf 97 3d 61 a0 91 3d
       -0.01532707 -0.24216232 0.07409565 0.07110668
000330 4c 6d b5 3c 6c a0 de be 07 21 96 3d d7 90 04 be
       0.022146843 -0.43481767 0.07330518 -0.12945877
000340 96 24 95 be 26 38 a0 be 9e eb 4a be 83 37 ef 3d
       -0.29129475 -0.31292838 -0.19816443 0.1168051
000350 5a 14 5e 3e 13 4d 8f be d8 ed 15 3d 90 9f 2e bf
       0.21687451 -0.2798849 0.03660378 -0.68212223
000360 9f cc ee bc d0 0f f5 bd 3e e5 ce be c5 01 cc be
       -0.029150305 -0.119659066 -0.40409273 -0.398451
000370 c0 11 38 be 59 22 17 3e 9f 85 1e be e0 e5 25 be
       -0.17975521 0.14759196 -0.1548066 -0.16200972
000380 9d 8c de bd 74 95 2a 3c 67 63 63 be 16 24 3c be
       -0.108666636 0.010411609 -0.22205888 -0.1837314
000390 a2 a6 43 be fe 33 8e be 13 eb d4 bd 97 1f 44 be
       -0.19106534 -0.27774042 -0.10396399 -0.19152676
0003a0 54 2f e1 bd 0b 07 d7 be cf f9 91 be 7c 4a c7 3d
       -0.10995355 -0.4199756 -0.285109 0.09731004
0003b0 d9 49 92 3e 3a 0b 68 be 34 a4 52 be 2b 16 f6 be
       0.28571966 -0.22660533 -0.20570451 -0.48063788
0003c0 da a1 3f bd b4 17 d3 be 85 c8 66 3d b3 c1 95 be
       -0.046785213 -0.41229022 0.056343574 -0.29249343
0003d0 87 59 f9 bd b3 7d 0d bf cd bc 88 3d 69 a0 23 be
       -0.12175279 -0.55269927 0.06676636 -0.1597916
0003e0 cb 67 01 3d f2 2b 17 be 61 fc 6a be 35 57 c0 be
       0.031593125 -0.14762858 -0.22947837 -0.37566534
0003f0 db 13 91 be ed 96 d6 ba d8 36 0f bf 53 f9 a0 be
       -0.2833546 -0.0016371884 -0.5594306 -0.3144022
