results/Basic3/BasicAgent/BasicAgent-9827.onnx (onnx, 72945 bytes, 6 tensors)

action_model._discrete_distribution.branches.0.bias f4 [5]
00000000: 0000 0000 0000 0000 0000 0000 0000 0000
00000010: 0000 0000
0.0 0.0 0.0 0.0 0.0

action_model._discrete_distribution.branches.0.weight f4 [5, 128]
00000000: 5ae8 6ebc ed8e d0bb 663b a8bb d493 bb3a
00000010: 65f0 c43b e161 04bc fbec a03a 9254 f43b
00000020: 3b53 0a3c d247 65bc d466 c23a b316 25bc
00000030: efac 773c 84d4 b0bb a312 4b3c 9447 3137
00000040: b06c afbc b715 29bc 4bdf 2cbb a10b 45bc
00000050: 20a3 4dbc 4562 793c 3227 603c 1cb1 92bc
00000060: caba 44bc 26b4 38bc f88d 263c 43a6 a43c
00000070: f37d 50bb 4387 913b b5bf f538 9895 eeb5
00000080: 215e 94bb 33ca a93b f26f 5a3c ffbb 8bbb
00000090: 1dc2 123a 7f35 20bc 9b79 cabb 4d5f 84bc
000000a0: 947f 0d3c d1de 49bb 64ff 8e3b 2c3e 8fbc
000000b0: 0219 f5bb 404d 53bc df68 3ebc 8a25 6e3c
000000c0: 6e75 8b3c 4be0 143c e546 413c 28e6 273b
000000d0: da68 66bb e910 c83b 0049 953c f687 35bc
000000e0: 892c 31bc bfb2 8bbb 2f93 373a a0f7 01bc
000000f0: 72e6 f63b e114 18bc f37c 06bc 91f1 8bbb
00000100: 267b 1a3c 794e 24bc 76d7 94bb 65f4 21bc
00000110: 275d 5f39 6ad9 78bb c4c1 853b 6998 ae3b
00000120: d83b dfba ede6 0e3c 6ae5 1abc 812d 0b3b
00000130: c0b2 0f3c bba8 4fbb 1ed2 85bc 95ba 6d3c
00000140: a390 aab9 ce43 3bbb 14e9 93b9 5b25 a03b
00000150: 8dc6 8d3c d475 013c d805 01bc 8875 be3a
00000160: 4fbc 8a3c cf4e a3ba d016 8a3b ecea 8abb
00000170: e1da 06bb adfc 5c3b 5c58 093c 0bd6 aebb
00000180: a3ac 843b 75d1 b13b e034 e2bb 29c2 a4ba
00000190: c706 9abc 1da5 04bc 1f7c 28bc af22 ba39
000001a0: 9afb 633b 3712 023c 6f03 06bb caa7 73bc
000001b0: fa45 c23c 5dea c9bb 3a16 9abc e4a4 bdbb
000001c0: 875f b1ba 8f2b 313c bb17 893c a038 113c
000001d0: b64f c93a 0df7 7b3b 95ce 143a 32c4 c33b
000001e0: cde6 773b f661 a03b 8fc1 733c c49a a13b
000001f0: e00c 14bc 6bb3 803c 5569 6e3a 1af5 edbb
00000200: 505d 6b3b 03d5 023c d7a9 7739 3bee 3c3a
00000210: e5ae b63b 4f98 493c 0981 b337 60e6 4dbc
00000220: d564 e8bb 4b76 fbba 935a 033c 6e06 9d3b
00000230: 3507 f6bb 42c5 61bb b3d5 fcbb 47a7 02bb
00000240: 8655 09bb ddf4 bebb 3f28 0bbc 6a32 e2bb
00000250: f7c5 583a afcc 1f3c 4fae 03bc bcd0 22bb
00000260: 5f33 073c 308d 8cbb d563 243b 9aa6 68b9
00000270: 7ff5 513c 7b30 1a3c e939 49bc c058 eabb
00000280: 6313 563b d83d 56bb 0f7c 68bb eacd eb3a
00000290: 8a79 0a3c faf9 cc3b a729 dc3b 89e9 36bc
000002a0: c27b cc3b 5ee6 2cbc 8f47 a43c 7a72 41bc
000002b0: 4df1 53bb 7885 eeba fd00 ea3b 3ddd 55bb
000002c0: 97f1 15bc 3545 373b d039 8fb7 935e 90ba
000002d0: e4bb 90bb a3c7 393c 4be8 6dba 1736 1c3a
000002e0: 421c 5e3c 07a2 953b 6514 82bc 4896 36bb
000002f0: 4345 9d3c 58bf bf3a 2f91 06bc 43f7 3d3c
00000300: ec53 04bc cff7 a63b 371a 75bb bfc6 233b
00000310: bb78 46bc 3d57 93ba 0f61 81ba ac9f b73c
00000320: f7c9 11bb eb77 72bb e34a 96ba f3d2 273c
00000330: 3bf7 58bc 1d92 19bc 18d2 a43b 374c 853b
00000340: 7798 413c 1b39 f03b e556 96bb bf0a 2a3c
00000350: 3fc5 c43b e1b2 0bbc 9ab7 84bb 3986 2bbc
00000360: 84f6 45bc 3b46 573c 0740 e0bc e552 6dbc
00000370: 8fdc 8abb 86bc a13b 535f 743b 32a5 c2bb
00000380: 5cdf 383c 2746 773c 2d44 03bd 15c4 d63b
00000390: df3b e73b 3fe7 6a3b 0ba7 4dbc 5735 b7bb
000003a0: df04 4ebb e012 7eba 28ec 19bc 8c42 023c
000003b0: 269f 14bc 8d5a 9bbb 5f64 b43b 8bc8 803a
000003c0: c36f 763b 38e6 64bb 63a1 11bc 0cd2 bd3b
000003d0: a330 533c 07a0 f73b efd3 94bb 9aea ea3a
000003e0: 654f 34bb 32a6 5bbc d792 ccbb 5654 863c
000003f0: eb52 9a3a a579 06bc 07fe fc3b a389 bc3b
-0.014581764 -0.0063646943 -0.005134034 0.0014311024 0.0060101026 -0.008079977 0.0012277657 0.0074563706
0.008442695 -0.013994174 0.001483167 -0.010076213 0.015116914 -0.0053964276 0.01239458 1.0566688e-05
-0.02141413 -0.010320119 -0.002637821 -0.012026698 -0.012551099 0.015221183 0.01368122 -0.017906718
-0.012007425 -0.0112734195 0.010165684 0.020098811 -0.0031813353 0.0044411733 0.000117182186 -1.7775919e-06
-0.0045278226 0.0051815747 0.013332354 -0.0042643542 0.0005598383 -0.009778379 -0.0061790473 -0.016158724
0.008636374 -0.0030802975 0.004363941 -0.0174857 -0.007479788 -0.012896836 -0.011621683 0.014535317
0.017023768 0.009086679 0.011796688 0.0025619362 -0.0035157711 0.0061055315 0.018223286 -0.011079779
-0.010813841 -0.0042632516 0.0007002828 -0.007932574 0.0075347954 -0.009282322 -0.008208501 -0.0042707403
0.009428775 -0.010028475 -0.0045422865 -0.009884928 0.00021301639 -0.0037971386 0.0040819366 0.0053282273
-0.0017031385 0.008722049 -0.009454111 0.002123684 0.008770645 -0.0031686265 -0.016335543 0.014509817
-0.0003253269 -0.002857435 -0.00028211682 0.0048872656 0.01730659 0.007901628 -0.007874928 0.0014530877
0.016935496 -0.00124594 0.0042141452 -0.0042394307 -0.002057724 0.0033719942 0.008382883 -0.0053355745
0.0040489 0.0054265806 -0.006903276 -0.0012570071 -0.01880206 -0.008096007 -0.010283499 0.00035502526
0.0034787417 0.007938913 -0.0020448824 -0.014871547 0.023715008 -0.0061619715 -0.018809427 -0.0057874788
-0.0013532498 0.010813608 0.016734948 0.008863598 0.0015358839 0.0038446814 0.0005676535 0.005974316
0.0037826777 0.0048944904 0.014877691 0.0049317796 -0.009036273 0.015710553 0.0009094675 -0.0072618844
0.0035913773 0.007985356 0.00023619026 0.000720713 0.0055750483 0.01230438 2.139855e-05 -0.012567133
-0.0070920982 -0.0019185034 0.0080172 0.0047920262 -0.0075081834 -0.003444985 -0.0077159046 -0.001993613
-0.0020955517 -0.00582753 -0.008493482 -0.0069029825 0.0008269245 0.00975339 -0.008037164 -0.0024843654
0.008251994 -0.004289292 0.0025083919 -0.00022187308 0.0128148785 0.009410973 -0.012281873 -0.007151693
0.0032665364 -0.003269067 -0.0035474335 0.0017990444 0.008451829 0.0062553855 0.0067188325 -0.011164078
0.006240339 -0.010552971 0.020053653 -0.0118070785 -0.0032339871 -0.0018197736 0.007141231 -0.003263309
-0.009151838 0.0027964835 -1.707385e-05 -0.0011014513 -0.0044169296 0.011339101 -0.0009075447 0.0005958988
0.013556542 0.0045664343 -0.015878865 -0.002786057 0.019198066 0.0014629168 -0.008213325 0.011594596
-0.008076649 0.005095459 -0.0037399658 0.0024990288 -0.012113745 -0.0011241209 -0.0009870845 0.022415005
-0.0022245625 -0.0036997746 -0.001146641 0.010243165 -0.013242538 -0.009373215 0.005029928 0.0040679234
0.011816136 0.0073310263 -0.0045879954 0.010378539 0.006004959 -0.008526535 -0.0040502073 -0.010469013
-0.0120827 0.013139303 -0.02737428 -0.014485096 -0.0042377184 0.004935804 0.0037288263 -0.005940103
0.011283722 0.015092409 -0.03204744 0.0065541365 0.0070566977 0.00358434 -0.012552033 -0.0055910754
-0.003143601 -0.00096921436 -0.009394683 0.007950436 -0.009071147 -0.004741019 0.005505129 0.0009825391
0.0037603236 -0.003492726 -0.008888575 0.005792862 0.012890014 0.0075569185 -0.004541866 0.00179227
-0.0027513143 -0.013406323 -0.0062430906 0.016397636 0.0011773979 -0.008207713 0.007720712 0.0057537123

network_body.linear_encoder.seq_layers.0.bias f4 [128]
00000000: 0000 0000 0000 0000 0000 0000 0000 0000
00000010: 0000 0000 0000 0000 0000 0000 0000 0000
00000020: 0000 0000 0000 0000 0000 0000 0000 0000
00000030: 0000 0000 0000 0000 0000 0000 0000 0000
00000040: 0000 0000 0000 0000 0000 0000 0000 0000
00000050: 0000 0000 0000 0000 0000 0000 0000 0000
00000060: 0000 0000 0000 0000 0000 0000 0000 0000
00000070: 0000 0000 0000 0000 0000 0000 0000 0000
00000080: 0000 0000 0000 0000 0000 0000 0000 0000
00000090: 0000 0000 0000 0000 0000 0000 0000 0000
000000a0: 0000 0000 0000 0000 0000 0000 0000 0000
000000b0: 0000 0000 0000 0000 0000 0000 0000 0000
000000c0: 0000 0000 0000 0000 0000 0000 0000 0000
000000d0: 0000 0000 0000 0000 0000 0000 0000 0000
000000e0: 0000 0000 0000 0000 0000 0000 0000 0000
000000f0: 0000 0000 0000 0000 0000 0000 0000 0000
00000100: 0000 0000 0000 0000 0000 0000 0000 0000
00000110: 0000 0000 0000 0000 0000 0000 0000 0000
00000120: 0000 0000 0000 0000 0000 0000 0000 0000
00000130: 0000 0000 0000 0000 0000 0000 0000 0000
00000140: 0000 0000 0000 0000 0000 0000 0000 0000
00000150: 0000 0000 0000 0000 0000 0000 0000 0000
00000160: 0000 0000 0000 0000 0000 0000 0000 0000
00000170: 0000 0000 0000 0000 0000 0000 0000 0000
00000180: 0000 0000 0000 0000 0000 0000 0000 0000
00000190: 0000 0000 0000 0000 0000 0000 0000 0000
000001a0: 0000 0000 0000 0000 0000 0000 0000 0000
000001b0: 0000 0000 0000 0000 0000 0000 0000 0000
000001c0: 0000 0000 0000 0000 0000 0000 0000 0000
000001d0: 0000 0000 0000 0000 0000 0000 0000 0000
000001e0: 0000 0000 0000 0000 0000 0000 0000 0000
000001f0: 0000 0000 0000 0000 0000 0000 0000 0000
0.0 0.0 0.0 0.0 0.0 0.0 0.0 0.0
0.0 0.0 0.0 0.0 0.0 0.0 0.0 0.0
0.0 0.0 0.0 0.0 0.0 0.0 0.0 0.0
0.0 0.0 0.0 0.0 0.0 0.0 0.0 0.0
0.0 0.0 0.0 0.0 0.0 0.0 0.0 0.0
0.0 0.0 0.0 0.0 0.0 0.0 0.0 0.0
0.0 0.0 0.0 0.0 0.0 0.0 0.0 0.0
0.0 0.0 0.0 0.0 0.0 0.0 0.0 0.0
0.0 0.0 0.0 0.0 0.0 0.0 0.0 0.0
0.0 0.0 0.0 0.0 0.0 0.0 0.0 0.0
0.0 0.0 0.0 0.0 0.0 0.0 0.0 0.0
0.0 0.0 0.0 0.0 0.0 0.0 0.0 0.0
0.0 0.0 0.0 0.0 0.0 0.0 0.0 0.0
0.0 0.0 0.0 0.0 0.0 0.0 0.0 0.0
0.0 0.0 0.0 0.0 0.0 0.0 0.0 0.0
0.0 0.0 0.0 0.0 0.0 0.0 0.0 0.0

network_body.linear_encoder.seq_layers.0.weight f4 [128, 3]
00000000: 73a5 8d3e f052 613f bbb8 253f 1104 4fbd
00000010: a697 12bf 554d b1bd c2d3 8cbf 1f34 80be
00000020: 79c2 0b3f aaf7 053f cd9e 903e 89f5 a4be
00000030: 1d41 c33e 37bf 90bd 9565 c8be 4407 afbe
00000040: 1ea1 203e c303 b03e 5794 b43f 5d5a bdbe
00000050: 4ec5 3cbf 5503 82be 31e2 fd3e c965 e3be
00000060: 229a 9d3e 7d0c 103f 7d4d fb3e dc3a f1be
00000070: a33d 983e be43 663d 280c 9e3f b3a5 153f
00000080: 176a 893f 7b90 71be 103f d43e 3aad 3dbf
00000090: 5172 1d3e 56a5 0b3f 78e9 4c3e 6d80 d1bd
000000a0: 47b4 78be ec10 843b f42d 033f 0e1e 18bf
000000b0: 9473 2f3e 87fd bc3e d721 c1be 5aad db3d
000000c0: 4541 8c3f 5fe9 583e 748f 1dbf 9c61 fcbd
000000d0: e27d 143f 3505 c9be 14e1 5abf 9598 6fbd
000000e0: 76fe f33e 1d28 c3bd afb6 303f 8a00 173f
000000f0: cce1 0ebf 1ec1 cc3d 65bf 4dbf 66db 533e
00000100: dd00 9b3d 1d24 863e 8cb8 53bf 1f3e 393f
00000110: 9441 323f 9efd 323d 67aa b13e ab31 293e
00000120: fa00 0c3f 57b9 05be a8a8 9abe dc88 cabe
00000130: a9ec f7be a196 1ebd 696f 13be 5dfe 1cbf
00000140: 5729 52bf 81c3 ad3a 49e3 86bf 8895 df3d
00000150: ab77 f43e bdab ef3e bde2 4c3e b8a6 26bd
00000160: 5ac4 113f ce43 a73d ee09 65bf d697 f7be
00000170: 3faa e93e 3133 f0be 782c e1bc 3ca2 74bf
00000180: eb5b debe 2266 fe3e 7256 1d3c 9edf ff3e
00000190: 2283 bd3c fff4 003f 41f5 1abe 0b9c cabe
000001a0: 2f3b 153f 3063 343f 9502 e23e 530b ec3e
000001b0: d092 093f 3ad8 17be 9acc 343e dc07 2f3d
000001c0: 5ef3 343f c5d7 abbe 3342 c63e a002 cebd
000001d0: ab74 433e ad5c e2be 13dd 153f cf98 b7bf
000001e0: 431a 1e3e fd78 553f f3b7 57bf ca36 63be
000001f0: ac38 a7bd aacc 4a3e 3b56 aabe 013a 373f
00000200: e466 ab3e d92f 8fbe 7d9d 41bf 10f2 05bf
00000210: cee7 e93e 66d0 e23e 453e 10bf 9835 173f
00000220: 2ec6 163e 8dec b3bd f550 3a3f 6d2b 8bbf
00000230: 1cf0 38bf bbdb 60bf dec6 b33d 80fb dcbe
00000240: bdb3 963f a6d4 8dbe 1557 573f accd b8be
00000250: 6663 32be 92c7 40be 8af3 c0bd 1bf2 093f
00000260: 627e dbbe 95b3 773e 7aac c7be aa06 a0be
00000270: 0964 fb3e e739 76bd cf23 103f a91f 83bc
00000280: 09d9 3ebe 917a 993e 684f 3b3e 18d4 0dbf
00000290: 6f38 0f3f a8e0 8f3f ed0f ca3e cf6f 85bf
000002a0: 2dad c03e d227 343e bfb5 1abf bb7c 733e
000002b0: df98 e4bd 8264 0bbe 398a ec3e 9af3 f0bd
000002c0: 4592 753f 4f78 10bf 2bb0 f2bd fe02 8cbc
000002d0: 5fca a8be acc0 ab3e 4291 8dbe 63aa 463f
000002e0: 2e4f d5be c2aa 593f 43a6 b6bf 0b06 9e3e
000002f0: 9a8e a03c b6f2 4dbe bfb9 7fbf faf1 303f
00000300: d396 c1bd db37 2f3f 2c2d 4dbf e2f6 0fbf
00000310: 2e10 c7be caa0 f7be a6e2 4bbf e3c3 45bf
00000320: eef3 04bf b327 c43e 3f76 ffbc a8db 373e
00000330: e5da 733e 54e7 6b3f 146a f4be a626 40be
00000340: be00 37bf 6450 73be 06f9 a33f f73f 7d3f
00000350: b73f 09bf 3806 77bf 5bd9 d6be 2256 30bf
00000360: 51fd 35bf c732 c93d ae47 233f dc32 bb3d
00000370: dd4c 8b3e 7f9a 103e a6e3 b13f 5486 e83e
00000380: d153 523f 5470 09bf 768b e83e afae 54be
00000390: e7cb c9bf 3547 fbbd dca9 48be eae8 b73e
000003a0: 57f4 963c 19d6 c63e 6ebe 28bf e2d8 603f
000003b0: 5175 983e 38f3 1e3f 73fc b9be cf04 7cbe
000003c0: 51bd 35bf 91ba a8be fe6a 41bf 8a85 3ebf
000003d0: 1aec 2dbf cdc5 36bf 77a4 9abe 2443 8e3d
000003e0: a751 ae3e 77a9 253f ea15 18bf 6be9 b63f
000003f0: 8ec0 be3e beb2 3abe a1ae 3d3e da8d 0e3f
0.2766529 0.8801718 0.64735 -0.050540987 -0.5726265 -0.08657328 -1.1002123 -0.25039765
0.54593617 0.5233103 0.28246155 -0.32218578 0.38135615 -0.07067721 -0.3914 -0.3418523
0.15686461 0.3437787 1.410777 -0.36983004 -0.73738563 -0.25393167 0.49586633 -0.44413593
0.30781657 0.56269056 0.49082556 -0.4711522 0.29734525 0.056216948 1.234746 0.5845596
1.0735501 -0.23590271 0.41454363 -0.7409245 0.1537564 0.5454916 0.20010936 -0.102295734
-0.2428752 0.0040303376 0.51241994 -0.5942086 0.17133933 0.36912176 -0.3772113 0.107264236
1.0957419 0.21182774 -0.6154702 -0.12323305 0.5800458 -0.39261785 -0.8549969 -0.058495123
0.47655076 -0.095291354 0.69028753 0.589852 -0.5581329 0.09997772 -0.8037017 0.20689163
0.07568524 0.26199427 -0.8270347 0.72360414 0.69631314 0.0436989 0.3470032 0.16522853
0.5468899 -0.13058983 -0.302068 -0.3955754 -0.48422745 -0.03871787 -0.14397968 -0.6132563
-0.8209433 0.0013257117 -1.0538112 0.10917193 0.4774755 0.46810713 0.20008369 -0.04068634
0.56940234 0.081672296 -0.89468277 -0.4835803 0.456377 -0.46914056 -0.027487025 -0.9556005
-0.43429503 0.49687296 0.00960313 0.49975294 0.023133818 0.50373834 -0.1513262 -0.39572176
0.5829343 0.7046385 0.44142595 0.4610239 0.53739643 -0.14828578 0.17656174 0.042732105
0.7068385 -0.33563057 0.3872238 -0.100590944 0.19087474 -0.4421133 0.5854046 -1.4343508
0.15439706 0.8338774 -0.8426506 -0.22188869 -0.08165106 0.19804636 -0.33268914 0.7157288
0.33476937 -0.27966192 -0.75630933 -0.52322483 0.45684665 0.4429962 -0.56345016 0.5906615
0.14724037 -0.08785353 0.7277978 -1.0872627 -0.7224138 -0.8783528 0.08778165 -0.4316063
1.1773602 -0.277013 0.8411725 -0.36094415 -0.1742073 -0.1882613 -0.094214514 0.5388505
-0.4286986 0.24189599 -0.38998777 -0.31255084 0.49099758 -0.060113814 0.5630464 -0.016006308
-0.1863748 0.29976323 0.1829201 -0.55401754 0.55945486 1.1240435 0.39465275 -1.0424746
0.37632123 0.17593315 -0.6043357 0.2377805 -0.1116197 -0.1361256 0.46199206 -0.11765213
0.95926315 -0.56433576 -0.118500076 -0.01709127 -0.32966897 0.33545434 -0.27649885 0.7760374
-0.41661972 0.8502618 -1.4269489 0.30863985 0.019599248 -0.20112118 -0.998928 0.69119227
-0.094525956 0.68444604 -0.8014705 -0.5623609 -0.38879532 -0.4836486 -0.79642713 -0.77252024
-0.5193471 0.38311538 -0.031184314 0.17954886 0.2381397 0.92149854 -0.4773718 -0.18764743
-0.7148551 -0.23761135 1.2810371 0.9892573 -0.53612846 -0.96493864 -0.41962704 -0.6888143
-0.71089655 0.09824138 0.6378125 0.0914056 0.2720708 0.14121436 1.3897598 0.45414984
0.82159144 -0.53687024 0.454189 -0.20769762 -1.5765351 -0.12269441 -0.19596046 0.35919887
0.018427057 0.3883522 -0.6591557 0.87830937 0.29777005 0.6208987 -0.36325416 -0.2461121
-0.70992 -0.3295484 -0.7555388 -0.74422514 -0.6793839 -0.7139557 -0.30203602 0.069464
0.3404667 0.6471171 -0.5940844 1.4289984 0.37256283 -0.18232247 0.18523647 0.556852

network_body.linear_encoder.seq_layers.2.bias f4 [128]
00000000: 0000 0000 0000 0000 0000 0000 0000 0000
00000010: 0000 0000 0000 0000 0000 0000 0000 0000
00000020: 0000 0000 0000 0000 0000 0000 0000 0000
00000030: 0000 0000 0000 0000 0000 0000 0000 0000
00000040: 0000 0000 0000 0000 0000 0000 0000 0000
00000050: 0000 0000 0000 0000 0000 0000 0000 0000
00000060: 0000 0000 0000 0000 0000 0000 0000 0000
00000070: 0000 0000 0000 0000 0000 0000 0000 0000
00000080: 0000 0000 0000 0000 0000 0000 0000 0000
00000090: 0000 0000 0000 0000 0000 0000 0000 0000
000000a0: 0000 0000 0000 0000 0000 0000 0000 0000
000000b0: 0000 0000 0000 0000 0000 0000 0000 0000
000000c0: 0000 0000 0000 0000 0000 0000 0000 0000
000000d0: 0000 0000 0000 0000 0000 0000 0000 0000
000000e0: 0000 0000 0000 0000 0000 0000 0000 0000
000000f0: 0000 0000 0000 0000 0000 0000 0000 0000
00000100: 0000 0000 0000 0000 0000 0000 0000 0000
00000110: 0000 0000 0000 0000 0000 0000 0000 0000
00000120: 0000 0000 0000 0000 0000 0000 0000 0000
00000130: 0000 0000 0000 0000 0000 0000 0000 0000
00000140: 0000 0000 0000 0000 0000 0000 0000 0000
00000150: 0000 0000 0000 0000 0000 0000 0000 0000
00000160: 0000 0000 0000 0000 0000 0000 0000 0000
00000170: 0000 0000 0000 0000 0000 0000 0000 0000
00000180: 0000 0000 0000 0000 0000 0000 0000 0000
00000190: 0000 0000 0000 0000 0000 0000 0000 0000
000001a0: 0000 0000 0000 0000 0000 0000 0000 0000
000001b0: 0000 0000 0000 0000 0000 0000 0000 0000
000001c0: 0000 0000 0000 0000 0000 0000 0000 0000
000001d0: 0000 0000 0000 0000 0000 0000 0000 0000
000001e0: 0000 0000 0000 0000 0000 0000 0000 0000
000001f0: 0000 0000 0000 0000 0000 0000 0000 0000
0.0 0.0 0.0 0.0 0.0 0.0 0.0 0.0
0.0 0.0 0.0 0.0 0.0 0.0 0.0 0.0
0.0 0.0 0.0 0.0 0.0 0.0 0.0 0.0
0.0 0.0 0.0 0.0 0.0 0.0 0.0 0.0
0.0 0.0 0.0 0.0 0.0 0.0 0.0 0.0
0.0 0.0 0.0 0.0 0.0 0.0 0.0 0.0
0.0 0.0 0.0 0.0 0.0 0.0 0.0 0.0
0.0 0.0 0.0 0.0 0.0 0.0 0.0 0.0
0.0 0.0 0.0 0.0 0.0 0.0 0.0 0.0
0.0 0.0 0.0 0.0 0.0 0.0 0.0 0.0
0.0 0.0 0.0 0.0 0.0 0.0 0.0 0.0
0.0 0.0 0.0 0.0 0.0 0.0 0.0 0.0
0.0 0.0 0.0 0.0 0.0 0.0 0.0 0.0
0.0 0.0 0.0 0.0 0.0 0.0 0.0 0.0
0.0 0.0 0.0 0.0 0.0 0.0 0.0 0.0
0.0 0.0 0.0 0.0 0.0 0.0 0.0 0.0

network_body.linear_encoder.seq_layers.2.weight f4 [128, 128]
00000000: 8f29 b3bd 2a4e af3d 8ca3 fcbd 79ae 0ebe
00000010: 4983 b43d 2915 3b3e d689 ac3d 7a29 34bd
00000020: 3b5a 52bd 0dd4 cbbd b316 cfbb d0d6 653d
00000030: 451b 533d 68af 61be b7b5 f1bc 7063 d2bc
00000040: 8c04 1dbd bde2 25be 444e 3d3e bf3b f2bd
00000050: e7a0 4ebd bbb5 6bbd cae3 a6bc 4e9b f53d
00000060: 4766 febd 4b70 343e c103 09bb c258 88bd
00000070: be41 133d 473b bb3c 35b1 0e3d 718c d9bc
00000080: aedf a83d 0e3f be3d edaa a33d 2632 603d
00000090: c147 02bc fa99 7c3c 3bfc 953b 9ef0 cd3d
000000a0: 73c9 053d 9aa9 a93d bbd1 1ebd 7b24 db3d
000000b0: 047b ca3c be20 c9bc a8af d03c 23c6 fa3d
000000c0: fbb6 ce3d 9f84 a23d 399d e2bd 2afc 3fbe
000000d0: 8be9 dfbc e594 483b a12c b5bd 8466 90bd
000000e0: 4e78 523d 0207 be3d b2ee 79bd 1a13 32bc
000000f0: 9564 063d c887 16be 4e05 babc 1bb0 f0bd
00000100: fbfb 7b3d 72a8 96bd ca90 11bb 30b1 073e
00000110: 0fbf 15bc acbf 693d 0bc2 343d 7dd9 e93d
00000120: f179 833d 8c71 763c 54c2 77bd 743d b63c
00000130: c22f c83d 2629 21be 2826 e13d c6f8 dbbd
00000140: 6f53 74bd 872c 64be 0217 9abc ffb5 953d
00000150: e718 ee3b f779 1fbc 2925 eabc 470d 19bd
00000160: f2d3 e3bc 920b 98bd 4524 45bc f900 c93c
00000170: 9f41 2b3c f4ec ab3d 29d8 1bbe a551 2f3e
00000180: 9771 c53d 9bb9 8bbd 2804 a73d 68aa 873d
00000190: f818 44bd ab9f 7a3b d4dd 8abc c861 fd3c
000001a0: ae36 49be c4ea 073e 6cd7 133d 0eca 4bbc
000001b0: b606 83bd e387 363e 6a64 873d ed3f ddbd
000001c0: 21b4 0ebe f8da 343e a9eb 05bd 6be9 883c
000001d0: 285d 983d dd38 b9bc 4021 4e3b 90c1 02be
000001e0: e48f a3bd 37af e9bd 4008 463e 669d ccbd
000001f0: 1c26 1f3d 09d1 babd bcd5 a23d c529 f83b
00000200: 125f 0c3e 1d8a 1fbe 55b2 3dbd 3ecb b43d
00000210: 85ca 77bd 5260 a539 2fac aabc 32de 69bd
00000220: ea2a c33c 34ef 423d cae8 9bbc 5d12 bcbb
00000230: f4cb 91bd fa85 fb3c 465c 24be f713 3cbd
00000240: fae2 8cbe 5979 633d 81f2 37be 16af c43d
00000250: a7e2 98bd b812 c23d 1161 033e d170 f33b
00000260: a059 0f3d f190 acbd 33b9 2e3e 7249 1e3d
00000270: 2cab 15be f045 cd3d 154b babd d5d0 68bc
00000280: 5380 e2bd 6538 c03d 3992 22b9 d937 513c
00000290: 894e 8fbd 877c dcbc d153 9e3d 5296 9a3d
000002a0: 7d62 18be 1a96 51bd edff 853d c062 903d
000002b0: f2c1 043d 11e1 a2bc 8cbd 72bc cd86 b4bb
000002c0: 50e9 bbbc 9508 633d 5437 1bbd 190f 893c
000002d0: 7e42 383e ba50 2abd 4fac 0d3e 11a8 753e
000002e0: 9255 07bd 3259 acbd c6c9 c4bb 4a3e eb3d
000002f0: 8be5 5f3e dcb4 0abe 3ae2 0a3c c7e6 81bd
00000300: 63e2 08bc 6dca 883d f958 09bd d82a bdbc
00000310: 5c6b 34bd 8ee2 d6bc dd9d 84bd d0bb 6abd
00000320: 397a a93c 4fdf 8c3d 2aff 20bd c6fd 35bd
00000330: 08bc fd3d c392 853d 266c 003e 4088 74bd
00000340: 0967 50bd 536b dd3d 5c1b 9ebc e84b b13d
00000350: 0d50 493d 02c3 76bd b06c 5dbd 4e19 08bd
00000360: d28e 8dbe 202c c2bc f3b0 733c ee9a 073d
00000370: c5ff 4cbc d687 a6bd 34f2 8ebd 55e8 8bbc
00000380: 36f8 a73d 9b9c 29be 4b33 dabc 2d7a cdbd
00000390: ad9c fb3c 24fe 8c3d 9388 e73d 08e2 9dbc
000003a0: a39b 17bc 2a25 1a3d 811a c33d 845c 323d
000003b0: 5ed6 493c 7777 8c3d a8f5 953d 89dc 09be
000003c0: 1005 043d cb2d f6bc 8a1f 11bd 099f 3d3d
000003d0: 6d08 a0be f500 20bd 77cd 983c 3d30 89bd
000003e0: 16f4 4abd b728 e4bd f09b 2ebd fc79 b43d
000003f0: f72f 8b3d 3b62 45bd 5054 8c3c 79f4 f6bb
-0.08748161 0.085598305 -0.123358816 -0.13933744 0.08814103 0.1826979 0.084247276 -0.043984868
-0.05135558 -0.09952555 -0.0063198446 0.056113064 0.051539678 -0.22039568 -0.029505594 -0.025682181
-0.038334414 -0.16199775 0.18486887 -0.11827802 -0.050446417 -0.05754636 -0.02037229 0.11992513
-0.124218516 0.17620961 -0.0020906779 -0.06657554 0.03595137 0.022855414 0.034836967 -0.026556225
0.082457885 0.092893705 0.07991586 0.054735325 -0.007951678 0.01541757 0.0045771874 0.1005566
0.03266282 0.08284302 -0.038774233 0.107003175 0.024716862 -0.024551746 0.025474384 0.12244823
0.100934945 0.07935452 -0.11065144 -0.18748537 -0.027333042 0.0030606326 -0.08846403 -0.07050803
0.051384263 0.092786804 -0.061018653 -0.010868812 0.032810766 -0.14700234 -0.022707608 -0.117523395
0.061519604 -0.07356347 -0.0022211545 0.13251185 -0.00913979 0.05706756 0.044130366 0.11418436
0.06419743 0.01504172 -0.06048806 0.0222461 0.09774734 -0.15738353 0.10993606 -0.10740809
-0.05964988 -0.22282611 -0.0188098 0.073101036 0.007266152 -0.0097336685 -0.028582172 -0.037366178
-0.027811024 -0.07424082 -0.012032573 0.024536597 0.010452657 0.083948046 -0.15219177 0.17120989
0.09640806 -0.06822511 0.081550896 0.06624299 -0.047875375 0.0038242142 -0.016951479 0.030930415
-0.19649765 0.1327315 0.036094114 -0.01243831 -0.063977644 0.17825274 0.06610949 -0.108032085
-0.13935901 0.17661655 -0.032695446 0.016712865 0.07439643 -0.022610122 0.0031452924 -0.1276915
-0.07986429 -0.11410373 0.19339085 -0.09990959 0.038854703 -0.091219015 0.07950923 0.0075733387
0.13708141 -0.1558003 -0.04631265 0.08827828 -0.060495872 0.00031543017 -0.020834057 -0.057096668
0.023824174 0.047591403 -0.0190319 -0.0057394938 -0.07118979 0.030703533 -0.16050825 -0.045917477
-0.2751692 0.055535648 -0.17963602 0.096037075 -0.074651055 0.094762266 0.12829997 0.0074292202
0.034997582 -0.08426083 0.17062835 0.03864426 -0.14616078 0.10023105 -0.09096352 -0.014209946
-0.11059632 0.093857564 -0.00015503996 0.012769663 -0.06997401 -0.026914848 0.077308305 0.075482026
-0.1488132 -0.05116854 0.065429546 0.07050085 0.032411523 -0.01988271 -0.014815699 -0.0055092336
-0.0229384 0.055428106 -0.037894562 0.016730832 0.17994115 -0.041580893 0.13835262 0.23989893
-0.03304059 -0.0841545 -0.0060054986 0.1148649 0.21864907 -0.13545555 0.008476788 -0.063428454
-0.008354756 0.06679235 -0.033532117 -0.023091719 -0.0440477 -0.026231077 -0.064754225 -0.05730802
0.020688163 0.0687853 -0.039305843 -0.04443147 0.1238938 0.06522133 0.12541255 -0.05970025
-0.050879512 0.10811486 -0.019300155 0.08657056 0.049148608 -0.060244568 -0.05405873 -0.033227257
-0.27648026 -0.023702681 0.014873731 0.033106737 -0.012512152 -0.081313774 -0.0697979 -0.017078558
0.08201639 -0.16563646 -0.026635787 -0.10033069 0.030714357 0.06884411 0.11305346 -0.01927282
-0.009253415 0.0376331 0.095265396 0.04354526 0.0123191755 0.068587236 0.07322246 -0.13463034
0.03223139 -0.030051133 -0.03543047 0.046294246 -0.31256428 -0.039063413 0.01865266 -0.06698654
-0.049549185 -0.11140578 -0.042629182 0.08812329 0.06796258 -0.048189383 0.017130047 -0.0075364676
