results/Basic4/BasicAgent.onnx (onnx, 72433 bytes, 6 tensors)

action_model._discrete_distribution.branches.0.bias f4 [5]
0	0x00000000	0.0
1	0x00000000	0.0
2	0x00000000	0.0
3	0x00000000	0.0
4	0x00000000	0.0

action_model._discrete_distribution.branches.0.weight f4 [5, 128]
0	0x3c658c73	0.0140105365
1	0xbb9b6d55	-0.004743258
2	0xbab4f35f	-0.001380544
3	0x3c334432	0.010941552
4	0x3c284ea4	0.010272656
5	0x3b2fd0e7	0.0026827396
6	0xbbda4ccb	-0.0066619865
7	0xba40b5de	-0.0007351319
8	0x3b579b53	0.0032898977
9	0x3b8c765d	0.004286571
10	0xba7b844d	-0.00095946045
11	0x3b288857	0.002571603
12	0xbaca62d3	-0.0015440829
13	0xbc443eee	-0.011977894
14	0xba832533	-0.0010005593
15	0x3c5d6ff2	0.013515459
16	0x3bae6357	0.005321901
17	0x3b74a8d2	0.003733207
18	0xbb66c493	-0.0035212382
19	0x3ba0cfdb	0.004907591
20	0x3c0f37fe	0.008741377
21	0xbc0efae4	-0.008726809
22	0x39f05f3b	0.0004584732
23	0x3b313983	0.0027042336
24	0xbba075c7	-0.0048968527
25	0xbbf60df5	-0.007508988
26	0x3b373067	0.0027952434
27	0x3c07755d	0.008267728
28	0xbb804d27	-0.0039154473
29	0x3b738482	0.0037157838
30	0x3bb88f00	0.0056322813
31	0x3c326c94	0.010890145
32	0xbc10b738	-0.008832745
33	0x3b814b48	0.003945742
34	0xbc439cae	-0.011939211
35	0xbb3492db	-0.0027553353
36	0xbb942a82	-0.004521669
37	0xbc0239b3	-0.007948327
38	0xbbe1de30	-0.006892942
39	0x3bef96a7	0.0073116603
40	0xbc17dc95	-0.009268899
41	0xbbf90b10	-0.0076001957
42	0x39aa1eae	0.00032447785
43	0x3af86982	0.0018952342
44	0x3bedc7b3	0.007256472
45	0xbbb316d8	-0.0054653697
46	0xbb9fcb65	-0.0048765414
47	0x3c269656	0.010167679
48	0x3ba291b7	0.004961218
49	0x3c34fa57	0.011046014
50	0x3c19cbae	0.00938694
51	0xbb845a24	-0.004039066
52	0x3b716b50	0.0036837645
53	0x3b2478da	0.0025096447
54	0xbca01013	-0.019538915
55	0xba294b85	-0.00064580917
56	0xbc063d4f	-0.008193328
57	0xbca23681	-0.01980138
58	0xbaf09467	-0.0018354774
59	0x3bc05229	0.0058691693
60	0x3c9efb47	0.019406928
61	0xbbfc3d37	-0.007697727
62	0xbb8108b9	-0.0039378074
63	0x3b63f903	0.0034785874
64	0xbb72b73d	-0.0037035488
65	0xbc22b89c	-0.00993171
66	0x3c54767d	0.012967703
67	0x3c33b9db	0.010969604
68	0xbb7ed4ad	-0.003888409
69	0x3accb387	0.0015617468
70	0x39a2901b	0.00031006415
71	0xba8972d5	-0.0010486493
72	0x3a82bd1f	0.0009974575
73	0x3c1f3936	0.00971823
74	0x3bd983da	0.0066380324
75	0xbb8f0f66	-0.0043658493
76	0xbc81dfcd	-0.015853787
77	0xbbfb4c7d	-0.00766903
78	0x3c073b75	0.008253922
79	0x3c164100	0.009170771
80	0xbc018e67	-0.0079074865
81	0x394d4160	0.00019574678
82	0xbc98f9af	-0.018673746
83	0x3b4309b5	0.0029760425
84	0x3b199419	0.002343422
85	0xba44cf6d	-0.00075077155
86	0x3c42e2bb	0.011894877
87	0x3adc6467	0.001681459
88	0x3c47c39b	0.012192632
89	0xbc2d57f2	-0.01058005
90	0x3c5d192b	0.01349477
91	0xbb365a92	-0.002782498
92	0x3bbfb6c4	0.005850645
93	0x3bd1fc5d	0.006408258
94	0xbba5f9e1	-0.0050651883
95	0xbc0a5083	-0.008442047
96	0x3c6340e5	0.0138704525
97	0x3c112f04	0.008861307
98	0xbbc05397	-0.0058693397
99	0xbbcf05dd	-0.0063178376
100	0xbbb937ed	-0.005652419
101	0xbb8bc82e	-0.0042658066
102	0xbc24b5a9	-0.010053077
103	0x3b9145a7	0.004433352
104	0x3b833c3f	0.0040049846
105	0xbb5a0d0b	-0.0033271934
106	0xbc4b110e	-0.012394203
107	0xbc79604b	-0.015220712
108	0xbc06ea42	-0.008234562
109	0x3b5757fd	0.0032858842
110	0xbbf994d5	-0.007616619
111	0x3ad424b7	0.0016185258
112	0xbb381603	-0.0028089292
113	0x3ca1acdf	0.019735752
114	0x3ae1855b	0.0017205881
115	0xbbb8e626	-0.00564267
116	0x3b12aec2	0.0022381996
117	0x3c26022f	0.010132357
118	0x3b2aaac7	0.0026041733
119	0x3c69229a	0.014229441
120	0x3a5a8258	0.0008335463
121	0x3b35ad72	0.002772179
122	0xbc420b1e	-0.011843471
123	0xbb70f45a	-0.0036766739
124	0x39412270	0.00018418743
125	0xbb379116	-0.0028010062
126	0x3b1b38f5	0.0023685072
127	0xbb3baaf8	-0.002863584
128	0xbc6079ef	-0.013700946
129	0xbc173859	-0.009229743
130	0xbcae164f	-0.021250872
131	0x3b126454	0.0022337632
132	0xbb617ec2	-0.003440783
133	0xbc8f9c37	-0.017530544
134	0x3bb133cb	0.0054077855
135	0xbc0c4846	-0.008562153
136	0x3c71c29a	0.014755869
137	0x3b56a8ed	0.0032754496
138	0x3b34d868	0.0027594808
139	0xbc580808	-0.013185509
140	0x3bb734fd	0.0055910335
141	0xbb773ba8	-0.0037724767
142	0xbc3300d2	-0.010925489
143	0xbc395994	-0.011312861
144	0x3accd965	0.0015628753
145	0x3bba2cde	0.005681618
146	0xbbca33e1	-0.006170735
147	0xbca12c1f	-0.019674359
148	0x3bd81bef	0.006595127
149	0xbaab952d	-0.0013090722
150	0x3c3c94e7	0.01151011
151	0xbadf40b3	-0.0017032832
152	0xbc3a81c6	-0.011383479
153	0xbc233949	-0.009962388
154	0x3c0c9f6a	0.008582929
155	0x3c146446	0.00905711
156	0x3c85da24	0.01633937
157	0xbbab662f	-0.005230687
158	0x3b4c625b	0.0031186554
159	0x3c99d2f4	0.018777348
160	0x3bda7667	0.0066669467
161	0xbbf930fa	-0.0076047154
162	0x3c47edb7	0.012202672
163	0x3c6f58f8	0.014608614
164	0xbb8a616b	-0.004223039
165	0xb62eb150	-2.603123e-06
166	0xbba0d689	-0.004908387
167	0x3bed17f2	0.0072355205
168	0x3ba09e74	0.0049017016
169	0xbb8a10a0	-0.0042134076
170	0xbc9a2d77	-0.018820507
171	0xbc38a6a4	-0.011270199
172	0x3a6ff3bb	0.0009153445
173	0xbc941898	-0.018078133
174	0xbc470f83	-0.012149694
175	0xb8a5d3dd	-7.907276e-05
176	0xbb64e302	-0.0034925346
177	0x3b94747f	0.004530489
178	0x3ba147bf	0.004921883
179	0xbc64ee47	-0.013972825
180	0xbbeb9628	-0.007189531
181	0xbbd54838	-0.0065088533
182	0xb9c9b8b6	-0.00038475328
183	0xbc1bde27	-0.009513414
184	0xbbb55e2a	-0.005534907
185	0x3bcafa6b	0.006194403
186	0xbc6f4d23	-0.014605793
187	0xbaff6b3f	-0.0019486918
188	0x3bfdfafb	0.0077508665
189	0xbb193f6d	-0.0023383752
190	0xbaa57fc1	-0.0012626575
191	0xbc0888e5	-0.008333419
192	0x3c2ed841	0.010671676
193	0x3c144e72	0.009051906
194	0xba3c2e3c	-0.00071785203
195	0xbbf363a3	-0.007427649
196	0xbc5187cd	-0.012788725
197	0x3b30498f	0.0026899313
198	0x3b7ae173	0.003828135
199	0x3c8a004c	0.016845845
200	0xbbd7d397	-0.006586503
201	0xbc5801a8	-0.013183989
202	0xbc221594	-0.00989284
203	0x3a0acc83	0.0005294757
204	0x3c0e1d34	0.008673955
205	0x3bf4355b	0.0074526495
206	0x3ba2fc87	0.0049739513
207	0xbb9f104e	-0.0048542386
208	0x3c758cdd	0.014987198
209	0x3af35412	0.0018564484
210	0x3b3578b7	0.002769036
211	0x3b8a14c4	0.0042139012
212	0xbc3aab6b	-0.011393408
213	0xbba625bb	-0.005070416
214	0xbb429d23	-0.0029695712
215	0xbc2d3713	-0.010572213
216	0x3c20b3df	0.00980851
217	0xbbf8bb60	-0.007590696
218	0xbb7bda87	-0.0038429813
219	0xbc908a53	-0.017644083
220	0xbc8d9612	-0.017283473
221	0x3c02e1d6	0.007988414
222	0x3baaba76	0.005210216
223	0x3c79261a	0.015206838
224	0xbb4b549a	-0.0031025768
225	0x3c2e1c48	0.01062686
226	0xbc03ddcb	-0.008048485
227	0xba17ffa8	-0.00057982886
228	0x3b937395	0.0044998624
229	0x3b0be8d7	0.00213485
230	0xb98617b9	-0.00025576146
231	0x3b71ecb7	0.0036914775
232	0x3bcff830	0.006346725
233	0xbae4b59d	-0.0017449145
234	0xbbdc96a3	-0.0067318245
235	0x3b2e06b1	0.0026554281
236	0xbc183517	-0.009290001
237	0xb9f779d0	-0.0004720227
238	0xbc0296ea	-0.007970551
239	0xba17e2d0	-0.00057939906
240	0xbbfa4270	-0.0076373145
241	0xba54fd13	-0.0008124869
242	0x3b90f569	0.0044237864
243	0xbbf984c5	-0.0076147043
244	0x3c773a5f	0.0150896
245	0xbc237b9a	-0.009978199
246	0xba8177ea	-0.0009877656
247	0x3ba4fa8d	0.005034751
248	0x3bf0db28	0.007350344
249	0x396dc133	0.00022674054
250	0xbc5fb5b8	-0.013654165
251	0x3c244aa4	0.010027561
252	0xbc8305b3	-0.015993929
253	0xbb8a038b	-0.004211848
254	0xbb4e8450	-0.003151197
255	0xbc0c3d10	-0.00855948

network_body.linear_encoder.seq_layers.0.bias f4 [128]
0	0x00000000	0.0
1	0x00000000	0.0
2	0x00000000	0.0
3	0x00000000	0.0
4	0x00000000	0.0
5	0x00000000	0.0
6	0x00000000	0.0
7	0x00000000	0.0
8	0x00000000	0.0
9	0x00000000	0.0
10	0x00000000	0.0
11	0x00000000	0.0
12	0x00000000	0.0
13	0x00000000	0.0
14	0x00000000	0.0
15	0x00000000	0.0
16	0x00000000	0.0
17	0x00000000	0.0
18	0x00000000	0.0
19	0x00000000	0.0
20	0x00000000	0.0
21	0x00000000	0.0
22	0x00000000	0.0
23	0x00000000	0.0
24	0x00000000	0.0
25	0x00000000	0.0
26	0x00000000	0.0
27	0x00000000	0.0
28	0x00000000	0.0
29	0x00000000	0.0
30	0x00000000	0.0
31	0x00000000	0.0
32	0x00000000	0.0
33	0x00000000	0.0
34	0x00000000	0.0
35	0x00000000	0.0
36	0x00000000	0.0
37	0x00000000	0.0
38	0x00000000	0.0
39	0x00000000	0.0
40	0x00000000	0.0
41	0x00000000	0.0
42	0x00000000	0.0
43	0x00000000	0.0
44	0x00000000	0.0
45	0x00000000	0.0
46	0x00000000	0.0
47	0x00000000	0.0
48	0x00000000	0.0
49	0x00000000	0.0
50	0x00000000	0.0
51	0x00000000	0.0
52	0x00000000	0.0
53	0x00000000	0.0
54	0x00000000	0.0
55	0x00000000	0.0
56	0x00000000	0.0
57	0x00000000	0.0
58	0x00000000	0.0
59	0x00000000	0.0
60	0x00000000	0.0
61	0x00000000	0.0
62	0x00000000	0.0
63	0x00000000	0.0
64	0x00000000	0.0
65	0x00000000	0.0
66	0x00000000	0.0
67	0x00000000	0.0
68	0x00000000	0.0
69	0x00000000	0.0
70	0x00000000	0.0
71	0x00000000	0.0
72	0x00000000	0.0
73	0x00000000	0.0
74	0x00000000	0.0
75	0x00000000	0.0
76	0x00000000	0.0
77	0x00000000	0.0
78	0x00000000	0.0
79	0x00000000	0.0
80	0x00000000	0.0
81	0x00000000	0.0
82	0x00000000	0.0
83	0x00000000	0.0
84	0x00000000	0.0
85	0x00000000	0.0
86	0x00000000	0.0
87	0x00000000	0.0
88	0x00000000	0.0
89	0x00000000	0.0
90	0x00000000	0.0
91	0x00000000	0.0
92	0x00000000	0.0
93	0x00000000	0.0
94	0x00000000	0.0
95	0x00000000	0.0
96	0x00000000	0.0
97	0x00000000	0.0
98	0x00000000	0.0
99	0x00000000	0.0
100	0x00000000	0.0
101	0x00000000	0.0
102	0x00000000	0.0
103	0x00000000	0.0
104	0x00000000	0.0
105	0x00000000	0.0
106	0x00000000	0.0
107	0x00000000	0.0
108	0x00000000	0.0
109	0x00000000	0.0
110	0x00000000	0.0
111	0x00000000	0.0
112	0x00000000	0.0
113	0x00000000	0.0
114	0x00000000	0.0
115	0x00000000	0.0
116	0x00000000	0.0
117	0x00000000	0.0
118	0x00000000	0.0
119	0x00000000	0.0
120	0x00000000	0.0
121	0x00000000	0.0
122	0x00000000	0.0
123	0x00000000	0.0
124	0x00000000	0.0
125	0x00000000	0.0
126	0x00000000	0.0
127	0x00000000	0.0

network_body.linear_encoder.seq_layers.0.weight f4 [128, 2]
0	0xbeb3d0ee	-0.35120338
1	0xbe97ffee	-0.29687446
2	0xbfb95dc4	-1.448174
3	0x3f9fd9db	1.2488359
4	0xbf49d352	-0.78838074
5	0x3e110d96	0.14165339
6	0x3d893a12	0.06700529
7	0xbe2ad2c3	-0.16681962
8	0xbe48676a	-0.195707
9	0x3f899a25	1.0750166
10	0xbdd4469e	-0.10365032
11	0xbcd16fd1	-0.025566014
12	0xbd876433	-0.06610908
13	0xbf9daf73	-1.2319168
14	0xbe411ab6	-0.18857846
15	0x3f614d9e	0.8800906
16	0x3e2dc917	0.16971241
17	0x3d805c7b	0.06267639
18	0x3f56458e	0.8369988
19	0xbf956c00	-1.1673584
20	0x3dc1e793	0.094679974
21	0xbe2c8108	-0.16846097
22	0xbddf0846	-0.1089025
23	0x3ed962d7	0.4245822
24	0xbf1c4e57	-0.6105704
25	0xbf9a14e7	-1.2037629
26	0x3e71a921	0.23599674
27	0xbf06cc92	-0.526559
28	0x3fc5e746	1.5461204
29	0xbf864e62	-1.049267
30	0x3ef186ba	0.471731
31	0x3fb79ee9	1.434537
32	0xbf320d88	-0.695519
33	0xbf03ea3c	-0.5152929
34	0x3f37b2a3	0.71756953
35	0x3f5cad81	0.86202246
36	0x3f914089	1.134782
37	0x3f37ab3e	0.7174567
38	0x3f9a7882	1.2068026
39	0x3f8485bb	1.0353311
40	0xbfc17673	-1.5114273
41	0xbe990893	-0.29889354
42	0xbdf1ae28	-0.11800796
43	0xbde0ce62	-0.109768644
44	0x3fd4df52	1.6630652
45	0xbd8320bf	-0.0640273
46	0xbeb49f51	-0.352778
47	0xbe5a2162	-0.21301797
48	0x3f166dc1	0.5876122
49	0x3f27c33b	0.65532273
50	0x3e69186b	0.22763221
51	0x3f09e837	0.53869957
52	0xbe2fdce6	-0.1717411
53	0xbe647fa9	-0.22314323
54	0xbf4a36a1	-0.7898961
55	0x3e933f28	0.28759122
56	0xbf8ad39d	-1.0845829
57	0x3f8f33a7	1.1187638
58	0xbe3dbf8e	-0.18530104
59	0x3e42a676	0.19008812
60	0x3eaa3c33	0.33249053
61	0x3e683f9d	0.22680517
62	0x3e1290af	0.14313005
63	0x3e45de3b	0.19323055
64	0x3ef0b1df	0.47010705
65	0xbec29dad	-0.38010922
66	0x3f277db8	0.65426207
67	0xbf72089b	-0.9454438
68	0x3f16e3f0	0.58941555
69	0x3f6a77fc	0.9158933
70	0x3eb0b04b	0.345095
71	0xbf1641b4	-0.58694005
72	0x3e0c1ebc	0.13683599
73	0x3d08410c	0.03326516
74	0xbec002d9	-0.37502173
75	0xbe0c2de8	-0.13689387
76	0xbe299b87	-0.16563235
77	0xbf3d8520	-0.7403126
78	0xbe9cec54	-0.30649054
79	0x3f2b050f	0.66804594
80	0x3f3c6fde	0.73608196
81	0x3eab2358	0.33425403
82	0xbeb4e71a	-0.35332566
83	0xbea64cef	-0.3248057
84	0xbf05987c	-0.521858
85	0x3e4b86bb	0.19875614
86	0x3f831482	1.0240633
87	0x3e2b7eb1	0.16747548
88	0x3ef9a771	0.4876056
89	0xbf821826	-1.016362
90	0xbeb46b8d	-0.35238305
91	0x3fc6d8c0	1.5534897
92	0x3f528a48	0.8224225
93	0x3d27baff	0.040949818
94	0xbe32b923	-0.17453437
95	0x3faafddd	1.3358723
96	0xbfbb0f82	-1.4614108
97	0xbf19b00c	-0.6003425
98	0x3fdd9d75	1.7313677
99	0xbf8ab0b5	-1.0835177
100	0x3f6a4b86	0.9152149
101	0xbf081025	-0.53149635
102	0xbf3e47b6	-0.7432817
103	0xbf8b94d1	-1.090479
104	0xbdd6da91	-0.10490907
105	0xbf0c5a75	-0.54825526
106	0xbed0a55d	-0.40751162
107	0xbcae2916	-0.021259826
108	0x3f02e29d	0.51127034
109	0x3e7c093f	0.24612902
110	0xbedae1c9	-0.42750385
111	0xbfe15dc8	-1.7606745
112	0x3f53e3eb	0.8276965
113	0x3ec20624	0.3789531
114	0xbfb1c3a4	-1.388783
115	0x3f3b25e9	0.7310472
116	0x3e9a673c	0.30156887
117	0x400a5e12	2.1619916
118	0x3ce5db67	0.02805872
119	0x3db4aa7a	0.08821578
120	0xbf1d56f1	-0.6146079
121	0x3d9b2020	0.07574487
122	0x3cc58640	0.024111867
123	0xbe7165a2	-0.23573926
124	0x3f7cca36	0.9874605
125	0x3f427146	0.7595409
126	0x3da40aa7	0.08009844
127	0xbf53886a	-0.82630026
128	0x3e4dea31	0.20108868
129	0xbfd6c03a	-1.6777413
130	0xbe0197e8	-0.12655604
131	0x3e05de4b	0.1307308
132	0x3f3b8f3f	0.7326545
133	0x3f5c0c57	0.8595633
134	0x3f062803	0.52404803
135	0xbd517bdc	-0.051143512
136	0x3e0640d9	0.13110675
137	0xbf213aba	-0.62980235
138	0xbf4d9ae5	-0.80314475
139	0xbf5bfe5f	-0.85935014
140	0x3eaee5d3	0.34159717
141	0xbdf33ea2	-0.11877181
142	0x3e161071	0.1465471
143	0x3dd4f1bd	0.103976704
144	0x3ef3b7fc	0.47601306
145	0xbf5c02bd	-0.8594168
146	0xbdda3d19	-0.10656185
147	0xbed53194	-0.41639388
148	0x3ed057c7	0.4069197
149	0x3e41b4af	0.18916582
150	0xbf5cf899	-0.8631683
151	0xbf03e7f1	-0.5152579
152	0xbea9caa8	-0.33162427
153	0xbf780a60	-0.9689083
154	0xbf2f169d	-0.6839388
155	0x3f283ac0	0.65714645
156	0xbe63c672	-0.2224367
157	0x3dcdc68c	0.100476354
158	0x3e4f5a62	0.20249322
159	0x3ff1872b	1.8869375
160	0xbec2000b	-0.37890658
161	0xbe99e9fe	-0.30061334
162	0xbf4b19d6	-0.793363
163	0xbf4cf33a	-0.80058634
164	0xc005f31c	-2.0929632
165	0xbf30560c	-0.688813
166	0xbec3732e	-0.38173813
167	0x3f0eebb3	0.558284
168	0xbf03c778	-0.5147624
169	0x3f2ca038	0.67431974
170	0xbf01ddd4	-0.5072911
171	0xbf29502e	-0.6613797
172	0x3e788653	0.2426999
173	0x3f9e44c4	1.2364736
174	0xbf1610d1	-0.5861941
175	0xbf530e47	-0.8244366
176	0xbef55fe8	-0.47924733
177	0xbf8ffa8a	-1.1248333
178	0x3ef2b217	0.47401497
179	0x3f8f4521	1.1192971
180	0xbf15d95e	-0.585348
181	0xbe888bf6	-0.26669282
182	0x3cf99177	0.03046487
183	0x3fa294d9	1.2701675
184	0xbed617b1	-0.4181495
185	0xbf17f4ec	-0.59358096
186	0xbee8bc29	-0.45456055
187	0x400ed23e	2.2315822
188	0x3eae1c71	0.34006074
189	0xbe28ceb3	-0.164851
190	0x3f2a4da1	0.665247
191	0x3f822a07	1.0169076
192	0x3fc60572	1.5470412
193	0x3f1284b5	0.57233745
194	0x3e27682a	0.16348329
195	0xbf1acb1c	-0.6046617
196	0xbe5f67c0	-0.21816921
197	0xbf0f1887	-0.558968
198	0xbea2d690	-0.31804323
199	0x3fe5c8f7	1.7951955
200	0xc00daf3e	-2.213821
201	0xbe61e5b2	-0.22060278
202	0x3e9277ca	0.28607017
203	0x3ecf6884	0.40509427
204	0xbf2b1f66	-0.66844785
205	0xbeb40c03	-0.35165414
206	0x3f7f1a39	0.9964939
207	0xbdb6ddfe	-0.089290604
208	0x3ecb9118	0.39759135
209	0x3f60bdd2	0.8778964
210	0x3f21f174	0.63259053
211	0x3d62ac18	0.055339903
212	0x3f547c58	0.83002234
213	0x3e3be864	0.18350369
214	0x3f0755dd	0.5286539
215	0x3ecdbd2f	0.40183398
216	0x3f042d7a	0.5163189
217	0x3f1acf71	0.6047278
218	0x3eae3601	0.34025577
219	0xbd371f9f	-0.04470789
220	0xbeb47571	-0.3524585
221	0x3fb0800e	1.3789079
222	0x3f0e4811	0.55578715
223	0x3e2eb81f	0.17062424
224	0xbec7e181	-0.39039233
225	0xbeddb08d	-0.4329876
226	0x3c609810	0.0137081295
227	0x3edca695	0.43095842
228	0xbe247554	-0.16060382
229	0xbed08e2a	-0.40733463
230	0x3e52ce80	0.20586586
231	0x3d754d8b	0.059888404
232	0x3ed9ef1c	0.42565238
233	0x3f075d2e	0.52876556
234	0xbf9b26f0	-1.2121258
235	0xbe0c14aa	-0.13679758
236	0xbd3dd2cb	-0.046343606
237	0xbf27093b	-0.6524846
238	0x3dcb6981	0.09932233
239	0x3f3babc0	0.73308945
240	0x3ecd710a	0.40125304
241	0x3f6bd2a3	0.9211828
242	0x3eebbc8a	0.4604228
243	0x3eef4680	0.46733475
244	0xbede757b	-0.43449005
245	0x3e60a0d3	0.2193635
246	0xbf5fcca4	-0.8742163
247	0x3fab3da4	1.3378186
248	0x3e860195	0.26173082
249	0x3f0cf328	0.55058527
250	0xbd80ddc7	-0.06292301
251	0xbe95de67	-0.29271242
252	0xbef264d8	-0.47342563
253	0x3f8271a9	1.0190936
254	0x3cba267c	0.022723429
255	0xbe7263d3	-0.23670892

network_body.linear_encoder.seq_layers.2.bias f4 [128]
0	0x00000000	0.0
1	0x00000000	0.0
2	0x00000000	0.0
3	0x00000000	0.0
4	0x00000000	0.0
5	0x00000000	0.0
6	0x00000000	0.0
7	0x00000000	0.0
8	0x00000000	0.0
9	0x00000000	0.0
10	0x00000000	0.0
11	0x00000000	0.0
12	0x00000000	0.0
13	0x00000000	0.0
14	0x00000000	0.0
15	0x00000000	0.0
16	0x00000000	0.0
17	0x00000000	0.0
18	0x00000000	0.0
19	0x00000000	0.0
20	0x00000000	0.0
21	0x00000000	0.0
22	0x00000000	0.0
23	0x00000000	0.0
24	0x00000000	0.0
25	0x00000000	0.0
26	0x00000000	0.0
27	0x00000000	0.0
28	0x00000000	0.0
29	0x00000000	0.0
30	0x00000000	0.0
31	0x00000000	0.0
32	0x00000000	0.0
33	0x00000000	0.0
34	0x00000000	0.0
35	0x00000000	0.0
36	0x00000000	0.0
37	0x00000000	0.0
38	0x00000000	0.0
39	0x00000000	0.0
40	0x00000000	0.0
41	0x00000000	0.0
42	0x00000000	0.0
43	0x00000000	0.0
44	0x00000000	0.0
45	0x00000000	0.0
46	0x00000000	0.0
47	0x00000000	0.0
48	0x00000000	0.0
49	0x00000000	0.0
50	0x00000000	0.0
51	0x00000000	0.0
52	0x00000000	0.0
53	0x00000000	0.0
54	0x00000000	0.0
55	0x00000000	0.0
56	0x00000000	0.0
57	0x00000000	0.0
58	0x00000000	0.0
59	0x00000000	0.0
60	0x00000000	0.0
61	0x00000000	0.0
62	0x00000000	0.0
63	0x00000000	0.0
64	0x00000000	0.0
65	0x00000000	0.0
66	0x00000000	0.0
67	0x00000000	0.0
68	0x00000000	0.0
69	0x00000000	0.0
70	0x00000000	0.0
71	0x00000000	0.0
72	0x00000000	0.0
73	0x00000000	0.0
74	0x00000000	0.0
75	0x00000000	0.0
76	0x00000000	0.0
77	0x00000000	0.0
78	0x00000000	0.0
79	0x00000000	0.0
80	0x00000000	0.0
81	0x00000000	0.0
82	0x00000000	0.0
83	0x00000000	0.0
84	0x00000000	0.0
85	0x00000000	0.0
86	0x00000000	0.0
87	0x00000000	0.0
88	0x00000000	0.0
89	0x00000000	0.0
90	0x00000000	0.0
91	0x00000000	0.0
92	0x00000000	0.0
93	0x00000000	0.0
94	0x00000000	0.0
95	0x00000000	0.0
96	0x00000000	0.0
97	0x00000000	0.0
98	0x00000000	0.0
99	0x00000000	0.0
100	0x00000000	0.0
101	0x00000000	0.0
102	0x00000000	0.0
103	0x00000000	0.0
104	0x00000000	0.0
105	0x00000000	0.0
106	0x00000000	0.0
107	0x00000000	0.0
108	0x00000000	0.0
109	0x00000000	0.0
110	0x00000000	0.0
111	0x00000000	0.0
112	0x00000000	0.0
113	0x00000000	0.0
114	0x00000000	0.0
115	0x00000000	0.0
116	0x00000000	0.0
117	0x00000000	0.0
118	0x00000000	0.0
119	0x00000000	0.0
120	0x00000000	0.0
121	0x00000000	0.0
122	0x00000000	0.0
123	0x00000000	0.0
124	0x00000000	0.0
125	0x00000000	0.0
126	0x00000000	0.0
127	0x00000000	0.0

network_body.linear_encoder.seq_layers.2.weight f4 [128, 128]
0	0xbd3286b5	-0.043585498
1	0xbdbcd1eb	-0.09219726
2	0x3cb2ee7a	0.02184223
3	0x3d7238eb	0.059136312
4	0x3d8efe58	0.06982106
5	0x3e37ebf1	0.17961098
6	0x3db68ae0	0.08913207
7	0xbcdba783	-0.026813274
8	0xbd60bea2	-0.0548693
9	0x3c323990	0.010877982
10	0x3c9c74ec	0.019098721
11	0x3ce60a00	0.02808094
12	0xbe769f66	-0.24084243
13	0xbd862ddd	-0.065517165
14	0x3b8a8542	0.0042273114
15	0x3d864adc	0.06557247
16	0xbd49d6ef	-0.049277242
17	0xbd27176d	-0.040793825
18	0x3da4f097	0.08053701
19	0xbc8fad1e	-0.017538603
20	0xbca9bf0e	-0.020720985
21	0xbdc89d72	-0.09795655
22	0xbde1462e	-0.10999714
23	0x3e0da629	0.13832916
24	0xbd8cf33d	-0.068823315
25	0xbe3baef3	-0.18328457
26	0xbe2db7dc	-0.16964668
27	0xbdc83da6	-0.097773835
28	0xbd81c089	-0.06335551
29	0x3d2376fd	0.039908398
30	0xbe20dbf4	-0.15708905
31	0x3df91688	0.121625006
32	0xbd8fc886	-0.07020669
33	0xbca6abba	-0.020345557
34	0x3cacbb88	0.021085516
35	0x3dec77c5	0.11546282
36	0xbda0e3c9	-0.078559466
37	0x3e270a92	0.16312626
38	0x3cfa8496	0.0305808
39	0xbe218369	-0.15772785
40	0x3e15412b	0.14575641
41	0xbd178c51	-0.03699905
42	0x3d22b439	0.039722655
43	0xbcfbf8af	-0.03075823
44	0x3d3b8956	0.04578527
45	0xb9d2e860	-0.00040227454
46	0xbca56843	-0.020191317
47	0xbddbcfd0	-0.107329965
48	0x3ce64299	0.028107928
49	0x3c2ad899	0.0104276175
50	0x3cf5a464	0.029985614
51	0xbc7a589a	-0.015279913
52	0x3d6de424	0.0580789
53	0xbce56e62	-0.028006736
54	0xbdc09110	-0.094026685
55	0x3dec8aaa	0.115498856
56	0x3c87e6b7	0.016589506
57	0xbd5c5c9e	-0.053799264
58	0x3e2e3b81	0.17014886
59	0xbd2e771f	-0.04259407
60	0x3cf42be7	0.02980609
61	0xbd48c742	-0.049018152
62	0x3c8b7622	0.017024104
63	0x3d8b06af	0.06788384
64	0xbd7b8834	-0.06140919
65	0x3d65a6b4	0.056067184
66	0xbcf3599a	-0.029705811
67	0xbd88e291	-0.06683839
68	0x3dc25e35	0.09490625
69	0xbe2c9b1c	-0.16856045
70	0x3c9cb16c	0.01912757
71	0xbcfe3e5a	-0.03103559
72	0x3e286874	0.16446096
73	0xbdbdbd56	-0.092646286
74	0xbe08eef5	-0.13372405
75	0x3e23cb85	0.15995605
76	0x3d7e2764	0.062049285
77	0xbbf79b36	-0.0075563444
78	0x3d3078e0	0.043084025
79	0x3ccc50ac	0.024940811
80	0x3d9dfe64	0.07714537
81	0xbdb17a77	-0.086659364
82	0xbd3f4129	-0.046693
83	0x3baa4b4e	0.0051969653
84	0x3d83488f	0.06410324
85	0xbd439d86	-0.047757648
86	0xbcf4d24b	-0.029885432
87	0x3bffb0e4	0.0078030694
88	0xbd0f0a02	-0.034921654
89	0xbd2927ac	-0.0412976
90	0xbdd64ffc	-0.104644746
91	0xbc8fda7a	-0.017560232
92	0xbb9b89fd	-0.004746674
93	0x3db353d7	0.087562256
94	0xbdc0447d	-0.09388063
95	0x3e12ac2a	0.14323488
96	0x3e06ba3f	0.13156985
97	0x3e05fdb5	0.13085063
98	0xbe14d430	-0.14534068
99	0xbdc61895	-0.096726574
100	0xbdeb9b26	-0.115042016
101	0xbcf6d30a	-0.030129928
102	0x3dcd4cdc	0.100244254
103	0xbc069ba9	-0.008215823
104	0xbc75f162	-0.015011163
105	0x3daa1746	0.0830522
106	0xbacb04bc	-0.0015489082
107	0x3d7a7760	0.061149
108	0x3d6c39b0	0.057672203
109	0x3d4c226b	0.04983751
110	0x3d906c08	0.07051855
111	0x3cd71fca	0.026260275
112	0xbd27662e	-0.04086893
113	0x3da51828	0.08061248
114	0xbe2b59b8	-0.16733444
115	0xbe0eb3e4	-0.1393581
116	0xbda0f9e6	-0.07860164
117	0xbe0a7a0f	-0.13523124
118	0xbdba86b9	-0.091077276
119	0xbdf48df6	-0.119411394
120	0xbdcefa84	-0.10106376
121	0x3df20f67	0.11819344
122	0x3ce3f1ff	0.027825354
123	0xbdcb9490	-0.099404454
124	0xbc9f04da	-0.019411493
125	0x3dfdf116	0.12399499
126	0x3de337c5	0.110946216
127	0x3d9687ae	0.073500976
128	0xbb6207d3	-0.0034489527
129	0xbdf1b4e0	-0.11802077
130	0xbce631a3	-0.02809984
131	0x3c522715	0.012826701
132	0x3dbb0cf2	0.091333285
133	0x3c1d1aac	0.009588879
134	0xbe02c36d	-0.12769862
135	0xbd2479e2	-0.0401553
136	0x3d840921	0.06447054
137	0xbdb17720	-0.086652994
138	0x3d2b944a	0.041889466
139	0xbd7951ba	-0.060868956
140	0xbd62ae90	-0.055342257
141	0x3e263d6d	0.1623437
142	0xbdcbe454	-0.099556595
143	0xbd25164b	-0.040304463
144	0xbd76aa5d	-0.060221065
145	0xbd0397f0	-0.03212732
146	0xbae232dd	-0.001725759
147	0xbd2ed489	-0.042683158
148	0x3d720a00	0.059091568
149	0x3bdee0a3	0.006801681
150	0x3d4aac4f	0.049480733
151	0xbd8459d4	-0.06462446
152	0x3d907a48	0.07054573
153	0x3cb58050	0.02215591
154	0xbd3a3dfa	-0.04546926
155	0xbcc1e47e	-0.023668524
156	0x3da08baa	0.07839139
157	0xbcc4ffdc	-0.024047785
158	0x3c8e9eed	0.017409766
159	0xbe0b27da	-0.13589421
160	0x3e3439c2	0.17600158
161	0xbd5ce081	-0.05392504
162	0xbdc92b06	-0.09822659
163	0xbd478b45	-0.048716802
164	0x3cb069cd	0.021534825
165	0xbc19211b	-0.009346272
166	0xbce42b40	-0.027852654
167	0x3db7ed55	0.08980814
168	0xbcd2bf05	-0.02572585
169	0xbcd6c887	-0.026218666
170	0x3dc19709	0.09452636
171	0xbdbecbe0	-0.0931623
172	0xbcfbf54a	-0.030756611
173	0xbd3680d3	-0.04455645
174	0xbd97b9cd	-0.074084856
175	0x3e0156b9	0.12630738
176	0x3d57b89c	0.05266629
177	0xbd5ae7cc	-0.053443715
178	0x3dc7835f	0.09741854
179	0xbd5456b6	-0.051840506
180	0xbe1488ce	-0.14505312
181	0xbe2b3a3c	-0.16721433
182	0xbc098f99	-0.008396053
183	0xbd6523fe	-0.055942528
184	0x3e89a6b0	0.26884985
185	0x3dace39e	0.08441852
186	0xbb601c64	-0.003419661
187	0x3e0d3b1a	0.13792077
188	0x3dfd15bc	0.12357661
189	0xbae9bab9	-0.0017832137
190	0x3b4aeb03	0.0030962832
191	0xbdb766e2	-0.0895517
192	0x3e844cf9	0.25839975
193	0xbd718573	-0.058965158
194	0xbc508e65	-0.012729262
195	0xbc135a37	-0.008993677
196	0xbcf6ec3c	-0.030141942
197	0xbd360dc4	-0.04444672
198	0x3d50d2b7	0.050982203
199	0x3dcd45cb	0.100230776
200	0x3cee9872	0.029125426
201	0xbc83d5e7	-0.016093208
202	0x3d0d451f	0.034489747
203	0x3dbd3368	0.092383206
204	0x3c2e94e4	0.0106556155
205	0x3d81cd10	0.06337941
206	0x3ca21c2e	0.019788828
207	0x3cc4fb19	0.024045514
208	0xbe035928	-0.12826979
209	0xbdb97c65	-0.090569295
210	0xbdbe2f2a	-0.092863396
211	0x3e2966b6	0.16543087
212	0x3dbd0862	0.092301145
213	0xbd38aac4	-0.04508473
214	0x394ed5dd	0.00019725361
215	0xbd69971d	-0.05702888
216	0x3d831126	0.06399755
217	0x3d8bf70f	0.06834232
218	0xbe53c0fb	-0.20679085
219	0x3dbbfee7	0.09179478
220	0x3dd30541	0.103037365
221	0x3d75079a	0.059821703
222	0x3e320218	0.17383611
223	0xbdbca1c5	-0.092105426
224	0xbda4ab54	-0.08040491
225	0xbc9e325c	-0.019311123
226	0x3e4138e1	0.18869354
227	0x3d54dd7b	0.051969033
228	0xbe1842b9	-0.14869203
229	0xbd273958	-0.04082617
230	0x3dbb2349	0.091375895
231	0x3d653009	0.055954013
232	0xbd7c23a8	-0.061557442
233	0x3cb2b25f	0.02181357
234	0xbd936d95	-0.071986355
235	0xbc6c5a8a	-0.014425883
236	0x3dfeeade	0.12447141
237	0x3da8119b	0.08206483
238	0xbe1e55a2	-0.15462354
239	0x3dcbf8a1	0.099595316
240	0xbe5a8969	-0.2134148
241	0xbd2bc278	-0.041933507
242	0x3e01d173	0.12677555
243	0x3bf0cb6e	0.0073484695
244	0xbd0ecd07	-0.034863498
245	0x3c87e692	0.016589437
246	0x3e1086c5	0.1411391
247	0x3cd8a297	0.026444716
248	0x3c76d40e	0.015065206
249	0x3db16bef	0.08663165
250	0xbc12339d	-0.008923438
251	0xbe3a1a0b	-0.18173997
252	0xbd31d51f	-0.04341614
253	0xbd6557c3	-0.0559919
254	0x3dc59034	0.09646645
255	0xbe299df0	-0.16564155
