results/MovingObstacles_LSTM_DR1_10/MovingObstacles_LSTM_DR1_10.onnx (onnx, 138150 bytes, 6 tensors)

action_model._discrete_distribution.branches.0.bias f4 [5]
000000 56 c5 c3 be 13 99 f3 3e d7 ef 0a be 2d 24 34 3e
       -0.38236493 0.47577724 -0.13568054 0.17591925
000010 77 ef 47 3c
       0.012203089

action_model._discrete_distribution.branches.0.weight f4 [5, 128]
000000 6c 49 ce 3d de b0 a4 3e cc 47 a7 3e 97 ff 01 3e
       0.10072598 0.3216619 0.32671964 0.12695156
000010 79 85 a0 bc 96 dd 0d 3f 94 00 1a 3e 1b e0 d7 3d
       -0.019594895 0.5541624 0.15039283 0.105407916
000020 5b f7 d0 b9 40 75 9f be 63 18 d3 bd 07 59 3b 3d
       -0.00039857146 -0.31144142 -0.10307386 0.0457392
000030 1e 0c fa 3d 65 59 ea 3d f9 95 1c 3e 87 46 6f be
       0.122093424 0.11442832 0.15291585 -0.23366748
000040 c4 aa b3 3d 10 89 7e 3e d5 ce c0 3e c8 6b f7 be
       0.08772805 0.24856973 0.376578 -0.48324418
000050 db b7 e9 be 37 77 37 3e 7a 81 b2 3e 1c e0 fd 3d
       -0.45648083 0.1791657 0.34864408 0.12396261
000060 2a b2 9f 3e 6c 36 87 3d 0a 43 19 3e be a1 46 3e
       0.31190616 0.06602177 0.1496698 0.19397637
000070 a1 b4 7c be c5 b5 2b 3e 28 8c 80 3e f1 48 fd 3d
       -0.2467828 0.16768558 0.2510693 0.12367428
000080 a1 8d 00 bf 25 35 5d 3d 37 f2 c0 be 68 0a a6 be
       -0.5021611 0.05400576 -0.37684795 -0.32429814
000090 2c 24 12 3e 96 42 8d 3e d3 a9 79 3d 92 15 a4 3d
       0.14271611 0.27589864 0.060952973 0.08011927
0000a0 e7 88 d3 3d c3 37 74 3d 2e 6c d2 be a3 8d 2e be
       0.103288464 0.05962349 -0.4109816 -0.17046218
0000b0 34 a8 e2 3d 26 71 70 3e 28 b2 23 be 19 9e 79 3e
       0.110672385 0.23480663 -0.1598593 0.24376716
0000c0 04 e0 6d be 88 36 02 bc cc fd b5 3e 61 27 c1 3e
       -0.23229986 -0.007947572 0.35545194 0.37725356
0000d0 fd 52 4b 3e ed e8 98 3e e7 81 67 3d 3f be a6 be
       0.19855876 0.29865208 0.05652037 -0.3256702
0000e0 63 00 12 3f b6 53 92 3e 2a 0d 94 3e 05 e3 0f 3d
       0.5703184 0.2857949 0.28916293 0.035128612
0000f0 ca 87 ba 3d b5 46 96 3e 7c 00 d5 3c b5 fc 80 3c
       0.09107931 0.2935082 0.026001208 0.0157455
000100 5a 07 32 3e 55 76 9d be 80 b2 3f 3e 80 d1 07 3e
       0.17385617 -0.30754343 0.18720436 0.13263512
000110 0e 0b 58 3e c4 66 ee 3d 1d 06 26 3e aa a3 5a 3e
       0.21097967 0.11640695 0.1621327 0.21351495
000120 ca d0 f2 3d 94 55 40 bf 20 91 62 bd 51 58 48 3e
       0.118562296 -0.7513058 -0.055314183 0.1956494
000130 5f f8 c5 bd 2e 1f 0d bd cf d4 39 3e da 2f 35 3e
       -0.09666514 -0.034453563 0.18147586 0.17694035
000140 b3 37 90 be a6 5e b8 3d 94 78 64 3e 4a 0b f1 3d
       -0.28167495 0.09002428 0.22311622 0.11769731
000150 7c 37 92 be 80 35 97 be 59 09 90 3d 26 75 3d bf
       -0.28557956 -0.29533005 0.07033033 -0.7400688
000160 35 87 8a be 8a 7e 30 bf d0 0a 77 3e 25 55 c1 be
       -0.2705628 -0.68943083 0.24125218 -0.37760273
000170 cc 5a 0a 3e f7 61 b3 3c e1 fa 11 be 91 5b a9 3e
       0.13511199 0.0218973 -0.14255859 0.33077672
000180 e4 f4 5c bf fa f1 8d be 43 4b e6 bd 25 b0 25 3e
       -0.86311173 -0.27723676 -0.11244824 0.16180475
000190 02 91 85 bd ef 6f df 3d 4d c8 29 3e 43 af 37 be
       -0.06521799 0.109100215 0.16580315 -0.17937951
0001a0 e5 94 78 be ea 23 9c 3e 03 7c 44 3e fd f0 61 3e
       -0.24275549 0.3049615 0.19187932 0.22064586
0001b0 3a 4b a2 be 6a 3d af bd 6a ed 09 3e d6 b8 b2 be
       -0.31698018 -0.08556636 0.13469473 -0.34906644
0001c0 0a ae 84 3d 52 00 58 bc 00 c9 db bd f6 d9 1c be
       0.06478508 -0.01318367 -0.10731697 -0.1531752
0001d0 a5 43 c4 3e dd a5 0a be b2 aa af 3d de 3d ba 3e
       0.3833286 -0.13539834 0.085774794 0.36375326
0001e0 9d 38 a3 be 8e b8 09 3e b7 3d 11 be 7e 4c 22 bd
       -0.3187913 0.13449308 -0.14183699 -0.03962373
0001f0 a6 c7 00 be 6b 79 8c 3c c3 3b 9b bc 0e 3a 8d 3e
       -0.1257616 0.01714774 -0.018949395 0.27583355
000200 b0 03 77 be aa 68 00 3c 60 64 23 bd 1a 3b 53 bd
       -0.241225 0.007837454 -0.039890647 -0.051570036
000210 78 23 06 bf ec cc 59 be 20 9c 74 3e b5 c6 a6 bd
       -0.5239787 -0.21269578 0.23887682 -0.08143369
000220 7d 46 0b bf 5d 6d 07 bf f0 ae 92 be a5 01 5c 3e
       -0.5440443 -0.5290125 -0.28649092 0.21485002
000230 8e 21 b7 3d a1 72 91 bd 92 ec 75 be 0d ca 9f be
       0.08941947 -0.07101942 -0.24016026 -0.3120884
000240 d8 1c 84 be d7 49 93 be 2a 53 9d 3e ec 78 c2 bd
       -0.25803256 -0.28767273 0.30727512 -0.0949572
000250 27 b1 95 bc 7b 41 d5 be 6b 9d 2a bf 2b 15 3b 3e
       -0.01827295 -0.4165152 -0.6664645 0.18269794
000260 83 48 40 be 65 c0 dd be db 91 2d 3e b0 3c 6c 3c
       -0.18777661 -0.43310848 0.1695017 0.014418766
000270 97 cb b2 3d e6 c8 0e bf 2b fe bf be 63 f2 c8 be
       0.08730238 -0.55775297 -0.37498602 -0.39247426
000280 80 b7 12 be 7c 7f bb be 2f 8e ee bd 25 2b 9e 3d
       -0.14327812 -0.366207 -0.11648213 0.07723073
000290 ec c3 3d 3e 6d 4b 6f be 4d 96 15 bf 2d 9b 02 3e
       0.1853177 -0.23368616 -0.58432466 0.12754507
0002a0 9b 51 aa be 01 5a 03 bf d9 bd d0 3d 1d 08 38 3e
       -0.33265385 -0.5130921 0.101924606 0.17971845
0002b0 83 2f c6 be e4 9c 8f be f9 6c ec bc 96 ff c3 3e
       -0.38708124 -0.28049386 -0.028860556 0.38280934
0002c0 48 b1 10 3d f6 99 06 bf fd 06 4c 3d 03 6d 34 be
       0.03532532 -0.52578676 0.049811352 -0.1761971
0002d0 04 8e 8c 3e d8 f5 fb be b1 b3 97 be ab ba 02 be
       0.274521 -0.49211 -0.2962928 -0.1276652
0002e0 c7 86 5e be 37 db 45 be 94 92 9d bd 02 5a 15 3e
       -0.21731101 -0.19321905 -0.07693973 0.14585117
0002f0 a2 8a 87 be 74 bc 17 3e dc 76 5b bd 02 e6 0d be
       -0.26472956 0.14817983 -0.05358015 -0.13857272
000300 d5 01 f6 3a 3c 4b 66 be 3c f2 be 3d 83 91 c6 be
       0.0018768857 -0.22489637 0.09323546 -0.38782892
000310 f5 5d ef bc 8c 87 a3 3e be 41 a8 3e ca 54 58 bd
       -0.029219607 0.31939352 0.32862657 -0.052815236
000320 7a 9e e6 be 78 d5 6f 3e 45 c8 e7 3e dc 64 12 be
       -0.45042783 0.23421276 0.4526998 -0.14296287
000330 52 2d ca be e8 71 8b 3e d7 55 19 3d fa 5f 0d be
       -0.39487702 0.2723534 0.03743538 -0.13806143
000340 77 84 f3 be 81 f9 a2 be 00 48 57 be 4a a3 64 3d
       -0.47562 -0.3183098 -0.2102356 0.055819787
000350 f3 6b 2b 3e 84 fa 88 be 9a 79 0b bf ef 7e 85 3e
       0.16740398 -0.26753628 -0.54482424 0.26073405
000360 cf 79 d8 be 68 91 0d 3e ac dc 9d bd 41 8c 75 3c
       -0.42280433 0.13825 -0.077081054 0.014987052
000370 07 aa 98 3c 98 45 86 bd b6 3b 7a be dd 1d 0c 3d
       0.018635763 -0.06556243 -0.2443684 0.034208167
000380 91 fe 04 be 6d 68 05 be df b7 15 bf 8c 33 2f 3d
       -0.12987734 -0.13028117 -0.5848369 0.04277377
000390 8b 6c ef bd ab 50 85 3e 81 30 93 bd 0e f0 c1 bc
       -0.11690625 0.26038107 -0.07186986 -0.023674037
0003a0 5a 11 00 bf d9 71 08 be 19 1f 17 bf 32 0c 0a bf
       -0.50026476 -0.1332468 -0.59031826 -0.5392486
0003b0 48 0f f5 be 07 e7 f8 be 67 67 e7 bd 03 43 35 bd
       -0.4786322 -0.4861376 -0.11299019 -0.04425336
0003c0 9f 2f cf be 6a 4a d2 be 99 4a c0 3d 27 39 b7 be
       -0.4046602 -0.41072398 0.093892284 -0.3578579
0003d0 0b 00 6f 3e 34 15 da be aa 68 08 bf 8c 8e f7 bd
       0.2333986 -0.42594302 -0.53284705 -0.120877355
0003e0 cd fc 12 bf c0 aa 7e bd 2b 95 d1 bd 05 3b ff be
       -0.57416993 -0.06217456 -0.1023353 -0.49849716
0003f0 bc bd 8c be a5 c8 67 3e 04 69 bc be a8 f4 a8 3e
       -0.27488506 0.22635134 -0.3679887 0.32999158

network_body.linear_encoder.seq_layers.0.bias f4 [128]
000000 43 a0 b6 3d 95 75 8b bd 8b 10 8f bd dc 5c 57 3d
       0.08917286 -0.06809536 -0.06985577 0.052578792
000010 62 b9 4b bc 3b 18 cc bd 43 d2 50 be 59 3c 13 3d
       -0.012434335 -0.09965559 -0.20392708 0.035946224
000020 25 f8 c2 bd b0 01 3c be 48 94 fb bd 77 57 54 3d
       -0.09519986 -0.18360019 -0.12284142 0.051841225
000030 93 15 41 3e 34 97 74 be cb fc c1 bc 84 46 ff bd
       0.18855886 -0.23885804 -0.023680111 -0.12464622
000040 e1 92 52 3d 80 2c d0 3d d9 3e 4d 3d d7 a0 d8 bd
       0.051409606 0.10164738 0.050108764 -0.10577553
000050 fd f0 27 be 2e de dd 3d c9 38 39 be c2 bd c1 bc
       -0.16400523 0.10833393 -0.18088068 -0.023650054
000060 f6 64 59 3d 14 d6 f3 bc cd 03 12 3c d1 07 d0 3d
       0.0530748 -0.029765166 0.008912039 0.10157741
000070 fb 43 25 bc 3b 31 f9 bc be 34 40 3c 59 bf c1 bc
       -0.010087009 -0.030418983 0.011731325 -0.023650812
000080 d4 55 b6 bd 1b 91 b1 bd d6 f9 7d bd ac d1 f6 3d
       -0.08903089 -0.08670255 -0.06200584 0.120517105
000090 86 0d 59 3d c2 fb 3e bd 06 65 9c be c2 aa 23 be
       0.052991413 -0.046626814 -0.30545825 -0.15983108
0000a0 64 86 96 bc 3c 99 a3 bd 19 c4 e3 bd 1f 37 8b 3d
       -0.01837463 -0.079882115 -0.11121387 0.06797623
0000b0 55 51 c4 bd f2 53 1c be f0 7a 08 3d bb 6b 83 be
       -0.09585825 -0.15266398 0.033320367 -0.2566813
0000c0 17 57 fb bd 01 71 9d bd 1c af 8e bc ba 1a 66 be
       -0.122724704 -0.076875694 -0.017417483 -0.22471133
0000d0 50 3d 6e bc 8a 16 80 bd ca c6 4c 3d cb 8c c3 3d
       -0.014540985 -0.06254299 0.049994268 0.095483385
0000e0 fd 2c f5 bd 1f 30 24 be 42 db 91 bc 02 10 a3 be
       -0.119714715 -0.16033982 -0.017804746 -0.3184815
0000f0 8b e8 17 3c 5f 17 69 be 82 dd 8f bd 6c 3b e9 bd
       0.009271751 -0.22762822 -0.07024671 -0.11388287
000100 a7 4e dc bd cb 19 1f be 62 85 e8 bd 3c 7a d4 bd
       -0.10757189 -0.15537183 -0.11353566 -0.10374877
000110 7f 6a 94 bc e1 a7 0c be 3d a6 8d 3b 49 5c 82 3d
       -0.018117188 -0.13735916 0.0043227957 0.06365258
000120 09 f2 35 be 67 5e ba be 26 a6 50 3a 45 83 2a bc
       -0.1776811 -0.36400148 0.00079593284 -0.010407274
000130 14 18 95 bd 54 e5 4d be cb 59 cd bd a4 cf d5 3c
       -0.07279983 -0.20107013 -0.10026892 0.026099987
000140 bf 5c dd bc 09 eb 98 bd 42 93 89 be f8 77 3c 3e
       -0.027021764 -0.074667044 -0.2687016 0.1840514
000150 8a e0 12 bd 55 bf 5d be c3 48 5e 3d bd 8a 69 be
       -0.03585867 -0.21655019 0.05426861 -0.2280683
000160 bf fb 7b be 45 c7 81 bd 38 2a 1a be c8 9e 40 be
       -0.24607752 -0.06336836 -0.15055168 -0.1881057
000170 dd d4 27 3e 46 35 4a bc 94 4e 99 be 77 a5 a4 be
       0.16389795 -0.012341803 -0.29942763 -0.3215749
000180 10 e0 fc bd b6 94 c5 bc 67 19 ca bd 88 d9 cd 39
       -0.12347424 -0.024118762 -0.09868126 0.0003926272
000190 48 83 54 bb 9b 4c f3 3d 91 c4 e8 3c b6 10 58 be
       -0.0032426883 0.11879846 0.028414043 -0.21100125
0001a0 32 28 af bd 73 d1 81 bd 3c 78 ab be 6e fc a9 bd
       -0.085525885 -0.063387774 -0.3349017 -0.083001
0001b0 58 a8 87 be e1 5d 9f bd 84 ad 44 be ee 21 85 bb
       -0.26495624 -0.07781578 -0.19206816 -0.0040628826
0001c0 e8 ef d3 bd 13 92 6b bd af 3b 0e be af 07 99 bc
       -0.10348493 -0.057512354 -0.13889955 -0.018680422
0001d0 e1 51 7d bd 01 19 6b 3c 3c df df bd 67 94 9f bd
       -0.061845664 0.014349223 -0.109312505 -0.077919774
0001e0 d7 bb 2a be 2f 7d a5 bc 1f 45 9e bb 52 ee 58 bd
       -0.16673218 -0.020201294 -0.004830017 -0.052961655
0001f0 02 a8 7f bd fc 96 46 bd ef 8d 6d bd 91 7e 4f bd
       -0.062416084 -0.048483834 -0.057996687 -0.050657813

network_body.linear_encoder.seq_layers.0.weight f4 [128, 130]
000000 bc ed fc 3e 28 96 11 be 0c 7a 42 bd 31 a6 10 3f
       0.49400127 -0.14217436 -0.047479674 0.5650359
000010 52 95 d6 bd fa b3 a6 bc dc 3a 20 3f 0c 64 e7 be
       -0.10477699 -0.020349491 0.6258981 -0.45193517
000020 11 fc da bd fa e0 28 3e ae 55 05 3d 24 80 fc 3d
       -0.10692609 0.16492072 0.032552414 0.123291284
000030 5f 0c 54 3e c7 78 b2 3c 92 92 c9 3c 59 6d fd bd
       0.20707844 0.021786107 0.024606023 -0.12374372
000040 f1 8f 8b 3d 67 70 84 3d 69 06 8f 3e 62 c0 78 be
       0.06814564 0.064667515 0.27934578 -0.24292138
000050 d4 35 49 be 2a 4f cc 3c 7c 23 6a 3d 78 7e 75 3c
       -0.1964944 0.024940092 0.057162747 0.014983766
000060 c1 eb d8 bc ab 48 66 3d fd 02 d2 bd c9 a3 03 be
       -0.026479604 0.056221645 -0.10254476 -0.12855448
000070 88 bd b4 bd dc 0b a5 3c b9 43 8f 3c c0 4a 0c 3c
       -0.08825213 0.020147257 0.017488347 0.008562744
000080 4c 47 69 3d b4 e2 e9 bd e9 79 ea 3c dc 7a 33 3d
       0.05695276 -0.11420193 0.028622584 0.04381834
000090 91 14 a9 3d 03 c2 2c 3e 44 6d 93 bd af e8 9b 3d
       0.08255876 0.16870885 -0.07198575 0.0761274
0000a0 31 0e 84 3d 02 a3 ce 3d 51 1a 97 3e 3f 8a 82 3d
       0.06448019 0.10089685 0.29512265 0.063740246
0000b0 d6 ab 77 bc 34 97 06 be 2f 59 78 3e a5 31 22 3e
       -0.0151166525 -0.13143617 0.24252771 0.1583925
0000c0 35 62 25 3d 53 bf 3a 3e 7c 10 41 3e e3 0a 80 be
       0.04037686 0.18237047 0.18853945 -0.25008306
0000d0 b8 48 39 3e 00 9a 4c 3e 97 3a 13 be c5 62 aa 3e
       0.18094146 0.19980621 -0.14377819 0.3327848
0000e0 28 10 62 3e 8b f0 96 3e 08 e6 55 3e 2f 95 17 3e
       0.22076476 0.29480395 0.20888531 0.14803003
0000f0 06 24 80 bd bc d3 1d 3e a8 f7 0b 3e 5e 2f c7 3e
       -0.06256871 0.15412802 0.13668692 0.38903326
000100 fd e1 9f 3d f0 e4 ff 3c ab 6e f4 bd 4e d0 bb 3e
       0.07806776 0.031237096 -0.11935171 0.3668236
000110 ad 15 d2 3d fa d7 c9 be 68 dc 75 3e ec e7 81 3e
       0.102580406 -0.3942259 0.2400986 0.25372255
000120 1a 53 de be 5e 8c 55 3e 73 98 40 3e d2 6a 1d bf
       -0.43422776 0.20854327 0.18808155 -0.6149112
000130 8c 95 0a be ce 0c 51 be 5b d8 2f bf 16 3c e5 be
       -0.1353361 -0.20415041 -0.6868951 -0.44772404
000140 ef c5 99 be 8c 96 83 3c f1 46 3d bf 1a 0c 34 bf
       -0.30033824 0.016062997 -0.73936373 -0.70330966
000150 a3 f7 3e 3e 6c ec c2 be d3 99 2e bf bd 74 59 bd
       0.18649153 -0.38071 -0.6820347 -0.053089846
000160 e9 15 82 be be d0 a2 3b 50 b8 8e be 1f e6 e2 be
       -0.2540734 0.0049687317 -0.27874994 -0.44316193
000170 52 58 ec 3e c1 72 07 be dd 6e 09 bf 75 e9 02 3f
       0.46161133 -0.13227369 -0.5368479 0.5113748
000180 fc 50 9b be 52 19 80 3d c4 2d d7 3d 6a f1 be bd
       -0.30335224 0.062548295 0.10506776 -0.0932339
000190 61 ee cd 3e 7f 05 20 be 93 00 e5 be 2b 54 82 3e
       0.4022093 -0.15627097 -0.44727 0.2545484
0001a0 24 9b 9d bd f0 59 79 be e2 16 c1 3d c9 94 70 be
       -0.07695606 -0.24350715 0.09428193 -0.23494257
0001b0 3e 23 90 3e 2f 1a 07 3d 97 56 e2 be 47 5d ff 3e
       0.28151888 0.032983955 -0.44206688 0.49875852
0001c0 0c c5 d9 bd d6 80 29 be f0 b7 15 3e 45 4d af bd
       -0.10633287 -0.16553053 0.14620948 -0.0855966
0001d0 8c aa ac 3e 31 4f 11 be b8 b7 66 bd a3 22 6b 3f
       0.33723867 -0.14190365 -0.05632755 0.91849726
0001e0 9b 8e 0b be e2 5b 3c be 48 26 31 3c 1a 5b ab 3e
       -0.13628618 -0.18394426 0.01081235 0.33467942
0001f0 47 80 e7 3e d1 3d b3 bd 83 52 e5 bd 52 72 f7 3b
       0.45215055 -0.08752025 -0.111973785 0.00755147
000200 6f 7e 2a 3e 35 23 73 be 5c 3f fc be d8 37 79 3e
       0.16649793 -0.23743899 -0.4926709 0.24337709
000210 05 0a b1 3d 31 6d ee be 36 85 8e 3d f1 1e 16 3d
       0.08644489 -0.4656768 0.06959002 0.0366506
000220 e7 40 71 bd f8 48 6a 3e ab d9 cb 3b 02 7f fc be
       -0.058899786 0.22879398 0.0062210164 -0.4931565
000230 56 13 0b 3e 70 2a 40 3d 70 ba 7e 3e 48 39 cb be
       0.13581595 0.04691547 0.24875808 -0.3969214
000240 24 58 17 bd 1f fa 34 be 44 26 8e bc 5b 6d 2c 3d
       -0.03694929 -0.17673539 -0.01735223 0.042096477
000250 91 51 a9 bb 32 16 f8 bd 53 1b a3 bd 15 a1 88 be
       -0.005167194 -0.121136084 -0.07964196 -0.26685396
000260 e5 96 d8 bb 99 c0 24 3e da 9a 57 be e5 63 b9 3e
       -0.006609785 0.16089095 -0.21055165 0.36209026
000270 0f 97 14 3e 6f a6 79 3d 93 04 8b bd b1 d6 a7 bd
       0.1451075 0.06094974 -0.06787982 -0.08195246
000280 19 b0 9c be 26 4a e7 3d 49 9d 94 3d 85 2d 91 bc
       -0.30603102 0.112934396 0.07256562 -0.0177219
000290 4f 67 6f be ab cb 50 bd 02 88 25 bf 06 07 52 3e
       -0.23379253 -0.050975483 -0.64660656 0.20510492
0002a0 03 72 08 3e 5a b9 e2 be 7c 90 f7 bd 55 07 57 be
       0.13324742 -0.44282037 -0.12088105 -0.2099889
0002b0 8a 11 23 bf d6 23 68 3e ce fa d3 3d 9b d7 b3 be
       -0.6369864 0.2266992 0.103505716 -0.3512543
0002c0 ef ba ad bd 3b 16 89 bd db 51 2c be 39 a7 51 be
       -0.084829204 -0.06693693 -0.168281 -0.20473947
0002d0 8d d9 98 3d 29 a3 6c 3d 32 89 22 bd 30 21 12 be
       0.074633695 0.05777279 -0.03968162 -0.14270473
0002e0 16 d8 9e bd 21 81 7b be 18 23 29 bc f4 91 4e bd
       -0.07756059 -0.24560978 -0.010323308 -0.05043216
0002f0 4c a7 85 bd d8 06 0a be 5d 42 cc be bb f6 40 3d
       -0.0652605 -0.13479173 -0.3989438 0.0471103
000300 93 a1 6b bd 81 54 97 3e dd 0b 2a be b8 17 0a be
       -0.057527136 0.2955666 -0.16606088 -0.1348561
000310 f5 7f b0 be 40 fe 72 3e 49 aa dd 3c 70 cf bb bd
       -0.34472623 0.23729801 0.027058737 -0.09170425
000320 d3 48 9b bc b4 31 71 3d 04 0a 64 be cf a3 a1 bd
       -0.018955624 0.05888529 -0.22269446 -0.07892572
000330 15 2b 1f bd 9a 81 f0 3e 58 cd e8 3c 04 12 ad 3d
       -0.038859446 0.46973878 0.028418228 0.08450702
000340 69 32 b5 3e 39 4c b8 3e 20 88 8a be 37 a8 24 3f
       0.35390022 0.35995653 -0.2705698 0.64319175
000350 5f 38 ee 3e 28 35 0b be 4b 03 e1 3e 13 51 a5 3e
       0.46527383 -0.13594496 0.43947825 0.32288417
000360 c8 8e b6 bc 83 f4 93 3e af 8d 61 bd a1 08 fc 3d
       -0.02228488 0.28897485 -0.05506676 0.12306333
000370 90 00 fd 3e 8d 49 a0 be 5f 78 8b 3e b6 78 c6 3e
       0.49414492 -0.31306115 0.27240273 0.3876397
000380 fb 8b ba 3c 09 fa cc bd a6 41 4e 3e 20 d7 20 3e
       0.022771826 -0.10008628 0.2014223 0.15707064
000390 82 c1 14 3d fb 80 74 bd 65 06 e5 3c a6 1d ff 3d
       0.036317356 -0.059693318 0.02795715 0.12456827
0003a0 62 6d fe bd 6f 39 78 bd fc de 8d 3d 9d 6f 7e 3d
       -0.12423207 -0.060601648 0.069272965 0.06211816
0003b0 68 fe 67 3e 55 fd 25 bf db d6 73 3d 66 c4 3e 3e
       0.22655642 -0.6483968 0.059531074 0.18629608
0003c0 03 d9 12 bd 35 95 d8 3e 90 47 c7 be d8 21 26 3e
       -0.03585149 0.42301336 -0.38921785 0.16223848
0003d0 b2 c4 89 3d 7d d9 ab bd f7 c2 7e bd ae 76 66 3d
       0.0672697 -0.08391092 -0.06219765 0.056265526
0003e0 eb 7f 36 3e a1 55 b4 3e 56 16 db be 46 b6 05 3e
       0.17822234 0.3522158 -0.42790478 0.13057813
0003f0 8d a4 ab 3d 06 9b 27 be f7 6f ca 3d c1 9a 11 3e
       0.08380995 -0.1636773 0.09884637 0.1421919

network_body.linear_encoder.seq_layers.2.bias f4 [128]
000000 1e 53 f4 bd 13 08 da bd 52 1f 26 be 0d ec a4 3d
       -0.11929916 -0.10646071 -0.16222885 0.080528356
000010 9b 7b 20 bd 75 a6 cc 3d 41 f0 20 3d f1 3a f2 3d
       -0.03918038 0.09992687 0.039291624 0.118276484
000020 50 fd ce bd 15 8a b3 bd 4b fa ed bd 4d 22 ab bc
       -0.10106909 -0.087665714 -0.11620005 -0.02089038
000030 fc 8e 6b be 78 4d 51 bc 61 98 6e bb 5f 64 02 bd
       -0.23003763 -0.012774818 -0.0036406743 -0.031834003
000040 62 e5 c2 bd d5 e3 28 3d 91 72 bf 3d 64 d8 6e 3c
       -0.095164075 0.041232903 0.09348024 0.014577959
000050 93 6a d8 bd c2 2c 88 3c 7b f8 48 3d 5c 9b 48 bd
       -0.105672024 0.016622905 0.049065094 -0.048976287
000060 b2 65 61 be 34 82 86 bd de 04 ba 3d f9 df 1c be
       -0.2201145 -0.06567803 0.090829596 -0.15319814
000070 5f 74 25 bd 60 98 a8 3d 75 ec 6e 3d 90 4f 4d 3d
       -0.040394183 0.08232188 0.05833097 0.050124705
000080 8c 38 62 be a8 48 75 bd b8 ca 13 bd 72 f7 9d bd
       -0.22091883 -0.059883744 -0.036082 -0.07713212
000090 2a 04 d0 3c 8d b0 6e bc 87 b1 8e bd fb 3f 54 bd
       0.02539261 -0.01456846 -0.069674544 -0.05181883
0000a0 73 45 31 be 8c 83 2c 3d a0 9d b9 bd 7f d8 ed 3d
       -0.17311649 0.04211764 -0.09063268 0.11613559
0000b0 19 04 56 bd fb 8c 42 bd eb 2b 01 be d5 9a 84 3e
       -0.05225 -0.04749773 -0.1261441 0.25899377
0000c0 93 5c a6 bd b4 3f e1 3c 02 23 1b bd 7d 56 70 bd
       -0.08123126 0.027496196 -0.037875183 -0.05867623
0000d0 91 68 85 3d 84 51 fa 3d fc 27 83 bc 77 26 a0 bc
       0.06514085 0.12222579 -0.016010277 -0.019549591
0000e0 f0 b1 04 bd 62 0c c8 bd 2d 79 4e 3b da 78 c6 bd
       -0.032396257 -0.09767987 0.0031505332 -0.09691019
0000f0 e2 31 9b 3d 7f a5 fe bd ea 27 9b bb bf 9e b2 bc
       0.07577874 -0.124339096 -0.0047349827 -0.021804212
000100 c6 07 c3 bc a6 e6 07 bd 8f 39 b6 bb 26 8c d6 3d
       -0.023807418 -0.033178948 -0.0055610607 0.1047595
000110 55 98 2c be d8 5e 8e 3e ad 3f 37 3d 13 07 19 be
       -0.16854985 0.27806735 0.04473846 -0.14944105
000120 66 ed 4e 3a 62 1a ed bd b1 bd 58 3e 18 1d 04 3d
       0.00078936515 -0.11577298 0.21166112 0.03225431
000130 54 7f 17 bd 75 e0 4d 3d 34 fe 82 bd fb e9 e7 3d
       -0.036986664 0.050262887 -0.06396142 0.11323925
000140 a5 72 c3 ba 1d 6a cd 3d ed db 62 ba a7 95 a7 bd
       -0.0014911486 0.10030005 -0.00086539873 -0.08182841
000150 81 8a f8 bd 76 69 b4 3c 21 a1 32 bc d1 b3 0b bd
       -0.121357925 0.022022944 -0.010902674 -0.034107033
000160 e3 eb 1e be 1d 3d 1d be 19 b6 8a bd a0 7c e6 be
       -0.15519671 -0.15355344 -0.067730136 -0.45016956
000170 cc a5 76 be 79 d2 95 be ac f1 54 3d a4 c5 ae bd
       -0.24086684 -0.2926214 0.05198829 -0.08533791
000180 49 3c 16 be cd 8f 51 be b6 01 10 3d 81 98 a2 bd
       -0.14671434 -0.20465012 0.03515788 -0.07939244
000190 03 8d 8a be 52 e2 07 bd 82 9f 77 3b 1e c4 49 be
       -0.27060708 -0.03317482 0.0037784283 -0.19703719
0001a0 b0 96 c3 bd 12 16 28 be 5d 2a f4 3c af e5 08 3e
       -0.09550226 -0.16414669 0.029805357 0.13368867
0001b0 04 e2 c5 bd 86 13 85 3d da 12 9d 3d db 73 2d be
       -0.0966225 0.064978644 0.07669611 -0.16938727
0001c0 6c 95 73 3c af 49 3a be 6d 8d 4c 3e 87 78 97 3d
       0.014867168 -0.1819217 0.19975825 0.07396036
0001d0 6f 67 2b 3e 1d ea 57 bd 56 ae 2e 3d 64 a6 c8 bd
       0.16738676 -0.052713502 0.04264673 -0.097973615
0001e0 1f 1a 8f 3d 78 28 80 3d d7 53 6f bd 24 ff f9 3c
       0.06987404 0.06257719 -0.058429565 0.030517168
0001f0 42 6a fe 3c f4 e7 60 3e b2 c9 ee 3c 67 c3 a2 3e
       0.031056527 0.21963483 0.02914891 0.31789705

network_body.linear_encoder.seq_layers.2.weight f4 [128, 128]
000000 85 29 ed be 97 e7 b2 3d bf ae 27 3e d2 85 cc 3d
       -0.4632074 0.087355785 0.16375254 0.09986462
000010 5e 83 b5 3e 35 ca ef 3d aa 2c e5 bd 0b 4a 86 be
       0.35451788 0.1170849 -0.111901596 -0.26228365
000020 54 2d b6 3e 6f 9a ab bd 05 53 b9 bd 7d a4 5c be
       0.35581458 -0.08379065 -0.09049038 -0.21547122
000030 3c 38 cd bd f3 8e 9b 3e 60 63 33 be 09 51 d2 3d
       -0.100204915 0.303825 -0.17518377 0.102693625
000040 e4 66 0a be 1f 3b 9a be 19 55 85 3e 56 b9 15 bd
       -0.13515812 -0.3012323 0.26041487 -0.036553703
000050 43 01 b0 bd 5b 70 e9 3c c8 84 89 bd ed 91 63 be
       -0.08593991 0.028495958 -0.06714779 -0.22223635
000060 22 d0 3a bc 83 38 b5 3c 09 de 44 3d ad f7 32 be
       -0.011402162 0.022121673 0.04806331 -0.17477293
000070 9a 81 64 be 78 33 d1 be 6d a3 63 3d 5a d3 68 be
       -0.22315064 -0.4085958 0.055575777 -0.22736874
000080 42 a4 05 bd 47 aa 91 be 0b f0 ea bd 22 15 ba 3d
       -0.03262735 -0.28450224 -0.11471566 0.09086062
000090 eb b0 13 be 4a 3d b4 3e 83 66 35 bc 59 1e 14 3e
       -0.14422958 0.3520301 -0.011071804 0.14464702
0000a0 06 57 b3 be 27 f8 1f bd 5a d6 20 3e 2e 85 22 be
       -0.3502733 -0.039055016 0.15706769 -0.15871117
0000b0 95 67 13 be 67 61 85 be 8d f7 7b bd c6 30 10 3e
       -0.14394982 -0.26050875 -0.06151538 0.14081106
0000c0 ae ff 3e be 5b e3 97 bd 25 6f bb bd 5a e9 07 be
       -0.18652222 -0.074164115 -0.091520585 -0.1327261
0000d0 14 cb 4c bd 4a 0e 3c be f4 1f 97 bd 5c 3d dc be
       -0.049998358 -0.18364826 -0.073791414 -0.43015563
0000e0 4f 51 ac be 67 96 0a be 7d a9 61 3e 5f 07 48 3d
       -0.33655784 -0.13533936 0.22037311 0.048835155
0000f0 bb 3c ba be 3e 12 78 3c 47 31 71 be 3c c3 2d 3d
       -0.3637446 0.015141068 -0.23553954 0.042422518
000100 8f 41 85 be ac 5a 32 be f4 a9 d5 bd 8a 35 db 3e
       -0.2602658 -0.17417401 -0.104328066 0.42814285
000110 12 fa a5 3b 91 6a a1 3d c9 34 97 3d 95 62 ba 3c
       0.005065211 0.07881654 0.07383115 0.022752086
000120 35 61 9c 3e c7 ed 80 3e 4a 80 c4 bd 1b 92 cc bd
       0.30542913 0.2518141 -0.09594782 -0.09988805
000130 87 80 95 3d e8 f2 72 3e c4 9d 08 3c c8 9b 07 bf
       0.07299905 0.23725474 0.0083383955 -0.5297208
000140 53 e0 fd bd b2 8c bc be d5 a5 6e be 95 49 71 be
       -0.12396302 -0.36826092 -0.23305447 -0.23563226
000150 28 af c4 bd e0 71 94 bd 76 ca 8a be de e9 2e be
       -0.09603721 -0.072482824 -0.2710759 -0.17081401
000160 65 ce 63 bc 19 23 ad bc ff a6 26 3e 53 b5 ca be
       -0.013904189 -0.0211349 0.16274641 -0.39591464
000170 9f 81 30 be 99 8c 0e 3e d5 5a d7 bc d8 f9 21 3e
       -0.17236947 0.13920821 -0.02628843 0.15817964
000180 6e fd 5a 3e 9c 8b ad 3d 1d 1b a3 bd 33 5e 01 3e
       0.21385738 0.08473894 -0.07964156 0.1263359
000190 e5 e6 60 bd 0d 1b 31 bd 7d 5c 5e be 68 87 e2 bc
       -0.0549077 -0.04323869 -0.21714969 -0.027652457
0001a0 6f db 98 bd 95 a4 1f be 05 7a 46 be b9 88 38 3e
       -0.07463729 -0.15590127 -0.19382484 0.18020906
0001b0 98 41 28 3d 15 7a a5 be 13 97 5d be c1 8e ae be
       0.04107818 -0.32319704 -0.21639661 -0.34093288
0001c0 4d f4 34 3e 94 d4 b4 3e 18 a6 a3 be 19 23 c5 bd
       0.17671318 0.35318434 -0.31962657 -0.09625835
0001d0 1b c0 ec 3e ea f8 12 bf 94 2c 90 be a2 8d 2b be
       0.46240315 -0.5741106 -0.2815901 -0.16753247
0001e0 95 b2 7d 3d c2 d4 5f be f3 c6 de bd 06 2d 0a bf
       0.061937887 -0.21858504 -0.1087779 -0.5397495
0001f0 cd 89 25 be b1 2e af 3e 98 93 cb bd d0 41 d7 3d
       -0.16165848 0.3421531 -0.09940261 0.105105996
000200 ad 35 4c bd 6a 8e e1 3c a6 f2 59 be 2f 7d d9 bd
       -0.049855877 0.027533729 -0.2128397 -0.1061958
000210 fd 4b ca 3a cf 9b a1 be 60 32 cf 3d ac 05 5b 3e
       0.0015434023 -0.31564185 0.1011703 0.21388882
000220 f2 a3 18 be 5e 4a 92 bd 36 c4 aa 3d 43 27 5d bc
       -0.1490629 -0.07143091 0.083382055 -0.01349813
000230 e2 6d c6 3d bc 60 cf be ba b9 3d 3e 7d 5a 23 bd
       0.09688927 -0.4050349 0.1852788 -0.03988122
000240 0c 1c 97 3d 8c 74 4d 3c 01 3d 7c be b0 ed 2c be
       0.073783964 0.012539994 -0.24632646 -0.16887546
000250 31 c7 d3 bd 17 36 36 3e 99 1b ab bc bd bb ce 3c
       -0.10340727 0.17794071 -0.020887183 0.025236005
000260 f3 9d 8b be 48 63 5b 3d 25 06 37 3e 19 a9 37 be
       -0.27268943 0.05356148 0.17873438 -0.179356
000270 fa e8 33 3d 12 c5 0f be 56 b6 d8 be 41 01 c4 3e
       0.043923356 -0.1404002 -0.4232661 0.38282207
000280 d0 54 76 3e dd 55 2a 3e 48 fa 00 bf e4 e5 9b 3e
       0.24055791 0.16634317 -0.503819 0.3044883
000290 28 c1 4c be ed e8 20 3e f2 b9 28 bf a1 e9 6d 3c
       -0.19995558 0.15713854 -0.6590873 0.0145210335
0002a0 11 2b 25 bc ea cd 73 be 5f 2d 18 be a5 e2 63 3e
       -0.010081069 -0.23809019 -0.14861058 0.22254427
0002b0 32 6d 67 be 63 0c 85 3e b7 74 47 3e 26 d5 2b 3e
       -0.22600248 0.25986013 0.19478117 0.16780528
0002c0 2a 22 fd bd 8b 13 7f 3c 6b c6 c4 be 9d 74 46 bd
       -0.12360032 0.015568624 -0.3843263 -0.048451055
0002d0 f5 51 f4 bd 70 ec 18 3e 6c 62 11 3d 9f 5d 33 be
       -0.119296946 0.14933944 0.035494253 -0.17516182
0002e0 e9 06 40 be 80 6c 6a bc 6a 49 18 3b c3 74 ef bd
       -0.18752636 -0.014308095 0.0023237118 -0.116921924
0002f0 73 46 70 be d5 4a ae be 5a 8f 16 3e f8 c7 8b be
       -0.23464374 -0.34041467 0.14703122 -0.27301002
000300 1e 80 89 be 8f cc 6b 3e fc fa 96 be 4e e8 91 bd
       -0.26855558 0.23027252 -0.2948836 -0.07124387
000310 3f 19 88 be eb 24 9b bd 6d 10 b0 be d6 7c 33 3e
       -0.2658176 -0.07575401 -0.34387532 0.1752809
000320 f2 03 32 be 04 ba b5 bd 61 62 2e 3e 8a 2a e9 bb
       -0.17384318 -0.0887337 0.17029716 -0.0071156668
000330 95 6d 79 be 3b ee 0e 3e 3a 42 b5 3e 5f 76 ff be
       -0.24358208 0.13958065 0.3540209 -0.49894997
000340 3d bb c8 bc 51 4b 50 3c 41 8c 9b 3e d4 e0 01 be
       -0.024503345 0.012713269 0.30380443 -0.12683421
000350 74 52 48 3e e4 b4 4a 3b a4 58 66 be 3f 80 ab bd
       0.19562703 0.0030930573 -0.22494751 -0.083740704
000360 42 07 0c 3d 14 3b a2 bd 5a 59 aa be 3b 45 cf ba
       0.03418661 -0.079214245 -0.33271295 -0.0015813479
000370 1e ef 31 bd 5d 1d 01 bd 42 36 c6 be a4 61 d3 be
       -0.04344093 -0.031522144 -0.3871327 -0.4128543
000380 06 cf 21 3e 39 33 9f 3d 07 ef b2 bc a7 e3 db bb
       0.1580163 0.07773442 -0.021842493 -0.006710488
000390 07 8a b2 3e 33 b0 59 bd ce 63 17 be 28 ac 37 be
       0.34870932 -0.053146552 -0.14784166 -0.17936766
0003a0 93 97 f2 be 73 0c 5e bd 71 9a 0d 3e 00 84 d9 3e
       -0.47381267 -0.05421109 0.13828446 0.4248352
0003b0 9a 85 94 be a6 f3 c9 3c ea 1d b9 bd 04 45 95 bc
       -0.2900818 0.024652313 -0.09038909 -0.018221386
0003c0 27 6b e2 be 5f 82 81 3c 3c 96 0b bd 94 13 20 bd
       -0.44222376 0.015809236 -0.03407882 -0.03908117
0003d0 23 91 5f 3e 8f e5 d0 bd 01 8e b5 be 42 87 5e be
       0.21832709 -0.10200035 -0.35459903 -0.21731284
0003e0 80 85 28 bd 37 c9 07 3b 2d cc e0 be 71 15 8c be
       -0.04114294 0.0020719299 -0.43905774 -0.27360108
0003f0 ca 08 23 be e9 a6 4d 3e 73 3e da 3e 3d e5 3d be
       -0.15921322 0.20083202 0.4262577 -0.18544479
