results/MovingObstacles_GAIL_14/MovingObstacles_GAIL_14_1.2M.onnx (onnx, 138150 bytes, 6 tensors)

action_model._discrete_distribution.branches.0.bias f4 [5]
0.044594735 0.31260824 -0.31461066 0.019442035 -0.069560364
00000000: f8a8 363d 300e a03e a614 a1be e744 9f3c
00000010: aa75 8ebd

action_model._discrete_distribution.branches.0.weight f4 [5, 128]
0.06318707 0.17185241 0.07037447 -0.04841803 -0.09952352 0.071126685 -0.012088563 -0.022052139
-0.0048195487 0.11207959 0.037187077 -0.013420315 -0.007994154 0.23286276 0.14869967 0.053771976
0.009242231 0.081762776 -0.032818373 -0.0044766674 0.13408516 0.022659305 -0.1097237 0.022261122
0.023889618 -0.18802987 0.28170827 0.18742478 0.078337915 0.136212 -0.10771436 0.045088924
-0.019100223 0.091956526 0.07284253 -0.052110817 0.10051352 0.09760344 -0.14145778 -0.20514493
0.13407263 -0.10757289 -0.11319595 0.015981147 0.024684984 0.081785046 -0.0052551595 -0.0017537097
-0.12928079 0.15747447 -0.18504399 0.21122658 0.17629506 0.08108906 0.18976842 0.116817266
0.14429736 0.0032545032 -0.17009598 -0.028359298 0.027913818 0.050938055 0.28591397 0.087666355
0.15037878 0.051364183 -0.016822597 -0.13520372 0.019045545 0.090151824 -0.10539753 0.12028901
0.09464496 -0.21084456 0.0030250167 -0.04615147 0.02165015 0.0556339 0.10821581 0.12531893
0.07459083 -0.040249627 0.07281637 0.055296917 -0.1033149 -0.008320262 0.15034552 0.019462803
-0.026225373 0.23952681 0.05884607 -0.015219983 -0.074736625 0.0031346267 0.031230513 -0.089397594
0.05193533 -0.00029780527 -0.087335944 -0.01815933 0.22990113 0.111276194 0.07766114 0.03983948
0.27603438 -0.07500084 0.062072378 0.08918813 0.02017562 -0.018214826 -0.19686653 -0.09066569
0.039510075 0.09705507 0.1753514 -0.09856618 -0.24014638 0.15225354 0.09494844 -0.03590929
0.0065617473 -0.10151736 0.18529382 -0.12854078 0.12754688 -0.16866402 0.18083973 -0.06117142
-0.026742022 0.051673796 0.11260916 -0.11409365 0.1012024 -0.06299015 0.2689182 0.10205923
0.20020747 -0.20885871 -0.04662538 0.08040963 -0.042950705 -0.038675398 -0.08675067 0.18013673
-0.10476712 -0.14902005 0.029631244 -0.055846777 -0.2157748 0.067169465 -0.052575335 0.21407571
0.16016331 -0.1740685 0.14756277 0.12790984 -0.17724104 0.11804629 0.10752669 0.30072087
0.20793334 0.06370939 0.024683947 -0.18262544 -0.0034787871 0.12883772 -0.1561523 0.07981606
0.045466743 -0.045826633 0.26865497 -0.0806402 -0.04788463 -0.10889378 -0.13100351 -0.119277
-0.03926413 -0.04015859 0.04072039 0.19140162 0.17361747 0.11282292 0.03717743 -0.065346785
-0.05910008 0.16856763 0.009518245 -0.050329816 -0.027125252 -0.010386627 -0.06633796 0.16253331
-0.11469695 0.038843833 -0.07489415 0.067164004 -0.18542255 0.11838331 0.06313462 -0.1225848
-0.06953574 -0.08169972 0.07577132 0.05256663 -0.030201517 -0.08210236 -0.1103423 -0.17531435
0.13808145 -0.0495148 -0.14137642 0.115203016 -0.029292392 -0.16380945 0.09519433 0.11280602
-0.25797498 -0.13659474 0.16045415 0.105117045 0.07887061 -0.13191162 -0.21439832 0.02275219
-0.14271612 -0.03884794 0.1090712 0.21786214 -0.057118595 0.22576675 -0.06732845 -0.11727332
-0.0042545986 0.043177128 -0.039572176 0.13542195 -0.107640825 0.013942818 -0.114461586 -0.025063235
0.18697762 0.066914484 0.06263039 0.07084107 0.20424736 0.023706546 -0.12536563 0.21239041
-0.0261805 0.107171774 -0.06956431 -0.13693914 0.0668306 -0.054291 -0.06896094 0.0026070531
00000000: 3968 813d 14fa 2f3e 7d20 903d fc51 46bd
00000010: fdd2 cbbd deaa 913d 1c0f 46bc b0a6 b4bc
00000020: 4eed 9dbb fc89 e53d 7a51 183d e2e0 5bbc
00000030: e9f9 02bc 9373 6e3e ba44 183e 0140 5c3d
00000040: ba6c 173c 3e73 a73d 8f6c 06bd 02b1 92bb
00000050: 9f4d 093e 02a0 b93c d2b6 e0bd f55c b63c
00000060: 29b4 c33c e78a 40be 113c 903e 48ec 3f3e
00000070: a16f a03d 297b 0b3e 5999 dcbd 2aaf 383d
00000080: 1278 9cbc b453 bc3d 772e 953d 2772 55bd
00000090: 08da cd3d 50e4 c73d 4fda 10be 8311 52be
000000a0: 564a 093e 2d4f dcbd 47d3 e7bd e5ea 823c
000000b0: 2a38 ca3c eb7e a73d 7933 acbb bcdc e5ba
000000c0: 2f62 04be fd40 213e 2c7c 3dbe c84b 583e
000000d0: b186 343e 0512 a63d a752 423e e43d ef3d
000000e0: b0c2 133e 8149 553b a42d 2ebe c251 e8bc
000000f0: 85ab e43c 6ca4 503d 5163 923e 6b8a b33d
00000100: e5fc 193e 4063 523d 8bcf 89bc d872 0abe
00000110: 6705 9c3c 85a1 b83d a9da d7bd 165a f63d
00000120: 37d5 c13d a3e7 57be 5c3f 463b 5309 3dbd
00000130: a85b b13c 5fe0 633d 40a0 dd3d 9b53 003e
00000140: 14c3 983d cbdc 24bd c020 953d 057f 623d
00000150: c396 d3bd b551 08bc 2df4 193e 7570 9f3c
00000160: 98d6 d6bc 8446 753e 9408 713d 3c5d 79bc
00000170: 840f 99bd 4f6e 4d3b 22d7 ff3c 1616 b7bd
00000180: 24ba 543d bf22 9cb9 30dd b2bd e0c2 94bc
00000190: 346b 6b3e c6e4 e33d ce0c 9f3d b92e 233d
000001a0: 6154 8d3e 0a9a 99bd 9b3f 7e3d 44a8 b63d
000001b0: 5847 a53c 4237 95bc 6197 49be efae b9bd
000001c0: 51d5 213d cfc4 c63d 518f 333e 11dd c9bd
000001d0: efe8 75be 5ae8 1b3e 5474 c23d 9f15 13bd
000001e0: ed03 d73b 55e8 cfbd aabd 3d3e 32a0 03be
000001f0: a69b 023e 43b6 2cbe 0d2e 393e e28e 7abd
00000200: 1612 dbbc e7a7 533d a29f e63d eea9 e9bd
00000210: 3443 cf3d fb00 81bd a5af 893e 6e04 d13d
00000220: 3003 4d3e 0fdf 55be 41fa 3ebd cead a43d
00000230: 14ed 2fbd 186a 1ebd 56aa b1bd c375 383e
00000240: 2590 d6bd b698 18be 39bd f23c 97bf 64bd
00000250: 12f4 5cbe 2590 893d 3c59 57bd aa36 5b3e
00000260: da01 243e 033f 32be b21a 173e ccfa 023e
00000270: ad7e 35be 41c2 f13d f436 dc3d 16f8 993e
00000280: 7aec 543e 127a 823d fd35 ca3c 2a02 3bbe
00000290: 5dfc 63bb 09ee 033e 63e6 1fbe 9a76 a33d
000002a0: 563b 3a3d b5b4 3bbd 258d 893e b026 a5bd
000002b0: ac22 44bd b403 dfbd c925 06be 8047 f4bd
000002c0: 6dd3 20bd 557d 24bd 6cca 263d c9fe 433e
000002d0: c7c8 313e b40f e73d 5c47 183d 89d4 85bd
000002e0: ed12 72bd fe9c 2c3e 6af2 1b3c a326 4ebd
000002f0: c735 debc ac2c 2abc 32dc 87bd 226f 263e
00000300: 3ce6 eabd b61a 1f3d 1b62 99bd 488d 893d
00000310: 69df 3dbe f372 f23d b94c 813d bd0d fbbd
00000320: c168 8ebd 2f52 a7bd fe2d 9b3d 1b50 573d
00000330: 2c69 f7bc 4825 a8bd 25fb e1bd 9b85 33be
00000340: 3965 0d3e 08d0 4abd fbc4 10be 8fef eb3d
00000350: 99f6 efbc aabd 27be 3ff5 c23d d806 e73d
00000360: 4c15 84be 7edf 0bbe 184e 243e 9b47 d73d
00000370: ea86 a13d d713 07be 3c8b 5bbe cd62 ba3c
00000380: 2d24 12be 041f 1fbd b960 df3d 4117 5f3e
00000390: 30f5 69bd 662f 673e 80e3 89bd ff2c f0bd
000003a0: 296a 8bbb 80da 303d 6f16 22bd 0dac 0a3e
000003b0: cb72 dcbd 6b70 643c d66a eabd 6a51 cdbc
000003c0: 1077 3f3e 760a 893d 5d44 803d 1f15 913d
000003d0: 3826 513e 3b34 c23c d95f 00be df7c 593e
000003e0: 7d78 d6bc e07c db3d bc77 8ebd c639 0cbe
000003f0: 7bde 883d 3d60 5ebd 653b 8dbd 18db 2a3b

network_body.linear_encoder.seq_layers.0.bias f4 [128]
-0.034481872 -0.085818894 0.013368028 0.044878595 -0.0810518 -0.045145046 -0.018736793 -0.083620265
-0.08786631 0.0129252095 -0.02334112 -0.070954606 -0.15847495 0.02145822 -0.039624386 -0.04950537
-0.07196308 -0.053509586 -0.034447838 -0.067114666 -0.10248865 -0.0054843915 -0.063790366 -0.038865376
0.03114922 -0.040829107 0.04692922 0.0024574734 -0.13675763 -0.00082639203 -0.046495344 0.014104738
0.087324105 -0.2630039 -0.20413105 0.04006882 -0.0427233 -0.0626899 0.036347147 -0.024345096
-0.07736683 -0.03953737 -0.041363254 0.0084473165 -0.14800614 0.092618644 -0.03389702 -0.089244835
-0.047831494 -0.052084252 -0.004747001 -0.044542555 0.023011994 -0.015488668 -0.01978135 -0.005792766
0.013776905 -0.17317823 -0.067290895 0.07079763 0.011557069 -0.1746245 0.002029822 -0.039315853
0.09055293 -0.061027966 0.039547324 -0.044013772 -0.051632077 0.034254182 -0.036773246 -0.18024527
-0.036629587 0.026701678 -0.060769204 -0.022525487 -0.0032831447 0.021077203 0.04146413 0.0434459
-0.07580618 0.014704273 0.05864738 0.012277205 0.03338636 0.018953238 -0.055937152 -0.00879911
-0.09627318 0.015697103 0.03256901 -0.14193398 0.16588347 -0.08668358 0.07692443 0.019479668
0.022630004 -0.13420838 0.0010601452 -0.035485134 0.03684533 -0.040055014 0.051419538 -0.017828071
-0.031172013 -0.08442699 -0.045987774 -0.17714937 -0.05146879 -0.04309232 -0.04336733 0.04139618
-0.07302243 -0.1504959 -0.042346913 0.011308512 0.049295377 -0.061921775 0.002865411 0.012836882
-0.031067993 -0.04104981 0.050950397 -0.109815486 -0.0066461335 -0.10801235 0.007237087 -0.016355483
00000000: dd3c 0dbd d1c1 afbd 9305 5b3c 9ed2 373d
00000010: 7cfe a5bd 03ea 38bd e77d 99bc 1a41 abbd
00000020: 40f3 b3bd 42c4 533c e035 bfbc a650 91bd
00000030: 4247 22be 26c9 af3c 2e4d 22bd 25c6 4abd
00000040: 6161 93bd de2c 5bbd 2d19 0dbd 6a73 89bd
00000050: 92e5 d1bd 69b6 b3bb 86a4 82bd 4d31 1fbd
00000060: a62c ff3c 6c3c 27bd db38 403d 900d 213b
00000070: 310a 0cbe 3ba2 58ba e771 3ebd 8f17 673c
00000080: fbd6 b23d 72a8 86be bb07 51be 341f 243d
00000090: a1fe 2ebd 9063 80bd bfe0 143d 5e6f c7bc
000000a0: 8072 9ebd f0f1 21bd 846c 29bd 9d66 0a3c
000000b0: ec8e 17be d8ae bd3d 9ad7 0abd ffc5 b6bd
000000c0: f5ea 43bd 4c56 55bd bb8c 9bbb 4172 36bd
000000d0: a683 bc3c 2fc4 7dbc 7f0c a2bc 3ed1 bdbb
000000e0: 87b8 613c a255 31be cfcf 89bd 59fe 903d
000000f0: dc59 3d3c c4d0 32be c306 053b a909 21bd
00000100: d173 b93d 76f8 79bd 60fc 213d c947 34bd
00000110: 287c 53bd 1d4e 0c3d 8b9f 16bd 3792 38be
00000120: e808 16bd 7abd da3c 21e9 78bd 5f87 b8bc
00000130: 072a 57bb 19aa ac3c 4bd6 293d 54f4 313d
00000140: 4540 9bbd 31ea 703c 3c38 703d 5426 493c
00000150: 23c0 083d d243 9b3c 5b1e 65bd 242a 10bc
00000160: df2a c5bd 3697 803c 1567 053d 2457 11be
00000170: 5bdd 293e 2987 b1bd 8e8a 9d3d d393 9f3c
00000180: 8f62 b93c ec6d 09be 92f4 8a3a dc58 11bd
00000190: 21eb 163d ba10 24bd 4b9d 523d 2d0c 92bc
000001a0: 735c ffbc 0fe8 acbd ad5d 3cbd a566 35be
000001b0: f0d0 52bd 9381 30bd f1a1 31bd 0a8f 293d
000001c0: c98c 95bd 991b 1abe f573 2dbd 5647 393c
000001d0: f3e9 493d b0a1 7dbd 9fc9 3b3b c951 523c
000001e0: 4e82 febc d823 28bd 5db1 503d f1e6 e0bd
000001f0: cfc7 d9bb 9435 ddbd 1625 ed3b effb 85bc

network_body.linear_encoder.seq_layers.0.weight f4 [128, 130]
-0.13741004 0.08982693 -0.1805127 -0.13136236 0.09384725 -0.20549834 0.0818114 -0.13962722
-0.12296176 -0.20157546 0.23356585 -0.002582696 0.19977267 -0.44406152 -0.2870541 0.09427041
-0.12160215 -0.08539707 0.12607133 -0.11520808 0.07862922 0.04283251 0.004830774 -0.12892465
0.12115915 -0.2929205 -0.40890315 0.050651632 -0.0024745374 -0.14115757 0.24857445 -0.64377326
-0.40540683 0.06507638 -0.12639792 -0.039204028 0.3156832 -0.49644095 -0.46614134 0.11063503
-0.08428561 -0.025640627 0.033820264 -0.5582331 -0.24962704 0.02774522 0.05952125 -0.032788318
0.40072227 -0.3134558 -0.08676954 0.096412316 0.19649133 0.066019334 -0.0008366228 0.10691733
0.067703746 0.17450833 -0.053464092 -0.037112817 0.13187222 -0.039095193 -0.14182909 0.5265874
-0.45517892 -0.15476288 0.41750675 -0.23046955 -0.12317731 0.2872435 -0.19669558 -0.18564975
0.17649946 -0.022551503 -0.25644147 0.30331 0.13316002 -0.07040459 -0.081203744 0.052889515
0.122518696 0.021536935 0.0041949693 0.14380796 -0.121549845 -0.08755123 -0.08794593 0.08903949
0.063139506 -0.28187189 0.23834544 -0.1417631 0.20179105 -0.18355599 -0.26015702 0.16715987
-0.15490057 -0.29202932 0.07558589 0.10604121 -0.121256925 -0.018678056 -0.35319716 0.21559818
-0.04480611 0.014549223 0.061676923 0.0013213125 -0.03463364 -0.026246654 -0.23003878 -0.06083645
0.0017977951 0.015171765 0.031071289 -0.043439966 -0.26637748 0.033584513 -0.24671923 -0.064381115
-0.13302496 -0.09570535 -0.07184571 0.098045856 -0.45154366 0.018502815 -0.28286436 0.066784985
0.26961076 -0.14670753 -0.28365538 0.06134811 -0.08769971 -0.18884173 0.10393231 -0.004881881
-0.08535115 -0.082836255 0.06411548 0.08817074 -0.27402177 0.0017962693 -0.016004352 -0.13512798
-0.08637641 0.14756364 -0.17345195 -0.017205607 -0.115377665 0.005602926 -0.093344875 0.16164781
-0.22768033 -0.16800061 0.083655484 -0.15334162 -0.21956451 0.085331246 -0.093181625 -0.21668921
-0.27143988 0.04300773 -0.11687801 0.054601207 0.11802562 -0.006649238 -0.6994077 -0.02119664
-0.120798096 -0.018252866 -0.14347577 0.020379467 -0.37885183 -0.066746935 -0.029030927 -0.09910216
-0.1993397 0.06268579 -0.10638379 -0.09108589 -0.2526659 -0.29315868 -0.030429011 -0.123902015
-0.15820836 -0.032286607 0.04202072 -0.010026859 -0.1934027 0.07033238 0.25474536 -0.24381997
-0.2014055 -0.020186638 -0.049338453 -0.100550935 0.21288195 -0.0014947084 -0.36607373 0.030002475
-0.016821714 0.05040475 -0.0005583446 -0.14347136 0.10467107 -0.5235365 0.23777206 0.24442142
-0.8854268 -0.75055695 0.6448646 0.2950065 -0.44513503 -0.6756396 0.19102088 -0.22476238
-1.0958912 -0.027620766 0.2654126 0.03146445 -0.3308384 -0.84757876 0.12353412 -0.33607715
-0.92472917 0.117134966 0.15623243 0.08861258 -0.12538765 -0.90078443 0.2347101 -0.21519975
-0.9807232 0.20468031 0.15087017 -0.097818986 -0.32788855 -0.6292644 -0.16718017 0.039318517
-0.8019374 0.27937275 -0.18543456 0.17296669 -0.26838744 -0.9819598 0.124704994 0.26713908
-0.6122969 0.57927775 -0.13101889 -0.073192045 -0.13714266 -0.76234037 -0.032333072 0.067119494
00000000: 38b5 0cbe 2ef7 b73d 52d8 38be db83 06be
00000010: fd32 c03d 286e 52be bc8c a73d 70fa 0ebe
00000020: 60d3 fbbd cc69 4ebe e32b 6f3e 7342 29bb
00000030: 3591 4c3e 085c e3be c1f8 92be d810 c13d
00000040: 8c0a f9bd a9e4 aebd d818 013e 37f2 ebbd
00000050: 5b08 a13d 2471 2f3d 784b 9e3b d304 04be
00000060: 4a22 f83d adf9 95be c15b d1be 1678 4f3d
00000070: d92b 22bb 9c8b 10be 4d8a 7e3e 53ce 24bf
00000080: 7c91 cfbe c446 853d 756e 01be 6794 20bd
00000090: 3aa1 a13e 822d febe 14aa eebe 9e94 e23d
000000a0: ef9d acbd 4b0c d2bc 1e87 0a3d 5de8 0ebf
000000b0: 3b9e 7fbe f249 e33c 8ecc 733d 0b4d 06bd
000000c0: 782b cd3e 477d a0be 3bb4 b1bd d273 c53d
000000d0: 0635 493e 2535 873d ce50 5bba 79f7 da3d
000000e0: 43a8 8a3d 50b2 323e 2afd 5abd 9c03 18bd
000000f0: 8309 073e 4822 20bd a53b 11be 6fce 063f
00000100: 360d e9be 297a 1ebe 72c3 d53e 3600 6cbe
00000110: 6344 fcbd 9411 933e 916a 49be f81a 3ebe
00000120: 46bc 343e eebd b8bc 4c4c 83be 734b 9b3e
00000130: 1a5b 083e 4830 90bd 264e a6bd ada2 583d
00000140: 15eb fa3d 3a6e b03c f475 893b 6542 133e
00000150: 20ef f8bd 0f4e b3bd ff1c b4bd 565a b63d
00000160: 494f 813d 8351 90be d410 743e 592a 11be
00000170: 50a2 4e3e 1af6 3bbe 4d33 85be f52b 2b3e
00000180: 419e 1ebe de84 95be c6cc 9a3d 222c d93d
00000190: 8d55 f8bd b902 99bc 42d6 b4be c5c5 5c3e
000001a0: 9d86 37bd dd5f 6e3c f1a0 7c3d e42f ad3a
000001b0: 01dc 0dbd 3903 d7bc 498f 6bbe a42f 79bd
000001c0: fea3 eb3a ff92 783c 3789 fe3c 1bee 31bd
000001d0: a162 88be ea8f 093d f7a3 7cbe 3fda 83bd
000001e0: b237 08be 2b01 c4bd d823 93bd 44cc c83d
000001f0: bb30 e7be 3793 973c 99d3 90be 91c6 883d
00000200: 6c0a 8a3e 803a 16be 473b 91be 2848 7b3d
00000210: e89b b3bd ba5f 41be 77da d43d 30f8 9fbb
00000220: 95cc aebd 0ea6 a9bd fa4e 833d dc92 b43d
00000230: 954c 8cbe cc70 eb3a 8f1b 83bc fd5e 0abe
00000240: 1ee6 b0bd ec1a 173e 639d 31be c6f2 8cbc
00000250: 204b ecbd c098 b73b 992b bfbd 0187 253e
00000260: 0825 69be 5a08 2cbe 9153 ab3d 9605 1dbe
00000270: 85d5 60be 26c2 ae3d 02d6 bebd c7e3 5dbe
00000280: 2bfa 8abe e028 303d bd5d efbd 84a5 5f3d
00000290: 6bb7 f13d dae1 d9bb 620c 33bf 93a4 adbc
000002a0: fe64 f7bd 0987 95bc 50eb 12be d7f2 a63c
000002b0: def8 c1be 9eb2 88bd 44d2 edbc 13f6 cabd
000002c0: b51f 4cbe 6861 803d bfdf d9bd 3d8b babd
000002d0: 6d5d 81be e518 96be 4346 f9bc 57c0 fdbd
000002e0: 5f01 22be f63e 04bd eb1d 2c3d b247 24bc
000002f0: 5b0b 46be 6c0a 903d fc6d 823e f1ab 79be
00000300: 3e3d 4ebe 735e a5bc 1e17 4abd a6ed cdbd
00000310: bafd 593e 17ea c3ba 046e bbbe c0c7 f53c
00000320: b1cd 89bc 3675 4e3d df5d 12ba 28ea 12be
00000330: c95d d63d 7d06 06bf 857a 733e 9c49 7a3e
00000340: 55ab 62bf 8024 40bf d915 253f 180b 973e
00000350: bde8 e3be b8f6 2cbf fa9a 433e 1c28 66be
00000360: 2a46 8cbf f244 e2bc 29e4 873e dee0 003d
00000370: a763 a9be ecfa 58bf 75ff fc3d 4e12 acbe
00000380: 0dbb 6cbf 75e4 ef3d 65fb 1f3e 837a b53d
00000390: 9f65 00be cf99 66bf d857 703e 535d 5cbe
000003a0: ad10 7bbf b797 513e b67d 1a3e 5255 c8bd
000003b0: 02e1 a7be 7917 21bf 4731 2bbe 740c 213d
000003c0: c54b 4dbf f209 8f3e 8fe2 3dbe 2e1e 313e
000003d0: 146a 89be b861 7bbf 5565 ff3d 74c6 883e
000003e0: 7dbf 1cbf 8c4b 143f d129 06be b6e5 95bd
000003f0: 206f 0cbe bd28 43bf af6f 04bd f275 893d

network_body.linear_encoder.seq_layers.2.bias f4 [128]
-0.15840748 -0.0012728706 0.039695263 -0.292851 0.028500646 -0.24950741 0.11044834 -0.19530177
-0.075836115 -0.08966879 -0.19130386 -0.09489314 -0.3878561 -0.048573412 -0.21446 -0.03258826
-0.101781756 -0.21682744 -0.03239457 -0.20716816 -0.18011928 -0.21192896 -0.16417319 0.0026622906
0.051326413 -0.18983456 0.005489012 -0.06844902 -0.12904684 -0.081200615 -0.21806586 -0.01880725
0.05737528 0.06228709 -0.11624968 -0.2853344 -0.16139315 -0.08747446 -0.17890593 -0.054712947
-0.087223396 -0.24108593 -0.038289044 -0.27565482 -0.07881401 -0.06913508 -0.08100563 -0.35549033
-0.28763497 -0.19707075 -0.04705995 0.03736784 -0.09795125 -0.051912162 -0.1381532 -0.22042719
0.014654159 -0.0214164 -0.24160187 -0.16607192 -0.040402066 -0.018535376 -0.22671378 -0.15202236
-0.12808862 -0.027266625 -0.23405519 -0.03749218 -0.14729784 0.116622195 -0.2089323 -0.14444835
-0.14654191 -0.28383642 -0.31883642 -0.016223866 -0.14179757 -0.09937954 -0.066862255 0.06520325
-0.28746375 -0.0609427 -0.17447087 0.00657097 -0.104769826 -0.08878892 -0.08205089 0.007775766
-0.13878979 -0.15065612 0.036250923 -0.21045628 -0.1539531 -0.15367159 -0.120119095 -0.16567512
-0.20211616 -0.08720035 -0.11841584 0.126979 -0.05186533 0.07127105 -0.07414249 -0.28974056
-0.068285435 -0.25693733 -0.08330453 -0.021132095 -0.08594203 -0.16233447 -0.37293732 -0.27399522
0.00077050034 -0.033265207 -0.088636495 0.0135386875 -0.1702495 -0.09358927 -0.030517595 -0.11889739
-0.2180573 0.04508826 -0.112921685 -0.24306102 -0.14359531 -0.30689 -0.113751926 -0.30012336
00000000: 9235 22be 73d6 a6ba 8097 223d 91f0 95be
00000010: 307a e93c df7e 7fbe bd32 e23d 30fd 47be
00000020: f74f 9bbd 45a4 b7bd 29e5 43be 5657 c2bd
00000030: 1395 c6be eaf4 46bd 679b 5bbe 447b 05bd
00000040: f472 d0bd 0308 5ebe 2bb0 04bd e423 54be
00000050: 3071 38be e803 59be 041d 28be d379 2e3b
00000060: a53b 523d fe63 42be 2cdd b33b 002f 8cbd
00000070: db24 04be 824c a6bd a84c 5fbe a911 9abc
00000080: 5702 6b3d bf20 7f3d 5014 eebd 5a17 92be
00000090: 3f44 25be cf25 b3bd 1e33 37be af1a 60bd
000000a0: 2ea2 b2bd 3bdf 76be f9d4 1cbd a122 8dbe
000000b0: 3d69 a1bd b196 8dbd 48e6 a5bd d402 b6be
000000c0: e444 93be eacc 49be efc1 40bd 050f 193d
000000d0: aa9a c8bd d9a1 54bd 0878 0dbe aab7 61be
000000e0: ff17 703c 7271 afbc 7b66 77be c20e 2abe
000000f0: a37c 25bd 80d7 97bc a827 68be c0ab 1bbe
00000100: aa29 03be 425e dfbc 2aac 6fbe 6691 19bd
00000110: 3fd5 16be 9ed7 ee3d 59f2 55be 45ea 13be
00000120: 150f 16be 0253 91be 873e a3be eae7 84bc
00000130: 6233 11be 8087 cbbd 14ef 88bd 4889 853d
00000140: 732e 93be 0d9f 79bd 7ea8 32be 4b51 d73b
00000150: 9091 d6bd f7d6 b5bd 4c0a a8bd dacb fe3b
00000160: e91e 0ebe 9945 1abe d97b 143d da81 57be
00000170: e2a5 1dbe 165c 1dbe 0001 f6bd bda6 29be
00000180: 8af7 4ebe 1996 b2bd 0184 f2bd c806 023e
00000190: be70 54bd 8ef6 913d 05d8 97bd e058 94be
000001a0: 3cd9 8bbd 4a8d 83be 919b aabd 371d adbc
000001b0: 6002 b0bd 023b 26be a4f1 bebe 1a49 8cbe
000001c0: 67fb 493a 1941 08bd 0d87 b5bd 5fd1 5d3c
000001d0: e355 2ebe bbab bfbd 0900 fabc 7a80 f3bd
000001e0: 6a4a 5fbe 78ae 383d 7c43 e7bd fde4 78be
000001f0: a60a 13be b020 9dbe c5f6 e8bd c5a9 99be

network_body.linear_encoder.seq_layers.2.weight f4 [128, 128]
0.34108177 -0.11235366 -0.41391772 -0.09302743 0.50474465 0.3014197 0.11376126 -0.17316616
0.2310255 0.041322898 0.07605248 -0.17426552 0.16591994 -0.1142689 0.15952 0.1683677
-0.1327216 0.45152202 -0.055886477 -0.28731027 -0.6751279 -0.13541286 -0.1312682 0.22681408
0.10407945 -0.15904143 0.20120421 -0.16236274 -0.01676922 -0.1672584 -0.11457395 -0.18312839
-0.07127866 0.33138746 0.18100606 -0.15450473 -0.20114723 -0.4601468 0.08254726 0.06405853
-0.12767938 -0.16441976 -0.13625678 -0.009239849 -0.07318045 -0.10058564 0.21299721 0.4153111
0.007637256 -0.18083167 0.21810894 0.069711514 -0.2659403 -0.30290872 -0.1305705 0.25145206
0.06026138 -0.37331963 0.30654553 0.07638039 -0.09178491 -0.22603148 -0.17084797 -0.11950941
-0.2573065 -0.19305742 -0.14206348 0.071002476 -0.5237781 -0.18378952 -0.048631433 0.1809715
-0.06440962 -0.5618173 0.25220227 -0.031711627 0.047882866 -0.06953695 -0.1903533 0.13877167
0.25896305 0.3568995 0.10777498 -0.031189147 0.28018692 0.30163676 -0.1959344 -0.06076931
0.049489364 -0.118682675 -0.22144084 0.07351218 -0.04372279 0.107561566 0.14049277 0.31282532
0.043181587 0.13342273 -0.33646306 0.0119243 0.31419778 -0.039528865 -0.22887255 -0.43458962
0.1430175 -0.059638076 -0.17644012 -0.28012812 -0.26012537 -0.23837179 -0.28541067 -0.20219123
-0.008759544 0.018934159 -0.14670564 -0.05336207 -0.046298478 -0.047945995 0.25629467 0.2197374
0.13064381 -0.3124643 0.11647579 -0.0068213297 -0.111096255 -0.044611085 -0.014664874 -0.19572581
-0.25527832 -0.13468724 -0.20342906 -0.057274267 -0.2687749 0.124208644 0.21894367 0.046964858
0.1608403 0.15554762 -0.1414312 0.18310484 -0.051923227 -0.02338126 -0.23150416 -0.23026584
-0.16173187 -0.029488878 -0.019705737 -0.11912659 0.15490389 0.11947976 -0.28356248 -0.12159199
0.0908673 -0.09420708 0.04068864 -0.15192747 0.025851192 0.17377473 0.086039945 0.014065088
-0.12327294 -0.06026271 -0.14165658 -0.32636127 -0.40433142 -0.3796412 0.11989897 -0.015200474
-0.277722 -0.20242447 -0.04600512 -0.27224746 -0.39432925 0.081062295 0.006385042 -0.21077538
0.044726606 -0.12117012 0.07670482 -0.07275131 0.04287223 0.10265618 0.12384048 -0.32698888
0.124188915 -0.23830262 0.07475719 -0.36750007 -0.2559674 0.2710214 -0.34719798 -0.096421786
0.14908537 -0.027115898 -0.33171645 -0.60083455 -0.15247214 0.16853638 -0.22823654 0.02597354
0.37859088 -0.01038634 0.25943452 -0.06629084 0.10642082 -0.08570768 -0.16538629 -0.17401299
-0.14637624 0.05704869 -0.021149056 -0.021037677 -0.15722725 -0.27156928 0.07652172 6.101632e-05
0.0017804089 0.23760782 0.16612464 0.38631088 0.05852193 0.088599615 0.06905139 -0.28228325
-0.056099307 -0.24608646 0.1233133 -0.32392463 -0.32666582 0.08907091 -0.1736743 -0.08623926
-0.17687564 -0.08733945 -0.2231953 -0.071950234 -0.18645164 0.042144857 -0.55251485 0.36079326
-0.29961827 0.11060517 -0.31586382 0.120206825 0.029621305 0.05193105 -0.08226803 0.062941976
-0.12651576 -0.4732106 0.0057338756 0.13394715 -0.499582 0.0128447795 -0.12272975 0.005172084
00000000: 45a2 ae3e ad19 e6bd 06ed d3be 2a85 bebd
00000010: f236 013f af53 9a3e aafb e83d 7852 31be
00000020: f391 6c3e 3342 293d 67c1 9b3d a972 32be
00000030: ebe6 293e d005 eabd 3659 233e 9568 2c3e
00000040: 2ce8 07be e52d e73e 38e9 64bd 551a 93be
00000050: 2fd5 2cbf aba9 0abe 2c6b 06be f341 683e
00000060: 9b27 d53d c2db 22be 7a08 4e3e 6b42 26be
00000070: 9a5f 89bc c945 2bbe bfa5 eabd 0286 3bbe
00000080: 8cfa 91bd 9eab a93e a759 393e 7d36 1ebe
00000090: 8af9 4dbe 5d98 ebbe 8a0e a93d 1e31 833d
000000a0: 62be 02be a75d 28be e686 0bbe bc62 17bc
000000b0: a2df 95bd d8ff cdbd f11b 5a3e a8a3 d43e
000000c0: f241 fa3b f02b 39be f357 5f3e e9c4 8e3d
000000d0: 5429 88be da16 9bbe 46b4 05be 53be 803e
000000e0: a3d4 763d c023 bfbe 89f3 9c3e 526d 9c3d
000000f0: baf9 bbbd cc74 67be c5f2 2ebe 59c1 f4bd
00000100: adbd 83be d8b0 45be 1779 11be bf69 913d
00000110: 5216 06bf 5233 3cbe c131 47bd 9850 393e
00000120: 31e9 83bd 42d3 0fbf a820 813e 0de4 01bd
00000130: d320 443d 6369 8ebd faeb 42be 291a 0e3e
00000140: ce96 843e 88bb b63e 21b9 dc3d 6280 ffbc
00000150: a974 8f3e 2270 9a3e 07a3 48be 3de9 78bd
00000160: 5cb5 4a3d e70f f3bd 63c1 62be 8e8d 963d
00000170: ab16 33bd 3d49 dc3d 56dd 0f3e a42a a03e
00000180: 2ddf 303d f89f 083e e344 acbe 245e 433c
00000190: 88de a03e 05e9 21bd 915d 6abe 8882 debe
000001a0: 2e73 123e 0e47 74bd b8ac 34be f46c 8fbe
000001b0: 272f 85be bc17 74be 5921 92be 380b 4fbe
000001c0: 3184 0fbc cf1b 9b3c 013a 16be 3092 5abd
000001d0: 79a3 3dbd 0563 44bd 0e39 833e d702 613e
000001e0: 7ec7 053e 52fb 9fbe dc8a ee3d 7685 dfbb
000001f0: 6f86 e3bd 1dba 36bd f144 70bc 596c 48be
00000200: d7b3 82be 74eb 09be b54f 50be 6c98 6abd
00000210: dd9c 89be 1a61 fe3d c532 603e 395e 403d
00000220: 52b3 243e e047 1f3e 57d3 10be d67f 3b3e
00000230: 73ad 54bd 0e8a bfbc 6d0f 6dbe cfca 6bbe
00000240: 0a9d 25be a992 f1bc ed6d a1bc a4f8 f3bd
00000250: 209f 1e3e ceb1 f43d 1a2f 91be 3905 f9bd
00000260: a318 ba3d a4ef c0bd 22a9 263d e092 1bbe
00000270: e1c5 d33c 01f2 313e b635 b03d 4171 663c
00000280: 8676 fcbd 08d6 76bd 6c0e 11be d318 a7be
00000290: 8704 cfbe 5560 c2be 978d f53d 690b 79bc
000002a0: 9431 8ebe 5c48 4fbe dd6f 3cbd 0564 8bbe
000002b0: 86e5 c9be fd03 a63d 9d39 d13b 80d5 57be
000002c0: 3f33 373d 0a28 f8bd 6b17 9d3d a4fe 94bd
000002d0: cb9a 2f3d 673d d23d 14a0 fd3d 166b a7be
000002e0: c256 fe3d 9a05 74be 4c1a 993d f828 bcbe
000002f0: 290e 83be 51c3 8a3e efc3 b1be c978 c5bd
00000300: d6a9 183e 2922 debc bdd6 a9be 4bd0 19bf
00000310: a821 1cbe cd94 2c3e d7b6 69be 76c6 d43c
00000320: aad6 c13e 782b 2abc 9ad4 843e 7ec3 87bd
00000330: 29f3 d93d 8287 afbd 065b 29be 7630 32be
00000340: a7e3 15be e3ab 693d c940 adbc 3557 acbc
00000350: 2e00 21be 210b 8bbe 6bb7 9c3d c6eb 7f38
00000360: 9c5c e93a 774f 733e 941c 2a3e 8aca c53e
00000370: b1b4 6f3d b773 b53d d16a 8d3d 6e87 90be
00000380: 63c8 65bd 17fe 7bbe af8b fc3d 73d9 a5be
00000390: be40 a7be cf6a b63d add7 31be 369e b0bd
000003a0: e31e 35be 07df b2bd 4f8d 64be a55a 93bd
000003b0: 2eed 3ebe 16a0 2c3d 9d71 0dbf e5b9 b83e
000003c0: 9167 99be f784 e23d e7b8 a1be ff2e f63d
000003d0: 61a8 f23c a7b5 543d 247c a8bd b9e7 803d
000003e0: 598d 01be a948 f2be 3ce3 bb3b 7129 093e
000003f0: 36c9 ffbe e972 523c bc59 fbbd 967a a93b
