results/SelfPlay_FreezeTool_Corridor_5/BasicAgent/BasicAgent-173324.onnx (onnx, 173150 bytes, 6 tensors)

action_model._discrete_distribution.branches.0.bias f4 [6]
00000000: a515 58bd 98cf d23d 1f32 b7bd d535 293d
00000010: deb6 dc3c 9fbe d2bd
-0.052755017 0.102935016 -0.08945107 0.041311104 0.026942667 -0.10290264

action_model._discrete_distribution.branches.0.weight f4 [6, 128]
00000000: 2a0d 333d 4255 583d bac9 84bc 1fff 20bd
00000010: ff6c 803d 27e1 7e3d a605 2c3d ce66 213c
00000020: 9747 903c bb01 2bbd 4ff5 723d 248a 623d
00000030: bcb2 a2bd db10 cf3c e0df 09bd d84c 1f3d
00000040: 480e 5d3d f75c f13c a8c2 8c3c 4ef6 31bc
00000050: 8886 3fba 5a82 82bc 377d 073d 154b 44bd
00000060: ab27 c33b 50cf 923c e173 9dbd 1a89 203d
00000070: de2a 99bb b86e 153d 78d9 3b3b 6be1 4fbd
00000080: b1d9 5a3c e2f7 e63c 0324 2b3d cebe 36bd
00000090: 9f3a 98bc 21e3 e9bc 7c49 b2bc 96b2 163c
000000a0: 7206 b9bb 841d 093d d303 8e3d d2fd a6bd
000000b0: 23eb eebc 9d73 abbc a078 30bd ab5c 373d
000000c0: 1367 223d e216 dabc 93e4 1a3d bb93 bdbc
000000d0: 82e9 3fba 70d8 21be b423 98bc 5ded f33c
000000e0: 3bd2 643d 77c5 e43c 6456 e53c caa5 823d
000000f0: d7d9 abbd aa41 ddbc f46d 573b 8f7a 413d
00000100: 8291 a4bd 72aa de3c bba8 d03b c3bb 673c
00000110: 5b25 0fbd a3c1 b03c 3ac4 17bd 1ef9 613d
00000120: b615 043d b7a1 103c 66c8 c93c 7acb 02bd
00000130: d3c1 203c f34c adbd 5ab0 eabb fc38 a9bd
00000140: 9e8e 8cbc 17d8 90bd 0b92 04be 35b7 ea3c
00000150: 123e d9bc ef12 013d 6173 e2bc 77f3 793d
00000160: cd94 e93c 97b1 94bc 5b42 b93c c5d5 78bd
00000170: 6fa5 d9bc 0854 1a3d 68c0 9e3c 9613 ad3b
00000180: 98db a33c 8150 fe3b 9980 213d f491 b7bd
00000190: 87c5 5cbc 8b90 4d3c c610 913d 5d9a a63c
000001a0: 1161 213d c45c 913c c7b6 b5bc 8fdf 5f3c
000001b0: 1db7 a73d 7bef c5bc 95e6 de3c e5ce b5bd
000001c0: be72 163d 78bb 5dbd 489c 8abd c7e1 c8bc
000001d0: 548e 2cbe 253c 61bd 737f c1bc 087d 053c
000001e0: 4b89 7bbc d89d 85bd c1d0 06be f2b5 f9bd
000001f0: 325f e63c 9570 783c fc7a aabd f394 e63c
00000200: f4c8 b9bd 2c9d ac3c 8eb5 f0bd e1c7 423d
00000210: 7ef6 89bd 4417 9b3c b280 ce3c 2087 cebd
00000220: ed87 9dbd 1896 8f3d 459f 48bd 6351 42bc
00000230: 0dfb d13d f35d d83b 91a5 ddbd 450e 0e3d
00000240: 1005 61bc 39b1 bcbd b358 5dbc c2ee 183d
00000250: 7eea 9c3d 79b7 a3bd c074 00bd 1bd0 5b3d
00000260: e794 953d feb0 2f3d d60a 57bd 5f21 92bd
00000270: 06c9 9dbd 9cba debd cae6 10be 35c0 3a3d
00000280: 4cf6 0cbe f08b 04bc f188 3f3c 7d64 813c
00000290: 3918 d33c 307b f53d e650 42bd 43e1 2b3d
000002a0: 9c24 e8bd 3c15 803d cbf6 e5bd afc2 0e3d
000002b0: 2e33 cd3b cc31 843d 658c 123d a343 103c
000002c0: b581 f3bd c215 fdbd 67bd 3b3d 3e78 e6bb
000002d0: 43a9 4abd 6517 cc3d 5b46 0dbc 3192 b63c
000002e0: 52ea d7bc 095d ecbd f231 163d 7cf7 913c
000002f0: 25de b13c 5518 54be 110f 19bc f1ae ccbd
00000300: fae8 6e3d 38a9 12be 64fe 07be fa23 413d
00000310: 8291 0dbe 93c2 7ebd 072b 043d 8eed dcbc
00000320: 5715 893d e6a6 dfbd 5a9a bd3b 8d17 46be
00000330: 2792 b13d a90c 7b3c d1e5 51bd 6f4a 9f3d
00000340: 3013 263d 5ad7 793d b78e 8e3d a271 82bd
00000350: 00f3 1ebd ff58 bf3d 5911 fdbd b76c bcbd
00000360: 80c7 80bd 802c 14be e0fb 583d 3650 c0bc
00000370: 2014 083d c1ea 403d 7eee 17be 2557 ecbd
00000380: 5805 133d 0294 bcbd d09d 35bd 058b 17be
00000390: 4250 6a3d d9fb a73d c5f2 813c 0f15 e7bd
000003a0: 0237 63bd d9c7 04bc aab9 243d 9784 85bc
000003b0: 3a63 9cbc 786d 86bc a49f dabc 2f1d a93d
000003c0: 62fa eabd 4397 973c 5c1a ec3c 65f8 7fba
000003d0: 14a4 233d aace ddbd 086e 55be 3528 b0bd
000003e0: a89d 34bc 893a 4fbe 0d67 033d b56a c33d
000003f0: 5eff 96bd d48c f7bd b380 5a3d 601e 60bd
0.043713726 0.052815683 -0.016209472 -0.039305802 0.06270789 0.06222644 0.041997574 0.009851171
0.017612262 -0.041749697 0.059315976 0.055307522 -0.07944247 0.025276592 -0.03366077 0.038891643
0.053968698 0.029463274 0.017182663 -0.010861946 -0.00073061185 -0.015931297 0.0330784 -0.047923166
0.0059556565 0.01792112 -0.07688118 0.03919325 -0.0046742996 0.036482543 0.0028663557 -0.050752085
0.013357566 0.028194372 0.04178239 -0.04461556 -0.01858264 -0.028550686 -0.021763556 0.009197852
-0.0056465203 0.033475414 0.06934323 -0.08153881 -0.029164856 -0.020929152 -0.043083787 0.04476611
0.03964908 -0.02662224 0.03781564 -0.023141732 -0.0007320867 -0.1580522 -0.018571712 0.02977627
0.055864554 0.02792619 0.027995296 0.06379278 -0.08391159 -0.02700885 0.0032871934 0.04723602
-0.08035566 0.027180884 0.0063677705 0.014143887 -0.034947734 0.021576708 -0.03705237 0.055169217
0.032247268 0.008827618 0.02463169 -0.03193233 0.009811836 -0.084619425 -0.007162136 -0.08262822
-0.017157849 -0.07072466 -0.12946336 0.028651813 -0.026518855 0.031512197 -0.027642908 0.0610232
0.028513337 -0.018151088 0.022614649 -0.06075074 -0.026568143 0.037677795 0.019378856 0.005281876
0.020002171 0.0077610617 0.03942928 -0.08963385 -0.013474829 0.012546669 0.070832774 0.020337278
0.03939921 0.01774443 -0.022181882 0.01366414 0.08189223 -0.024162045 0.02720956 -0.088773526
0.03673052 -0.054133862 -0.067680895 -0.024521722 -0.16851169 -0.054989 -0.023620343 0.008147486
-0.015352557 -0.06524247 -0.13165571 -0.121929064 0.028121565 0.01516356 -0.08324239 0.028147196
-0.09071532 0.02107104 -0.11753379 0.0475539 -0.06736468 0.018931992 0.025207851 -0.10084367
-0.076919414 0.0701105 -0.048980016 -0.011860224 0.10252962 0.0066029965 -0.10822595 0.034681577
-0.013734117 -0.0921349 -0.013509917 0.037337072 0.07661913 -0.07993979 -0.03136134 0.05366526
0.073037915 0.042893402 -0.05250057 -0.07135271 -0.07704358 -0.10875437 -0.14150539 0.04559346
-0.1376583 -0.008090004 0.011690364 0.015794987 0.025768386 0.11986387 -0.047440432 0.041962873
-0.11335108 0.0625405 -0.11228713 0.034853633 0.0062622046 0.064548105 0.035778422 0.008805188
-0.11889974 -0.123576656 0.045834925 -0.007033377 -0.049477827 0.099654 -0.008622731 0.022286506
-0.02635685 -0.115411825 0.036668725 0.017818205 0.021712372 -0.20712407 -0.009341971 -0.09994305
0.058327653 -0.14322364 -0.13280636 0.04715345 -0.13825038 -0.06219728 0.032267597 -0.026968744
0.066935234 -0.10920505 0.0057862224 -0.19344921 0.086704545 0.015322843 -0.05124456 0.07777869
0.040545642 0.06099639 0.069608144 -0.0636933 -0.03880596 0.093431465 -0.123568244 -0.09200423
-0.062880516 -0.144701 0.05297458 -0.023475748 0.033222318 0.04709888 -0.14837071 -0.11540059
0.035893768 -0.09207918 -0.044339955 -0.14799125 0.057205446 0.08202333 0.015862832 -0.112833135
-0.05547238 -0.008104288 0.040216126 -0.016298575 -0.019090284 -0.01640962 -0.02668745 0.082575195
-0.11473538 0.018504744 0.028821163 -0.00097644917 0.0399514 -0.10830434 -0.20842755 -0.08601419
-0.011023916 -0.20237173 0.0320807 0.09541837 -0.07372926 -0.12087408 0.053345393 -0.054716468

network_body.linear_encoder.seq_layers.0.bias f4 [128]
00000000: 53cd 04bd 825b 853b 35a9 8ebc 698b 33bc
00000010: c84a edbc 15f7 7cbc adff 38bc 20df 99bb
00000020: 333f 0cbc 4dff eebd 0e7a f1bc 9bc8 c4bc
00000030: 7277 ab3b 45e0 05bc 9718 babc ede7 e33c
00000040: baa8 4f3c 364f c2bb 68cd 39bc 327a fcbb
00000050: a909 b039 b1b5 7e3c e183 9ebb 17e5 f53c
00000060: 8558 42bd d53d 07bd 53ea 9a3c 2d88 3e3d
00000070: 6ad8 9bbc 3589 8b3b 4c42 1abc e04f 98bc
00000080: 2ea9 5a3c 5efa 9cbb 2a6a cbbc 040b 403c
00000090: 03df 553c 2f79 033c e3dc 783c 1294 39bc
000000a0: fc1d 9d3c c0d5 ab3b 7737 ecbb fce6 29bc
000000b0: 5791 f23b 8796 543c b8b8 97bc ca9e fbbb
000000c0: 33c6 b7bc cad6 4ebd 69c2 10bc 2c18 b6bd
000000d0: bac5 213c 2f1d a23c 3941 a3bb 55e4 0e3c
000000e0: c085 e73b 7b82 b53c 3f68 07bc f9a1 37bb
000000f0: 980d 01bc 239f 193c 387b aabc 81f1 52bd
00000100: ffd1 5abc f26e b13c 2e3e dabc 7761 82bd
00000110: 3965 72bb 01db 9ebd 540d 5b3c 7d43 49bc
00000120: 13de bd3b d97b 60bd 443c 9f3b f410 143c
00000130: af71 26bd 8ec9 803c e67d 0cbc e63f 93bd
00000140: c344 88bd 8ba6 17bc ba6d 66bc fa5e 793c
00000150: d230 8abb 0da4 133d 2220 4a3c 6e0e 473b
00000160: 2449 e9bd 689f dfbc 25d4 02bd 2522 753b
00000170: e481 91bb 021a 2f3c 6061 283b aeb9 5139
00000180: 2b3b 80bc 3d39 6bb9 7ae3 d7bd c0ec 31bc
00000190: 49c5 723c b2db c9bd 649c 863c c7c8 a3bd
000001a0: 2b00 3ebb 870b b3bb d7d8 823b 813e 9c3c
000001b0: 52f2 03bc 032d 8bbc da92 9a3c 4043 bfbb
000001c0: 974b fabb f44e ffb7 79da d1bb 4c3b 56bc
000001d0: 40a3 9cbc eae0 49bc be85 363b 9202 e73b
000001e0: 018f eabc 8fff 98bc 9bcd a83b ce9d a3bb
000001f0: e0aa 7f3c 8157 81bc a624 383c 0ad6 793c
-0.032422375 0.0040697465 -0.017414669 -0.010958531 -0.028966323 -0.015439768 -0.011291427 -0.004695788
-0.00855999 -0.116697885 -0.029477146 -0.024021437 0.005232745 -0.008171146 -0.022716803 0.027820552
0.012674505 -0.005929853 -0.011340477 -0.0077049965 0.00033576533 0.015546248 -0.0048374985 0.030016465
-0.0474477 -0.033017952 0.018910563 0.046516586 -0.019024093 0.0042582997 -0.0094152205 -0.018592775
0.013346 -0.0047905883 -0.024830896 0.011721376 0.013053658 0.008024498 0.015189382 -0.011326807
0.019179337 0.005243987 -0.0072087604 -0.010370012 0.0074025798 0.012975342 -0.018520698 -0.0076788412
-0.022433376 -0.050497808 -0.0088354135 -0.08891329 0.009873802 0.019789306 -0.0049821404 0.008721431
0.007065505 0.022156944 -0.0082646 -0.0028020127 -0.007876776 0.00937632 -0.020810708 -0.051499847
-0.013355731 0.021659348 -0.026640978 -0.06366246 -0.0036986603 -0.077566154 0.013369877 -0.012284157
0.0057942956 -0.05480561 0.004859479 0.009037245 -0.04063576 0.015721109 -0.008574938 -0.07189922
-0.0665374 -0.0092560155 -0.014064247 0.015220398 -0.0042172456 0.036045123 0.012336763 0.003037359
-0.113909036 -0.02729769 -0.031940598 0.0037404385 -0.004440533 0.010687353 0.0025692806 0.00020000964
-0.015653213 -0.0002243267 -0.105414346 -0.010859668 0.014817544 -0.09856357 0.016431995 -0.079972796
-0.00289918 -0.0054640207 0.0039931345 0.019072773 -0.008053379 -0.016989237 0.018868852 -0.0058368742
-0.0076384055 -3.0435134e-05 -0.006404218 -0.013075661 -0.019120812 -0.01232169 0.0027850713 0.007049867
-0.028632643 -0.018676547 0.005151463 -0.004993177 0.015604705 -0.015788795 0.011239206 0.015248785

network_body.linear_encoder.seq_layers.0.weight f4 [128, 197]
00000000: a680 8bbe 8832 ed3d b89e 113e 72a0 72bd
00000010: 98ea ae3c d835 a4bb 7afa 79bd 36b8 49bd
00000020: f173 82bd bfa2 66bd 7283 53bd 9f9a c93d
00000030: c6f4 053e c7dd 8cbe 23e7 47be 52f6 c9bd
00000040: 99ea c9bd 80cf 97bd 8580 0f3d ac78 30be
00000050: a18c c9bd c005 61be 630c 3bbd 4cb0 c73d
00000060: f5d7 123e 0dd5 f0bc 93fe ecbd 25c0 ebbd
00000070: 2d34 9b3d eb8d 55bd c9d4 f1bc 7abe 05be
00000080: 2ca7 4cbe fa98 0fbe d9f1 e3bd 5ea5 643d
00000090: 530c babc e151 683d 4eb2 01be 1227 e5bd
000000a0: cbb4 1ebd 219f 70bd 3b72 093d 536d 8d3c
000000b0: e040 aa3c f0d2 063c 0976 8fbc 1c93 efbb
000000c0: 0427 e4bc 5140 afbb eb58 b4bd 8a22 44bd
000000d0: 634f c33c 29ff 66bc 9952 4bbe 9008 8fbc
000000e0: 0a85 6cbd eb53 923d 2d1f 18bd 8f97 893d
000000f0: 5b3b d6bd 5f31 41bd 80a9 983c 6372 b33d
00000100: 7079 22bd 034f 2fbd 60c9 f6bd 72ef 303e
00000110: 6957 b23c f8da 5abd bcec 8dbd 0752 413d
00000120: ec7f 75bd a7b7 273d a66e 433b b06c 51bc
00000130: 9544 58bc df7a 873e 50fd 363c 7957 183d
00000140: 139b 3dbd d6b2 b63d d024 ffbb 7119 75be
00000150: 34e1 91bd b157 2b3e 071e ae3d e2e7 e3bc
00000160: 9959 b83d 89c7 95be 010f 173d 1eca d13d
00000170: 9be3 033d f611 3fbd 5375 473a fd72 49be
00000180: 13e5 6fbd 0234 94bd 55ae 08be 3276 b3bd
00000190: 8067 aabb 0e39 1dbe 64a1 dc3c f7bd 80bd
000001a0: 098a e8bd d34c c2bc d11a 123d 2c8c 383c
000001b0: 75b3 a1bd f386 0c3d 4327 33be c941 a2bd
000001c0: bbed 6a3d a92f 80bd 4eae c93e 7e79 a1bd
000001d0: 770f a33e 5b39 993d ece2 65bd 4a68 7d3e
000001e0: 8375 dd3c 9d14 dbbd 3c74 493d 9871 b2bd
000001f0: eec1 453e 47b2 303e 2ee4 6bbe c636 b53d
00000200: e961 eebd f0b4 ebbd d503 ef3d b239 babc
00000210: e0a2 fbbd cf44 aa3c 9c2c afbd df33 513b
00000220: f8cf c4bd 461e 4e3d 7b1a 97bd 1fe7 ecbb
00000230: 9a42 0abe d9cb 04be e4e4 31bd 1364 a83c
00000240: 6633 39be c7ce f1bd 329a bcbd d9d8 35bd
00000250: 10e3 d43d d89e 99bd a77f 8ebd 0616 f63d
00000260: fcd9 fbbd ff28 2a3e 77b7 af3c 824f 523d
00000270: 5bab 20bd 8e92 aabd 3ce1 163e 3b03 6e3e
00000280: 884c 95bd 50da 073d cb78 803d c6c0 763d
00000290: a018 9c3d 6c37 8c3e 7c1a 75bd ff4f a83b
000002a0: 4cf5 5fbd 8b25 9e3d 7c53 8a3d 1dbe 1bbd
000002b0: 7f6a 1c3c d5fb 0f3e de2a 24bd 3e14 103d
000002c0: 086f 143d c702 44bd 7f13 5c3b e198 aabc
000002d0: 6b0a 95bd 9db3 5d3d e5f3 da3b 74f3 f2bc
000002e0: 5921 0bbe 9abd bf3c 4127 73be d1da bebd
000002f0: 7c99 433c 3580 e73c fae7 3bbe 6d28 20be
00000300: 164f b8bd 73b8 b5bc fda0 b0bd dae9 c03c
00000310: 2f96 2abd 90df 7b3d 2cc5 bcbb 7647 c73d
00000320: 4374 963c f911 f4bd 47d6 48bc 9dc9 ae3c
00000330: c33b 473d c35e cebc c69d 0d3d 323b a8bd
00000340: 2b96 8fbe fe90 05be 53ce 273e ca65 3f3e
00000350: c5b4 29bd 7ee3 06be 5169 70be d8ff 8bbe
00000360: de77 073e 9cb0 663c 0c24 b63d 325c 42bd
00000370: 3cf7 20bd 226c 7bbe 793d 793d 8774 3fbd
00000380: 6c8c 0c3e 10b2 85be 5a3a 1cbd ad6c 3fbe
00000390: 7468 993e 93e3 283b cd4b 323d 424a 33bd
000003a0: 26d1 53be a088 3fbd d338 f93b cc5e 7a3c
000003b0: b146 4f3b fa0d 763b 172a 2abe f3a2 a8bd
000003c0: 4425 af3c cc92 e53c b468 523d 050e 4bbd
000003d0: e3f0 d1bd aa5a fdbd 9fce 83bb e649 ff3c
000003e0: 1ee4 e0bb e8a9 0fbe 2def bbbd 885e 53be
000003f0: d048 123d fb0b f83c 605c b23e 10b3 93be
-0.27246588 0.11581904 0.14220703 -0.059235044 0.021352097 -0.0050113015 -0.06102989 -0.049247943
-0.0636977 -0.05630755 -0.051639028 0.09843945 0.13081655 -0.27512953 -0.19521765 -0.09861435
-0.09859199 -0.07412624 0.035034675 -0.17233533 -0.09841276 -0.2197485 -0.04566611 0.09750423
0.14340194 -0.029398466 -0.11571994 -0.11511258 0.07578311 -0.052137297 -0.02952041 -0.13060942
-0.19985646 -0.140232 -0.11130113 0.05582177 -0.022710955 0.05671871 -0.12665674 -0.11189093
-0.038746636 -0.058745507 0.033556204 0.017264044 0.020782888 0.008229002 -0.017512338 -0.007311238
-0.027850635 -0.0053482433 -0.08806022 -0.0478845 0.023841565 -0.014098921 -0.19855727 -0.017460138
-0.057744063 0.07144912 -0.037139107 0.06718361 -0.1046054 -0.047166225 0.018635511 0.08762052
-0.039666593 -0.04279996 -0.12050128 0.17278841 0.021770196 -0.05343148 -0.06929919 0.047197368
-0.05993645 0.04094663 0.002982059 -0.012782261 -0.013199945 0.2646093 0.011168793 0.037192795
-0.04629047 0.08920829 -0.007786371 -0.23935486 -0.07123032 0.1673267 0.08501821 -0.027820531
0.090014644 -0.29253796 0.036879543 0.10243629 0.032199483 -0.04664799 0.000760873 -0.19672771
-0.05856807 -0.07236482 -0.13347752 -0.08762778 -0.0052003264 -0.15353796 0.026932426 -0.06286233
-0.11354453 -0.023718273 0.035670105 0.011263888 -0.07895557 0.034308385 -0.17495446 -0.07922704
0.057355624 -0.062590905 0.39390796 -0.07884501 0.31847736 0.07481643 -0.056124613 0.24746814
0.027033573 -0.10697291 0.049183115 -0.087130725 0.1931226 0.17255507 -0.23036262 0.08848338
-0.11639769 -0.115091205 0.11670653 -0.02273259 -0.12286925 0.020784764 -0.085534304 0.0031921787
-0.096099794 0.05032184 -0.073780976 -0.0072297 -0.13501969 -0.12968387 -0.043431178 0.020555532
-0.18086013 -0.11807018 -0.09209098 -0.044396255 0.10394871 -0.07501 -0.069579415 0.120159194
-0.122974366 0.16617201 0.021449788 0.051345356 -0.039225917 -0.08328734 0.14734358 0.2324342
-0.07289988 0.033167183 0.062730394 0.060242437 0.07621884 0.27386034 -0.05983971 0.0051364894
-0.054677293 0.077220045 0.06754205 -0.038023103 0.009546875 0.1406091 -0.040079944 0.035175554
0.0362387 -0.04785421 0.0033580957 -0.020824851 -0.07277378 0.05412637 0.0066819065 -0.029657103
-0.1358694 0.023405839 -0.23745443 -0.0931908 0.011938449 0.028259376 -0.18350211 -0.15640421
-0.089994594 -0.022182679 -0.08624456 0.02354901 -0.041647132 0.061492503 -0.0057608094 0.09730427
0.018365985 -0.119174905 -0.012258119 0.021336371 0.048640978 -0.02519167 0.034574293 -0.082144156
-0.28044257 -0.13043591 0.163873 0.18691173 -0.04143216 -0.13172719 -0.23477675 -0.2734363
0.1322932 0.014080193 0.08893594 -0.047451206 -0.03929828 -0.24552968 0.06084964 -0.04674199
0.13725442 -0.26112413 -0.038141586 -0.186938 0.29962504 0.002577041 0.04352932 -0.04377199
-0.20685253 -0.046761155 0.007605651 0.01528139 0.0031627829 0.0037544952 -0.16617619 -0.08234205
0.021380074 0.0280241 0.051369384 -0.049573917 -0.102510236 -0.123708084 -0.004022434 0.031163167
-0.006863131 -0.14029658 -0.091764785 -0.2064153 0.03571397 0.03027915 0.34836102 -0.2884755

network_body.linear_encoder.seq_layers.2.bias f4 [128]
00000000: 37ea a4bd 0df1 073b e041 1bbd 8643 17bd
00000010: 67b9 b1bc 1f7d 55bb d3a9 7e3c dbe3 49bd
00000020: b47b 3b3c c1cd 8fbc 3c34 1abc ce23 e13c
00000030: 21c4 633d 8480 44bd 15a9 953b f7c8 703d
00000040: 7813 883c d6dc b7bd 7442 a0bd 5608 9a3d
00000050: b21c 3a3d 7cd6 78bc d91d 49bd 0203 6f3c
00000060: b65f 283d 7e39 f6bc c6e9 373d 1f2d 9bbc
00000070: ad15 f4bc d3ac c4bc 37bc 9f3b 2256 1b3d
00000080: c929 17bd e4c5 5ebd 74e3 dbbb 6510 1cbc
00000090: 45b9 9e3c 12b0 833d 0749 90bd 5a28 fb3c
000000a0: 7e0e 77bd 56a0 09bd 385f b3bd a10c e2bc
000000b0: 7bdc 2c3d 0343 363c 46ed c2bc 71df c9bc
000000c0: a4d0 4ebc 9a02 41bd c708 a63c 9c1c 373b
000000d0: bcf5 27bd 2f31 573d e6b7 333a c272 793d
000000e0: 8e86 45bc 7169 d9bc c466 673b 1511 28bd
000000f0: 7f10 57bb b910 143d 71a5 823c 53c2 f3bd
00000100: 43f9 1a3c f4a0 aabc 173d a2bc 1156 f63b
00000110: cb08 623c 9a81 93bb 6763 88bd d906 6cbc
00000120: 62b6 6ebd 1ac9 18bd 4c4e cabb 63f1 0f3d
00000130: 1308 203c ece8 c1bc bc68 d7bc a8cb b23c
00000140: d064 b8bc a470 9e3c 49a6 403d 77d4 a3b9
00000150: 12e0 253c e857 123a c973 41bc 92ee a5bd
00000160: a023 09bd da9c b63b 578e d0bb 4586 4dbd
00000170: 08af 81bd a710 6a3d ea8b 243b 77ad e4bc
00000180: b716 e93a 0fd9 bd39 fcd4 74bd 8a6a e43b
00000190: 43ef d23c 2b9b 0cbd 5156 6d3d ec9d 01bd
000001a0: d194 21bd 228e ffbc 45c3 943d a2bb 8cbd
000001b0: 49d0 023d 48fd f93c 2b3f 88bd 14ca fb3a
000001c0: 2e6b 09bc 75d7 413a 000a 28bd 1a4b 6ebd
000001d0: 4c55 d13c d986 e53b 23ce 3abc 4bd1 c03c
000001e0: 15b4 8cbd 68e7 373d fec3 12bc 6fed 343d
000001f0: 6816 17bd c910 12bd 826a 503c ba52 60bd
-0.080524854 0.0020743043 -0.03790462 -0.03692963 -0.021694852 -0.0032575799 0.015543419 -0.049289566
0.011443067 -0.017554166 -0.009411868 0.027482893 0.055606965 -0.047974125 0.0045672753 0.058785405
0.016610846 -0.08977668 -0.07825175 0.07521121 0.045437522 -0.015187856 -0.04910073 0.014588119
0.041106902 -0.030056711 0.044900678 -0.018942414 -0.029795492 -0.02400819 0.004874732 0.03792394
-0.036905084 -0.054387942 -0.006710464 -0.009525393 0.019375453 0.06430067 -0.07045179 0.03065889
-0.060316555 -0.033600174 -0.08758396 -0.027593913 0.042202454 0.011124375 -0.023794781 -0.024642678
-0.012622986 -0.04712162 0.020267857 0.0027940637 -0.041005835 0.05253714 0.0006855711 0.060900457
-0.012056006 -0.026539536 0.0035309056 -0.041031916 -0.003281623 0.03614876 0.01594803 -0.11902299
0.009458843 -0.020828702 -0.01980452 0.007517584 0.013796042 -0.0045015337 -0.066595845 -0.0144059295
-0.058279403 -0.03730116 -0.0061738845 0.035142314 0.00976755 -0.023670636 -0.026295058 0.021825626
-0.022509009 0.01934082 0.047033582 -0.0003124808 0.010124223 0.0005582557 -0.0118073905 -0.08102144
-0.03348124 0.0055728974 -0.0063646245 -0.050176878 -0.06332213 0.057144787 0.002510781 -0.027914746
0.0017783259 0.0003621061 -0.05977343 0.0069707083 0.025748855 -0.034327667 0.057943646 -0.031644747
-0.039448563 -0.031195704 0.07263807 -0.068717256 0.031936917 0.030516282 -0.06652673 0.0019210004
-0.00838737 0.00073944713 -0.04102516 -0.05817709 0.025553368 0.0070046005 -0.011401686 0.023537299
-0.068702854 0.04489842 -0.008957861 0.044171747 -0.036886603 -0.03566054 0.012720706 -0.054766394

network_body.linear_encoder.seq_layers.2.weight f4 [128, 128]
00000000: 72be babd f165 2f3c b249 c43c b03b f6bd
00000010: 9c38 26bd a2e0 a53d 2b7a e8bd 9e0e efbc
00000020: 5636 18bd 7f7c ed3d a98a 113e f2a5 c73d
00000030: bb36 9abc dd78 153e 44f4 0bbe e1cd a63d
00000040: 8f32 12bd 28bf fabd 495d 153d 281b 24be
00000050: 82b4 1b3e 77c3 b13d 2959 a6bd 8c82 d8bc
00000060: 0c38 a1bd 0e20 123e 8619 b03d e710 fb3c
00000070: 3edd 59bd 5c50 2a3c 4258 e0bd b405 4a3d
00000080: c0e7 bdbd 2067 e53d 4f91 2dbe a849 3abd
00000090: 9b37 00be 0ad5 a73c 6e23 083e 0d00 253d
000000a0: 7c4b 32be 208a 2fbe 9b63 e83c 5d1f 06be
000000b0: 2a1a a3ba c09f cfbc 6901 1dbe c6a2 553d
000000c0: 61d3 ebbc 75eb 1bbe 3ca7 8bbd 5060 e03a
000000d0: 7516 363e b30c 9dbe e84c 30be f7e8 2fbe
000000e0: f36c 13be 9c50 0fbe 2909 9bbd e4f1 7fbe
000000f0: e6e6 8dbd f9f9 b5bd a241 5dbe 87e9 56bd
00000100: 48b6 a4ba d9e4 a9bd 9bdd 58bb 872f 66ba
00000110: 5c59 053d ac33 063e 1d46 35be 3373 ec3c
00000120: 1cd3 213d c948 df3d 5d34 ab3d 31ef 253e
00000130: ad79 a13c e4cc 2cbe 6419 9a3d 0ca7 893b
00000140: 6d2c 723d a532 8c3d dbfb 73bd 8a13 07be
00000150: db31 123e 1553 e73d f68c 1a3c 210b 12bd
00000160: 9627 443d 7e65 27bb 9e67 49bd 0260 c2bd
00000170: 040b f7bb 830b 353e 91f9 30be f16c f6bd
00000180: 78af 963e dbdb a03a ff78 a3bc 4a26 b4bd
00000190: 06a6 613d 1773 e23d 71c8 c43c 101c 673e
000001a0: bb76 39be 4975 0d3d 08e9 8fbd 2cec 98bd
000001b0: 88f6 903d 0756 0d3c ee14 afbd 1308 143d
000001c0: 30eb 63bc 019e a53c 1a1f 12bc 00d6 543c
000001d0: 2a8a 65be 63fd 82bd d492 e6bd eab6 92bd
000001e0: 02d9 993d 8a3e 003d 0f29 6d3e 8120 a13d
000001f0: 6037 013e 2281 22bd 11b9 a5bc 35b0 4b3c
00000200: deb2 d4bd 853b c83b ca60 6a3d f4f0 c6bd
00000210: f0aa 7bbc 1e6d bd3d d120 d2bd f0cc ca3d
00000220: 3712 48be e81a 2c3e cead 4cbd 657b 93be
00000230: 21ea 98bd 2602 963d 3c91 b43d 9a1a e2bd
00000240: 8c56 543d 4eed 5fbe a2e1 abbd 7214 193c
00000250: 8de0 1fbe 4fb2 283d a478 8c3d d39f f0bd
00000260: 9bde 95bb 2565 2dbd 0c3d 1d3d 91ec e53d
00000270: 8bf8 fa3d d775 42be 92a2 883d 6b13 91bd
00000280: 1f74 6abd 7243 04be e7c3 cd3c 7c86 0bbd
00000290: c17a 3ebe c212 203e 1cb2 113e aee0 12bd
000002a0: de86 3dbe 3f7b 0f3e fa10 2e3e aff9 1abd
000002b0: 1b46 77bc 9147 24be f260 dabd c3e2 fabd
000002c0: 21f9 08be 34e4 733e 2d22 2fbc 9c21 a03d
000002d0: dd26 b3bd 7371 cfbe 2aef 7ebe c382 e03d
000002e0: 95e2 533e 9023 f7bc eb92 073e f445 21be
000002f0: b36b 62bd e9a5 013e 20a5 d63d 7adc 473b
00000300: 62e3 18be a7ca 583e b057 203e 093d 9e3c
00000310: bbb6 dc3d fa43 053e 9b7c 9a3e 85e5 e73d
00000320: 4f51 46be 4eeb a53b 7f7d ed3d 7a59 a93d
00000330: fb86 f93d 901d 7ebc cd8c a6bc 3649 0ebd
00000340: 33fa 013c 8519 c3bd 92cc 6dbd b4b1 a33e
00000350: 17ec cabc f8f6 2b3e 5b44 8b3d 9c6f af3d
00000360: a398 c13d 6473 a8bd d630 1e3d 9ab3 d8bd
00000370: 5382 d3bc 65ba 62be f2be 4abd db3c 613c
00000380: 7f0e d1ba 5ee2 de3d 3cd1 c73d 54e9 3d3c
00000390: 93ca 50be fcdd 0d3d fc15 f13d d19f 003e
000003a0: 4380 d7bc a7bf 16bd 5ee7 f1bd 5004 b5bd
000003b0: 9391 5dbe cbee 683e f116 fa3d 775c e53c
000003c0: 7e00 11be 3dee f9bc 23a7 38bc c5fa 563e
000003d0: f2a9 36be 09bb 313d 96f7 29bc 41e1 03bd
000003e0: bb0d 00bd f5b9 a63d cde6 7cbd d5a0 013d
000003f0: e157 9fbd 4fc6 eabd 8ad3 06be 9c3f 793e
-0.09118356 0.010705457 0.023960922 -0.12023103 -0.04058133 0.08099486 -0.11351427 -0.029181775
-0.037161194 0.11596011 0.14213051 0.097484484 -0.018824926 0.14596887 -0.13667399 0.08144737
-0.035692748 -0.122434914 0.036465917 -0.16025984 0.15205577 0.0867986 -0.08122475 -0.026429437
-0.07872018 0.1427004 0.08598618 0.030647708 -0.05318951 0.010395136 -0.10954334 0.049321845
-0.092727184 0.1120131 -0.16949962 -0.0454804 -0.12521212 0.020487327 0.13294765 0.04028325
-0.17411608 -0.17142534 0.028367808 -0.13097902 -0.0012443711 -0.02534473 -0.15332569 0.052157186
-0.028787317 -0.15226538 -0.06819007 0.0017118547 0.17782004 -0.3067375 -0.17216837 -0.17178713
-0.1439703 -0.13995594 -0.075701065 -0.24994618 -0.06928806 -0.08885569 -0.21607068 -0.052468803
-0.0012566531 -0.08295602 -0.0033091072 -0.0008780886 0.032555923 0.13105649 -0.17702527 0.028863525
0.03950797 0.109025545 0.08359597 0.16204526 0.01971134 -0.16875035 0.07524374 0.0042008217
0.0591244 0.06845597 -0.05956636 -0.13191047 0.14276831 0.112951435 0.009433022 -0.035655145
0.047889315 -0.0025542672 -0.049171083 -0.09490968 -0.007539155 0.17680173 -0.17282702 -0.12032498
0.29430747 0.0012272553 -0.019955156 -0.087963656 0.055089973 0.11057108 0.02402136 0.22569299
-0.18111698 0.03453568 -0.07026869 -0.07466921 0.07078272 0.008626468 -0.08548914 0.036140513
-0.013911054 0.020216944 -0.008918548 0.012990475 -0.22415987 -0.06395986 -0.11258474 -0.07163794
0.07512094 0.031309642 0.23160194 0.07867528 0.1261878 -0.039673932 -0.020229848 0.012432148
-0.10385679 0.006110611 0.05722121 -0.09713927 -0.015360579 0.09249328 -0.102601655 0.0990237
-0.19538198 0.16807139 -0.04997044 -0.2880508 -0.074665315 0.073246285 0.08816764 -0.1104023
0.05184035 -0.21867868 -0.083926454 0.009343253 -0.15613003 0.041185673 0.06858948 -0.11749234
-0.004573656 -0.042332787 0.038388297 0.11226762 0.12254437 -0.18990265 0.06671633 -0.07083782
-0.057239648 -0.12916353 0.025117828 -0.0340638 -0.18601514 0.15632156 0.142281 -0.035858802
-0.18508479 0.14011858 0.16998664 -0.037835773 -0.015092398 -0.16042925 -0.10663022 -0.122502826
-0.13376285 0.23817521 -0.0106893005 0.078189105 -0.08747647 -0.40516242 -0.24895921 0.10962441
0.20691903 -0.030168325 0.13239639 -0.15749341 -0.05527849 0.12660946 0.10480714 0.0030496405
-0.1493049 0.21171056 0.1565845 0.019316213 0.107770406 0.13014212 0.3017319 0.11323074
-0.19366954 0.005063451 0.11596202 0.082690194 0.121839486 -0.015509978 -0.02033081 -0.03473779
0.007933187 -0.09526352 -0.05805642 0.31971514 -0.02477078 0.1679343 0.06800147 0.0856621
0.09452941 -0.08225134 0.038620792 -0.10581131 -0.02581898 -0.22141416 -0.049498506 0.013747419
-0.0015949755 0.1088302 0.09756705 0.011591274 -0.20389776 0.03463553 0.11771771 0.12560965
-0.026306277 -0.036803868 -0.11811708 -0.08838713 -0.21637563 0.22747342 0.12211407 0.027998192
-0.14160344 -0.030509109 -0.011270317 0.20994098 -0.17838266 0.04339126 -0.0103739705 -0.03219724
-0.031263094 0.08140937 -0.061743546 0.031647522 -0.077804334 -0.114636056 -0.13166633 0.24340671
