results/MovingObstacles_GAIL_1/BasicAgent/BasicAgent-2132.onnx (onnx, 138150 bytes, 6 tensors)

action_model._discrete_distribution.branches.0.bias f4 [5]
00000000: c69e 9f3b 499b 0d3b 0a2b 65bc 0149 493b
00000010: 69d8 6b3b
0.004871222 0.002160745 -0.013987312 0.003071368 0.0035987145

action_model._discrete_distribution.branches.0.weight f4 [5, 128]
00000000: 0fcb d5bb caf8 4ebc 1289 063c a7d4 023c
00000010: 5f65 043c c86f 57bc 5ef1 ad3b 5b6d 9cbc
00000020: 243b a4ba 5505 2bbc 4fd5 52bc a493 f1ba
00000030: 3853 8fbb 754d dfbb eb92 a4ba db6a 88bc
00000040: 1eec 03bb 4300 273c 2545 c4bb 5916 1bbc
00000050: 6893 613b 199f a7bc 0ab9 893c 7b98 6fbc
00000060: 77d6 21bc 48d1 8637 6b33 853c 97cb a539
00000070: edab 0fbc 19bf 88bc e61d c2bc 9023 ffbb
00000080: 56b7 6bbc f4f1 66bc 3324 74bc 2271 23bb
00000090: e342 5b3b 0665 2fbb 88f4 223c 77b8 cf3c
000000a0: faa4 4b3c b78a 623c 03c4 febb e4a3 7eba
000000b0: e0b8 4bbb 6c59 e23b 7127 c53b 69b1 fa3b
000000c0: 8c87 af3c e877 0d3c b3f7 03bc 52ff 053c
000000d0: 4ca5 693c 2ce3 72bc 51b9 ddbb a046 7e3c
000000e0: e36b d03c 4918 523b 3123 9bba 481d 923b
000000f0: 9051 093a a23d a93c 930f 2db9 67a6 543c
00000100: 08cf 233c 9d31 643c bf0f c0bb b434 9ebc
00000110: 85eb 4c3b da7c 50bc cb3b c53b b02a f6bb
00000120: 0353 c43b a5c1 3abc c7f4 443c 7190 14bc
00000130: 2b66 d1bc 571c a9bb 9776 a73b 4b6d a039
00000140: c12e 5ebc d273 7c3b 514a 323c 9559 da3b
00000150: ca85 36bc 1af8 e63b 981a 2bbc a49d 443b
00000160: 46c4 51bc c7e1 f0bb 591c d4ba 8b22 e6bb
00000170: b77e 753c b2e3 163b a8f4 a3b9 f4c0 113c
00000180: 7ece cfbb 4538 7ebb 3bc5 00bc a763 633b
00000190: e0f8 2e3c 57a4 c439 6e3d 86bc 1d9d 043c
000001a0: 511c 9f3c c1bd 6ebc 0bcf 1c3c 38a3 b43b
000001b0: d8e3 eb3b 7a9e 9a3c 4ed8 993b ec04 7bbc
000001c0: c232 1cbc b77e 393b 6904 573c a72f 21bc
000001d0: d2c1 5d3b f8f1 7f3a 155a 6bbc 8231 9a3b
000001e0: ef77 5b3c d2f3 493c 2356 94bc dd83 013c
000001f0: 6358 a6bb 09ce 343b f60f abbb 9b93 223c
00000200: 3042 1d3b 46a4 66ba 1034 7dbc aec4 af3b
00000210: d7cf 90bb fd84 b6bb 7e2e b33b db52 8abc
00000220: 98f3 903c ada7 b53b a5b2 c73b d60f 0c3c
00000230: 4e2f 43bb 8e50 b5bb dee1 92bc 47fd 4fbb
00000240: ffad 8ebb dd05 2ebc 5208 1cbb 8829 f13a
00000250: bd53 cabb 8fe5 95bc 7ab3 d63b a5a0 9fbc
00000260: 6be9 43bc e81e 8a3c 9a7e a839 f9e6 45bb
00000270: fc01 57bb ab40 ed3b 835d 803c 50da a9bb
00000280: 376e 713b 07b3 753b fbfe 3abb 167c 6cbb
00000290: deea fdbb 0cb8 1dba c0a9 373b 1657 18bc
000002a0: 501a a5bb f0e3 61bc 6f84 81bc ebec a93b
000002b0: 9161 38b9 a773 883c 0b88 ce3c a825 07bb
000002c0: 569f 853b 0b09 713b 8431 09bc e847 bebc
000002d0: 4723 f9bb 6886 38bb c217 0e3c 9544 a53c
000002e0: c299 5abc 2a14 11bc 784f 09bb 4da8 faba
000002f0: f8aa 0dbc ae9d b33c a8f5 843b a920 14bb
00000300: 196c 5e3b c5d7 f93b 9dec e6bb 321b dc3b
00000310: 174a d9ba ca6b 6cbc b224 a63b b96c d93c
00000320: 4083 50bc 9a24 e53b 9dd2 3cbc 50a7 553c
00000330: cfcc 53ba 3f58 f0bb fa35 d8bb 725c 8e3c
00000340: 02db e13b a1d0 a13a c894 99bc 045a b6ba
00000350: ade7 a9ba 6af1 a43c fd85 163c 5a75 4b3c
00000360: b70b 4dbb f4e3 74bc b8a2 64bc 91cd 58bb
00000370: 0c77 a2bc a94e 2a3b 5039 3bbc 5e75 793c
00000380: 6545 003c b619 eabb 718b cbbb acc2 313b
00000390: 2d29 943c ad6e 093c 0562 343b 6c6a 15bc
000003a0: 90f3 753b fcb4 a33b 83ee 4cbc 0a07 173c
000003b0: 3d1c 683b ead2 c5bb ca89 633a 02af c6bb
000003c0: 8758 b6bb e37e a5ba c23a 3f3b 081c 723c
000003d0: 9853 a83c f0cd 48bb 8767 0ebc 2ada 3dbc
000003e0: 0e83 42bc 8011 17bb 6d08 f03a 724e ba3a
000003f0: 24cf 76bb 804a cbbb ee89 27bc 39ca 5c3b
-0.0065244506 -0.012632558 0.008211391 0.007985271 0.008080809 -0.013149209 0.005308314 -0.019095114
-0.0012529832 -0.010438283 -0.01286824 -0.0018430841 -0.004373934 -0.0068146535 -0.0012555992 -0.016652515
-0.002012975 0.0101929335 -0.005989688 -0.009465777 0.0034420136 -0.020461606 0.016811866 -0.0146237565
-0.009877793 1.6071499e-05 0.01625987 0.0003162294 -0.008769018 -0.016692685 -0.023695897 -0.007786222
-0.014386972 -0.014095772 -0.014901209 -0.0024939259 0.0033456616 -0.0026763096 0.009945996 0.025356514
0.01242947 0.0138270175 -0.0077748313 -0.00097137527 -0.0031085536 0.0069076326 0.0060166647 0.0076505435
0.021426938 0.008634545 -0.008054662 0.008178549 0.014260601 -0.01482467 -0.006766476 0.015519768
0.02544207 0.0032057932 -0.0011836049 0.004459057 0.0005238289 0.020659272 -0.00016504368 0.012979127
0.009998091 0.013927844 -0.005861252 -0.01931224 0.003126831 -0.012725079 0.006019091 -0.007512413
0.005991341 -0.0113987075 0.01202125 -0.009067641 -0.025561413 -0.005160849 0.0051105726 0.00030599008
-0.013560952 0.0038521183 0.010881976 0.006663511 -0.011140296 0.007048619 -0.010443352 0.0030001188
-0.012803143 -0.0073511335 -0.0016182765 -0.007023161 0.014983824 0.00230239 -0.00031272066 0.008896101
-0.0063417545 -0.0038790863 -0.007859523 0.0034696849 0.010679454 0.00037506476 -0.016386714 0.008094099
0.019422682 -0.014571608 0.009570847 0.0055126213 0.007198792 0.018874396 0.004694975 -0.015320998
-0.009533586 0.0028304288 0.01312361 -0.009838021 0.003383745 0.0009763534 -0.014364739 0.004705609
0.013395294 0.012326198 -0.01810748 0.007904974 -0.0050764545 0.0027588627 -0.0052204086 0.009922887
0.002399575 -0.00087982824 -0.015454307 0.005364022 -0.0044193077 -0.0055700527 0.005468189 -0.016885212
0.01769428 0.00554367 0.006094294 0.008548697 -0.0029782834 -0.0055332845 -0.017929967 -0.0031736658
-0.004354238 -0.010621515 -0.002380867 0.0018399218 -0.006174533 -0.018297939 0.006552157 -0.019485781
-0.011957507 0.01686044 0.00032137783 -0.0030197485 -0.003280758 0.007240375 0.01566959 -0.0051834956
0.0036839375 0.0037490742 -0.0028533328 -0.0036084703 -0.0077489456 -0.00060165 0.0028024763 -0.009298107
-0.005038537 -0.013787255 -0.01581022 0.0051857135 -0.00017583954 0.01665671 0.025211355 -0.002062181
0.004077832 0.0036779072 -0.008373622 -0.023227647 -0.0076030823 -0.0028156284 0.0086726565 0.020174304
-0.013342323 -0.008854905 -0.0020951908 -0.0019123644 -0.008646719 0.021925773 0.004057605 -0.0022602475
0.0033938943 0.0076245987 -0.0070472495 0.006717109 -0.0016577867 -0.014429996 0.0050702924 0.0265411
-0.012726605 0.0069928886 -0.0115248235 0.013040379 -0.000807953 -0.0073347385 -0.0065982314 0.017378066
0.006892563 0.0012345501 -0.018747702 -0.0013912325 -0.0012962722 0.020134646 0.009187219 0.0124181155
-0.00312875 -0.014946926 -0.013954811 -0.0033081512 -0.019832157 0.0025986827 -0.011427239 0.015225736
0.007829045 -0.0071441783 -0.006211691 0.002712409 0.01808604 0.008388204 0.0027524245 -0.009119611
0.0037529208 0.0049959403 -0.0125080375 0.009217987 0.0035417222 -0.006037106 0.0008679895 -0.006063343
-0.0055647525 -0.0012626316 0.002917931 0.014777191 0.020547673 -0.0030640326 -0.008691675 -0.011587659
-0.011872066 -0.0023051202 0.0018313058 0.0014214052 -0.0037660087 -0.0062039495 -0.010225756 0.003368987

network_body.linear_encoder.seq_layers.0.bias f4 [128]
00000000: bd5f 053a 957f 323b 6dc8 85bb cb08 a2bb
00000010: 1d90 a63b 008c 0c3b 88b7 1f3b face 08bb
00000020: 2190 3fb9 1626 21bb f718 d0bb 390c 1a3a
00000030: edc9 51bc 19fb 9e3a b5f3 e1bb abe3 4fbc
00000040: 5453 c43b 10ed 783b e6e1 38bc ec10 2e3c
00000050: 58a7 19bc 5d13 9dba 5f00 c9bb 400f bf3b
00000060: e431 6f3b c613 06bb 409f b6bb 7198 8d39
00000070: 4a2d 56bb a468 e9ba d2f9 ee3a 62a1 acbb
00000080: 9240 b23c f270 993b 2513 5c3b e512 fabb
00000090: 84e6 883b 9913 72bb 5b0e 96b9 ab5e 863b
000000a0: 07b4 15bc 6c70 853b d079 4cbc 4fd8 c5bb
000000b0: 73a1 a8bb 94e1 2c3b 88f9 ffbb 0dfe 9b3a
000000c0: 250a 87bb 9945 87bb 426e 353c 599d ca3b
000000d0: bd29 9dbb c863 c3bb ce2c 6b3c 7e5f c7ba
000000e0: cb94 d63b e744 d5bb 2b8f 37b8 526c 78b9
000000f0: 3107 473b 0c51 feb9 92de a0bb ce81 3d3b
00000100: 7964 df3a 2bb0 31bb fd18 14bb a635 213c
00000110: e925 11bb 4e14 e8b9 a819 8b3a 4ac7 db3b
00000120: 06f8 9f3b 645b 52ba f17d 83bb 1f8a fabb
00000130: dd1b 2439 4c97 94ba d8ee 9fbb d327 2abb
00000140: b523 e0ba 36b5 96bb acc1 893b 9602 843b
00000150: d6bc 01bc 1613 9abb 670c f83a bf6a 163c
00000160: f26d 22bb 8d08 c5b9 0606 bfbb a942 ae3b
00000170: 9eb9 c3bb 8685 a63b 99c6 febb d62a 5dbb
00000180: b573 5aba aec8 a53a 13c0 223b c948 43bb
00000190: 6d37 07ba 81dc 9839 182a 1bbb 366f 653a
000001a0: 565a 8b39 1f87 a13b a13c c3ba 2782 04bc
000001b0: f26f 31bb 2fda b7ba c306 f33a 40ae 6ab8
000001c0: 5d8f e6b9 0f5c 8dbb 298d 08bc c7c4 68bc
000001d0: 5e04 c73a 6dba fcbb 248c 04ba a1b5 1c3a
000001e0: da50 d7b7 b746 d53b 3876 80b8 fb54 d8ba
000001f0: cd46 a63b a6c4 323b 9a26 ae3b f6eb 603a
0.00050878135 0.002723669 -0.0040827305 -0.004944896 0.0050830976 0.0021445751 0.0024370868 -0.002087532
-0.00018268872 -0.0024589351 -0.0063506323 0.0005876455 -0.0128044905 0.0012129276 -0.006895507 -0.012688558
0.005991379 0.0037983097 -0.011284327 0.010624152 -0.009378277 -0.001198392 -0.0061340774 0.0058306754
0.0036498243 -0.0020458563 -0.0055731833 0.00027007193 -0.0032680803 -0.0017807675 0.0018232411 -0.005268262
0.021759305 0.0046826536 0.0033580747 -0.007631647 0.00417787 -0.003693795 -0.00028620925 0.004100641
-0.00913716 0.0040722396 -0.012480214 -0.006037749 -0.0051461994 0.0026379572 -0.007811729 0.0011901275
-0.0041210824 -0.0041281697 0.011073651 0.006183308 -0.0047962354 -0.0059628226 0.014353944 -0.0015210954
0.006548499 -0.006508458 -4.3763936e-05 -0.00023691476 0.0030369277 -0.0004850704 -0.004909345 0.002891648
0.0017043493 -0.002711306 -0.0022597902 0.009839451 -0.002214784 -0.00044265616 0.0010612505 0.0067071067
0.0048818616 -0.00080244825 -0.004012816 -0.00764586 0.00015650639 -0.0011336594 -0.0048807673 -0.0025963678
-0.0017100485 -0.0045992387 0.0042039957 0.0040286286 -0.007918557 -0.0047019823 0.0018924595 0.009180724
-0.002478477 -0.0003758114 -0.0058295755 0.005318005 -0.005973055 0.005081835 -0.0077751395 -0.0033747456
-0.0008333282 0.0012648308 0.0024833723 -0.0029798022 -0.00051581004 0.00029155987 -0.0023676213 0.00087522285
0.00026579452 0.004929438 -0.0014895388 -0.008087671 -0.0027074781 -0.0014026816 0.0018541444 -5.595223e-05
-0.00043975833 -0.0043139528 -0.008334436 -0.014207072 0.0015183797 -0.0077126534 -0.0005056283 0.00059779926
-2.5667647e-05 0.006508674 -6.1255356e-05 -0.0016504818 0.005074358 0.0027277856 0.0053146603 0.0008580083

network_body.linear_encoder.seq_layers.0.weight f4 [128, 130]
00000000: 1ce7 43be 6f91 31bd 2898 9f3d 093b 39bc
00000010: 6a7f 9fbd 5a31 f9bd dd40 223d 617f b73d
00000020: 5551 08be 08a9 353d 13c4 523e abd3 0d3d
00000030: 658f 40bd 8c75 3039 1f39 14bc 921f 813d
00000040: 9509 30bc b111 abbc 091f 263d b221 44bd
00000050: 453d cbbd 5b60 32bc 8f40 003c 90f0 dbbc
00000060: 3a8c 843d c88a 0e3e 6c70 1f3e 5ecb e9bd
00000070: ee69 ad3d 3d79 36bc 3aec ddbd 74a2 68bd
00000080: 64d6 a23d 52e0 99bd bd32 cc3d d222 b3bd
00000090: eb2a 513c 0665 62be 463d c9bd 6f70 a1bc
000000a0: 891f ca3c 500b 2c3c d9b8 543d ff1c 27be
000000b0: 17d9 9dbd 4429 d63d b5dd 9dbc ffc0 dc3d
000000c0: 6cde aa3d 2890 1a3d 3d91 80bd ad54 473d
000000d0: ad54 743d 1830 363e a5fa 05be 1480 da3d
000000e0: 28b8 493d 43cf 08be e1c3 30bc 3a24 173d
000000f0: c14b 65bd d5e6 313d 66c6 f8bd bede 4c3b
00000100: d8d5 44bd 8b4f 3ebd 39f7 223d 07c1 d33c
00000110: 505f 233e 9381 a8bd fffb a6bc 9668 bebd
00000120: 63b7 bb3c 98ef 1abe 0a41 103d 8c77 5bbd
00000130: aa86 2c3c dfe6 15bd 07bf 44bd fa58 1e3e
00000140: 46fd c33d b02b 08bd 3c38 3ebd 315d 123e
00000150: e240 05bd ccf7 213d ff0f be3d 6429 ca3d
00000160: 5c75 833d 4f49 ff3d 331a 0b3e 11d1 ca3c
00000170: b51c 89bc 818f 903d 96a4 033e 225e a2bd
00000180: dc9e ac3c 4602 b53d 1148 8cbd 8a2c c8bd
00000190: 8cc2 573c f889 9abd ace5 82bd b8af ee3b
000001a0: fae2 9bbd febd 90bc 6b3c f5bd 6c73 b1bd
000001b0: 8d14 d1bd 9631 d0bd 4790 483d e2cd 213d
000001c0: 4a79 3bbd 4f36 2f3d e6cb d5bd 0ee1 d23d
000001d0: 3cf4 bf3d 4cf9 963d 423e 543c 7705 233d
000001e0: 677e 07be 3258 3cbd 65ff 2cbd 3dc2 dcbc
000001f0: 3095 8e3c ba0d 2e3e d9e1 5e3d b212 8abc
00000200: ac64 73be 5d63 f3bd edd7 81be 17ac 62bd
00000210: d819 58bd c0bd 963c ebfd f7bd 44c0 2d3d
00000220: ed51 2c3e 4f5c 27bd b130 8abd 4d7d 80bd
00000230: 356d 363e 786c 47bd e198 1e3d 4991 b93d
00000240: 5618 19bd e8b4 c03d d30a e13d 8bb6 83bd
00000250: f4a0 ca3c d310 78bc d6e9 203d 04cf 073e
00000260: 5782 fa3b e12e f23d 3798 8f3d 9aa3 6e3d
00000270: 0e21 4d3d 6ad4 843c 1be9 ce3b 954f 2bbd
00000280: bf87 24be d170 eabd c566 4cbd d493 913d
00000290: 3f01 7a3c 2dc5 5a3d b44c e33c 134f 103e
000002a0: b3fe 16bc 9c44 4f3e d0f0 6bb9 51ec 85bd
000002b0: e77a 073e 7518 fe3d d8f1 cabc e21c 23bd
000002c0: 4364 db3d 8133 91bd 8fb7 e9bc 4218 91bc
000002d0: 516b 24bc 8ab1 8b3d 16b0 7d3d b547 c83d
000002e0: ac8c 6cbd 9f3d 7ebd 3fa7 aa3d 2866 7d3c
000002f0: 511d 10bd bde1 903d 7307 0ebe 1442 14be
00000300: 8306 56bd d3f9 ed3d 5570 85bd c128 70bd
00000310: bce3 853d 3a81 08be 3753 dbbd 2a99 3bbd
00000320: 33e3 6c3d a3f6 8dbd 2775 933c 5604 063d
00000330: a819 cbbc 3ca1 2dbd aabd 07be e759 abbd
00000340: 6941 083d 550f 493d b5cc ea3c a716 c83b
00000350: db78 e0bd bf6c f4bc 552a a13d b0a2 e4bc
00000360: 2ab4 1c3d 55db bd3b ea24 b03d fc7d fdbd
00000370: 8787 663d 1f52 553d 9b35 8ebd 2496 2138
00000380: 8070 98bc 2d57 a8bc 21b4 8e3d 1d15 9b3d
00000390: 4630 41bd 8aa7 8bbc cf78 8d3d bfbf 18be
000003a0: ff32 0d3e 21dc c73c c4df 293e 6005 f83d
000003b0: e542 e9bd c974 94bc 3539 59bd b390 a8bd
000003c0: 8a22 e33b 244c 58bd 369d cbbc e29b 21be
000003d0: b423 b63d 829f c9bc 9c3f 1f3d 5686 953b
000003e0: 0f22 a8bc b84a 60bd 945b 3dbd be56 10be
000003f0: fd2f b93c 6849 ca3c 0e23 d2bd 059c ce3d
-0.1913113 -0.043351587 0.077926934 -0.011305579 -0.07787974 -0.12167616 0.03961264 0.089598425
-0.13312276 0.044350654 0.20582609 0.03462569 -0.04701175 0.00016828458 -0.009046822 0.0630485
-0.010744472 -0.02088246 0.04055694 -0.047883697 -0.099237956 -0.010887231 0.007827892 -0.026848108
0.064720586 0.13920128 0.1557023 -0.11415742 0.0846747 -0.011137304 -0.10836072 -0.056795552
0.07951048 -0.07513489 0.09970615 -0.08746876 0.01276658 -0.2210885 -0.0982614 -0.019706933
0.02467324 0.010500744 0.051934097 -0.16319655 -0.07707422 0.104570895 -0.019270757 0.107789986
0.08343205 0.037735134 -0.06277702 0.048664737 0.059651066 0.17791784 -0.13083895 0.1066896
0.04924789 -0.13360314 -0.010788889 0.036899783 -0.055980448 0.04343303 -0.121472165 0.0031260694
-0.0480555 -0.046462577 0.03978655 0.025848879 0.15954328 -0.08227839 -0.020383833 -0.09297292
0.022914594 -0.1513046 0.035218276 -0.053580806 0.010530153 -0.03659713 -0.04803374 0.1546363
0.095697924 -0.03324479 -0.046440348 0.14293362 -0.03253258 0.03954296 0.09280395 0.09871176
0.06418869 0.124651544 0.13584213 0.024757894 -0.016737321 0.07058621 0.12855753 -0.07928111
0.021071844 0.08838324 -0.06849683 -0.0977412 0.013168942 -0.07545847 -0.06391463 0.007284131
-0.07611652 -0.01766872 -0.119744144 -0.08664593 -0.10208998 -0.10165708 0.04896572 0.039502986
-0.045769967 0.042776402 -0.10439281 0.10296832 0.09372756 0.07371768 0.012954297 0.039800134
-0.13231812 -0.045982547 -0.04223575 -0.026948089 0.017405123 0.16997424 0.054414604 -0.016854618
-0.23768872 -0.118841864 -0.2536005 -0.0553399 -0.05275902 0.018401027 -0.12108978 0.042419687
0.16828127 -0.040859517 -0.067475684 -0.06273899 0.17815097 -0.04868743 0.038720015 0.09060914
-0.037376724 0.09409505 0.10988393 -0.06431302 0.024734952 -0.01514073 0.039285503 0.13262564
0.0076449323 0.11825348 0.070114546 0.05826149 0.05008035 0.016214568 0.0063144094 -0.041823942
-0.16067408 -0.11447299 -0.049902696 0.07108274 0.015259086 0.053410698 0.027746536 0.14092664
-0.009215998 0.20241016 -0.00022501056 -0.065392144 0.13230477 0.124070086 -0.024773523 -0.039822467
0.10712483 -0.07089902 -0.02852991 -0.017711762 -0.010035352 0.06820972 0.061935507 0.09779302
-0.057751343 -0.062070485 0.08332681 0.0154662505 -0.03518421 0.07074306 -0.13870029 -0.14478332
-0.052252304 0.11619916 -0.06515566 -0.058632616 0.065375775 -0.13330546 -0.10709231 -0.045800366
0.05783386 -0.06931808 0.018000199 0.03271898 -0.024792507 -0.042390093 -0.13255945 -0.08366757
0.033265505 0.049086887 0.028662065 0.006106216 -0.10960551 -0.02983701 0.07869402 -0.027909607
0.038257755 0.0057939687 0.08600791 -0.12377545 0.056281593 0.05208027 -0.06943818 3.852522e-05
-0.018608332 -0.020549381 0.069679506 0.075723864 -0.047165178 -0.017047662 0.06907808 -0.14916895
0.13788985 0.024396958 0.16589266 0.121104 -0.11389712 -0.018122094 -0.053033073 -0.08230724
0.0069316076 -0.05280699 -0.024855237 -0.15782121 0.088935286 -0.024612192 0.038879022 0.004563133
-0.020524053 -0.054758757 -0.046229914 -0.1409559 0.02260589 0.024693206 -0.102605924 0.10088352

network_body.linear_encoder.seq_layers.2.bias f4 [128]
00000000: 0a72 84ba fbd9 4fbc baf4 55ba b1b1 2bbb
00000010: ad63 9dbb 9ec4 2dbc 1dfb c53b 437a f1b9
00000020: b52f 833a 82ee b4bb 61ed a7ba 6d8f 31bb
00000030: c247 123c 10db 1fbc 4f34 45bb 139a 08bb
00000040: 566f 10bc 4eb9 403b 5922 80bb 73a1 0bbc
00000050: 36b2 d8bb e3b1 44bb ffcc 3e3b 5107 3ebc
00000060: 9218 babc 7a6e 003c 4013 1f3b a2da b3bb
00000070: a98c e83b 7f69 463b 0b6a a1bb 2ca4 3fbb
00000080: 580b 8f3b 91dd 68bb 9bba 23bb 2f8a 97bc
00000090: f84e 5e3b cd1e f4bb 22d9 47bb 77c7 713b
000000a0: 5d8c b13a 451f b039 1602 143c fae3 193b
000000b0: 6b44 58bc f4e7 fe39 cb9f 8f3b f156 b8bb
000000c0: 9924 e83a fd81 473b b5c7 debb 1ef2 d6b8
000000d0: e0c6 b6b9 a48a c2bb f97b cebb 740d 313c
000000e0: cf65 963a c900 0fbb 0ec9 d7bb d800 8e3a
000000f0: c177 0739 3ba8 ec3b 54cd 513a 7a0b fd3b
00000100: 5856 7cbc f0dc a5bb ddc7 eebb d1cd 913b
00000110: a406 2939 60b8 bfbb e31a 183c 0f41 5bbb
00000120: 9f19 74bb bf6b 823b 4f58 efba f640 85bb
00000130: 9a41 b7bb c7d0 ba3b e3f3 aebb 93f7 74bb
00000140: 6092 413c 25cd 62bb 5af1 2d3b 0d7e 923b
00000150: eb0d fe3b dd22 8dba c006 18bc 4151 09bc
00000160: 391d 19bb 927e b83a f0ae 08bb edfd 87bc
00000170: 0d40 f2ba f430 08bc ddd2 d3bb f260 09bb
00000180: dece ac3b 39c3 bfba c7ee ffbb e5a7 f2bb
00000190: d47e 73bc 0cc2 27bb 82cc c1bb 0948 b1bb
000001a0: e930 943b 1146 a2bb f16c 08bc ae4b 8e3b
000001b0: 36f1 f83b 5573 103b e108 31bc 3b04 51bc
000001c0: 8d14 6f3b 84e6 bdbb cca0 9739 993a b23a
000001d0: fc24 a2bb 9784 573a aa94 5fbb 84ba 0c3b
000001e0: 2045 053b 4ae3 a0ba 7eec d5bb cb67 fe3b
000001f0: 7f99 343b 1475 80bb 64fe c6ba 8f3e ab3b
-0.0010104787 -0.012686248 -0.0008161772 -0.0026198442 -0.004803142 -0.010605959 0.006041898 -0.00046058194
0.0010008725 -0.0055215964 -0.0012811833 -0.0027093545 0.008928241 -0.009756818 -0.0030090993 -0.0020843789
-0.008815607 0.0029407325 -0.0039103446 -0.008522379 -0.0066130413 -0.0030013255 0.0029113886 -0.011598424
-0.022716794 0.00783884 0.0024272949 -0.0054887095 0.007096846 0.0030275283 -0.0049259714 -0.0029242141
0.004365366 -0.0035532454 -0.0024983052 -0.018498508 0.003392158 -0.007449961 -0.0030494411 0.0036892572
0.001354586 0.00033592634 0.0090337 0.0023481832 -0.013199906 0.00048619474 0.0043830625 -0.0056255986
0.0017711102 0.003044247 -0.0067987093 -0.00010249413 -0.00034861919 -0.0059369374 -0.0063014 0.01080643
0.0011474433 -0.0021820536 -0.006585247 0.0010833992 0.00012919215 0.007222203 0.00080033136 0.0077223154
-0.015401445 -0.005061738 -0.007287009 0.004449584 0.0001611957 -0.0058508366 0.009283754 -0.0033455526
-0.0037246717 0.0039801295 -0.0018260571 -0.004066582 -0.005592537 0.0057011577 -0.005339132 -0.003737901
0.011814684 -0.003460714 0.0026541562 0.004470593 0.007753124 -0.0010767836 -0.009278953 -0.008381189
-0.0023363365 0.0014075807 -0.0020856224 -0.016600573 -0.0018482223 -0.008312453 -0.006464346 -0.0020962325
0.005273684 -0.0014630324 -0.007810447 -0.0074052685 -0.014861781 -0.0025597839 -0.005914272 -0.0054101986
0.004522432 -0.0049522 -0.008326755 0.004342518 0.007597114 0.00220414 -0.01080534 -0.012757356
0.0036480755 -0.005795302 0.00028920767 0.0013597786 -0.0049482565 0.00082213565 -0.003411571 0.0021473477
0.002033539 -0.0012274769 -0.006528436 0.007763838 0.002755731 -0.003920207 -0.0015182015 0.0052259634

network_body.linear_encoder.seq_layers.2.weight f4 [128, 128]
00000000: 09bc 90bd 9cb0 023e 6cdb d2bb 78f4 a1bd
00000010: 4f08 a73c e487 973d 6fe8 163e 6b89 0bbe
00000020: 2e55 a1bd c892 923e 96b3 983d 7c8c 7ebb
00000030: 178d 13bd 70ce 25bd 4e64 c0bd 0e7c bf3d
00000040: 17d7 24be 7a6b ab3d eb0b 603d 8787 6e3c
00000050: 2b8f 483e b3ec 6dbe 8413 fe3d 9a3d 3e3b
00000060: c292 03bc 9779 b73c 240b 103d 76e2 733d
00000070: f497 6b3d 8962 733d ea13 1d3e d4ee 1a3e
00000080: 51f9 f33c 3bbe e9bd ff72 dd3c 4565 19be
00000090: 3382 ffbc b3cf 073d b2dd aabd 5e6d ad3d
000000a0: b035 bb3d 1f9c 943d d4f4 39be 6242 3f3d
000000b0: 1563 37bd 1215 83bd 07cf 5abc 396f 443e
000000c0: 0907 cbbd 7799 fb3d 5f04 0a3d 12b5 343e
000000d0: 5386 003d 6a7b 313d a99c 253b 60eb 35bd
000000e0: 8ab7 9cbd b57b d5bd 279e 10be 0674 533d
000000f0: 87c5 e33c 80ab c73d 1eec 9fbd 1cb1 b0bb
00000100: cd08 6cbe 04a3 4a3d 79ac 433d 72c7 173d
00000110: c8cd 0c3d 5191 09bd 593b 2f3e b437 cdbc
00000120: 1c61 663b 58b3 663e 5cee 0fbe 9ad3 d93d
00000130: 93d1 8f3d 9ea3 cdbc fc7a cc3d 3ddf 1d3d
00000140: cea3 753e 2447 1b3c 2bf4 c7bc a577 a03d
00000150: 4afd 0e3d c7b1 b83d 7dc8 003d c880 3bbe
00000160: 9b36 46bb 50f9 84bd 9306 8e3d d781 2abc
00000170: 1a6d 573d 5b74 af3d 16b8 e53c 7a6c aabb
00000180: ea52 7ebd 06d7 4dbc 8e41 1ebe 56a1 143d
00000190: bf13 85bc ab81 56bd 6477 1dbd 96fb 07bd
000001a0: 0424 3d3e bb68 893d 2842 50be 2084 a1bd
000001b0: 0f02 1f3d 255e 17bd 5715 643b 3754 063e
000001c0: b917 d6bd 203b 033e b253 ea3c a8b4 4f3d
000001d0: 2ea7 09be 337f b43d 7568 3a3d 38a3 233e
000001e0: bb3f 243d c834 fd3d c59d b83d 329a 44bd
000001f0: 7e50 cebd 66aa 2a3d 1807 4b3e caca 39bd
00000200: 5147 043b 92ab 213b 7ee8 013d 1e00 cabc
00000210: bd23 cb3c e50b aa3d bbaa 74bd 2f2d 453d
00000220: ea30 59be 80e8 0f3d afef 82bd 5cd6 583d
00000230: aad9 d03d dd1b b1bc b146 ab3d e313 bebd
00000240: d26a 7e3d 896e ee3c 2503 933d b30c 753b
00000250: 0166 a8bc 13fa aabd b3a3 1d3c 8132 423d
00000260: 58f0 5b3d 836a 65bd 377c 033e a97e 143c
00000270: 4f53 093e c31a 21bc 2491 d13d 5d19 c3bd
00000280: 27b8 0bbe 6fa6 95bd c456 2d3e 73d1 21be
00000290: 6dea 3dbc 49e7 0f3d daa3 36be c5a6 87bd
000002a0: 6469 113d 5d7f 623d 9446 af3b 36a8 643b
000002b0: 945b 9bba 232d 1e3d 22c7 43bc 0d80 1c3c
000002c0: 2c2f 0dbd e856 a4bd fd33 47bd ed6e 87be
000002d0: 6760 093d 0667 0bbd 1615 84bc 4a23 803b
000002e0: ed32 01be daf9 babd 422c 86bd ac91 303e
000002f0: a487 a23c c32e 1f3d 11d0 4f3d 1977 e9bd
00000300: f356 973d 4ae0 bcbc 8e9d 8d3d b081 e73c
00000310: 0874 633e 10b2 4d3d d456 a4bd bc6e 1ebd
00000320: bf82 82bd 2347 cf3d fecc b2bd faa3 373d
00000330: 6980 043b d507 6c3d dc63 12ba 5e56 8abd
00000340: fb98 b23c 2cfe 783d b06c 333d df3a 86bd
00000350: c0ab a1bd 4a04 923c 396d 673c 5c31 c93d
00000360: 6868 013e c8c0 da3d 0a6f f6bc 7856 bdbc
00000370: 6bc8 e03c 52ff dd3d abe6 f33c b49d bfbd
00000380: fa91 cb3c 2808 11bd b924 1cbd f7e6 0abe
00000390: f4e6 1f3e 19ed 533d 9cbd dbbb f15f 58bd
000003a0: 33e1 b83c 3fc2 e4ba 78d8 1b3d a351 873d
000003b0: 5b5d d33c 3b01 babc 543b 77bd a7d4 04bb
000003c0: bc3a 74bd 97c1 4c3d 42a2 2bbc 7e99 613d
000003d0: b0b3 95bd 4529 113e ec17 93bc a4cc a4bd
000003e0: ddc3 87bd 3c51 0fbb a5bf c8bd 34e5 a5bd
000003f0: 6fd5 c73d b7ae 95bd ac45 713d 6f44 12ba
-0.07067115 0.12762684 -0.0064348485 -0.07907957 0.020389704 0.07398966 0.14737104 -0.1362664
-0.07877575 0.2862761 0.07456128 -0.003884106 -0.036023226 -0.040480077 -0.093941316 0.093498334
-0.16097675 0.08370109 0.054698866 0.014558679 0.19585864 -0.23234825 0.12406066 0.0029028417
-0.008030595 0.022396846 0.035166875 0.05954214 0.05751796 0.059420142 0.15339628 0.15130168
0.02978197 -0.11413237 0.027032373 -0.14980038 -0.031190014 0.03315706 -0.08343066 0.08468126
0.091410995 0.0725634 -0.18159801 0.046694167 -0.044772226 -0.06400503 -0.013355023 0.19183053
-0.09913451 0.122851305 0.033695575 0.17647198 0.0313781 0.043330587 0.0025270379 -0.044413924
-0.07652195 -0.10423986 -0.1412283 0.05162432 0.02780415 0.09749508 -0.07808708 -0.005392207
-0.23050232 0.04947187 0.047771905 0.03705544 0.034375936 -0.03358585 0.17112483 -0.025050975
0.0035153097 0.22529352 -0.1405577 0.10636063 0.07022395 -0.025102433 0.09984395 0.038542975
0.23988268 0.00947741 -0.02440842 0.078353204 0.034909524 0.09018283 0.0314412 -0.18310845
-0.003024495 -0.06492865 0.06934848 -0.010406933 0.05259428 0.08567115 0.02804188 -0.0052009197
-0.06209079 -0.012563473 -0.15454695 0.036286674 -0.016244767 -0.052369755 -0.038443938 -0.033198915
0.1847077 0.06709429 -0.20337737 -0.07886529 0.038820323 -0.036955018 0.0034802759 0.13118063
-0.104537435 0.12815523 0.028604362 0.050709397 -0.1344268 0.08813324 0.045509774 0.15980232
0.04009984 0.12363583 0.09014467 -0.047998615 -0.100739464 0.04166641 0.19826925 -0.04535941
0.002018411 0.0024668914 0.031715862 -0.024658259 0.024797315 0.0830305 -0.059733134 0.048138794
-0.21210065 0.03513384 -0.06393372 0.052938804 0.10197766 -0.021619732 0.08363093 -0.09281137
0.06211359 0.029105442 0.07178334 0.0037391603 -0.020556452 -0.08348479 0.0096215485 0.047411446
0.053696007 -0.05600978 0.12840353 0.009063401 0.13410686 -0.009833041 0.102327615 -0.09526322
-0.13644467 -0.07307135 0.1692763 -0.15802555 -0.011591536 0.03513268 -0.17835942 -0.06623606
0.0355009 0.055297244 0.0053489897 0.00348903 -0.0011852854 0.038617264 -0.011949332 0.009552014
-0.034468815 -0.080243886 -0.048633564 -0.26451817 0.033539202 -0.034033798 -0.016123336 0.003910457
-0.12617083 -0.09129687 -0.0655141 0.1724307 0.01984007 0.038862955 0.050735537 -0.11399669
0.07389631 -0.023056168 0.06914817 0.028260082 0.22212231 0.05021864 -0.08024374 -0.038679823
-0.06372594 0.1012099 -0.087305054 0.044834115 0.002021814 0.057624657 -0.0005584338 -0.067547545
0.021801462 0.060789272 0.043804824 -0.065541975 -0.07894087 0.01782431 0.014125162 0.09823868
0.12637484 0.10681301 -0.030082244 -0.02311252 0.027439317 0.10839714 0.029773077 -0.09356251
0.02484988 -0.03540817 -0.03812096 -0.13564669 0.15615445 0.051739786 -0.006705953 -0.05282587
0.02256832 -0.0017452909 0.038048238 0.06607368 0.025801351 -0.022705665 -0.060359314 -0.0020268352
-0.059626326 0.04998931 -0.010475697 0.055078022 -0.07309663 0.141759 -0.017955743 -0.080468446
-0.06629155 -0.0021868488 -0.09802178 -0.08100358 0.09757506 -0.07308715 0.058904335 -0.00055796554
