results/SelfPlay_FreezeTool_7/BasicAgent/BasicAgent-22982.onnx (onnx, 172638 bytes, 6 tensors)

action_model._discrete_distribution.branches.0.bias f4 [6]
-0.021607671 0.017914746 -0.0063960287 0.009587835 0.012698163 -0.0039300644
00000000: 9202 b1bc f2c1 923c c795 d1bb 4b16 1d3c
00000010: f50b 503c c5c7 80bb

action_model._discrete_distribution.branches.0.weight f4 [6, 128]
0.01392438 0.005353641 -0.001442438 -0.055240724 0.0059964103 -0.014589338 -0.02413504 0.022124318
0.015127608 -0.007093297 0.019569945 0.025956823 0.023098864 -0.033991728 -0.010525385 0.01251284
-0.02636082 -0.029430952 0.009886238 -0.018975224 -0.0031919077 0.014266516 0.024589868 -0.024638325
-0.0069345958 0.038302366 0.030306997 0.03053711 0.0019335647 0.018971622 -0.030614318 0.038501803
-0.049881287 0.013148086 -0.05096658 -0.006565072 -0.007084036 0.018788995 -0.0016310875 0.008205689
0.013926069 -0.01651358 -0.0017862064 0.02962394 0.00081960217 0.034088466 0.0036141367 -0.028280744
-0.020881059 -0.04195107 -0.011434792 -0.0003212707 0.0006340468 0.0073234094 -0.021549806 0.028551055
-0.003240325 -0.0049748598 0.012782528 0.022926284 -0.0019013652 -0.0049230256 -0.012254266 0.009930678
-0.0074497364 0.01886414 0.011113855 0.030654714 -0.019846905 0.024268737 0.012290554 0.022105148
-0.021647668 0.016816985 0.005650396 -0.010779683 -0.024223482 0.010608267 -0.0021055897 0.028822048
0.018195998 0.023209883 0.012868612 0.03730408 -0.02899696 0.008232334 -0.020902792 0.031777725
0.0086979335 0.029055607 0.022578843 -0.012887527 0.018346706 -0.00083570695 0.015930697 0.007669137
0.016008884 0.020995623 0.036047354 0.024333812 -0.0040437845 0.015042316 -0.035406727 -0.014826819
-0.022538025 0.02820627 -0.021724036 -0.002456009 0.020818362 -0.016986959 -0.0059613325 -0.021234823
0.007121062 -0.008816742 0.016979992 0.021049673 -0.007352004 -0.011134524 0.004440812 0.04417732
0.027321085 0.030879332 0.016238697 0.02400628 0.017501505 0.0020277884 -0.002758812 0.002998596
0.013487752 -0.041326996 -0.0024131811 0.011920256 -0.03246274 -0.041512404 0.03567091 -0.056347694
-0.025970234 0.03320608 -0.012866794 0.010690893 -0.08188133 0.045488782 -0.08012423 0.016991958
-0.07207237 0.026124839 0.054750342 0.047506962 0.05932783 0.056022745 -0.059974864 -0.024505332
-0.078040585 -0.06440549 0.03135552 0.018824453 0.020528309 0.055038266 -0.0016738902 0.035479546
0.044214927 -0.06828344 0.039544042 0.018334355 -0.054464176 -0.054568443 -0.027993286 0.023797354
-0.043013293 0.030604003 -0.07952785 -0.05518225 -0.004095858 0.014798076 -0.038540762 -0.071527325
-0.004572407 0.023573935 0.06706133 -0.08132198 -0.012890107 -0.01613787 -0.046072368 0.054162465
-0.015242502 0.024911037 0.05284007 -0.0015442319 -0.019138765 -0.023631621 0.001363231 -0.006221097
0.05202933 0.0469242 -0.008221224 0.007734985 -0.015020764 -0.014863731 0.029171046 0.035472736
-0.008706444 -0.058245327 0.021122029 0.023394793 0.05200495 -0.012364343 0.028828096 0.004638735
0.0045295865 0.015576665 -0.0128954165 0.016610669 -0.044630896 0.042722665 -0.06331167 0.015686447
-0.024569592 -0.027113758 -0.01029907 -0.08579471 -0.0033900086 -0.054952677 0.053028274 -0.004861972
-0.015153624 0.03016181 0.0017230796 -0.053375132 0.047265466 -0.025786515 -0.019611806 0.025968116
-0.053249437 -0.0022574891 0.015451463 0.065218925 -0.004291252 -0.063120276 -0.0023678946 -0.045223627
0.013995274 -0.025409184 0.018763851 -0.10327812 -0.028477648 -0.011745652 -0.0630964 -0.0017806444
-0.023771957 0.0034392504 -0.025724854 -0.045181252 0.012084949 0.0085059395 0.0044977455 -0.08243485
00000000: 1523 643c 996d af3b 3010 bdba 1944 62bd
00000010: 897d c43b 1e08 6fbc d9b6 c5bc 0f3e b53c
00000020: c9d9 773c e36e e8bb 2651 a03c 67a3 d43c
00000030: d439 bd3c e93a 0bbd aa72 2cbc a802 4d3c
00000040: a5f2 d7bc 2e19 f1bc e3f9 213c ee71 9bbc
00000050: 532f 51bb 1bbe 693c b170 c93c 50d6 c9bc
00000060: 9b3b e3bb f1e2 1c3d 6146 f83c f628 fa3c
00000070: aa6f fd3a 606a 9b3c e1ca fabc 11b4 1d3d
00000080: 5250 4cbd 126b 573c 55c2 50bd d11f d7bb
00000090: 3321 e8bb 61eb 993c 37ca d5ba 2771 063c
000000a0: 2b2a 643c 7d47 87bc 241f eaba e8ad f23c
000000b0: 92da 563a 59a0 0b3d 27db 6c3b 05ad e7bc
000000c0: c10e abbc e3d4 2bbd fe58 3bbc 3970 a8b9
000000d0: 2936 263a 36f9 ef3b 3889 b0bc e7e3 e93c
000000e0: a25b 54bb 2604 a3bb cf6d 513c e7cf bb3c
000000f0: 3b37 f9ba 5551 a1bb 1ec6 48bc 48b4 223c
00000100: eb1c f4bb f888 9a3c e316 363c 981f fb3c
00000110: fa95 a2bc 3bcf c63c 525e 493c db15 b53c
00000120: 7356 b1bc c6c3 893c f526 b93b 449d 30bc
00000130: 5370 c6bc 4cce 2d3c effd 09bb 371c ec3c
00000140: c60f 953c a722 be3c dfd6 523c 2acc 183d
00000150: 088b edbc e9e0 063c 553c abbc 5c29 023d
00000160: c781 0e3c 0606 ee3c 44f7 b83c 3526 53bc
00000170: d54b 963c 5813 5bba 1881 823c 624d fb3b
00000180: 1025 833c 03ff ab3c 64a6 133d b457 c73c
00000190: b981 84bb 0c74 763c a506 11bd 30ec 72bc
000001a0: aaa1 b8bc d610 e73c 9bf6 b1bc fef4 20bb
000001b0: 458b aa3c 3c28 8bbc 4857 c3bb a7f4 adbc
000001c0: cc57 e93b 1974 10bc a019 8b3c 5d70 ac3c
000001d0: 14e9 f0bb 946d 36bc 3b84 913b 47f3 343d
000001e0: 78d0 df3c a7f6 fc3c 0407 853c d1a8 c43c
000001f0: 515f 8f3c a5e4 043b 2fcd 34bb 1884 443b
00000200: bbfb 5c3c 7f46 29bd 7626 1ebb 2d4d 433c
00000210: a6f7 04bd e908 2abd a91b 123d d7cc 66bd
00000220: 87bf d4bc 1903 083d 3fcf 52bc db28 2f3c
00000230: 66b1 a7bd 7252 3a3d 2c18 a4bd b832 8b3c
00000240: ae9a 93bd c203 d63c e541 603d a996 423d
00000250: bd01 733d 1b78 653d 34a8 75bd 68bf c8bc
00000260: bed3 9fbd 07e7 83bd a56e 003d bd35 9a3c
00000270: fc2a a83c ce6f 613d 6f66 dbba 0053 113d
00000280: b61a 353d 30d8 8bbd eff8 213d ee31 963c
00000290: d415 5fbd 2983 5fbd 2d52 e5bc abf2 c23c
000002a0: b52e 30bd 3fb5 fa3c 7fdf a2bd c806 62bd
000002b0: 8c36 86bb a173 723c ebdc 1dbd eb7c 92bd
000002c0: 21d4 95bb 201e c13c 7357 893d 238c a6bd
000002d0: 0731 53bc 9133 84bc 61b6 3cbd 76d9 5d3d
000002e0: b0bb 79bc 3b12 cc3c d46e 583d d367 caba
000002f0: e6c8 9cbc 1a97 c1bc 71ae b23a 58da cbbb
00000300: b51c 553d 9733 403d 50b2 06bc c275 fd3b
00000310: a719 76bc 0287 73bc 1ef8 ee3c dc4b 113d
00000320: 79a5 0ebc a792 6ebd 1b08 ad3c 70a6 bf3c
00000330: 2403 553d d093 4abc e628 ec3c 8800 983b
00000340: ed6c 943b 4535 7f3c 4c47 53bc 1913 883c
00000350: e3ce 36bd f6fd 2e3d 8da9 81bd dd80 803c
00000360: 2b46 c9bc ac1d debc 6ebd 28bc 23b5 afbd
00000370: e82a 5ebb 0f16 61bd 2d34 593d 2d51 9fbb
00000380: e846 78bc e615 f73c f5d8 e13a e29f 5abd
00000390: 6f99 413d 3e3e d3bc f0a8 a0bc 16bb d43c
000003a0: 151c 5abd 62f2 13bb 2228 7d3c 8091 853d
000003b0: a19d 8cbb 3445 81bd ae2e 1bbb 693c 39bd
000003c0: 6f4c 653c ec26 d0bc a6b6 993c 7b83 d3bd
000003d0: f549 e9bc d670 40bc af38 81bd 8364 e9ba
000003e0: 68bd c2bc 0c65 613b eebc d2bc fa0f 39bd
000003f0: f3ff 453c 7f5c 0b3c d361 933b 9ad3 a8bd

network_body.linear_encoder.seq_layers.0.bias f4 [128]
0.00032267324 -0.0017858659 -0.014318526 -0.023589203 0.010652576 -0.048673406 -0.022096941 0.00277639
-0.0077421977 -0.0017756152 -0.013893924 -0.0326337 0.0018161455 0.013868082 0.007504672 -0.0010156425
0.0011560725 0.013679114 0.01935625 -0.0042476077 0.011558182 -0.005610799 0.0010576702 -0.0055552335
0.00017101665 -0.011842439 -0.0055016377 -0.0076945215 0.0001505412 -0.03979953 0.0018501694 0.0002998854
0.0013477785 -0.029404515 0.0041149603 -0.023990037 -0.031192616 -0.006942591 -0.0074500176 -0.00821728
0.0006977088 0.003910954 -0.014883049 0.0036890341 -0.003870514 0.0019898638 -0.0038250762 0.0136283785
-0.018964728 -0.009888376 0.0077835484 0.009704678 0.0019716711 -0.008166409 -0.016668938 -0.017787237
-0.01951067 0.00085270195 0.0021489644 0.011851968 -0.005639413 -0.014014654 0.014411149 0.012428777
0.015150718 -0.0027293838 -0.017924018 -0.0076278527 -0.008981719 -0.006627873 0.010612355 -0.016260747
0.01371486 0.001973468 -0.013977542 -0.018175632 0.010959914 0.0018853343 0.0019277128 -0.023745991
0.009512751 -0.0014968172 0.02298679 0.0059611397 -0.00028045333 -0.0022802677 -0.0076298392 -0.038102392
0.0011854147 -0.009223088 0.00233111 -0.0029422785 0.017272485 0.00531627 -0.0067135054 0.010878611
-0.010585223 -0.00058772013 0.0040667225 -0.005432804 0.0020670316 -0.010028704 0.01288751 -0.0028672663
-0.013736937 -0.06282981 -0.0019398909 0.0056757242 -0.004383265 -0.012138101 0.001734681 -0.0072163274
-0.00427445 0.0096504 -0.00087271316 0.0050284164 0.010714169 -0.0012955398 0.0138913775 -0.013339223
-0.0031210852 -0.0129199885 -0.014589219 0.0013553577 0.0009818824 0.022757128 0.005041781 -0.007317767
00000000: 782c a939 b713 eaba 4098 6abc 253e c1bc
00000010: 2488 2e3c c45d 47bd a504 b5bc 18f4 353b
00000020: 43b2 fdbb c2bb e8ba 57a3 63bc eaaa 05bd
00000030: bb0b ee3a f436 633c c0e9 f53b 4f1f 85ba
00000040: 5b87 973a 5d1e 603c 0091 9e3c 842f 8bbb
00000050: 875e 3d3c cbda b7bb 86a1 8a3a ad08 b6bb
00000060: ef52 3339 ca06 42bc 1547 b4bb 5322 fcbb
00000070: 98da 1d39 d504 23bd 6281 f23a f039 9d39
00000080: f1a7 b03a bde1 f0bc cad6 863b c186 c4bc
00000090: a887 ffbc ad7e e3bb 471f f4bb c5a1 06bc
000000a0: 72e6 363a 7627 803b 08d8 73bc b9c3 713b
000000b0: 73a8 7dbb 6068 023b 21ae 7abb 9049 5f3c
000000c0: eb5b 9bbc db02 22bc 230d ff3b 5f00 1f3c
000000d0: 2737 013b 67cc 05bc 4c8d 88bc 8ab6 91bc
000000e0: d7d4 9fbc dc87 5f3a a4d5 0c3b c22e 423c
000000f0: d3ca b8bb b89d 65bc bd1c 6c3c 12a2 4b3c
00000100: b83a 783c 76df 32bb 64d5 92bc 11f3 f9bb
00000110: 0f28 13bc a12e d9bb 71df 2d3c 4235 85bc
00000120: 4bb4 603c 4d55 013b 0f02 65bc 10e5 94bc
00000130: 3691 333c 521d f73a 4fab fc3a f486 c2bc
00000140: 5fdb 1b3c da30 c4ba cb4e bc3c aa55 c33b
00000150: cf09 93b9 8b70 15bb bb03 fabb 4111 1cbd
00000160: eb5f 9b3a 6f1c 17bc 89c5 183b 3ed3 40bb
00000170: 077f 8d3c 1b34 ae3b f7fc dbbb 343c 323c
00000180: a56d 2dbc 3b11 1aba 2442 853b aa05 b2bb
00000190: 0977 073b 6f4f 24bc 2226 533c bfe8 3bbb
000001a0: e410 61bc eaac 80bd f043 feba 6dfb b93b
000001b0: 7ea1 8fbb e3de 46bc 3c5e e33a f176 ecbb
000001c0: af10 8cbb b61c 1e3c cac6 64ba 6ac5 a43b
000001d0: 7b8a 2f3c 1acf a9ba a998 633c c28c 5abc
000001e0: 1f8b 4cbb 5cae 53bc 9f07 6fbc 42a6 b13a
000001f0: 82b2 803a 286d ba3c 8635 a53b e1c9 efbb

network_body.linear_encoder.seq_layers.0.weight f4 [128, 196]
-0.056939486 0.04176913 -0.12258715 -0.102723554 -0.068872936 0.07058869 -0.006704893 -0.069294274
-0.00748374 0.057598297 -0.029152365 0.0550241 -0.040897317 0.18900026 0.055399206 -0.095851295
-0.07507582 0.0033165615 -0.022258813 0.100795716 0.023232756 -0.042652015 -0.08232348 -0.11324666
-0.07702811 -0.1752359 0.17329824 -0.10883194 0.057530064 -0.05240945 0.060598828 0.14733714
-0.0073534832 -0.03124379 0.024993619 0.11369328 0.0043221414 0.078534424 0.019305672 0.013895911
-0.06395784 0.01820599 0.0896559 0.022212248 0.056844 0.036080293 -0.122257486 0.005695916
0.012534889 0.099603064 0.05627878 0.015985066 -0.038323518 -0.039215174 0.104589015 0.019908413
-0.068436876 0.04880251 0.045106772 0.10242699 0.10777922 0.069216065 0.12404483 0.040605776
-0.0140847955 -0.106595784 -0.09955817 -0.058145016 0.02709344 -0.034997117 0.0040003625 0.15469845
-0.012393416 0.020996775 0.040613286 0.025436828 0.15649486 0.06521368 0.1635187 0.09773255
0.047364794 0.06817604 0.017819263 0.09885006 0.060151376 -0.03162288 -0.08898745 -0.13793698
0.008988955 0.0683468 -0.13610324 -0.101009265 -0.04399184 0.17803895 0.02627361 0.022325842
-0.25178245 0.2056331 0.0040227324 0.1049749 0.0702175 -0.02717373 -0.10639676 0.038064923
-0.15124172 0.0007967849 0.15419532 -0.058198735 0.071521945 -0.007237759 -0.104479805 -0.056677863
-0.11708133 -0.14847438 -0.0023449063 -0.02310254 0.056793395 0.051970724 -0.037857622 0.06859905
0.0020961224 0.007181302 0.20209561 -0.05571018 0.20885669 0.17958471 0.1708477 0.033585183
0.07382609 0.07074209 0.053285144 0.0021956342 0.17782371 0.122857116 0.005980962 0.012770653
0.05900226 0.02974004 0.08791466 -0.085366175 0.05795573 0.117184214 -0.0129965935 0.02194285
-0.0064458754 -0.06391162 -0.030569203 0.07380785 0.04482082 0.09158169 -0.13627686 -0.039445244
0.038259048 0.11333113 0.017116457 0.063175574 0.019127075 -0.0097003365 -0.17207521 0.06334839
-0.059603535 0.06784726 -0.0017583743 -0.04807088 -0.01200292 0.009796491 -0.032785382 -0.09390911
-0.11633351 -0.04254331 -0.11227721 0.033568796 -0.016283153 -0.19104756 -0.11037344 -0.08148941
-0.06100313 -0.018553892 0.1050306 -0.07301481 -0.123347834 -0.014610135 -0.11395891 -0.07390084
0.0299322 -0.008444337 -0.03339735 -0.076823495 0.06159293 0.099538654 -0.011077898 -0.034500584
-0.07473542 -0.057216953 0.07142979 -0.046224017 0.102189764 0.0007226415 0.041197173 -0.055575047
-0.04329244 -0.090413615 0.019956984 0.04180795 0.06770487 -0.07155512 -0.02808121 -0.09304694
0.002257032 -0.025244635 -0.03316431 0.003720771 -0.007230315 0.08045046 0.01591829 -0.14487772
-0.07096699 0.06981096 -0.005977193 -0.034435485 -0.0344803 0.018712705 -0.013838099 0.02352735
-0.040008456 -0.11329515 -0.018837865 0.09089041 0.080184594 0.08289347 0.051936224 0.086565614
-0.109645806 -0.02822048 -0.074580096 0.0056946063 -0.09336065 0.0450181 0.04231519 0.033503637
0.019687036 0.09380777 0.07063328 0.030446451 -0.11224613 0.071757756 0.10203517 -0.0036641045
-0.04805591 0.027592925 -0.09098195 0.16145538 0.057324104 0.044121347 -0.013107614 -0.03016539
00000000: 6139 69bd 1b16 2b3d f90e fbbd ba60 d2bd
00000010: 410d 8dbd ce90 903d b8b4 dbbb 28ea 8dbd
00000020: 293a f5bb 31ec 6b3d f1d0 eebc f360 613d
00000030: f283 27bd 4989 413e 47ea 623d af4d c4bd
00000040: 5ac1 99bd ab5a 593b 1d58 b6bc fc6d ce3d
00000050: 9f52 be3c e1b3 2ebd 3699 a8bd dded e7bd
00000060: eac0 9dbd 0a71 33be 1875 313e 48e3 debd
00000070: a5a4 6b3d 4bab 56bd 7a36 783d 8cdf 163e
00000080: 7df5 f0bb faf2 ffbc 6bbf cc3c 06d8 e83d
00000090: c0a0 8d3b a8d6 a03d ee26 9e3c adab 633c
000000a0: 54fc 82bd ba24 953c 839d b73d 76f6 b53c
000000b0: 41d5 683d eec8 133d 2262 fabd cea4 ba3b
000000c0: 235f 4d3c b1fc cb3d 9484 663d 1df3 823c
000000d0: 1ff9 1cbd 17a0 20bd c432 d63d f816 a33c
000000e0: a228 8cbd 24e5 473d e1c1 383d 3ec5 d13d
000000f0: 5abb dc3d 27c1 8d3d 370b fe3d 3e52 263d
00000100: eac3 66bc e44e dabd 27e5 cbbd 7829 6ebd
00000110: 10f3 dd3c 2359 0fbd 7915 833b 4569 1e3e
00000120: c10d 4bbc 6e01 ac3c 1e5a 263d e560 d03c
00000130: 3040 203e c08e 853d 7271 273e 0128 c83d
00000140: 9601 423d e19f 8b3d b4f9 913c e671 ca3d
00000150: 4a61 763d fe86 01bd 0d3f b6bd 5a3f 0dbe
00000160: 6946 133c 68f9 8b3d a65e 0bbe f2dd cebd
00000170: ca30 34bd d84f 363e c13b d73c afe4 b63c
00000180: a1e9 80be 7c91 523e 20d1 833b 15fd d63d
00000190: 31ce 8f3d 719b debc 8be6 d9bd f7e9 1b3d
000001a0: 1cdf 1abe 54df 503a 61e5 1d3e cc61 6ebd
000001b0: 197a 923d b92a edbb 82f9 d5bd 0c27 68bd
000001c0: 56c8 efbd ab09 18be 00ad 19bb 8a41 bdbc
000001d0: 31a0 683d 41df 543d 9810 1bbd a97d 8c3d
000001e0: 195f 093b 2151 eb3b 27f2 4e3e 5c30 64bd
000001f0: 87de 553e 0ee5 373e b3f2 2e3e 9e90 093d
00000200: 2232 973d 3be1 903d 8641 5a3d a1e4 0f3b
00000210: 6b17 363e 839c fb3d f2fb c33b 003c 513c
00000220: 5bac 713d 62a1 f33c 9a0c b43d 76d4 aebd
00000230: fd62 6d3d 47fe ef3d aaef 54bc 7ec1 b33c
00000240: ec37 d3bb 18e4 82bd 446c fabc 9228 973d
00000250: 0996 373d 2e8f bb3d 298c 0bbe 5691 21bd
00000260: 85b5 1c3d 271a e83d d037 8c3c 3262 813d
00000270: 62b0 9c3c 29ee 1ebc 7c34 30be cdbc 813d
00000280: d622 74bd 81f3 8a3d 4079 e6ba f9e5 44bd
00000290: e5a7 44bc 7681 203c f749 06bd 6b53 c0bd
000002a0: 4340 eebd e541 2ebd 98f1 e5bd 6f7f 093d
000002b0: 3f64 85bc f9a1 43be 780b e2bd ebe3 a6bd
000002c0: 6bde 79bd 55fe 97bc 491a d73d ca88 95bd
000002d0: ca9d fcbd 595f 6fbc 4a63 e9bd 5359 97bd
000002e0: 6034 f53c 1e5a 0abc a9cb 08bd a355 9dbd
000002f0: de48 7c3d ecda cb3d 1280 35bc 7c50 0dbd
00000300: e20e 99bd 535c 6abd c849 923d 6555 3dbd
00000310: de48 d13d a66f 3d3a 5ebe 283d a9a2 63bd
00000320: 6a53 31bd c62a b9bd d47c a33c d03e 2b3d
00000330: daa8 8a3d 7e8b 92bd 910a e6bc 658f bebd
00000340: b7ea 133b d6cd cebc 4dd7 07bd 2ed8 733b
00000350: 47ec ecbb 36c3 a43d 1367 823c d35a 14be
00000360: 2457 91bd 0cf9 8e3d 54dc c3bb 390c 0dbd
00000370: 373b 0dbd 634b 993c 32b9 62bc 6ebc c03c
00000380: e8df 23bd 4a07 e8bd de51 9abc c024 ba3d
00000390: d237 a43d 0dc4 a93d 14bb 543d 5049 b13d
000003a0: fb8d e0bd a32e e7bc 73bd 98bd d299 ba3b
000003b0: de33 bfbd e664 383d b152 2d3d 1c3b 093d
000003c0: b546 a13c 4a1e c03d 2ea8 903d d66a f93c
000003d0: 4de1 e5bd bbf5 923d d1f7 d03d 7921 70bb
000003e0: 46d6 44bd 8f0a e23c bf54 babd 8f54 253e
000003f0: aecc 6a3d 96b8 343d 51c1 56bc 681d f7bc

network_body.linear_encoder.seq_layers.2.bias f4 [128]
0.0038370094 -0.0075969985 -0.021570824 -0.00068071054 -0.013941598 -0.0028220734 0.0058792555 0.0016371671
-0.010642464 0.0054193977 0.005520613 -0.0033911073 0.0044450318 0.008118867 0.014401955 -0.0017400628
0.019983148 0.011814043 0.006584414 0.008816914 0.017100874 0.014520157 0.0091831945 -0.004630841
0.022014316 -0.005641957 -0.0014278712 0.00047557123 0.017020019 0.018253336 0.017171614 0.003436223
0.004697907 -0.0032438792 0.0052430783 0.014037079 0.0024243856 -0.0066667823 0.016410038 -0.019434761
-0.0144673595 0.015198313 0.0028246285 0.010689973 0.006606617 -0.004111033 -0.005399505 0.010807442
-0.01873797 0.025061123 0.03033002 0.009089482 -0.012044855 -0.013121027 -0.0005116715 0.02047736
-0.010204326 0.009534004 0.022785358 -0.00858083 -0.0017979597 0.014508561 -0.011892587 -0.015153024
0.020490034 0.028695215 -0.022935513 -0.010364801 0.017496698 0.009447897 -0.0034737026 -0.016506076
0.016188014 0.0034214642 -0.0253472 -0.008351101 0.008516426 -0.009288054 0.01780948 -0.0051592737
-0.00028472353 0.0076033175 -0.0028518587 0.007999914 -0.0071288124 0.01199129 0.0073387907 -0.0071169264
-0.011336988 -0.008274497 -0.015740465 0.016788539 -0.01858951 0.011656371 0.013466215 0.011648872
-0.0011809531 -0.001979363 -0.003650807 -0.010160509 3.1198397e-05 -0.04522412 -0.004058818 0.0049075796
0.008100352 -0.009226126 0.011690997 0.023771383 -0.027379815 0.01682549 -0.009405149 -0.0004745955
-0.023461673 0.005577224 -0.0002555258 0.012821887 -0.0010980912 0.00063284195 -0.010227859 0.0005895135
-0.023411792 -0.022817258 -0.01564878 -0.022529623 -0.02031659 0.007486356 0.009702684 0.0044738217
00000000: 5676 7b3b 3ef0 f8bb 4cb5 b0bc b671 32ba
00000010: 4d6b 64bc 89f2 38bb c5a6 c03b 3696 d63a
00000020: bb5d 2ebc 3495 b13b 42e6 b43b 573d 5ebb
00000030: a1a7 913b ff04 053c 2df6 6b3c d212 e4ba
00000040: b3b3 a33c b08f 413c 11c2 d73b d174 103c
00000050: 2217 8c3c f4e5 6d3c 1c75 163c 4fbe 97bb
00000060: 5e57 b43c 2ae0 b8bb 6827 bbba 1756 f939
00000070: 916d 8b3c 0588 953c 7cab 8c3c 4132 613b
00000080: e6f0 993b 4397 54bb 21ce ab3b c7fb 653c
00000090: 71e2 1e3b 0675 dabb 586e 863c a635 9fbc
000000a0: 8108 6dbc 5802 793c 671d 393b ff24 2f3c
000000b0: 527c d83b d8b5 86bb 55ee b0bb b211 313c
000000c0: 5f80 99bc fc4c cd3c a976 f83c 0dec 143c
000000d0: c957 45bc 93f9 56bc b121 06ba 23c0 a73c
000000e0: 0c30 27bc 8334 1c3c 5ca8 ba3c 9c96 0cbc
000000f0: 84a9 ebba 51b5 6d3c 20d9 42bc 6444 78bc
00000100: b7da a73c 3a12 eb3c 42e3 bbbc 20d1 29bc
00000110: 3c55 8f3c 5acb 1a3c 0fa7 63bb c037 87bc
00000120: ba9c 843c a53a 603b eea4 cfbc 0ed3 08bc
00000130: 7b88 0b3c ec2c 18bc 30e5 913c 200f a9bb
00000140: f246 95b9 4025 f93b 40e6 3abb 1212 033c
00000150: d098 e9bb 1e77 443c 3d7a f03b 1b35 e9bb
00000160: c6be 39bc c291 07bc 26f2 80bc 1e88 893c
00000170: 0749 98bc 5dfa 3e3c 66a1 5c3c e9da 3e3c
00000180: 36ca 9aba 33b8 01bb 6142 6fbb 4378 26bc
00000190: 06db 0238 ed3c 39bd d5ff 84bb c3cf a03b
000001a0: 57b7 043c 2d29 17bc 988b 3f3c 34bc c23c
000001b0: a24b e0bc 9cd5 893c 0e18 1abc 21d3 f8b9
000001c0: b232 c0bc 25c1 b63b 18f8 85b9 e412 523c
000001d0: d4ed 8fba 4ee5 253a c092 27bc 9589 1a3a
000001e0: 16ca bfbc 42eb babc df31 80bc 0b90 b8bc
000001f0: fa6e a6bc 1b50 f53b 02f8 1e3c 2399 923b

network_body.linear_encoder.seq_layers.2.weight f4 [128, 128]
-0.16403322 -0.0070867687 0.097968884 -0.009649988 0.046824563 -0.03999749 0.017991332 -0.073372334
-0.036135465 0.05813675 0.22264433 -0.10806447 -0.20233935 -0.21989213 0.038828053 -0.18233892
-0.0069229663 0.13678537 0.12579265 0.046541896 0.023863891 0.06368934 0.02079885 -0.14853017
0.021790672 -0.08432119 -0.081210546 -0.0069230916 -0.03148057 -0.043806385 0.1690826 -0.04203906
-0.09757195 0.08108927 -0.027423905 0.10090652 0.015664214 -0.046277333 -0.034445826 0.054244753
-0.03047206 -0.014193579 0.056690607 -0.06397655 -0.0033984743 0.08063669 -0.021003872 0.14606845
0.18262509 0.018317234 -0.061069723 -0.04277874 -0.056747142 0.13983539 -0.0052425605 0.11737033
-0.041757133 0.06535643 -0.04469794 0.23040386 -0.019718096 -0.16032894 -0.11451704 -0.065696865
-0.08775014 -0.064434566 -0.041384127 -0.061638545 0.04972554 -0.06974456 -0.10163778 -0.03992194
0.18574724 -0.07226508 0.07248315 -0.018108947 0.22418953 0.20321116 0.063815944 -0.0766616
-0.17925625 -0.013033178 0.11510985 -0.010865445 0.026918612 -0.0059817615 -0.11591519 0.21973903
0.08616367 0.16168489 0.028099187 -0.0061643557 0.0903745 -0.046079177 -0.007353545 0.05091753
-0.028017135 0.005303231 0.09576721 -0.083417125 0.028640583 0.11849646 -0.23334579 -0.11472469
-0.031303734 -0.01172999 0.016243992 0.07575882 -0.08617286 0.10530461 -0.022001931 -0.06831093
-0.09191733 -0.10094715 0.082967 0.016527655 0.023402436 0.07367677 0.039326232 0.04862628
0.13743503 0.023628905 0.0066416394 -0.00818804 -0.110613175 -0.10842568 -0.08126683 0.027631328
0.035198037 -0.026841601 0.14403991 -0.024382606 0.12357642 -0.00014556058 0.095353395 -0.19276811
-0.078996204 0.0031371636 0.030477114 -0.11951678 0.09820778 0.10718324 0.086456716 -0.011520218
-0.059378564 0.057407565 0.01265235 0.035760246 -0.044041142 -0.059299335 -0.026831448 0.037856825
0.027730698 -0.053830408 0.02034566 -0.03717776 -0.18903737 -0.004451705 -0.06384241 -0.034013577
0.037790757 -0.11402118 0.030047255 -0.14049864 0.029115573 0.12532386 0.15232025 -0.020850988
-0.06910511 -0.09717856 0.075168 -0.05209299 -0.08880422 -0.14494234 0.05822312 -0.064736515
0.071856 -0.025819752 -0.04464238 -0.019751722 0.062290944 0.018261597 -0.07121575 0.02351431
0.0966428 0.037759494 0.06854163 -0.04709454 -0.021370996 -0.051575344 -0.011063495 -0.050174102
0.18161593 0.09077576 -0.09710918 -0.020216739 -0.061421223 -0.06468089 -0.033641245 -0.14616744
-0.13175735 0.0739715 -0.0071569304 -0.03301166 0.061773326 -0.08427497 0.06624875 -0.053681538
0.07388776 0.03998706 -0.014419033 -0.14862435 0.06680125 0.039776355 -0.12322554 -0.01851009
0.058120895 0.07420579 0.17218861 0.07760715 0.039409366 -0.19599313 0.020104822 0.102635935
-0.05039351 0.060919788 0.030284943 0.019913174 -0.006717317 0.20080197 0.09385945 0.05853777
0.06831634 -0.081525795 -0.07615097 0.02793062 -0.06867386 -0.06537665 0.14797074 -0.048596088
-0.049529787 0.0716999 0.18935637 0.014253602 -0.008688564 0.042048924 -0.032175984 0.029204134
0.046917565 -0.009832537 0.13614707 0.014780518 0.00452389 0.08501144 -0.0343893 0.22463697
00000000: 53f8 27be 2038 e8bb e9a3 c83d fc1a 1ebc
00000010: 1dcb 3f3d 68d4 23bd 8f62 933c 3c44 96bd
00000020: c802 14bd cd20 6e3d e0fc 633e e850 ddbd
00000030: 0c32 4fbe 672b 61be 2a0a 1f3d 0eb7 3abe
00000040: 0dda e2bb 7711 0c3e cacf 003e b7a2 3e3d
00000050: 357e c33c 8f6f 823d 5a62 aa3c 4b18 18be
00000060: 5a82 b23c 97b0 acbd b751 a6bd 1adb e2bb
00000070: c5f1 00bd 536e 33bd fd23 2d3e 2631 2cbd
00000080: cdd3 c7bd 2212 a63d 19a8 e0bc 14a8 ce3d
00000090: 3d52 803c 4d8d 3dbd 1117 0dbd bf2f 5e3d
000000a0: 8ba0 f9bc 2f8c 68bc 6934 683d 2306 83bd
000000b0: f0b8 5ebb d924 a53d 5010 acbc f892 153e
000000c0: 1202 3b3e 060e 963c 3f24 7abd c338 2fbd
000000d0: b16f 68bd 0231 0f3e c9c9 abbb db5f f03d
000000e0: 8709 2bbd 98d9 853d 3015 37bd fdee 6b3e
000000f0: d887 a1bc 452d 24be e987 eabd 148c 86bd
00000100: 58b6 b3bd 45f6 83bd 6782 29bd b378 7cbd
00000110: 02ad 4b3d 3cd6 8ebd 7827 d0bd 3085 23bd
00000120: 8634 3e3e b7ff 93bd 0c72 943d 3759 94bc
00000130: f191 653e 9616 503e efb1 823d c200 9dbd
00000140: f38e 37be 1c89 55bc b7be eb3d fb04 32bc
00000150: 6c84 dc3c a702 c4bb f164 edbd 4503 613e
00000160: 9476 b03d b990 253e 4430 e63c 5dfe c9bb
00000170: 4416 b93d 85bd 3cbd 02f6 f0bb e68e 503d
00000180: 3184 e5bc bac6 ad3b 9921 c43d 99d6 aabd
00000190: a89f ea3c 46ae f23d 33f2 6ebe c7f4 eabd
000001a0: 5838 00bd 252f 40bc 1f12 853c 7127 9b3d
000001b0: 657b b0bd f2a9 d73d 653d b4bc 9ae6 8bbd
000001c0: 273f bcbd 61bd cebd 9aea a93d 0165 873c
000001d0: 77b6 bf3c d9e3 963d 8b14 213d 5a2c 473d
000001e0: c5bb 0c3e 6891 c13c 1ca2 d93b 2127 06bc
000001f0: 2989 e2bd 480e debd 396f a6bd 185b e23c
00000200: d12b 103d ebe2 dbbc 337f 133e 08be c7bc
00000210: a215 fd3d 9fa1 18b9 a448 c33d 0165 45be
00000220: c3c8 a1bd df98 4d3b 24ab f93c 37c5 f4bd
00000230: 2921 c93d e382 db3d 3810 b13d 4cbf 3cbc
00000240: f036 73bd 3224 6b3d cd4b 4f3c 5679 123d
00000250: 7c64 34bd dce3 72bd a0cd dbbc c20f 1b3d
00000260: 7d2b e33c 467d 5cbd f1ab a63c b547 18bd
00000270: 0393 41be 9cdf 91bb cfbf 82bd d251 0bbd
00000280: 7bca 1a3d f083 e9bd a925 f63c e0de 0fbe
00000290: c883 ee3c e654 003e d7f9 1b3e b1cf aabc
000002a0: fb86 8dbd 8e05 c7bd aef1 993d 765f 55bd
000002b0: fdde b5bd c46b 14be 5e7b 6e3d 9494 84bd
000002c0: 3d29 933d f283 d3bc eeda 36bd 5dce a1bc
000002d0: ca24 7f3d 5899 953c 90d9 91bd 15a1 c03c
000002e0: a9ec c53d b3a9 1a3d 8e5f 8c3d 34e6 40bd
000002f0: 3a12 afbc ab40 53bd a943 35bc 5c83 4dbd
00000300: 87f9 393e a4e8 b93d 2ee1 c6bd 939d a5bc
00000310: d294 7bbd 6a77 84bd 67cb 09bd ebac 15be
00000320: 66eb 06be 5f7e 973d af84 eabb 3c37 07bd
00000330: 0706 7d3d 5b98 acbd 6dad 873d 2ce1 5bbd
00000340: 7752 973d 79c9 233d cf3d 6cbc fb30 18be
00000350: 18cf 883d 88ec 223d ac5d fcbd 79a2 97bc
00000360: 2d10 6e3d 35f9 973d 3652 303e 7ff0 9e3d
00000370: b76b 213d 6cb2 48be deb2 a43c ca32 d23d
00000380: 6d69 4ebd 0787 793d 2118 f83c f420 a33c
00000390: f01c dcbb 089f 4d3e 6239 c03d 4dc5 6f3d
000003a0: 70e9 8b3d fff6 a6bd 0af5 9bbd c1ce e43c
000003b0: e1a4 8cbd 31e4 85bd a485 173e b10c 47bd
000003c0: bfdf 4abd 66d7 923d a3e6 413e f187 693c
000003d0: 7b5a 0ebc 7e3b 2c3d f7ca 03bd 823d ef3c
000003e0: a22c 403d a618 21bc 236a 0b3e fc29 723c
000003f0: 243d 943b 7a1a ae3d cbdb 0cbd 3c07 663e
