results/Basic3ObstaclesDrag1/BasicAgent/BasicAgent-54323.onnx (onnx, 99659 bytes, 6 tensors)

action_model._discrete_distribution.branches.0.bias f4 [5]
0	0xbca12460	-0.019670665
1	0x3c556839	0.013025337
2	0xbdbce7d4	-0.09223905
3	0x3ce909ef	0.02844712
4	0x3d20bc7b	0.03924225

action_model._discrete_distribution.branches.0.weight f4 [5, 128]
0	0xbc73a259	-0.01487025
1	0xbc9ee1ae	-0.019394722
2	0xbcc98070	-0.024597377
3	0xbd706fd9	-0.058700416
4	0xbc10e85e	-0.008844463
5	0xbcf72937	-0.03017102
6	0xbd26cde4	-0.040723696
7	0xbba3563b	-0.0049846447
8	0xbd0cdf03	-0.034392368
9	0xbcda2c5f	-0.026632486
10	0xbd061e09	-0.032743488
11	0xbd1bfa2a	-0.038080372
12	0x3d6c7646	0.05772998
13	0x3cc5e936	0.024159055
14	0x3ca6e318	0.020371959
15	0xbd014c79	-0.03156707
16	0xbc1bdb3d	-0.00951272
17	0xbd0742fb	-0.033022862
18	0xbcf92e6b	-0.030417642
19	0x3c8fb15c	0.017540626
20	0xbd27452e	-0.04083746
21	0xbd2a8d4f	-0.04163867
22	0xbbba258b	-0.005680745
23	0xbd2931d6	-0.041307293
24	0xbd22f2cc	-0.03978233
25	0xbd0d32f5	-0.034472425
26	0xbd4ab2ce	-0.049486928
27	0x3c2a23d5	0.01038452
28	0x3b7f1056	0.003891965
29	0xbca239fb	-0.019803038
30	0xbcb5199a	-0.022106934
31	0x3cf58112	0.029968772
32	0xbd2d5a4f	-0.042322453
33	0xbcbdb182	-0.023155931
34	0x3a37f57d	0.00070174766
35	0xbd558ddd	-0.052137244
36	0xbcb5ed73	-0.022207951
37	0xbd58fec4	-0.05297734
38	0xbc912835	-0.017719368
39	0xbc052950	-0.008127525
40	0xbc94d233	-0.018166637
41	0xba76b335	-0.0009410859
42	0xbcc33f7e	-0.023833986
43	0xbc864dbc	-0.016394489
44	0x3cab6c77	0.020925744
45	0xbc9bd6a4	-0.019023247
46	0xbd1a53a2	-0.037677415
47	0x3c15436e	0.009110315
48	0xbd16126b	-0.03663866
49	0xbbfc2271	-0.0076945354
50	0xbd68287b	-0.05667923
51	0xbac6d626	-0.0015170022
52	0xbc3b5ec5	-0.011436169
53	0xbc1b3795	-0.009473701
54	0xbd53b2f4	-0.051684335
55	0xbd333cb0	-0.043759048
56	0xbc4af864	-0.0123883225
57	0xbbaf130a	-0.005342846
58	0xbd0319bb	-0.03200696
59	0xbd283701	-0.04106808
60	0xbd11435f	-0.03546464
61	0xbcb6063f	-0.022219775
62	0xbd6cc867	-0.057808306
63	0x3cfd19e7	0.03089614
64	0x3ca65d40	0.020308137
65	0xbc46bd31	-0.012130068
66	0xbc530378	-0.012879245
67	0xbd33f0c7	-0.043930795
68	0xbd9bcd26	-0.07607488
69	0xbcff1330	-0.031137079
70	0x3c8f0035	0.017456153
71	0xbb948c22	-0.0045333067
72	0xbd07b910	-0.033135474
73	0xbd8006e1	-0.06251312
74	0xbc3b77a0	-0.011442095
75	0xbd3da61f	-0.046301004
76	0xbcd3a1bb	-0.025833955
77	0xbc8a0e18	-0.016852424
78	0xbd3c1584	-0.045918956
79	0xbd26684d	-0.040626813
80	0xbbada0e0	-0.005298719
81	0xbd04cdce	-0.032422833
82	0xbd2aebbb	-0.041728716
83	0xbd59fe8f	-0.05322128
84	0x3d8f0c43	0.069847606
85	0xbca5755d	-0.020197565
86	0xbccc7673	-0.024958825
87	0xbc4e4de0	-0.012591809
88	0xbb3ef700	-0.0029138923
89	0xbc222693	-0.009896892
90	0x3cf8035c	0.03027504
91	0x3b1032b3	0.0022002875
92	0x3c7857de	0.015157668
93	0xbb94ab82	-0.004537047
94	0x3a407bb9	0.0007342655
95	0xbd24e51e	-0.040257566
96	0xbd6818c1	-0.056664232
97	0xbd272d3e	-0.04081463
98	0xbbbdf58a	-0.005797093
99	0xbbc94e9f	-0.0061434056
100	0x3b060215	0.0020448018
101	0xbc0ba5b2	-0.008523392
102	0xbce0659c	-0.027392201
103	0xbcf8dc2a	-0.03037842
104	0x3d177a1d	0.03698169
105	0xbc9c3c03	-0.019071585
106	0x3b9cd78b	0.004786437
107	0xbafca036	-0.0019273821
108	0xbcc54120	-0.024078906
109	0xbcf0976e	-0.029369082
110	0x3c8c5eff	0.017135141
111	0xbcd3ee33	-0.025870418
112	0xbc8722ba	-0.016496051
113	0x3c5bbd1f	0.013411789
114	0xbd38f7cf	-0.045158204
115	0x3c90a3ad	0.017656172
116	0x3bb6d2f4	0.005579347
117	0xbd3646dd	-0.044501174
118	0xbba6799b	-0.0050804145
119	0xbc842476	-0.016130667
120	0xbcea64b1	-0.028612467
121	0xbc07e3db	-0.008294071
122	0xbd3251e3	-0.043535125
123	0x3d2caeae	0.042158775
124	0xbd2a928c	-0.041643664
125	0xbcde0a46	-0.027104508
126	0xbd43e199	-0.04782257
127	0x3c847a11	0.016171487
128	0x3ddbf647	0.10740333
129	0x3dbfcd19	0.09365291
130	0x3d003e76	0.031309567
131	0xbcb79a49	-0.022412436
132	0xbd997535	-0.074930586
133	0xbd59332b	-0.053027313
134	0xbd094aac	-0.03351848
135	0x3c8b841e	0.017030772
136	0x3d339f40	0.043853045
137	0x3cf6b969	0.030117707
138	0xbd3d8454	-0.046268776
139	0x3dc16f22	0.09445025
140	0xbe1f108e	-0.15533659
141	0xbd979a95	-0.07402531
142	0x3cad6984	0.021168478
143	0x3c57fa06	0.013182169
144	0xbcb8e830	-0.022571653
145	0x3dc14253	0.094364785
146	0x3dc6756b	0.096903645
147	0xbc42146a	-0.011845687
148	0x3cc05783	0.023479229
149	0x3df23e87	0.118283324
150	0xbca755f4	-0.020426728
151	0xbd918bad	-0.07106719
152	0x3d9e3742	0.07725383
153	0xbd08f496	-0.03343638
154	0xbdc78f36	-0.09744112
155	0xbd33e670	-0.043920934
156	0xbcdda760	-0.02705735
157	0xbd8f4289	-0.069951124
158	0x3db5a842	0.08869983
159	0xbd25eaf7	-0.040507283
160	0x3a9b0c4b	0.0011829225
161	0xbdb8e308	-0.09027678
162	0xbdf1b298	-0.11801642
163	0x3d368be8	0.04456702
164	0x3d83493d	0.064104535
165	0x3c48ac87	0.012248165
166	0x3df1a062	0.11798169
167	0x3db90027	0.09033232
168	0x3d6aade1	0.05729473
169	0xbd15af67	-0.03654423
170	0x3c27257d	0.010201809
171	0x3daf44c8	0.08558041
172	0x3cad0d1d	0.021124417
173	0x3e0ba906	0.13638696
174	0xbcc6b63d	-0.02425682
175	0xbbbc98c0	-0.005755514
176	0x3de5a979	0.11213965
177	0x3d6484af	0.0557906
178	0x3d7c7805	0.061637897
179	0x3dc74bb7	0.09731238
180	0x3c029ea9	0.007972398
181	0x3cab23af	0.020891039
182	0x3d740727	0.059577134
183	0xbdc2cc52	-0.09511627
184	0xbd731265	-0.059343714
185	0x3ddc4728	0.107557595
186	0x3d5f5a93	0.054529738
187	0xbcd946a2	-0.026522938
188	0x3dd3d37a	0.1034307
189	0x3d986ca2	0.07442595
190	0x3d59492d	0.0530483
191	0xbdfeb497	-0.124367885
192	0x3c64905a	0.013950432
193	0x3d078f33	0.03309555
194	0x3c47c79f	0.0121935895
195	0x3dc5f0fe	0.09665106
196	0xbd7f8a6f	-0.06238788
197	0x3bd550b2	0.006509864
198	0x3d3d9430	0.0462839
199	0xbde83210	-0.11337674
200	0x3d90b188	0.070651114
201	0xbdb33b7b	-0.087515794
202	0xbd7e0b35	-0.062022407
203	0x3df691f8	0.1203956
204	0x3d9d5bfe	0.07683562
205	0xbc0c1520	-0.0085499585
206	0x3dc46247	0.095890574
207	0x3c8ddc94	0.017317094
208	0xbcc61a6e	-0.024182525
209	0x3d981254	0.07425371
210	0x3d8c4b46	0.06850295
211	0x3ddf7e06	0.10912709
212	0xbd2ecdab	-0.04267661
213	0x3d207523	0.03917421
214	0x3dd782ea	0.10523017
215	0x3dc79790	0.09745705
216	0x3c6786e8	0.014131285
217	0xbd3b2efe	-0.045699112
218	0x390d04f4	0.00013448653
219	0x3d062657	0.032751407
220	0xbda5eccf	-0.08101808
221	0x3c126433	0.008935022
222	0x3dd0defb	0.1019878
223	0x3d8c8edb	0.06863185
224	0xbcf8ef97	-0.030387683
225	0xbde93afd	-0.11388204
226	0x3daf81c9	0.085696764
227	0x3d639c86	0.055569194
228	0x3c4d70a2	0.012539061
229	0x3db1a4d1	0.08674014
230	0xbd89688d	-0.067093946
231	0xbd64f86c	-0.055900976
232	0xbc8f639c	-0.017503552
233	0xbc8259aa	-0.015911896
234	0xbd8a4f47	-0.06753402
235	0xbd2f89a5	-0.042855877
236	0xbdba6dd7	-0.091029815
237	0xbdad83ac	-0.0847238
238	0xbdb2c9ed	-0.087299205
239	0xbd3c3c37	-0.045955863
240	0x3d1b591d	0.037926782
241	0xbca429fe	-0.020039555
242	0xba1a827f	-0.0005894079
243	0xbd8b66cf	-0.068067186
244	0xbab59899	-0.0013854682
245	0xbd6b5587	-0.057454612
246	0x3d0c6d80	0.034284115
247	0x3d1a0b85	0.037608642
248	0x3da8200a	0.08209236
249	0xbded07c5	-0.115737475
250	0xbcb2414e	-0.021759655
251	0xbca00975	-0.01953576
252	0xbd8e3d65	-0.06945304
253	0x3cafd2f7	0.0214629
254	0x3c2bb621	0.010480435
255	0xbd2585d8	-0.040410846

network_body.linear_encoder.seq_layers.0.bias f4 [128]
0	0x3d255876	0.040367566
1	0x3b474c35	0.0030410413
2	0xbd861ddc	-0.06548664
3	0xbc16f9c4	-0.009214822
4	0x3d36b9b7	0.044610705
5	0x3d575183	0.05256797
6	0xbbe0420c	-0.006843811
7	0xbac22022	-0.0014810602
8	0x3bf2942e	0.0074029183
9	0x3d9e13c7	0.07718616
10	0xbab60f2f	-0.0013890023
11	0xbd25af2d	-0.040450264
12	0xbc69ebb7	-0.01427739
13	0x3d8fbd86	0.070185706
14	0x3cb2ec8a	0.021841306
15	0x3d524b2b	0.051341217
16	0xbcdf4533	-0.027254676
17	0xbc86f655	-0.016474882
18	0x3d443f10	0.047911704
19	0xbd6aede6	-0.057355784
20	0xbc51e79e	-0.0128115695
21	0x3d1a09b6	0.037606917
22	0x3c220110	0.009887949
23	0xbba3828b	-0.004989927
24	0x3dcbe6cd	0.09956131
25	0x3bf3fcfa	0.0074459286
26	0xbb7db2e7	-0.003871137
27	0xbce290b2	-0.027656887
28	0x3d966e4e	0.07345258
29	0xbd083cbe	-0.033261053
30	0x3d9f1d36	0.077692434
31	0xbd3756a6	-0.04476037
32	0x3ddb9dc4	0.10723451
33	0xbd45f1b6	-0.048326217
34	0x3d13d3d5	0.03609069
35	0x3d79c579	0.06097934
36	0xbcaaac0b	-0.02083399
37	0xbdca1c7e	-0.09868716
38	0x3ac4e24f	0.0015021058
39	0xbd7695af	-0.060201343
40	0x3d9b8346	0.07593398
41	0x3c891d75	0.016737679
42	0xbc90c028	-0.017669752
43	0xbdd18e8a	-0.10232265
44	0xbd705a68	-0.058679968
45	0x3cf679f5	0.03008745
46	0x3c8d1493	0.017221725
47	0x3d246996	0.040139757
48	0x3da4967d	0.08036516
49	0x3a9de902	0.0012047591
50	0x3c8b61e6	0.017014455
51	0x3c89684e	0.01677337
52	0x3c80589b	0.01566725
53	0x3dbb428b	0.091435514
54	0x3c4ebede	0.0126187485
55	0xbc8e6080	-0.01738
56	0x3c21bc24	0.009871516
57	0xbd628c53	-0.055309605
58	0x3da5a15a	0.08087416
59	0x3d9c5805	0.07633976
60	0xbd0e2f4b	-0.03471307
61	0x3cbfd0c8	0.023414984
62	0xbd039aab	-0.032129925
63	0x3ddc4813	0.107559346
64	0xbc9e97b9	-0.019359456
65	0x3bb4047c	0.0054936986
66	0x3d4f9670	0.050680578
67	0x3d939e87	0.07207971
68	0x3d084e74	0.033277944
69	0x3d090cf3	0.033459615
70	0x3c96f890	0.01842907
71	0x3d409ead	0.047026325
72	0x3ded8ecb	0.11599501
73	0x3c222430	0.009896323
74	0x3c93b261	0.018029394
75	0x3d097911	0.033562724
76	0xbbda7f47	-0.0066680047
77	0x3d5e324f	0.054247197
78	0x3d23bb7b	0.039973717
79	0xbc9560a7	-0.018234564
80	0xbc5eeb91	-0.013605968
81	0x3d158e61	0.036512736
82	0xbd0611bc	-0.032731757
83	0xbc51fa89	-0.01281608
84	0x3d987277	0.074437074
85	0x3c6e4060	0.014541715
86	0x3c77cf41	0.015125097
87	0x3d1fe8ee	0.0390405
88	0x3c8e5258	0.017373249
89	0x3d139db7	0.03603908
90	0xbc8b0f46	-0.016975056
91	0x3b765712	0.003758852
92	0x3dbc97cc	0.092086405
93	0x3d84796b	0.06468471
94	0x3cb020c6	0.021500003
95	0x3c1ccaec	0.009569865
96	0x3cb02e5b	0.021506479
97	0xbc9b9fc5	-0.018997082
98	0x3d4a4c3a	0.0493891
99	0xbc79591a	-0.015218997
100	0x3ccddef5	0.025130728
101	0x3db93b1b	0.090444766
102	0x3d181223	0.03712667
103	0xbc6e9fe8	-0.014564492
104	0xbc15e7c0	-0.009149492
105	0x3d89a28a	0.06720455
106	0x3cc98f77	0.024604542
107	0xbb851b43	-0.0040620877
108	0xbc2e05c1	-0.010621489
109	0x3c04e710	0.00811173
110	0xbda37cc2	-0.0798278
111	0x3d1a895e	0.03772866
112	0xbbdfc8c5	-0.0068293535
113	0xbd0cc756	-0.03436979
114	0x3cf9f3df	0.030511795
115	0x3d2fd72b	0.04292981
116	0xbd2e7041	-0.042587522
117	0xbd681c1a	-0.056667425
118	0xbd3c7094	-0.0460058
119	0x3cc8982b	0.024486622
120	0x3d82764b	0.06370219
121	0x3ccd3b1d	0.025052601
122	0x3d826570	0.06367004
123	0xbcc8e6b9	-0.02452408
124	0x3d1cc3e4	0.038272753
125	0x3cd7b185	0.026329765
126	0xbc0d7fb3	-0.008636403
127	0xbcdb6235	-0.026780227

network_body.linear_encoder.seq_layers.0.weight f4 [128, 55]
0	0x3d1ea0af	0.03872746
1	0x3e5ae2ab	0.2137553
2	0x3a4b01e2	0.0007744116
3	0x3e15c3f6	0.14625534
4	0xbe25c2cb	-0.16187589
5	0x3dac5202	0.08414079
6	0xbe47dac1	-0.19517042
7	0xbe030054	-0.12793094
8	0xbcca1e1c	-0.02467256
9	0x3dbcfd3d	0.09227989
10	0x3dce2e1b	0.10067388
11	0x3ea0e246	0.31422633
12	0xbd8fba76	-0.070179865
13	0xbd193ee7	-0.037413504
14	0xbddcb912	-0.10777487
15	0x3e88b965	0.26703945
16	0x3e29262d	0.16518469
17	0xbe01e522	-0.12685063
18	0x3e52afc0	0.20574856
19	0x3dbea5af	0.093089454
20	0x3d1916a3	0.037375104
21	0x3d27b316	0.040942274
22	0x3e3c6e98	0.18401563
23	0xbdef6cff	-0.11690711
24	0x3d0f02e6	0.034914874
25	0xbe38a43e	-0.18031403
26	0x3e192dbf	0.14958857
27	0xbdf403ff	-0.11914825
28	0x3e86fdae	0.26365417
29	0xbd9ac72f	-0.075575225
30	0x3c5e9fa7	0.013587869
31	0x3e10e68b	0.14150445
32	0x3dc5acfc	0.09652135
33	0xbe293a40	-0.16526127
34	0x3dda7094	0.10666004
35	0xbc63ab0d	-0.013895762
36	0x3e1fc155	0.15601094
37	0xbe5caf20	-0.2155118
38	0x3e14a33d	0.14515395
39	0xbdfa70f6	-0.12228577
40	0xbe35c88d	-0.17752285
41	0x3dd8aeb9	0.10580201
42	0x3d8ef9d5	0.069812454
43	0xbdcbb309	-0.099462576
44	0x3cdff0c3	0.027336484
45	0x3b16e675	0.0023025547
46	0x3d1ac33a	0.03778384
47	0xbdb758d5	-0.0895249
48	0x3d543e77	0.051817384
49	0xbda6a9e2	-0.08137871
50	0x3dc6e7b9	0.09712166
51	0xbc37af75	-0.011211266
52	0x3d28b9a1	0.041192655
53	0x3b517b5c	0.0031964397
54	0x3e2b1fb0	0.16711307
55	0x3dc4820c	0.09595117
56	0xbd191243	-0.03737093
57	0xbe1add4d	-0.15123482
58	0xbe33eccb	-0.17570798
59	0x3e30c535	0.17262729
60	0x3e81c10f	0.25342605
61	0xbd9cd203	-0.07657244
62	0xbd64a94e	-0.055825524
63	0xbd6ddf93	-0.058074545
64	0xbddf51f0	-0.109043
65	0xbddb0ed4	-0.106961876
66	0xbd832049	-0.06402642
67	0xbe147981	-0.14499475
68	0x3e39d8a2	0.18149045
69	0x3dd43fd4	0.10363737
70	0x3e25aec4	0.16179949
71	0xbce6be25	-0.02816684
72	0x3dbbd414	0.0917131
73	0x3c2813f5	0.010258664
74	0xbe817ec3	-0.25292024
75	0xbe87cbb4	-0.265226
76	0x3da66dd8	0.0812642
77	0xbde84dc8	-0.113429606
78	0xbd337863	-0.04381598
79	0x3e4034cf	0.18770145
80	0xbda65f5e	-0.081236586
81	0x3da4ff3e	0.08056496
82	0xbeac7a06	-0.33686846
83	0xbe0261fd	-0.12732692
84	0xbe6737e7	-0.22579919
85	0x3e075394	0.13215476
86	0x3dbde60e	0.09272395
87	0x3d03d12f	0.032181915
88	0xbe56c1ff	-0.20972441
89	0x3d963c84	0.07335761
90	0xbd2062c8	-0.039156705
91	0xbdb50248	-0.08838326
92	0x3e1e65ed	0.15468569
93	0xbd31da12	-0.04342086
94	0x3d9ef309	0.07761199
95	0x3d8047d1	0.06263698
96	0xbe76ba53	-0.24094515
97	0x3caaa743	0.02083171
98	0xbd9fd560	-0.0780437
99	0x3dc5315e	0.09628557
100	0x3eb0b7c7	0.3451521
101	0x3dfee514	0.12446037
102	0x3e0afc73	0.13572864
103	0xbebbe241	-0.36696056
104	0x3da2d28f	0.07950317
105	0x3c7b623f	0.015343248
106	0x3c839bdc	0.01606553
107	0xbddcffdf	-0.10790991
108	0xbdb8f751	-0.09031547
109	0xbefabdaa	-0.48972827
110	0x3c8c1ab8	0.017102584
111	0x3cd916fd	0.02650022
112	0x3dd8359e	0.10557102
113	0xbef5cde1	-0.48008636
114	0xbdfeb78b	-0.12437352
115	0x3db455ac	0.08805403
116	0x3d7398f2	0.059472032
117	0xbde5e276	-0.112248346
118	0xbdcf69f2	-0.10127629
119	0xbe8fe1bd	-0.28101912
120	0xbe09d8f5	-0.13461669
121	0xbe9ea4b6	-0.3098504
122	0xbe68ff81	-0.22753717
123	0xbcd5ad83	-0.026083713
124	0x3d22aa20	0.039713025
125	0xbe37a114	-0.1793254
126	0xbcbba710	-0.02290681
127	0x3cdc3635	0.026881317
128	0x3d9f6e3d	0.07784698
129	0xbeab83c0	-0.33498955
130	0x3dbc11d0	0.09183085
131	0x3bdd33ae	0.0067505455
132	0x3e3520c7	0.17688285
133	0x3e60064c	0.21877402
134	0x3bed56ec	0.007243028
135	0x3bd78c4a	0.006578003
136	0xbd2bed66	-0.041974448
137	0xbdb0b3b0	-0.08628023
138	0x3dda8e2e	0.1067165
139	0x3e1a7b6d	0.15086146
140	0x3dd5e71e	0.10444473
141	0xbbcb951b	-0.006212843
142	0xbe420507	-0.1894723
143	0x3d059f85	0.032622833
144	0xbbb34adb	-0.00547157
145	0x3d926592	0.07148279
146	0xbd4ee309	-0.050509486
147	0xbe88175f	-0.2658033
148	0x3d8a230a	0.067449644
149	0xbc572a0e	-0.013132585
150	0xbd9f6113	-0.07782187
151	0x3e85df83	0.26147088
152	0xbeb1a079	-0.34692743
153	0xbd2ad47d	-0.04170655
154	0x3e074979	0.13211621
155	0x3dcb4efe	0.09927176
156	0xbdd0b791	-0.101912625
157	0xbe36650e	-0.17811987
158	0x3cc38f41	0.02387202
159	0xbc8b786c	-0.017025195
160	0x3e18f908	0.14938748
161	0xbdb860b8	-0.09002823
162	0xbe31cd3b	-0.17363445
163	0x3c26932b	0.0101669235
164	0xbe1c30b4	-0.15252954
165	0x3d2f17e2	0.042747386
166	0xbcabe76e	-0.020984378
167	0x3d8c5341	0.06851817
168	0xbd4c6378	-0.04989955
169	0x3e849b79	0.25899866
170	0xbe10eb72	-0.14152315
171	0x3d68e3bb	0.056857806
172	0x3dab0d01	0.0835209
173	0xbe14cf22	-0.1453214
174	0x3ec70f95	0.38879076
175	0x3dc757fa	0.09733577
176	0xbc7d74de	-0.015469758
177	0xbd85629e	-0.0651295
178	0x3d86ab86	0.06575684
179	0x3d25a171	0.040437166
180	0xbcfe667b	-0.031054726
181	0xbeb01bc3	-0.3439618
182	0x3eb8e956	0.3611552
183	0xbbadc71e	-0.0053032776
184	0xbd1ce1f2	-0.038301416
185	0x3e3d6500	0.1849556
186	0xbeccc13d	-0.3999118
187	0x3d522c15	0.05131157
188	0xbded1fed	-0.11578355
189	0xbd91a393	-0.071112774
190	0xbe0ede84	-0.1395207
191	0xbc7d5469	-0.0154620195
192	0x3e33b9cc	0.17551345
193	0xbe5c3c55	-0.2150739
194	0xbd78d2d0	-0.06074792
195	0xbe21cec7	-0.15801536
196	0x3d944d67	0.07241326
197	0xbe649fce	-0.22326586
198	0xbdbdbbeb	-0.09264358
199	0x3d6914ce	0.056904607
200	0xbd523ce5	-0.051327605
201	0x3d0cbe17	0.03436097
202	0xbdec45f6	-0.115367815
203	0xbdde522b	-0.10855516
204	0xbe0138e3	-0.12619357
205	0xbd303114	-0.043015555
206	0xbe91c63e	-0.2847156
207	0xbca0e3a4	-0.019639798
208	0xbdfad7c0	-0.12248182
209	0xbe021cce	-0.127063
210	0xbe901ce1	-0.28147033
211	0x3d45edc2	0.048322447
212	0xbd82f0f3	-0.06393614
213	0x3e0d6e46	0.13811597
214	0x3e07ea08	0.1327287
215	0x3d9c9648	0.076458514
216	0x3dc844fe	0.09778784
217	0xbd0f0b20	-0.03492272
218	0xbde8d0a3	-0.11367919
219	0x3d686d07	0.0567446
220	0x3ddd576f	0.10807692
221	0xbe99362d	-0.29924145
222	0x3caca6f5	0.021075705
223	0x3b013eb6	0.0019721217
224	0x3dde0b92	0.108420506
225	0x3d4b94aa	0.049702324
226	0x3c4bdc75	0.012442698
227	0x3cad93cc	0.02118864
228	0x3e363f80	0.17797661
229	0xbe51b223	-0.2047811
230	0x3dae7f7c	0.085204095
231	0xbb88d8c1	-0.0041762297
232	0xbe818bfb	-0.2530211
233	0xbea3ba2b	-0.31977972
234	0x3d8421b0	0.06451738
235	0x3d753389	0.0598636
236	0xbd6516ba	-0.055929877
237	0xbdd784da	-0.10523386
238	0xbd99f1b8	-0.07516807
239	0xbd8a1397	-0.06742018
240	0xbdd87f17	-0.105711155
241	0x3df9f563	0.12205007
242	0x3e87cab0	0.26521826
243	0x3eb44d91	0.35215428
244	0x3d865f40	0.06561136
245	0xbe628d3b	-0.22124188
246	0x3e006036	0.12536702
247	0xbe8eaa0a	-0.27864105
248	0xbe98e151	-0.29859403
249	0x3e64fb95	0.22361596
250	0xbe836518	-0.25663066
251	0xbc814d89	-0.015784042
252	0x3da61a64	0.08110502
253	0xbd14d93b	-0.03633998
254	0xbda4b7a4	-0.08042839
255	0x3db208ce	0.086930856

network_body.linear_encoder.seq_layers.2.bias f4 [128]
0	0x3d32e6fa	0.043677308
1	0x3cef5919	0.02921729
2	0x3c0edeab	0.00872008
3	0x3d23b0b6	0.039963447
4	0x3cc25b84	0.023725279
5	0x3c57c954	0.013170559
6	0x3d76ec9b	0.06028424
7	0x3c0266f9	0.007959121
8	0x3d2e834c	0.042605683
9	0x3cc41ec0	0.023940444
10	0x3cd4a3e6	0.02595706
11	0x3c5deb01	0.013544799
12	0x3dc3f4d7	0.09568184
13	0x3d05b6ab	0.03264491
14	0xbbb023bd	-0.005375354
15	0x3d6dda55	0.058069546
16	0x3da26e66	0.07931213
17	0x3d128639	0.035772536
18	0x3d385fae	0.045013122
19	0x3ca80513	0.020510232
20	0x3d32b6a8	0.043631226
21	0x3d2d38aa	0.042290367
22	0xbd1876c4	-0.03722264
23	0x3d2f232a	0.042758144
24	0x3cb04486	0.02151705
25	0x3d61ee90	0.05515915
26	0x3d5a43d3	0.05328734
27	0x3d3bf774	0.045890287
28	0xbc5c58b3	-0.013448882
29	0x3d38b0db	0.045090538
30	0x3d47f906	0.04882147
31	0xbcc9d446	-0.024637353
32	0x3c6a38bd	0.014295754
33	0x3d61d2f0	0.055132806
34	0x3d954535	0.07288591
35	0x3d10e3e5	0.035373587
36	0x3cd57c65	0.026060292
37	0x3d37d1bd	0.044877756
38	0x3d36cc0d	0.04462819
39	0x3cb1ffd7	0.02172844
40	0x3d499203	0.049211513
41	0x3d8be8ed	0.068315364
42	0x3c9f2921	0.019428791
43	0x3d3d7d25	0.046261925
44	0xbd0b9440	-0.03407693
45	0x3cde2fed	0.027122462
46	0x3ad483e3	0.0016213622
47	0x3d32fc46	0.043697618
48	0x3d975951	0.07390083
49	0xbc421a44	-0.0118470825
50	0x3d873637	0.066021375
51	0x3cd21202	0.025643352
52	0x3dae48ce	0.0850998
53	0x3d2d7883	0.042351257
54	0x3c23f938	0.010008149
55	0x3d933f45	0.07189802
56	0x3d990e8f	0.0747348
57	0x3d44d49d	0.048054326
58	0x3d50f647	0.05101612
59	0x3cf50133	0.029907798
60	0x3dbdbf18	0.09264964
61	0x3cfd14b1	0.030893655
62	0x3cda85a5	0.026675055
63	0xbaa66a5d	-0.0012696494
64	0xbd8dbe7a	-0.06921096
65	0x3b300f66	0.0026864647
66	0x3d5983d0	0.05310422
67	0x3d8bedc6	0.06832461
68	0x3d797903	0.06090642
69	0x3d94df97	0.07269209
70	0x3c92b224	0.01790721
71	0x3d0012a5	0.03126778
72	0x3d8e0eb1	0.06936396
73	0x3d662569	0.05618802
74	0x3d348a3f	0.044077154
75	0x3d80060e	0.06251155
76	0x3c044ec3	0.008075419
77	0x3d3dce64	0.046339408
78	0x3cfee8c4	0.03111685
79	0x3d08adad	0.033368755
80	0x3c43a16a	0.01194034
81	0x3d196377	0.037448373
82	0xbbb67d98	-0.005569171
83	0x3d1d08bf	0.03833842
84	0xbbfad481	-0.007654727
85	0x3d18020d	0.03711133
86	0x3d9176fe	0.07102774
87	0xba6ec31f	-0.0009108055
88	0x3d7a7e9f	0.06115591
89	0x3cf24574	0.029574133
90	0xbc485c86	-0.012229091
91	0x3d42b065	0.047531504
92	0x3be0e3f7	0.006863113
93	0x3a3c7f65	0.0007190614
94	0x3d21e769	0.03952733
95	0x3d9d3dbe	0.07677792
96	0x3d497a63	0.049188983
97	0x3cd84abd	0.026402825
98	0x3d6efa0a	0.058343925
99	0x3c31f11f	0.01086071
100	0x3c92707f	0.017875908
101	0x3c8b98ba	0.0170406
102	0x3d69b092	0.057053156
103	0x3cfcab20	0.030843318
104	0xbd2ee8df	-0.042702552
105	0x3d8d3caf	0.0689634
106	0x3caacd9d	0.020849997
107	0x3ccddf98	0.025131032
108	0x3d450a8f	0.048105773
109	0x3d1e24fc	0.03860949
110	0x3ca56eff	0.020194529
111	0x3cc7bf19	0.024383115
112	0x3cf1021d	0.029419953
113	0x3c2d4483	0.0105754165
114	0x3d4ba56a	0.049718298
115	0x3c422bbc	0.011851247
116	0xbc809e1c	-0.015700392
117	0x3d635765	0.055503268
118	0x3d87bb8b	0.06627568
119	0x3d348c62	0.044079192
120	0x3d4e356c	0.050343916
121	0x3d2ca28d	0.042147208
122	0x3d229a66	0.039698027
123	0x3cfad097	0.030617042
124	0x3d255ee6	0.040373705
125	0x3d050ad1	0.03248102
126	0x3cf99ad0	0.030469328
127	0xbcbe527e	-0.023232695

network_body.linear_encoder.seq_layers.2.weight f4 [128, 128]
0	0x3dd33bb0	0.10314119
1	0x3d91e521	0.07123781
2	0xbc029792	-0.0079707075
3	0xbd93d58b	-0.072184645
4	0x3dfccbe4	0.123435766
5	0xbe1348aa	-0.14383188
6	0x3d6075d2	0.054799862
7	0x3c96a8ae	0.01839098
8	0xbd470032	-0.04858417
9	0xbdba5ef1	-0.0910014
10	0xbd4586f1	-0.048224393
11	0xbd8cfdf7	-0.068843774
12	0xbcebedd8	-0.028799936
13	0xbe86540d	-0.26236
14	0x3c90ed6e	0.01769134
15	0x3e1bbe00	0.15209198
16	0xbdd54575	-0.104136385
17	0xbd9a2f8e	-0.075286016
18	0x3d49a0ee	0.04922574
19	0xbdeff845	-0.117172755
20	0x3c656231	0.014000461
21	0x3d743f0f	0.05963045
22	0xbdcd95c4	-0.10038331
23	0x3da5ea69	0.08101351
24	0x3cd8140f	0.026376752
25	0xbe7ae0f8	-0.24499881
26	0xbe5f744e	-0.2182171
27	0x3d0397a1	0.032127026
28	0x3e0dbda4	0.13841873
29	0x3b133451	0.0022461603
30	0xbe20fa06	-0.15720376
31	0xbe05d849	-0.13070787
32	0x3ea3531d	0.31899348
33	0xbca14b93	-0.019689357
34	0x3e04ffe1	0.12988235
35	0x3c8e9b8f	0.01740816
36	0xbe8ffc05	-0.28121963
37	0x3d2e0b63	0.042491328
38	0xbb973bde	-0.004615291
39	0xbcc8bde8	-0.024504617
40	0xbd92fb1d	-0.07176802
41	0x3dfe849e	0.124276385
42	0xbe202651	-0.15639617
43	0x3c0b9d14	0.008521337
44	0xbdd057c7	-0.10172992
45	0xbe271554	-0.1631673
46	0xbbb4edda	-0.005521518
47	0x3e4ef4e9	0.20210613
48	0x3ea77682	0.32707602
49	0x3e01086c	0.12600869
50	0x3da845cb	0.08216437
51	0xbdc9045b	-0.09815284
52	0x3e5c3912	0.21506146
53	0x3df1c4bf	0.118051045
54	0xbdd8eff6	-0.10592644
55	0x3dbf0a3e	0.093281254
56	0xbd10d190	-0.035356104
57	0xbdb3c84d	-0.08778439
58	0x3d9599b4	0.07304707
59	0x3e1407d1	0.14456107
60	0xbde0246a	-0.109444454
61	0x3cea2161	0.02858037
62	0xbd4df9d1	-0.05028707
63	0x3dbf65e6	0.093456075
64	0x3d6b749b	0.05748425
65	0xbcf33665	-0.029689023
66	0x3e556e20	0.2084279
67	0xbd69be52	-0.05706627
68	0xbd14ea97	-0.036356535
69	0xbe358b1d	-0.17728849
70	0x3e87788a	0.26459152
71	0x3e3d848b	0.18507592
72	0x3d895035	0.067047514
73	0xbbdbb171	-0.0067045023
74	0x3d7f915a	0.062394477
75	0x3e157d4b	0.14598577
76	0xbe1bf5b3	-0.15230446
77	0xbe780309	-0.24219908
78	0xbe388e6e	-0.18023083
79	0x3dfc7c3f	0.123283856
80	0x3d8e0e6a	0.06936343
81	0xbe698418	-0.22804296
82	0x3d1c7e1d	0.03820621
83	0x3debbf3c	0.115110844
84	0xbcfe1bc7	-0.031019105
85	0xbe0c0327	-0.13673078
86	0xbde86d53	-0.11348977
87	0xbaa83ef5	-0.0012836145
88	0xbc6dd790	-0.014516726
89	0x3e046648	0.12929642
90	0xbd0903ea	-0.033451
91	0xbe043085	-0.12909134
92	0x3d19efe1	0.037582282
93	0x3dce7b2f	0.10082089
94	0xbcd52596	-0.026018899
95	0x3d741f69	0.059600268
96	0xbd42022a	-0.047365345
97	0x3d525d36	0.051358424
98	0xbd5d850c	-0.05408196
99	0x3d7c8b8b	0.061656516
100	0x3dd0de79	0.10198683
101	0x3e91160a	0.28337127
102	0x3c1cf16a	0.009579042
103	0xbcd07f4e	-0.025451329
104	0x3d36b545	0.044606466
105	0x3da85098	0.08218497
106	0x3e0eb644	0.13936716
107	0x3d901c2b	0.070366226
108	0xbdb3ff4c	-0.087889284
109	0x3d8b5143	0.06802609
110	0x3d9a8f47	0.07546859
111	0x3c8b62bb	0.017014852
112	0xbce7b0e2	-0.028282586
113	0xbd858de3	-0.06521203
114	0xbe445c2c	-0.19175786
115	0x3e485ff2	0.1956785
116	0xbdbba391	-0.09162057
117	0xbcc912b3	-0.02454505
118	0xbe05316f	-0.13007139
119	0x3c0a2625	0.008431946
120	0x3e50a72a	0.20376268
121	0xbbb1bb15	-0.0054239132
122	0x39fb04e7	0.00047878103
123	0xbe0773c5	-0.13227756
124	0x3d3e440d	0.046451617
125	0x3d6f670f	0.058447894
126	0x3db12cd4	0.086511284
127	0x3c99f36d	0.018792832
128	0xbc9f2cff	-0.019430635
129	0xbdc6035f	-0.09668612
130	0x3c4c0da5	0.012454425
131	0xbd5cbe4c	-0.05389242
132	0xbe025ef3	-0.12731533
133	0xbdb2847e	-0.08716677
134	0xbd97dd49	-0.07415254
135	0x3d96362d	0.07334552
136	0xbd58face	-0.05297356
137	0xbd4fd30d	-0.050738383
138	0xbcf7bb3b	-0.030240646
139	0xbded30ac	-0.11581549
140	0xbce5f1f9	-0.028069483
141	0xbe5b4f94	-0.21417075
142	0xbdf16ca9	-0.117883034
143	0x3e6077d3	0.2192071
144	0x3d638f1a	0.055556394
145	0x3d219e84	0.039457813
146	0xbda4b507	-0.08042341
147	0xbd59714a	-0.053086556
148	0xbd851835	-0.06498758
149	0x3cb2ea19	0.021840142
150	0xbe828c3c	-0.25497615
151	0xbde04a07	-0.109516196
152	0x3df80d6e	0.121119365
153	0x3ccafcc7	0.024778737
154	0xbcc7abc6	-0.0243739
155	0xbe04cd24	-0.1296888
156	0xbd1dc4b8	-0.038517684
157	0x3da1b501	0.07895852
158	0xbe0534fe	-0.13008496
159	0xbd8f2a22	-0.06990458
160	0x3de25c09	0.110527106
161	0xbc8de0fe	-0.017319199
162	0x3d0dbcb2	0.034603782
163	0xbdb7db9b	-0.08977433
164	0x3e05ed81	0.13078882
165	0x3cda5acf	0.026654629
166	0x3d1c9420	0.0382272
167	0x3d832165	0.06402854
168	0xbe0c176e	-0.13680813
169	0x3e208f2d	0.15679617
170	0xb92904e5	-0.0001611892
171	0xbd56d7a1	-0.052451733
172	0xbe10deab	-0.14147441
173	0xbe34fa4e	-0.17673609
174	0xbde28f2d	-0.11062465
175	0xbe3da3dc	-0.18519539
176	0x3e1c85a3	0.15285353
177	0xbd3d5578	-0.046224087
178	0x3d9a15dd	0.07523701
179	0x3e06e3f4	0.13172895
180	0x3d53b00b	0.05168156
181	0x3e67025b	0.22559492
182	0x3d16d6db	0.036825996
183	0xbd4132fe	-0.04716777
184	0x3db71f53	0.089415215
185	0xbd80ec42	-0.062950626
186	0x3c5297dd	0.01285359
187	0xbbac0275	-0.0052493163
188	0x3dd1b858	0.10240239
189	0x3decfb29	0.115713425
190	0xbd4e1183	-0.05030967
191	0x3e423b6b	0.18967979
192	0xbd3c0712	-0.04590518
193	0xbddd50e3	-0.108064435
194	0x3e2e3cbc	0.17015356
195	0x3ac0bbf3	0.0014704451
196	0xbd99dd2b	-0.075128876
197	0xbdf0cee2	-0.1175821
198	0x3df189b8	0.11793846
199	0xbc6f5fb9	-0.014610224
200	0x3e012d39	0.12614907
201	0xbd0e756e	-0.03477996
202	0xbd16cb4d	-0.036814976
203	0x3d9d501c	0.07681295
204	0xbcb9dbe2	-0.022687856
205	0x3db04fe5	0.08608989
206	0xbd76949a	-0.06020031
207	0xbcfe01de	-0.03100675
208	0xbd237e7b	-0.039915543
209	0xbe0d3fdb	-0.1379389
210	0xbc3b7e88	-0.011443742
211	0x3df99e5c	0.12188408
212	0x3e28a056	0.16467413
213	0xbd3db5cf	-0.046315964
214	0xbd295955	-0.04134496
215	0x3de67d96	0.11254422
216	0x3df7b806	0.120956466
217	0x3dbf56a1	0.09342695
218	0x3de2481c	0.1104891
219	0xbe1c1b98	-0.15244901
220	0x3defc482	0.11707403
221	0x3e1c5b21	0.15269138
222	0x3d6914c3	0.056904566
223	0xbe4dde8d	-0.20104428
224	0xbdc18496	-0.09449117
225	0x3e63838d	0.22218151
226	0x3cf9f641	0.03051293
227	0xbd871362	-0.06595494
228	0xbba7f493	-0.005125591
229	0x3d21e045	0.03952052
230	0xbdca015d	-0.09863541
231	0x3c828103	0.015930658
232	0xbcf3f910	-0.029781848
233	0x3d8bf8be	0.06834553
234	0x3e222cdc	0.15837425
235	0x3c5edd9b	0.01360264
236	0xbe017aaa	-0.12644449
237	0xbe27b53d	-0.1637773
238	0xbd7889f3	-0.060678434
239	0x3e1c5e0a	0.15270248
240	0x3e1fc929	0.1560408
241	0xbd2fac45	-0.0428889
242	0xbdf52456	-0.11969821
243	0x3e5d7cc2	0.21629623
244	0xbc2bcf0f	-0.010486378
245	0x3d5bbe5b	0.053648334
246	0xbdabfa30	-0.08397329
247	0x3e61a175	0.22034247
248	0x3bfc675f	0.0077027525
249	0x3da1b116	0.078951046
250	0xbe0d43bf	-0.13795374
251	0x3e2da1ad	0.16956206
252	0x3e27716e	0.16351864
253	0xbd15d5d0	-0.03658086
254	0xbdb37e30	-0.08764303
255	0x3d6fea97	0.05857333
