results/SelfPlay_FreezeTool_OnlyBehind_3/BasicAgent/BasicAgent-162505.onnx (onnx, 173150 bytes, 6 tensors)

action_model._discrete_distribution.branches.0.bias f4 [6]
0	0xbd861d72	-0.06548585
1	0x3dd42786	0.10359101
2	0xbe211965	-0.15732343
3	0xbc139326	-0.009007251
4	0x3be0f6ac	0.006865343
5	0x3d0c7380	0.034289837

action_model._discrete_distribution.branches.0.weight f4 [6, 128]
0	0x3d061ed2	0.032744236
1	0x3c9df988	0.019284025
2	0x3d8f1dff	0.06988143
3	0x3d07b145	0.03312804
4	0x3d2072bc	0.03917192
5	0x3d51db71	0.051234666
6	0x3d397c9e	0.04528486
7	0x3c6b91db	0.014378036
8	0x3d07f366	0.033191107
9	0x3d74dee2	0.05978287
10	0x3ae157e9	0.0017192337
11	0xbd9b6603	-0.075878166
12	0xbb8a3bc7	-0.004218552
13	0x3d1a4412	0.037662573
14	0x3d76638a	0.06015352
15	0x3d92b8c3	0.07164147
16	0x3d84e398	0.064887226
17	0x3c8823cd	0.016618634
18	0x3d2a436e	0.041568212
19	0x3dbd95b2	0.09257068
20	0x3d38c8b4	0.04511328
21	0x3d2a66aa	0.041601814
22	0x3c2fc015	0.010726948
23	0x3c7bf6cb	0.015378664
24	0x3ca19037	0.019722087
25	0x3d68235c	0.056674346
26	0x3c0c691b	0.008569981
27	0x3dca4c13	0.09877791
28	0x3d801791	0.06254495
29	0x3d331713	0.043723177
30	0x3d0b8389	0.03406099
31	0x3d169472	0.036762662
32	0x3d039cbb	0.03213189
33	0x3d6c418a	0.05767969
34	0x3d32350f	0.043507632
35	0xbc96a7ef	-0.018390624
36	0x3d9e66cb	0.0773445
37	0x3daf4955	0.08558909
38	0x3d6b19f6	0.057397805
39	0x3d130bf7	0.035900082
40	0xbc456c71	-0.01204978
41	0x3cd6d619	0.026225137
42	0xbc0633c1	-0.00819105
43	0x3c9d7d40	0.019224763
44	0x3d9ee722	0.07758929
45	0x39fb3b18	0.0004791848
46	0xbd3b0854	-0.04566224
47	0x3a203bd4	0.0006112431
48	0x3d896678	0.067089975
49	0xbc9d491e	-0.019199904
50	0xbc94e0e0	-0.018173635
51	0x3c008b9f	0.007845788
52	0x3d4609c3	0.048349153
53	0xbbca2bb6	-0.0061697615
54	0xbc0bfaea	-0.008543709
55	0x3d82cc22	0.063865915
56	0x3d32aae7	0.043620016
57	0xbb388399	-0.002815461
58	0x3d410ca3	0.047131192
59	0x3d3cead2	0.04612238
60	0x3d380a03	0.044931423
61	0x3d1f94f4	0.038960412
62	0x3e003107	0.12518702
63	0x3da504ce	0.08057557
64	0x3cb517b8	0.022106037
65	0xbd97141d	-0.07376883
66	0x3cdfc844	0.027317174
67	0xbcd23f88	-0.02566506
68	0x3c9b9bc8	0.01899518
69	0x3d0d35fb	0.034475308
70	0x3d551937	0.052026
71	0xbc25852d	-0.010102552
72	0x3d7e57e2	0.06209553
73	0x3c958d5a	0.018255878
74	0x3d0d10fe	0.034440033
75	0x3ceb69ac	0.028736912
76	0x3d824af8	0.063619554
77	0x3c156c64	0.009120081
78	0x3df22436	0.11823313
79	0x3d939c4e	0.07207547
80	0x3d81de9e	0.06341289
81	0xbc85dd06	-0.016340744
82	0x3d0f3622	0.034963734
83	0x3cdb5688	0.02677466
84	0x3da62bd5	0.08113829
85	0x3c4efb21	0.012633116
86	0x3cdb9176	0.02680276
87	0x3da138a8	0.078721344
88	0x3d1f1a46	0.038843416
89	0x3bc33f8c	0.005958503
90	0x3c0c969e	0.008580832
91	0x3d8e804d	0.06958065
92	0x3cccbf33	0.024993515
93	0x3c75690a	0.014978657
94	0x3d886293	0.066594265
95	0x3d932f50	0.071867585
96	0x3d97a177	0.07403844
97	0x3ac5388c	0.001504676
98	0x3ca7e9a3	0.020497149
99	0x3c67dc64	0.014151666
100	0x3c66b3b1	0.014080928
101	0x3d34afc7	0.044112947
102	0x3d6831f1	0.056688253
103	0x3aadbd93	0.001325535
104	0x3d436562	0.047704108
105	0x3c068996	0.008211514
106	0x3da87281	0.08224965
107	0x3d9741b1	0.073855765
108	0x3cd797de	0.026317533
109	0x3cbd64dc	0.023119383
110	0x3ce595b9	0.028025495
111	0xbcb54164	-0.022125907
112	0x3c6863fd	0.014183995
113	0x3d4dadbe	0.05021452
114	0x3c6c2663	0.014413449
115	0x3d3ff7d8	0.04686722
116	0x3d0ac429	0.03387848
117	0x3d6ddfb6	0.058074676
118	0x3d0043a6	0.031314515
119	0x3d97ef71	0.07418717
120	0x3dab6940	0.08369684
121	0x3ce9a649	0.028521674
122	0x3d2bf98e	0.04198604
123	0x3d36838d	0.04455905
124	0x3d11b29d	0.03557073
125	0x3cbfd992	0.023419175
126	0x3be66df1	0.007032149
127	0x3d99ea3c	0.0751538
128	0xbd9378dc	-0.072007865
129	0xbd93e98e	-0.072222814
130	0xbd0c84ba	-0.034306265
131	0x3db81339	0.089880414
132	0x3ce30b22	0.02771527
133	0x3cf7c0f7	0.03024338
134	0xbd9debd3	-0.077109955
135	0x3d86416f	0.06555449
136	0x3cb16e75	0.021659115
137	0xbddfffab	-0.10937437
138	0x3ca818fc	0.020519726
139	0xbd394b93	-0.04523809
140	0xbb0fb716	-0.0021929196
141	0x3cb949b9	0.022618162
142	0x3d066320	0.032809377
143	0x3d1678eb	0.03673641
144	0xbd501dbf	-0.050809618
145	0x3d8c208c	0.06842145
146	0xbd3184bb	-0.043339472
147	0xbdcf1be1	-0.10112739
148	0x3db30e96	0.087430164
149	0x3d3e5071	0.046463434
150	0xbd25aac5	-0.04044606
151	0x3b4ca1a6	0.003122428
152	0xbd2e7772	-0.04259438
153	0xbc89b81a	-0.01681142
154	0x3d4b5a4d	0.049646664
155	0xbd7c6b45	-0.061625738
156	0xbdc8e78c	-0.09809789
157	0x3d5efbc2	0.054439314
158	0x3d99a474	0.0750207
159	0x3cf26373	0.029588437
160	0xbbdea7ac	-0.0067948904
161	0x3b4eb474	0.0031540664
162	0xbd155ee8	-0.036467463
163	0xbb7d4112	-0.0038643521
164	0xbdbb9bde	-0.09160589
165	0x3d7b9c63	0.06142844
166	0xbdc3e6e7	-0.095655255
167	0xbcef2d2c	-0.029196344
168	0x3bc47aa9	0.0059960675
169	0xbc30a76f	-0.010782107
170	0x3c376a65	0.0111948
171	0xbdca569a	-0.09879799
172	0xbdd751a4	-0.105136186
173	0x3e05ccf1	0.1306646
174	0xbcceee79	-0.025260197
175	0x3db4221d	0.08795569
176	0xbd986251	-0.07440627
177	0x3d81b1a8	0.06332713
178	0xbdc8d007	-0.09805303
179	0xbda89c8a	-0.082329825
180	0x3c5380ad	0.012909097
181	0x3c069ffa	0.008216852
182	0x3df4e929	0.11958534
183	0x3d681ccd	0.05666809
184	0x3cecfc97	0.028929038
185	0x3c4ec3c1	0.012619914
186	0xbe03d91f	-0.12875794
187	0xbba8f921	-0.0051566516
188	0x3db692c4	0.08914712
189	0xbdb66534	-0.08906022
190	0xbdfe8fa6	-0.124297425
191	0xbdfd128e	-0.12357055
192	0x3dbd9861	0.092575796
193	0xbcaad9d3	-0.02085582
194	0xbd5d8c2e	-0.054088764
195	0xbc743efd	-0.014907596
196	0x3d1e0b24	0.038584843
197	0x3d274c2e	0.040844135
198	0xbd90575e	-0.07047914
199	0xbb9e27bd	-0.0048265145
200	0xbdf5e21b	-0.12006017
201	0x3b565173	0.0032702356
202	0x3dfc3226	0.123142526
203	0xbd68ad47	-0.056805875
204	0xbd384444	-0.04498698
205	0x3dec4a14	0.11537567
206	0x3d3edd00	0.04659748
207	0xbde1037b	-0.10986992
208	0xbd19859b	-0.03748093
209	0x3cdd9160	0.02704686
210	0xbd194707	-0.037421253
211	0x3d239644	0.039938226
212	0xbdc2f77f	-0.095198624
213	0xbd9a55aa	-0.075358704
214	0xbc520cf3	-0.01282047
215	0x3cfd3630	0.030909628
216	0x3dd785d9	0.10523576
217	0xbd56c725	-0.052436013
218	0x3de3b08d	0.11117659
219	0xbda5bab9	-0.08092255
220	0x3c909acc	0.017651938
221	0x3c34e6a0	0.011041313
222	0xbd647f3d	-0.055785406
223	0xbdc4914d	-0.095980264
224	0x3beb5e4c	0.007182872
225	0x3d64a9a1	0.055825833
226	0x3d8692a6	0.0657094
227	0xbc661ebc	-0.014045414
228	0x3d32c887	0.04364827
229	0x3d28e89b	0.041237455
230	0xbdf7f7fb	-0.121078454
231	0x3d8b9112	0.06814779
232	0x3d27ace3	0.040936362
233	0xbdb83734	-0.08994904
234	0x3d3ae675	0.045629937
235	0xbe00a613	-0.12563352
236	0x3d0e48d5	0.034737427
237	0x3c976160	0.01847905
238	0x3c94d81e	0.018169459
239	0x3cb1cf08	0.021705166
240	0x3d979f6e	0.07403456
241	0xbdbdd25b	-0.09268638
242	0x3d8dbe37	0.06921046
243	0xbc2d7f40	-0.010589421
244	0xbc341ce6	-0.010993218
245	0xbc85a28b	-0.016312858
246	0xbe08e9ce	-0.1337044
247	0xbd1c32d1	-0.0381344
248	0xbdb3b337	-0.08774417
249	0xbc885632	-0.016642664
250	0x3dafaebf	0.08578252
251	0xbd60c24e	-0.054872803
252	0x3c1705a2	0.009217652
253	0x3dee6901	0.11641122
254	0x3e0523f4	0.13001996
255	0xbdba27db	-0.09089633

network_body.linear_encoder.seq_layers.0.bias f4 [128]
0	0xbde0d42b	-0.10977968
1	0xbc889d73	-0.01667664
2	0x3c2aea99	0.010431909
3	0xbc48c7cb	-0.012254666
4	0xbca84bba	-0.020543922
5	0x3cc17f3d	0.023620242
6	0xbbe1289a	-0.006871295
7	0xbd988225	-0.07446698
8	0xbaba7e38	-0.001422829
9	0xbcaabd34	-0.020842172
10	0xbdd12127	-0.102114014
11	0x3b16d0ec	0.002301271
12	0xbc5fbcc4	-0.013655845
13	0xbde3d038	-0.11123699
14	0xbd47cbc5	-0.048778314
15	0x3c0763a7	0.008263505
16	0xbb8083ff	-0.003921985
17	0x3c1f57f7	0.009725562
18	0x3a8ad90b	0.0010593248
19	0xbd8822da	-0.066472724
20	0x3aaed693	0.0013339095
21	0xbbac1ba7	-0.00525232
22	0x3bcb6f3d	0.006208329
23	0x3c439864	0.011938188
24	0x3be249e6	0.006905782
25	0xbd19cfeb	-0.0375518
26	0xbc1d60bc	-0.009605583
27	0xbdd9a0bc	-0.10626361
28	0xbc13a734	-0.009012032
29	0xbdb3c33f	-0.087774746
30	0x3bcac0d5	0.006187538
31	0xbcd4c912	-0.025974784
32	0xbc61cb71	-0.013781414
33	0xbdaab91b	-0.08336087
34	0xbbd57c9b	-0.0065150983
35	0x3bf93a5c	0.007605834
36	0xbd801088	-0.06253153
37	0xbde99662	-0.11405636
38	0xbc2a1902	-0.010381939
39	0xbd31fcc9	-0.043453965
40	0xbc1a46e3	-0.009416315
41	0xbd920d15	-0.071314014
42	0xbc29e8e8	-0.010370471
43	0xbd9686af	-0.073499076
44	0xbb81bfab	-0.003959616
45	0x3ccffd83	0.025389438
46	0x3c3878a3	0.011259231
47	0xbdb3be83	-0.087765716
48	0x3c1c66c3	0.009545985
49	0x3c5f19dd	0.013617006
50	0xbc307d6f	-0.010772093
51	0xbbe00955	-0.00683705
52	0x3c282adf	0.0102641275
53	0xbc24ed1d	-0.010066298
54	0xbc094a9f	-0.008379607
55	0xbda47d1d	-0.08031676
56	0x3bc18a3d	0.005906372
57	0xbc60f605	-0.013730531
58	0xbc8cfdb1	-0.017210813
59	0xba874343	-0.0010319728
60	0xbdee7387	-0.11643129
61	0xbb0b5484	-0.0021260092
62	0x3b954b24	0.0045560766
63	0xbc693fc9	-0.014236399
64	0x3b81db31	0.003962897
65	0x3c3898d9	0.0112669105
66	0x3c0b26c4	0.008493129
67	0xbb1b827a	-0.0023728893
68	0x3c726079	0.014793509
69	0xbda4e47a	-0.08051391
70	0xbddb2260	-0.10699916
71	0xbd93d29e	-0.072179064
72	0x3b29a353	0.0025884702
73	0xbbc16594	-0.0059020016
74	0xbba64d4a	-0.0050751315
75	0xbc185e0b	-0.009299765
76	0x3c35421b	0.011063124
77	0x3bf5c3c8	0.0075001456
78	0xbc0490e3	-0.008091184
79	0xbdb789eb	-0.08961853
80	0x3c8224c6	0.015886676
81	0x3c9b3101	0.018944265
82	0x3c80bb3e	0.015714284
83	0xbdcab663	-0.09898069
84	0x3b527d95	0.003211831
85	0x3c8ba0ea	0.017044503
86	0xbb87e0bb	-0.004146663
87	0xbaee0c96	-0.001816171
88	0x3c89615f	0.016770063
89	0x3c8bc22e	0.017060366
90	0xbd00f033	-0.03147907
91	0xbdbb1391	-0.09134591
92	0x3bc3d87f	0.005976736
93	0x3c374e7a	0.011188144
94	0xbbf68d2e	-0.007524154
95	0xbdbaeccd	-0.091271974
96	0x397b3160	0.00023955619
97	0xbc26ff9f	-0.010192781
98	0x3c4db968	0.012556411
99	0xbc1cdc9e	-0.009574084
100	0xbc4c2cb2	-0.012461828
101	0x3c8beba3	0.017080134
102	0x3b9ecbda	0.0048460783
103	0x3c5e263e	0.013558922
104	0xbd5533fd	-0.052051533
105	0x3c373c21	0.011183769
106	0x3c236354	0.009972412
107	0x3bf924b7	0.0076032537
108	0x3c10bfa5	0.008834754
109	0xbd861533	-0.06547012
110	0xba57eecf	-0.00082371844
111	0xbd589ed5	-0.05288585
112	0xbcc73930	-0.024319261
113	0xbc78b2d9	-0.015179359
114	0x3afccb07	0.0019286581
115	0x3c24e54c	0.010064434
116	0x3ca28586	0.01983906
117	0x3cad4633	0.021151638
118	0xbba73ce0	-0.0051036924
119	0x3c56fa91	0.013121263
120	0x3bb80de7	0.0056168917
121	0xb9f51274	-0.0004674379
122	0x3bfa0d2e	0.0076309657
123	0x3c00f319	0.007870459
124	0xbc0e8386	-0.00869835
125	0xbd6adbe2	-0.057338603
126	0x3c2e98ee	0.0106565785
127	0xbc26bf2d	-0.010177416

network_body.linear_encoder.seq_layers.0.weight f4 [128, 197]
0	0xbe04aeaa	-0.12957254
1	0xbbba2140	-0.0056802332
2	0xbc800047	-0.015625132
3	0xbe10704b	-0.14105336
4	0xbdfc5123	-0.12320163
5	0xbd349efa	-0.044096924
6	0x3ca4c4b6	0.02011333
7	0xbdeebccd	-0.11657105
8	0xbce736b7	-0.028224332
9	0xbdfed961	-0.124438055
10	0xbdd55b8b	-0.10417851
11	0xbe3ebe5b	-0.18627302
12	0x3db127e9	0.086501904
13	0xbd18522b	-0.037187736
14	0xbe0aa614	-0.13539916
15	0xbd28c8e1	-0.041207198
16	0xbe04bae4	-0.12961918
17	0xbe3e03ce	-0.18556139
18	0x3d994099	0.07483024
19	0xbe3082f3	-0.17237453
20	0xbd95a6a4	-0.07307175
21	0xbc061051	-0.008182601
22	0xbe08daf3	-0.13364772
23	0xbe1cbd31	-0.15306546
24	0xbd84420c	-0.0645791
25	0xbe438dcf	-0.19097064
26	0xbe1b5881	-0.1517048
27	0x3dc3dbb0	0.095633864
28	0xbe334031	-0.17504956
29	0xbdc4cf28	-0.096098244
30	0xbd547661	-0.051870707
31	0xbe7a8032	-0.24462965
32	0xbe0d7319	-0.13813438
33	0x3d574989	0.052560363
34	0xbdfd7f4e	-0.12377797
35	0xbdf99c3b	-0.12188002
36	0x3dfecf61	0.12441898
37	0xbe6f8d5f	-0.23393773
38	0xbccc9602	-0.024973873
39	0xbc1ed214	-0.009693641
40	0xbe7126ad	-0.2354991
41	0xbdac2e53	-0.08407273
42	0x3bf01e31	0.007327818
43	0xbdef73cb	-0.11692008
44	0xbe62425a	-0.22095624
45	0xbde40e35	-0.11135522
46	0xbd11666d	-0.03549807
47	0xbcdb1677	-0.02674411
48	0xbd8a23ad	-0.06745086
49	0xbdfcf0c0	-0.12350607
50	0xbe90a886	-0.28253573
51	0xbe1c48d3	-0.15262155
52	0xbe1f15f9	-0.15535726
53	0x3bef01d9	0.0072939214
54	0xbda1007e	-0.07861422
55	0xbd8f6141	-0.070009716
56	0xbdeec71e	-0.11659072
57	0xbbee06d7	-0.007263999
58	0xbded06ff	-0.115736
59	0xbcc0c6a2	-0.023532216
60	0x3c85becf	0.016326336
61	0xbdecb989	-0.115588255
62	0xbdbda989	-0.09260852
63	0xbda527e2	-0.08064248
64	0xbe616d6f	-0.22014402
65	0x3d24851e	0.040166013
66	0xbe30b99d	-0.17258306
67	0xbc90e261	-0.01768607
68	0xbe5881ef	-0.21143316
69	0xbdcc6dff	-0.099819176
70	0xbe25fee0	-0.16210508
71	0x3d87335c	0.06601593
72	0xbbbc53fc	-0.0057473164
73	0xbd87d0b1	-0.066316016
74	0xbddb6d1a	-0.10714169
75	0xbe6d0cfd	-0.23149486
76	0xbde80278	-0.11328596
77	0xbdbe518d	-0.09292898
78	0xbd3c80d1	-0.046021286
79	0xbc87374d	-0.016505862
80	0x3d88524d	0.06656323
81	0x3d1201e5	0.035646338
82	0x3d478e91	0.048719946
83	0xbd0943b3	-0.03351183
84	0x3e5038a8	0.20334113
85	0xbd0a1d43	-0.033719312
86	0xbd065bbf	-0.03280234
87	0x3debbc5d	0.11510537
88	0xbb8daecb	-0.0043238155
89	0xbd55a2ac	-0.05215709
90	0xbe71acd5	-0.23601086
91	0xbcfbeb2c	-0.030751787
92	0xbd293a45	-0.041315336
93	0x3e682613	0.22670774
94	0x3dc756f0	0.09733379
95	0xbe18e5e3	-0.14931445
96	0xbdc32cae	-0.09530006
97	0x3e3ce148	0.18445313
98	0xbe134e18	-0.14385259
99	0xbd8d620b	-0.06903466
100	0x3c032580	0.008004546
101	0xbdf15012	-0.1178285
102	0x3d2d21bb	0.042268496
103	0xbb6a810c	-0.0035782484
104	0xbe257bbd	-0.16160484
105	0xbdadbf9b	-0.084838115
106	0xbe1c1d98	-0.15245664
107	0xbd8102a2	-0.0629933
108	0xbcaf1c93	-0.02137593
109	0x3d1aa326	0.037753247
110	0xbe6a0591	-0.22853686
111	0x3d9f4c1e	0.0777819
112	0x3d45e80f	0.04831701
113	0xbe0ac00c	-0.13549823
114	0xbca19340	-0.019723535
115	0xbd8a37ea	-0.06748946
116	0xbd3a4d68	-0.045483977
117	0x3e2eef3c	0.17083448
118	0x3e4877a6	0.19576892
119	0xbdb5d913	-0.08879294
120	0xbddaf2ee	-0.106908664
121	0x3dee1bfc	0.11626431
122	0xbe0a37e3	-0.13497882
123	0x3d42a9b2	0.047525115
124	0x3d8096d6	0.0627877
125	0xbd62d6fd	-0.05538081
126	0xbd87fde1	-0.066402204
127	0x3d9c6f04	0.07638362
128	0xbdf4edf2	-0.11959447
129	0xbd2cf212	-0.042223044
130	0xbcb4cf2b	-0.022071442
131	0xbd82aa5a	-0.06380148
132	0x3d1ea2b7	0.038729396
133	0x3d10cedf	0.035353538
134	0xbdc45a14	-0.095874935
135	0xbde97b39	-0.11400456
136	0xbdf7fe91	-0.121091016
137	0xbd933a60	-0.071888685
138	0xbe0a9458	-0.13533151
139	0xbd988735	-0.07447664
140	0xbdf53be9	-0.119743176
141	0xbe12ceef	-0.14336751
142	0x3ddcb533	0.107767485
143	0xbe88b482	-0.26700217
144	0xbe04644c	-0.12928885
145	0xbd12db13	-0.035853457
146	0xbe46d47d	-0.19416995
147	0xbd29c38e	-0.04144626
148	0xbd82b451	-0.06382049
149	0xbe33b008	-0.1754762
150	0xbd4c61c0	-0.04989791
151	0xbc89bcb5	-0.016813615
152	0xbd8113c6	-0.063025996
153	0x3db4f296	0.08835332
154	0xbe1aa7ce	-0.15103075
155	0xbdcf4ce6	-0.10122089
156	0x3d9c8772	0.07643022
157	0xbd39a46f	-0.04532283
158	0xbe37b1e7	-0.17938958
159	0xbc6a74cb	-0.014310072
160	0xbdd1e6e5	-0.10249118
161	0xbe19f273	-0.15033893
162	0x3df45768	0.11930734
163	0xbe262fd3	-0.16229181
164	0x3b11be87	0.0022238807
165	0xbd668273	-0.05627675
166	0xbd57942f	-0.052631553
167	0xbe393269	-0.18085636
168	0x3cfbb87d	0.03072762
169	0xbdb76a59	-0.08955831
170	0xbdc00688	-0.09376246
171	0x3d12a8ec	0.035805628
172	0xbe0b4b2d	-0.13602896
173	0xbe1751a4	-0.14777237
174	0xbcd31d29	-0.02577074
175	0xbd2b274e	-0.04178553
176	0xbe3adffa	-0.18249503
177	0x3c5d1cc2	0.013495626
178	0xbdb8ad93	-0.09017482
179	0xbe4d8daa	-0.20073572
180	0xbcbd0445	-0.023073325
181	0xbcc932e7	-0.024560405
182	0xba961706	-0.0011450953
183	0x3de73c0c	0.1129075
184	0xbe48d3be	-0.19612023
185	0xbe0864fa	-0.1331977
186	0xbe00ac1b	-0.12565653
187	0xbe0f1657	-0.13973366
188	0xbe6c896b	-0.23099296
189	0xbd3f396d	-0.046685625
190	0xbe8cc87e	-0.27496713
191	0xbe2a03d4	-0.16603023
192	0x3d5b0cc2	0.053478964
193	0xbce34bca	-0.0277461
194	0x3d09e0a7	0.03366151
195	0xbe1ad9fd	-0.15122218
196	0xbe8be8fd	-0.27326193
197	0x3ba5e86e	0.005063108
198	0x3d0fa566	0.035069846
199	0xbd7ff4d3	-0.062489342
200	0x3cc7f805	0.024410257
201	0x3c107b4a	0.008818457
202	0xbd7a894b	-0.06116609
203	0xbd4324db	-0.04764257
204	0x3c3ecc0e	0.01164533
205	0x3c410ae3	0.011782381
206	0x3e85a402	0.2610169
207	0x3c4c34ac	0.01246373
208	0x37d47a8c	2.5329435e-05
209	0x3d91fd9a	0.07128449
210	0x3c8a7ecc	0.016906165
211	0xbd7e0a09	-0.06202129
212	0x3e18d2f5	0.14924224
213	0x3dc12e38	0.09432644
214	0xbda5ef62	-0.08102299
215	0x3d917da1	0.0710404
216	0xbdaea9fa	-0.08528514
217	0xbd500994	-0.050790384
218	0x3b1c2f70	0.0023831986
219	0xbe0bd888	-0.13656819
220	0x3daf3c31	0.085564025
221	0xbc701db5	-0.01465552
222	0xbd5e8243	-0.054323446
223	0xbc7944f2	-0.015214192
224	0xbdc5a491	-0.09650529
225	0xbcd6919b	-0.026192477
226	0xbd5a0903	-0.05323125
227	0xbd9a7325	-0.07541493
228	0xbddc44d5	-0.10755316
229	0xbd3d8c87	-0.046276595
230	0xbd9f9393	-0.077918194
231	0xbcb9268c	-0.022601388
232	0x3d795aba	0.06087754
233	0xbe00cffa	-0.12579337
234	0xbd99ebef	-0.07515704
235	0xbdd46011	-0.10369886
236	0x3db83086	0.0899363
237	0x3d18e167	0.037324335
238	0x3d8a1892	0.06742968
239	0xbc8b3981	-0.016995193
240	0x3e04ca6d	0.12967844
241	0x3cdfa648	0.027300969
242	0x3e53eb3f	0.20695208
243	0x3c7697dd	0.015050855
244	0x3d558f5f	0.052138682
245	0x3d1b3d95	0.037900526
246	0xbdaf997d	-0.085741974
247	0xbcee68eb	-0.029102763
248	0x3e54f512	0.20796612
249	0x3c45e212	0.012077825
250	0x3d5b8e8e	0.053602748
251	0xbd962737	-0.073316984
252	0xbc36293c	-0.0111182295
253	0xbd5a874c	-0.053351685
254	0xbd963241	-0.07333804
255	0x3e4dc3fc	0.20094293

network_body.linear_encoder.seq_layers.2.bias f4 [128]
0	0xbd3f5cf4	-0.046719506
1	0xbd4d2014	-0.05007942
2	0xbdb90766	-0.09034614
3	0x3c427a5d	0.011869994
4	0xbd2415cf	-0.04005986
5	0xbcf8eb7c	-0.030385725
6	0xbd0fec96	-0.035137735
7	0x3c884ea4	0.016639061
8	0xbcbede89	-0.023299472
9	0xbd7e9d78	-0.062161893
10	0x3c2007a1	0.009767444
11	0x3b522c5e	0.0032069902
12	0xbc52ff5e	-0.012878267
13	0xbd8c6f96	-0.06857221
14	0xbcd65c46	-0.026167046
15	0xbca388e1	-0.01996273
16	0xbe01f370	-0.1269052
17	0x3d29fdbf	0.041501757
18	0xbc3b8b6f	-0.011446818
19	0xbd0eb102	-0.034836777
20	0x3c8214df	0.015879093
21	0xbc8b5cbb	-0.01701199
22	0xbdabed6e	-0.083948955
23	0xbd43dda4	-0.047818795
24	0xbd323b4c	-0.04351358
25	0xbd9bd5f8	-0.07609171
26	0x3cd622bc	0.02613961
27	0xbc4c3537	-0.012463859
28	0xbd30cd02	-0.04316426
29	0xbcb7a119	-0.022415685
30	0x3cd1c0df	0.025604663
31	0xbc5f7659	-0.013639056
32	0xbceb2f41	-0.028709056
33	0xbd340ce9	-0.043957625
34	0xbc336f8f	-0.010951891
35	0xbd36b239	-0.04460356
36	0xbd86f267	-0.06589203
37	0xbd34f669	-0.044180308
38	0xbcf5600b	-0.029953023
39	0xbbb716c8	-0.0055874325
40	0xbd16349d	-0.03667127
41	0xbd3ef4b8	-0.0466201
42	0xbcdd8e4c	-0.027045391
43	0xbc690069	-0.014221289
44	0xbce63419	-0.028101014
45	0x3d50e2e0	0.050997615
46	0xbc383b65	-0.0112446295
47	0x3cac87e9	0.0210609
48	0xbd4b2edd	-0.04960524
49	0x3c96219a	0.01832657
50	0xbccc2501	-0.024919989
51	0xbd1d7ac8	-0.03844717
52	0xbc29d793	-0.010366338
53	0xbd76de85	-0.060270805
54	0x3cce994a	0.025219578
55	0xbd17fbfc	-0.037105545
56	0xbd28cdfd	-0.04121207
57	0xbd0fb9fb	-0.035089474
58	0xbd2b9674	-0.04189153
59	0xbd9542f2	-0.072881594
60	0x3d36ec09	0.044658694
61	0xbc812290	-0.015763551
62	0xbd3c839d	-0.046023954
63	0xbd7cea4f	-0.06174689
64	0x3ce7cda5	0.028296301
65	0x395c9d2d	0.00021039388
66	0xbd4c1465	-0.049824137
67	0x3c3ebf2d	0.01164226
68	0xbd46c7dd	-0.04853045
69	0xbbe10a99	-0.0068677184
70	0xbca1eb9d	-0.01976567
71	0xbd3f1d68	-0.046658903
72	0x3be90039	0.0071106222
73	0xbd98c170	-0.0745877
74	0xbbd841d3	-0.0065996437
75	0xbdaaf2d4	-0.08347097
76	0xbdd35f19	-0.10320873
77	0x3d350bcd	0.044200707
78	0xbda15b84	-0.07878783
79	0xbca2c9a4	-0.01987154
80	0xbdd36ff7	-0.1032409
81	0xbc9213f4	-0.01783178
82	0xbd7f1c5f	-0.062282916
83	0x3b2c5e9e	0.0026301513
84	0xbd694229	-0.05694786
85	0xbd3470fd	-0.044053067
86	0xbcd30738	-0.025760278
87	0xbd2cf6ac	-0.042227432
88	0x3c56a1f5	0.013100137
89	0xbd653d48	-0.055966645
90	0x3d37534e	0.04475718
91	0xbd316b19	-0.043315027
92	0xbd737082	-0.059433468
93	0xbdc2871c	-0.09498426
94	0xbde0ab37	-0.10970157
95	0xbd629e63	-0.05532683
96	0xbcb4af9b	-0.022056391
97	0x3d15c7b6	0.036567412
98	0x3c92daf0	0.017926663
99	0xbcc488ea	-0.023991067
100	0xbc69ccce	-0.014270021
101	0xbd3b557b	-0.045735817
102	0xbd154900	-0.03644657
103	0x3d60f9bb	0.05492566
104	0xbd408c2e	-0.047008686
105	0xbbb26798	-0.0054444782
106	0xbcfaf7b0	-0.030635685
107	0xbda18b56	-0.07887904
108	0xbcb3eeab	-0.021964392
109	0xbd5b950d	-0.053608943
110	0x3d025abb	0.03182481
111	0xbc76545b	-0.01503476
112	0x3c9dbed6	0.019256037
113	0xbd8fbe95	-0.070187725
114	0x3d5b78d2	0.05358202
115	0xbcb6c527	-0.022310806
116	0xbdc903dc	-0.09815189
117	0xbcb182c3	-0.021668797
118	0xbd06a952	-0.03287632
119	0x3c6b2729	0.014352598
120	0xbd9583b0	-0.07300508
121	0xbd404429	-0.046940003
122	0x3c1749f4	0.00923394
123	0xbdcd65a3	-0.10029151
124	0xbc80d7a3	-0.015727824
125	0x3b8a9733	0.00422945
126	0x3c9d225c	0.019181423
127	0xbdacb3db	-0.08432742

network_body.linear_encoder.seq_layers.2.weight f4 [128, 128]
0	0x3d173007	0.036911037
1	0x3dabb834	0.08384743
2	0xbe3fe7ad	-0.18740721
3	0xbde1a350	-0.110174775
4	0xbdc8414d	-0.0977808
5	0x3d19c86a	0.037544645
6	0xbc8470f6	-0.016167145
7	0x3d858cf8	0.06521028
8	0xbdfbcb27	-0.122946076
9	0x3cc830ab	0.02443727
10	0xbe596afe	-0.2123222
11	0xbdace82f	-0.08442723
12	0x3d848dff	0.06472396
13	0xbca2f756	-0.01989333
14	0x3d8b5c66	0.06804733
15	0xbc6645dd	-0.014054743
16	0xbd277569	-0.040883455
17	0x3db59e62	0.088681
18	0xbde00dea	-0.10940154
19	0xbc9b7dd2	-0.018980894
20	0xbe7105b1	-0.23537327
21	0xbd08d135	-0.03340264
22	0x3e0f690d	0.14004917
23	0x3c87ff7a	0.016601313
24	0xbd98527c	-0.07437608
25	0x3d9633be	0.07334088
26	0x3a69c212	0.00089171634
27	0x3de487d6	0.11158721
28	0x3dbdc464	0.09265974
29	0xbd05dacc	-0.032679364
30	0x3dadff18	0.08495921
31	0x3e578629	0.21047272
32	0xbd322b6d	-0.043498445
33	0xbe10e96d	-0.14151545
34	0xbd259815	-0.04042824
35	0xbe5355b7	-0.20638166
36	0xbc88e94b	-0.016712805
37	0xbca02539	-0.019549
38	0x3c9e1666	0.01929779
39	0xbcb00ed5	-0.021491447
40	0x3d392d36	0.045209132
41	0xbdd23522	-0.102640405
42	0xbe04a00d	-0.1295168
43	0x3da056ee	0.078290805
44	0xbe8494c6	-0.25894755
45	0xbe95722d	-0.29188672
46	0x3d3766e1	0.044775847
47	0x3990c032	0.00027609017
48	0xbeb9dd93	-0.3630186
49	0xbe43d4b8	-0.19124115
50	0x3d5076c9	0.050894532
51	0xbdda75d0	-0.10667002
52	0xbe3f0b49	-0.18656649
53	0x3cfe9c20	0.031080306
54	0x3e903a6d	0.28169575
55	0xbd0b1b6a	-0.03396169
56	0xbd3b987f	-0.04579973
57	0x3d429b74	0.047511533
58	0xbe013d65	-0.12621076
59	0xbe0e5632	-0.13900068
60	0xbd9d5f68	-0.07684213
61	0xbca5a7cb	-0.020221611
62	0x3dc55bfd	0.09636686
63	0xbe176e72	-0.14788225
64	0xbcc81248	-0.02442278
65	0xbdf84237	-0.121220045
66	0xbd952450	-0.07282317
67	0x3c815459	0.01578729
68	0xbe26f150	-0.16302991
69	0x3d815ba3	0.063163064
70	0xbd9d27c2	-0.07673599
71	0x3e007395	0.12544091
72	0xbd702744	-0.058631197
73	0x3ddca35d	0.107733466
74	0xbcbdd95d	-0.023174936
75	0x3c4dabde	0.012553183
76	0xbd5006b1	-0.05078763
77	0x3e26ea2a	0.16300264
78	0x3d3b041a	0.04565821
79	0xbd7dd605	-0.061971683
80	0xbad71061	-0.001640808
81	0x3a23cf1e	0.00062488194
82	0xbdd909ae	-0.105975494
83	0xbad102e8	-0.0015946301
84	0x3df86254	0.121281296
85	0xbe0a79ab	-0.13522975
86	0xbe1cfa2e	-0.15329811
87	0xbd3ebc2b	-0.04656617
88	0x3dd221f5	0.10260383
89	0xbe116e2f	-0.14202188
90	0x3cb33805	0.021877298
91	0x3daa0973	0.083025835
92	0x3dce05bb	0.10059687
93	0xbdfb8725	-0.12281636
94	0x3d951fe5	0.07281474
95	0xbd3193f4	-0.04335399
96	0x3cf1d672	0.0295212
97	0x3dce393c	0.1006951
98	0x3d5fd39b	0.054645162
99	0xbca4339e	-0.020044144
100	0x3d8479ff	0.064685814
101	0xbe480480	-0.19532967
102	0xbdcf354c	-0.101175874
103	0x3d274c29	0.040844116
104	0xbc8f89cf	-0.017521767
105	0x3ccc9fd8	0.024978563
106	0xbc8a1f34	-0.016860582
107	0x3d9b4a5b	0.075825416
108	0xbe06bcf7	-0.13158022
109	0xbd9309e8	-0.07179624
110	0xbac2e655	-0.001486967
111	0xbe6cbb6e	-0.23118374
112	0x3c1a22dc	0.009407725
113	0xbd7ab40d	-0.061206866
114	0x3c0391ac	0.008030336
115	0x3c1575ed	0.009122354
116	0xbe15aafc	-0.14616007
117	0xbcc8a5ec	-0.02449318
118	0xbd00eff3	-0.031478833
119	0x3df8f3a8	0.12155849
120	0x3e04c347	0.12965117
121	0xbae12775	-0.0017177897
122	0xbdd9d99e	-0.1063721
123	0xbe5dabe9	-0.2164761
124	0x3e805c0a	0.2507022
125	0x3e721bab	0.23643367
126	0xbcb1414b	-0.02163758
127	0x3cb2d8a8	0.021831825
128	0xbe0fbb86	-0.14036378
129	0x3cc13bf5	0.02358816
130	0x3e73aef1	0.23797204
131	0x3c914c95	0.017736712
132	0xbddf9240	-0.10916567
133	0x3c9d9c46	0.019239556
134	0xbdb05b2b	-0.08611139
135	0x3c821a00	0.015881538
136	0xbcd28a83	-0.025700813
137	0xbc6220f8	-0.013801806
138	0x3da17cda	0.07885142
139	0x3dc50925	0.09620885
140	0xbd803ce3	-0.06261613
141	0x3d57f033	0.052719306
142	0x3ca52cf2	0.020163033
143	0xbdca092f	-0.09865033
144	0x3ba5c8cc	0.0050593372
145	0x3e60e299	0.2196144
146	0x3c947599	0.018122481
147	0x3e185687	0.14876758
148	0x3dcc05ce	0.09962045
149	0x3e2218be	0.15829751
150	0x3d97551d	0.07389281
151	0xbde6c794	-0.11268535
152	0xbdc65afb	-0.09685322
153	0x3bf14d2f	0.0073639373
154	0xbcc41887	-0.023937477
155	0x3e0249c6	0.12723455
156	0xbb7b5a1a	-0.0038353265
157	0xbc8ddf1d	-0.017318303
158	0x3e2ddc8a	0.1697866
159	0x3db74a99	0.08949775
160	0xbe805d60	-0.2507124
161	0xbd662080	-0.05618334
162	0x3ddc1837	0.10746806
163	0xbd6a8b41	-0.05726171
164	0xbbd4c59f	-0.006493285
165	0x3cb85982	0.022503618
166	0x3c54f9cc	0.012999009
167	0xbe1e658f	-0.15468429
168	0x3d910f63	0.07083013
169	0xbd5ecb47	-0.05439308
170	0x3dba2d58	0.0909068
171	0xbd5450ee	-0.051834993
172	0xbe93c470	-0.28860807
173	0x3db9e643	0.09077122
174	0x3e2b2a3d	0.16715331
175	0x3b57653b	0.0032866735
176	0xbdd3b56f	-0.1033734
177	0x3e2bd0ab	0.1677882
178	0xbd037b9b	-0.0321003
179	0xbe0ed8a5	-0.13949831
180	0x3cd58a97	0.026067061
181	0x3d89e3fc	0.06732938
182	0xbc01b169	-0.007915833
183	0x3cf15573	0.02945969
184	0xbd822320	-0.06354356
185	0x3d7e05f8	0.06201741
186	0x3e1bf6b5	0.1523083
187	0x3cd41c6b	0.025892457
188	0x3d0aa4bf	0.03384852
189	0x3c6c65e9	0.014428594
190	0xbd4471d7	-0.04796013
191	0xbdf5577b	-0.11979576
192	0xbbeb3ad1	-0.0071786423
193	0x3b65da85	0.0035072875
194	0x3ccd12f3	0.02503345
195	0xbd52564a	-0.051351823
196	0xbabdd4aa	-0.0014482934
197	0x3db5cacc	0.08876571
198	0x3e1af5dd	0.15132852
199	0x3c6081ee	0.013702853
200	0xbd57154b	-0.05251054
201	0xbddc15e0	-0.1074636
202	0xbe15cfa4	-0.1462999
203	0x3dd994bd	0.10624073
204	0xbe4f72b7	-0.20258604
205	0x3e029755	0.12753041
206	0x3ce73b79	0.028226601
207	0x3d76b279	0.0602288
208	0xbdb2692e	-0.08711468
209	0xbc72642b	-0.01479439
210	0x3be1f3fb	0.00689554
211	0xbd7a23d4	-0.061069325
212	0x3aa3d5fb	0.0012499684
213	0xbc0c57e4	-0.008565877
214	0xbd919d6f	-0.07110106
215	0x3e02eb04	0.12784964
216	0x3e594c18	0.21220434
217	0xbd5ae98e	-0.05344539
218	0xbe2ca38e	-0.16859266
219	0x3ce71fa4	0.02821333
220	0xbde77e39	-0.11303372
221	0xbcb9dd24	-0.022688456
222	0xbd0aa217	-0.033845987
223	0xbe1626a2	-0.14663175
224	0xbe8e008d	-0.27734795
225	0x3df91706	0.121625945
226	0xbd882a01	-0.066486366
227	0xbe468624	-0.19387108
228	0x3b02b8e9	0.001994664
229	0xbd76f906	-0.06029608
230	0xbd66606b	-0.056244295
231	0xbe38c258	-0.18042886
232	0xbcda348a	-0.02663638
233	0x3d5aaa8a	0.053385295
234	0x3d8b763d	0.068096615
235	0x3d1e086c	0.03858225
236	0x3e5d312d	0.2160079
237	0x3ca3ffa5	0.020019362
238	0x3d968b29	0.073507614
239	0xbde00185	-0.1093779
240	0x3da1d285	0.079014815
241	0xbccc468c	-0.024935983
242	0xbdd942e5	-0.10608462
243	0xbcbe8276	-0.023255568
244	0xbe8fd6d4	-0.28093588
245	0xbe021f32	-0.12707213
246	0xbd8546e6	-0.065076634
247	0x3dd16b31	0.10225523
248	0x3c38b7c8	0.011274286
249	0xbd310f2b	-0.043227356
250	0x3e14c2ee	0.14527485
251	0xbde783b5	-0.11304418
252	0xbc1e5bb6	-0.00966542
253	0xbd5dbe5f	-0.05413663
254	0x3d58ea87	0.052958038
255	0xbdb16bf8	-0.086631715
