results/SelfPlay_FreezeTool_6/BasicAgent/BasicAgent-12052.onnx (onnx, 172638 bytes, 6 tensors)

action_model._discrete_distribution.branches.0.bias f4 [6]
0.01576562 0.010288468 -0.023303568 -0.002004341 0.0049840333 -0.0068553314
00000000: e726 813c f690 283c 20e7 bebc 435b 03bb
00000010: 1a51 a33b b0a2 e0bb

action_model._discrete_distribution.branches.0.weight f4 [6, 128]
-0.005859669 -0.0069536073 0.011161866 0.004223867 0.008746998 -0.009197341 -0.007238799 0.013469564
0.02327589 -0.020202383 0.0028432426 -0.0074440576 -0.012484997 -0.0041297106 0.0006770234 0.0057451217
0.0070246668 0.008614094 0.0034855949 -0.018859388 -0.0029582113 -0.029270891 -0.023186877 0.01635449
-0.0046135643 0.004618077 -0.0022427773 -0.003479937 0.016434079 -0.0075510056 0.007837561 -0.018466199
0.00026359688 -0.0033273757 -0.0050191674 -0.00840196 0.00017867758 0.0035349843 -0.013687175 0.0103251245
0.011482237 0.0020576036 0.02041937 -0.005999143 -0.006110229 -0.020381946 -0.012907203 -0.02229428
0.007730136 0.023579761 -0.0020832648 -0.008840761 0.0083740745 0.012017442 0.010085721 -0.020778418
-0.014485247 0.00022239382 -0.010034975 0.0038860927 0.0020358854 -0.0114054065 -0.016818866 0.013067871
0.0076279384 -0.025329186 -0.00802592 0.011554971 0.010229112 -0.018599184 0.024489304 0.011910107
0.011826997 0.011143515 0.0023277344 -0.007941153 0.025128612 0.00063126575 -0.028625 -0.005055262
-0.018694699 0.008413183 -0.011234362 0.0008999505 0.006719947 -0.017613025 -0.014224481 -0.0017764557
-0.0023997545 0.032143794 -0.00083352684 0.019348446 -0.006187794 -0.026087651 0.021222916 0.011352298
0.0055241254 0.018012637 -0.022797862 0.0021064985 -0.0011733945 -0.01961234 0.0034787143 0.007049347
0.0019358528 0.004907208 -0.013168811 -0.0068426803 0.015022234 0.0005569573 0.0055187456 -0.024390293
0.010724717 -0.013892338 -0.0138195 -0.0020575335 -0.0052394094 0.009685849 -0.017752245 -0.0020948648
-0.0015920121 -0.016046284 -0.007944801 0.0028283375 -0.004677546 0.01458535 -0.011925385 0.0005835369
-0.005880332 -0.014985293 0.02013116 -0.015945395 0.0057289368 0.018295921 -0.015989384 0.01940771
0.035979867 0.0065958844 0.009613355 -0.008054672 -0.043770645 -0.028293848 -0.028554326 -0.016406758
0.02117226 0.012643689 0.019079916 0.008089346 -0.012798357 -0.0048258896 -0.0113303205 0.023253677
-0.020950189 -0.007467215 -0.005460155 -0.011387853 0.014954012 -0.0018368864 0.0023496025 -0.0077400776
0.012109306 -0.019620713 -0.008395153 0.003025435 0.007047457 0.02164472 -0.02981396 0.013859171
0.021273123 0.018193873 -0.0059283874 -0.0056830905 0.02134551 -0.021016791 -0.026500007 -0.01116968
0.027325982 -0.027993474 -0.019983329 0.010981198 -0.03724509 -0.004778622 0.027001716 0.016630273
-0.018366624 0.018824788 -0.006015496 -0.0056581777 0.0020016711 -0.018546632 -0.0032556192 0.022581521
0.0017213792 0.008722612 -0.014600419 0.031970307 -0.002316531 0.0049836123 0.023769287 -0.004598169
0.025639007 0.01496068 0.026050381 0.016401062 0.03282746 0.003468376 -0.00998792 -0.0026069805
0.002898453 0.018189479 0.002926469 0.0030608708 -0.00417552 -0.01689833 -0.0036587664 0.014019449
0.009025 0.027786165 0.011473597 0.040276717 -0.019133389 -0.027763322 0.020509996 0.028048256
-0.020383747 0.015965706 -0.00478564 0.0051215775 -0.0010811181 -0.016172044 -0.0051569925 0.02208101
0.00456864 0.0058520148 -0.018915126 0.0022139768 -0.006967029 -0.020301418 0.012716278 0.00083093764
0.01761747 -0.0020529868 -0.019903563 -0.022899456 -0.03260319 0.022787783 -0.035835378 0.01922749
0.014286268 -0.028508471 -0.022227759 0.01244992 -0.026319504 -0.012545146 0.0100082625 0.0019590587
00000000: 7702 c0bb 16db e3bb 42e0 363c 5d68 8a3b
00000010: 924f 0f3c 72b0 16bc 7233 edbb 72af 5c3c
00000020: 14ad be3c 787f a5bc b255 3a3b 48ed f3bb
00000030: df8d 4cbc 8652 87bb 457a 313a 9341 bc3b
00000040: 2d2f e63b 2122 0d3c 946e 643b 017f 9abc
00000050: 8dde 41bb 82c9 efbc 68f2 bdbc daf9 853c
00000060: 622d 97bb 3d53 973b 8ffb 12bb a80f 64bb
00000070: c3a0 863c 6d6e f7bb 1d69 003c 6d46 97bc
00000080: 6033 8a39 1a10 5abb d477 a4bb 60a8 09bc
00000090: 665b 3b39 32ab 673b 2c40 60bc b62a 293c
000000a0: fe1f 3c3c dcd8 063b 8646 a73c 7594 c4bb
000000b0: 5138 c8bb 0af8 a6bc bc78 53bc 7ea2 b6bc
000000c0: 154d fd3b 582a c13c 6287 08bb d7d8 10bc
000000d0: 6a33 093c cee4 443c 943e 253c 8037 aabc
000000e0: 8853 6dbc 6332 6939 bc69 24bc d1ad 7e3b
000000f0: 7d6c 053b bedd 3abc b8c7 89bc a01a 563c
00000100: c9f3 f93b 277f cfbc 267f 03bc 1051 3d3c
00000110: 0198 273c 515d 98bc cb9d c83c 9c22 433c
00000120: 05c6 413c 4a93 363c e78c 183b 9c1b 02bc
00000130: 85da cd3c 877b 253a fa7e eabc 9ca6 a5bb
00000140: a025 99bc 72d7 093c 5410 38bc a8ea 6b3a
00000150: 0033 dc3b 3149 90bc cc0d 69bc f6d7 e8ba
00000160: 3345 1dbb 36a9 033d 0a81 5aba a280 9e3c
00000170: fac2 cabb c5b5 d5bc aedb ad3c fdfe 393c
00000180: b903 b53b 3d8f 933c 95c2 babc 2e0d 0a3b
00000190: 96cc 99ba 0faa a0bc 24fb 633b 35fe e63b
000001a0: 71bc fd3a a5cc a03b ffc1 57bc 9038 e0bb
000001b0: d11f 763c c600 123a 98d6 b43b 27ce c7bc
000001c0: b9b6 2f3c b09c 63bc 2f6b 62bc afd7 06bb
000001d0: 5aaf abbb 65b1 1e3c 286d 91bc 004a 09bb
000001e0: 10ab d0ba 7f73 83bc e92a 02bc a15b 393b
000001f0: 1a46 99bb 64f7 6e3c b162 43bc 80f8 183a
00000200: cdaf c0bb e084 75bc 1aea a43c eb9f 82bc
00000210: ceb9 bb3b 54e1 953c 2bfc 82bc ebfc 9e3c
00000220: a05f 133d 4a22 d83b 5581 1d3c bef7 03bc
00000230: d948 33bd 80c8 e7bc c3ea e9bc 7767 86bc
00000240: 7371 ad3c 7a27 4f3c 7c4d 9c3c 2d89 043c
00000250: 33b0 51bc 7f22 9ebb cfa2 39bc 7f7e be3c
00000260: bb9f abbc 8aaf f4bb 1aeb b2bb 1e94 3abc
00000270: ac01 753c aec3 f0ba cafb 193b 7aa0 fdbb
00000280: 1c66 463c 9ebb a0bc d38b 09bc 6046 463b
00000290: 5bee e63b 4550 b13c 683c f4bc 9411 633c
000002a0: f944 ae3c 510b 953c eb42 c2bb 3839 babb
000002b0: c7dc ae3c 682b acbc 8b16 d9bc 0901 37bc
000002c0: bdda df3c 9252 e5bc 14b4 a3bc 7cea 333c
000002d0: 4f8e 18bd fd95 9cbb b432 dd3c 363c 883c
000002e0: 9a75 96bc 7136 9a3c a31d c5bb 3c68 b9bb
000002f0: 782e 033b 1bef 97bc 3a5c 55bb e2fc b83c
00000300: e79f e13a 49e9 0e3c 9936 6fbc 4cf3 023d
00000310: f1d0 17bb 924d a33b cfb7 c23c 3dac 96bb
00000320: e508 d23c a41d 753c 9c67 d53c 855b 863c
00000330: 1676 063d b14d 633b 5fa4 23bc e0d9 2abb
00000340: f9f3 3d3b 1a02 953c 01ca 3f3b e498 483b
00000350: cdd2 88bb 5e6e 8abc eac7 6fbb d5b1 653c
00000360: 98dd 133c d09f e33c c1fb 3b3c 33f9 243d
00000370: a0bd 9cbc e86f e3bc 9404 a83c 75c5 e53c
00000380: d1fb a6bc 83ca 823c dcd0 9cbb e8d2 a73b
00000390: 4eb4 8dba 3c7b 84bc fdfb a8bb 3ce3 b43c
000003a0: 88b4 953b 42c2 bf3b e5f3 9abc 5e18 113b
000003b0: ad4b e4bb 294f a6bc f057 503c 48d3 593a
000003c0: 8352 903c 678b 06bb cc0c a3bc a497 bbbc
000003d0: ec8a 05bd 72ad ba3c 1ec8 12bd f882 9d3c
000003e0: f310 6a3c 998a e9bc fd16 b6bc c0fa 4b3c
000003f0: 009c d7bc 288a 4dbc b2f9 233c 8d63 003b

network_body.linear_encoder.seq_layers.0.bias f4 [128]
-0.014772199 -0.008811365 0.0020776112 -0.012115795 -0.0026846072 0.0043612514 0.0063538426 -0.010042126
-0.021157924 -0.0064308066 0.0012759689 -0.007948962 -0.004024337 0.005211561 -0.022064907 0.0072808517
0.0005304405 -0.0018291529 0.006557773 -0.0060610874 -0.0035947138 0.011165472 -0.0031390928 -0.0032421804
-0.015270905 -0.0025074962 0.010876394 -0.0061427373 -0.0012519549 -0.0020790074 0.0003207464 -0.0013795594
-0.014206648 -0.010324123 0.004650167 -0.0025189177 -0.008280417 -0.0003146166 -0.0013563096 -0.0096983565
-0.00894899 -0.002154276 -0.009867356 -0.004336581 -0.004810007 0.0058934153 0.004799566 -0.011631565
0.0020602946 -0.0045026457 -0.0020213006 -0.009918336 0.0025818145 -0.00045784688 -0.0028000425 -0.0046288096
-0.0029132445 -0.0020384472 -0.011519457 0.0040319394 -0.00412477 -0.013788358 -0.0019103852 -0.010596752
-0.003809096 -0.025751509 0.00978727 0.010734447 -0.009381003 -0.0045942436 -0.013934199 0.013947218
-0.007935648 0.0050908043 0.0023285635 -0.014433718 -0.008132669 0.014855837 -0.0012347157 0.010232831
-0.00131987 -0.003161483 -0.0022369968 -0.008892154 -0.00544128 -0.0041906764 0.0020687554 -0.014842577
0.00053832075 -0.010034203 -0.0043894374 -0.009984727 -0.0015504794 -0.024837535 -0.0078023453 0.0032295384
-0.0045643486 -0.010679447 -0.014564232 -0.0063707544 0.0027175418 0.0007932621 -0.0017483865 -0.007863222
0.0059643746 -0.0057360576 0.0025329674 -0.007288193 -0.014837715 -0.0011189427 -0.002399528 0.002984804
-0.006432201 -0.011111291 0.0093086725 -0.003883199 -0.011844708 -0.0059053404 -0.017164078 0.0039993655
-0.0049325 -0.002740036 -0.0049322625 0.002838352 -0.0038369684 -0.00010250089 0.0015585741 -0.01342255
00000000: 1807 72bc 8b5d 10bc 8828 083b 5481 46bc
00000010: 3cf0 2fbb d4e8 8e3b e533 d03b bb87 24bc
00000020: 6253 adbc 84b9 d2bb 693e a73a 5d3c 02bc
00000030: 96de 83bb bec5 aa3b 77c1 b4bc 3694 ee3b
00000040: 420d 0b3a 30c0 efba 96e2 d63b 169c c6bb
00000050: 4a95 6bbb 62ef 363c 3db9 4dbb c37a 54bb
00000060: d132 7abc ce54 24bb e732 323c 0449 c9bb
00000070: a318 a4ba f53f 08bb da29 a839 55d2 b4ba
00000080: 00c3 68bc 8326 29bc 6e60 983b 6d14 25bb
00000090: 96aa 07bc 20f3 a4b9 33c6 b1ba dbe5 1ebc
000000a0: c99e 12bc c12e 0dbb b1aa 21bc e119 8ebb
000000b0: 439d 9dbb 8d1d c13b ae45 9d3b 5292 3ebc
000000c0: 0206 073b ee8a 93bb cc77 04bb 8480 22bc
000000d0: a933 293b 2b0b f0b9 eb80 37bb 45ad 97bb
000000e0: 22ec 3ebb 7897 05bb 1bbc 3cbc 5c1e 843b
000000f0: 1429 87bb 91e8 61bc e465 faba 009e 2dbc
00000100: 07a2 79bb d4f4 d2bc c95a 203c 89df 2f3c
00000110: c7b2 19bc 4f8b 96bb 444c 64bc df82 643c
00000120: 8504 02bc c3d0 a63b d09a 183b 677b 6cbc
00000130: e33e 05bc e665 733c 2fd6 a1ba 9ba7 273c
00000140: 7dff acba e230 4fbb 949a 12bb 66b0 11bc
00000150: c44c b2bb f151 89bb f593 073b 482e 73bc
00000160: 181e 0d3a 7f66 24bc 45d5 8fbb fb96 23bc
00000170: 7539 cbba 1678 cbbc d1aa ffbb aaa6 533b
00000180: 8890 95bb d9f8 2ebc d19e 6ebc c3c1 d0bb
00000190: c918 323b ebf2 4f3a 1e2a e5ba bed4 00bc
000001a0: cd70 c33b 8af5 bbbb 2400 263b cbd1 eebb
000001b0: e319 73bc 7da9 92ba 6641 1dbb b49c 433b
000001c0: 36c5 d2bb 220c 36bc 6783 183c 457d 7ebb
000001d0: 4e10 42bc 9681 c1bb ae9b 8cbc 1c0d 833b
000001e0: cfa0 a1bb 2d92 33bb d19e a1bb a503 3a3b
000001f0: a675 7bbb bff5 d6b8 1249 cc3a 41ea 5bbc

network_body.linear_encoder.seq_layers.0.weight f4 [128, 196]
0.0927437 0.031073716 0.01048484 0.033003874 0.026979094 -0.029417068 -0.03492318 0.08069902
-0.034585185 -0.008421707 0.013760919 -0.060204543 0.061697572 0.06094738 -0.020859053 -0.010693419
0.020027539 -0.045938116 -0.0093097575 -0.100138545 -0.039404422 -0.06268509 -0.026266126 0.0903145
0.023068659 0.027295338 0.04526554 -0.09618131 0.0246382 -0.042158645 -0.12703556 0.050812375
-0.108547695 0.039596222 0.00090200925 0.0013771654 0.0929158 0.037753347 0.045861293 -0.0052718194
0.1115804 0.05973995 0.095261045 0.041636553 -0.09718765 -0.037002135 -0.11395279 -0.1021243
-0.011119043 0.025041766 -0.09603153 -0.02954411 0.05640274 -0.05603689 0.123646565 -0.01132048
-0.03464744 -0.04506685 0.035006214 -0.0107929995 -0.05480844 0.054257836 -0.11923359 0.032088354
-0.060148824 0.06043773 -0.019409856 -0.08816959 0.033529326 -0.022057822 -0.012836819 -0.01021889
-0.012074936 0.09853614 0.021587243 -0.048667673 0.011483891 -0.104282856 0.0066454723 0.023757393
0.04499771 0.12242171 0.09718213 -0.048849355 0.075824454 0.08178564 -0.07288308 0.022591816
0.008742943 -0.09529633 -0.031938814 -0.11123513 -0.010091173 0.0007720327 -0.078446105 -0.101593375
-0.07896321 0.0735631 -0.0586863 -0.047825 0.09003898 -0.09665549 0.038800128 0.062484853
-0.006749467 -0.015240396 -0.1168573 -0.07948778 0.023860361 -0.0415201 0.019582065 -0.016671773
0.06755168 -0.07383598 -0.11618542 0.068924785 0.062415317 0.11064562 -0.07737467 -0.10551185
-0.026382765 -0.0034873693 -0.090002105 -0.02786778 0.106953956 -0.12301542 0.0156141305 -0.06600926
-0.037936926 0.0954997 -0.06003172 -0.10553782 0.043920096 0.0033509906 -0.014934235 -0.09166105
0.003146235 -0.0294382 0.05960429 0.053694326 -0.010483092 0.044583 0.00873275 0.05037561
-0.19960739 -0.12381241 -0.04276712 0.0293913 0.033836063 -0.006969089 0.082412325 0.029423859
0.06156463 0.048542295 0.013297488 0.068603426 -0.05759642 -0.068919994 0.04524011 0.047615837
-0.07182744 -0.10013981 0.01332653 0.04216259 0.019743519 -0.022192799 0.022791767 -0.10317761
0.1545112 -0.0910828 -0.11177904 -0.02979799 0.040036514 -0.04365757 0.104533 -0.03367341
-0.105155624 -0.024229353 -0.02442591 -0.11016396 -0.14326361 -0.12241385 -0.094619155 0.0030078073
0.001914021 0.027235761 -0.103219375 0.0001524111 0.057744812 -0.07006343 0.08159449 -0.09851691
0.074413225 -0.04872575 -0.05625543 0.06326974 0.04134991 0.07565024 -0.029186023 -0.030843128
-0.0743888 0.033632237 -0.037684366 0.057720035 -0.061835177 -0.027912745 -0.067152254 -0.0417322
-0.022757193 0.05866876 -0.058714483 0.037151083 0.112870395 0.010316315 -0.055923626 -0.034956545
0.09327848 -0.09231172 -0.073361315 -0.11581094 0.086478256 0.052270334 -0.111488625 0.037730142
-0.121411264 0.007937226 -0.022488091 0.014701252 0.093922496 0.019029776 0.036755346 -0.07314126
-0.06914775 -0.02450317 -0.11575262 -0.10266678 -0.1958541 0.054649107 -0.08702842 -0.03542979
0.11368925 0.110629894 -0.031202946 -0.1051463 -0.09658597 -0.22477569 0.033178005 0.08464323
-0.1375565 -0.031204488 -0.11384241 0.03185919 -0.05220055 0.10131666 0.05695772 -0.07254965
00000000: 69f0 bd3d 4e8e fe3c 9bc8 2b3c 122f 073d
00000010: 4303 dd3c 10fc f0bc 9c0b 0fbd 8745 a53d
00000020: 32a9 0dbd 33fb 09bc 7a75 613c 0a99 76bd
00000030: 98b6 7c3d f6a3 793d 9be0 aabc 7333 2fbc
00000040: cb10 a43c 9b29 3cbd f487 18bc 7015 cdbd
00000050: 8866 21bd 0a61 80bd 0f2c d7bc cff6 b83d
00000060: 7cfa bc3c 799a df3c 5c68 393d b5fa c4bd
00000070: 0dd6 c93c 8bae 2cbd 9c15 02be a320 503d
00000080: 414e debd a62f 223d d174 6c3a 0182 b43a
00000090: a44a be3d 41a3 1a3d 0dd9 3b3d 3abf acbb
000000a0: 4484 e43d e1b1 743d 3918 c33d 178b 2a3d
000000b0: 520a c7bd 8d8f 17bd 1560 e9bd 8c26 d1bd
000000c0: a62c 36bc 6424 cd3c 2eac c4bd 7d06 f2bc
000000d0: 8f06 673d f086 65bd 693a fd3d 8979 39bc
000000e0: 79ea 0dbd 0498 38bd ad62 0f3d 1fd5 30bc
000000f0: d17e 60bd 773d 5e3d be30 f4bd 146f 033d
00000100: 9d5e 76bd 8e8d 773d 6b01 9fbc 4292 b4bd
00000110: 0c56 093d 9bb2 b4bc 8551 52bc 226d 27bc
00000120: f4d5 45bc 51cd c93d bbd7 b03c c157 47bd
00000130: ee26 3c3c 4092 d5bd 43c2 d93b dd9e c23c
00000140: 854f 383d 3cb8 fa3d 6d07 c73d 4316 48bd
00000150: da49 9b3d 3b7f a73d b943 95bd 7912 b93c
00000160: 903e 0f3c b92a c3bd 46d2 02bd 3ecf e3bd
00000170: 7355 25bc 3d62 4a3a 5aa8 a0bd 3010 d0bd
00000180: 77b7 a1bd 40a8 963d 0c61 70bd 26e4 43bd
00000190: 5b66 b83d 50f3 c5bd e2ec 1e3d 1ef0 7f3d
000001a0: a22a ddbb dbb2 79bc e152 efbd 7dca a2bd
000001b0: ce76 c33c fb10 2abd 916a a03c 3e93 88bc
000001c0: 8958 8a3d 5137 97bd 9ff2 edbd 7028 8d3d
000001d0: 34a7 7f3d 2c9a e23d 9c76 9ebd 9916 d8bd
000001e0: ab20 d8bc 598c 64bb 0653 b8bd f84a e4bc
000001f0: ad0a db3d 82ef fbbd 69d2 7f3c dd2f 87bd
00000200: c063 1bbd 5995 c33d d2e3 75bd 3624 d8bd
00000210: 8fe5 333d 4b9c 5b3b b9ae 74bc cab8 bbbd
00000220: 1031 4e3b 6128 f1bc a123 743d 95ee 5b3d
00000230: 46c1 2bbc aa9c 363d cf13 0f3c a856 4e3d
00000240: e165 4cbe 5c91 fdbd 932c 2fbd 06c6 f03c
00000250: af97 0a3d f55c e4bb cbc7 a83d 4e0a f13c
00000260: 322b 7c3d 49d4 463d b5dd 593c f47f 8c3d
00000270: 39ea 6bbd ed25 8dbd b24d 393d d308 433d
00000280: 441a 93bd 1a16 cdbd 8557 5a3c aeb2 2c3d
00000290: 29bd a13c accd b5bc cdb5 ba3c c84e d3bd
000002a0: 2f38 1e3e 9e89 babd 69ec e4bd ea1a f4bc
000002b0: 54fd 233d 48d2 32bd 6615 d63d 21ed 09bd
000002c0: d55b d7bd a37c c6bc d918 c8bc a49d e1bd
000002d0: b2b3 12be 1db4 fabd b0c7 c1bd a21e 453b
000002e0: e3df fa3a 881d df3c ae64 d3bd 8bd0 1f39
000002f0: d385 6c3d 6a7d 8fbd 031b a73d 3cc3 c9bd
00000300: f665 983d a794 47bd 186c 66bd 9193 813d
00000310: 865e 293d 83ee 9a3d 8717 efbc baaa fcbc
00000320: 2859 98bd f5c1 093d ec5a 1abd d86b 6c3d
00000330: e246 7dbd 45a9 e4bc 1f87 89bd 62ef 2abd
00000340: 4b6d babc a74e 703d 997e 70bd bc2b 183d
00000350: 9828 e73d c305 293c 2c10 65bd 982e 0fbd
00000360: ca08 bf3d ed0d bdbd 753e 96bd 492e edbd
00000370: 831b b13d 6b19 563d 2654 e4bd ec8a 1a3d
00000380: 78a6 f8bd 240b 023c f238 b8bc 85dd 703c
00000390: 705a c03d 55e4 9b3c c68c 163d 16cb 95bd
000003a0: 569d 8dbd dfba c8bc b60f edbd f642 d2bd
000003b0: fa8d 48be bed7 5f3d f53b b2bd d41e 11bd
000003c0: e9d5 e83d ed91 e23d 529d ffbc f156 d7bd
000003d0: ddce c5bd 992b 66be a9e5 073d 6e59 ad3d
000003e0: 9cdb 0cbe 8ea0 ffbc 3626 e9bd c87e 023d
000003f0: 3ed0 55bd 1c7f cf3d 804c 693d e994 94bd

network_body.linear_encoder.seq_layers.2.bias f4 [128]
0.015685648 -0.0038125122 0.0018671305 -0.007271138 -0.0119377235 -0.0014671391 -0.0071472754 0.005398336
0.0072202967 -0.02271747 -0.00729856 -0.017581852 -0.0009916457 0.005451351 0.011004129 0.0022181475
-0.0012115515 0.010170463 -0.006862082 -0.016149228 -0.005751867 -0.010543935 -0.0018543331 0.005389105
-0.013106295 0.006510699 0.0061315466 -0.0053935465 -0.008152863 -0.018088426 -0.0015121376 -0.00760859
-0.00028285454 0.0032163975 -0.021830099 0.0063806325 -0.008361013 -0.01965593 0.009187101 -0.007691916
-0.0016053466 -0.0017978741 0.006991525 -0.008474912 -0.0010064262 -0.015513006 -0.0070592435 -0.013397146
-0.009228197 0.00025657477 0.015421658 -0.012286622 0.011735251 -0.0001787025 -0.007541215 -0.014052222
-0.021801567 -0.00907259 -0.017892646 -0.011056037 -0.007611736 0.00011481598 -0.021757249 0.0033262998
0.0014584662 -0.0026076587 0.00770746 0.0065746387 0.012150253 -0.025276331 0.010270859 0.0017402489
-0.00013644871 0.0036171284 -0.0017981672 -0.0018639335 0.0033226917 0.00446235 -0.010382541 -0.0074779186
-0.03308639 -0.0033666368 -0.019124193 0.0072505833 -0.0020870508 -0.009923278 -0.00514047 -0.01315923
-0.01323312 0.008593533 0.00883116 0.009726706 -0.00960303 -0.014373188 0.006005165 0.00062197854
-0.0017312812 0.0014083488 -0.016473444 -0.0042111813 -0.022126928 -0.0132214995 -0.0073080035 0.00094607915
-0.008471708 0.0071247867 0.008025459 0.0006629646 -0.003811879 0.0028677895 0.0037138697 -0.0070068506
-0.0050465595 -0.019831102 -0.0013244771 -0.008710571 -0.001269023 0.005317801 0.0032255212 -0.0012392389
0.0059680585 -0.007854797 0.0052618296 -0.003607591 0.0050663124 0.0016482811 -0.008389036 0.0041801855
00000000: 307f 803c 57db 79bb 81ba f43a ba42 eebb
00000010: 7196 43bc 054d c0ba b133 eabb 86e4 b03b
00000020: 3d98 ec3b fd19 babc c228 efbb d107 90bc
00000030: 1cfa 81ba 3fa1 b23b aa4a 343c 575e 113b
00000040: eccc 9eba 03a2 263c 51db e0bb 634b 84bc
00000050: 287a bcbb 78c0 2cbc 180d f3ba 1797 b03b
00000060: c9bb 56bc b457 d53b 24eb c83b 59bc b0bb
00000070: 9693 05bc 2e2e 94bc eb32 c6ba 7b51 f9bb
00000080: 184c 94b9 32ca 523b 09d5 b2bc a014 d13b
00000090: a1fc 08bc 7905 a1bc 7f85 163c 780c fcbb
000000a0: 7e6a d2ba a5a6 ebba 2a19 e53b 5bda 0abc
000000b0: 0fea 83ba 432a 7ebc 3a51 e7bb b47f 5bbc
000000c0: dd31 17bc e284 8639 1fab 7c3c d44d 49bc
000000d0: 3645 403c 1662 3bb9 4c1c f7bb 4a3b 66bc
000000e0: 3399 b2bc 33a5 14bc 9993 92bc 6124 35bc
000000f0: df6b f9bb 5cc9 f038 423c b2bc 0dfe 593b
00000100: 012a bf3a 41e5 2abb dc8e fc3b 1170 d73b
00000110: db11 473c 4f10 cfbc 1b47 283c 1019 e43a
00000120: ac13 0fb9 580d 6d3b 7bb0 ebba 3b4f f4ba
00000130: 84c1 593b e838 923b 891b 2abc 5409 f5bb
00000140: 9885 07bd cba2 5cbb 57aa 9cbc 4d96 ed3b
00000150: e7c6 08bb 3f95 22bc 6371 a8bb d099 57bc
00000160: bacf 58bc e4cb 0c3c 92b0 103c c35c 1f3c
00000170: 0756 1dbc 857d 6bbc fac6 c43b 460c 233a
00000180: 28ec e2ba 5898 b83a 51f3 86bc f3fd 89bb
00000190: 8843 b5bc fd9e 58bc fa77 efbb 4c02 783a
000001a0: ebcc 0abc 0b77 e93b 377d 033c cdca 2d3a
000001b0: b8d0 79bb 86f1 3b3b 6564 733b b999 e5bb
000001c0: 9c5d a5bb d674 a2bc 149a adba c8b6 0ebc
000001d0: 5955 a6ba f340 ae3b 4463 533b f56d a2ba
000001e0: b48f c33b 68b1 00bc 6d6b ac3b 556d 6cbb
000001f0: 4f03 a63b 230b d83a 2b72 09bc f0f9 883b

network_body.linear_encoder.seq_layers.2.weight f4 [128, 128]
0.042107332 -0.1250216 0.003047204 0.011860892 -0.104118034 0.0077550896 0.04974987 0.09711405
-0.1646958 -0.048036188 0.028062906 0.008021216 -0.04706131 0.09633494 0.06536689 -0.013284001
0.061864916 -0.09718731 -0.16985922 -0.08662736 0.18321593 -0.010726905 0.036756743 0.025297273
0.099435866 0.020093026 -0.026610022 -0.032162335 -0.27334177 -0.021271873 0.043918584 0.18560368
0.082684554 -0.103297405 -0.10808848 -0.019479252 -0.08029839 -0.09410112 -0.17815745 -0.029642692
-0.043933507 0.10006269 -0.00491333 0.20210585 -0.030869909 -0.025087602 -0.1055686 -0.0607035
0.0061149173 0.11690214 0.14006054 -0.0476727 -0.006721638 0.15688723 -0.09712336 0.065499604
-0.026753122 0.078396544 0.081432246 -0.24355158 0.102897026 -0.14935115 -0.09950087 0.16710237
-0.0019763564 0.1480449 0.14015312 -0.07486396 0.050252732 0.076673314 -0.046708476 -0.057794686
-0.1390817 -0.12908138 0.0016435826 -0.12681241 -0.08932498 0.063448526 0.05721131 0.044256352
0.09308116 0.012642513 0.10672436 0.10309749 0.12349086 -0.13434476 -0.029281512 -0.04851566
-0.03745037 0.14866197 -0.038959984 -0.026805386 -0.115841724 -0.0014385246 0.067503 -0.13647473
-0.017407054 -0.0004816025 0.12899029 0.01976641 -0.11305512 -0.017645314 -0.16233097 -0.116532624
-0.07566851 -0.034846455 0.059591215 0.02389285 0.09298429 -0.058196414 0.03459114 0.0059860446
0.10766853 0.18073888 -0.013802165 -0.04947006 0.008884585 -0.090017974 0.013378789 0.009251237
-0.022913637 0.016614575 0.015590949 0.1738988 -0.059876263 0.0328591 -0.032207195 0.039506037
-0.15273072 -0.08092482 -0.03262088 -0.11602495 -0.11703982 0.04287563 -0.0075651137 -0.24349111
-0.08125028 0.13849615 0.016157733 -0.055577118 0.036324725 0.13175304 0.064530775 0.183856
-0.16532382 0.09091831 -0.14219806 -0.051668677 -0.09108021 0.25194776 0.15466304 -0.12511867
0.07519585 -0.044179715 0.002905633 0.02299015 -0.037896916 -0.1941281 -0.00058504957 -0.15599771
-0.043821335 -0.13137507 -0.047964104 -0.073462725 -0.09026403 0.16089252 0.0457109 0.052640446
-0.07538849 0.0145114325 -0.049880687 -0.09682513 -0.00497348 -0.11437666 -0.05468829 0.008208378
-0.011130655 -0.13128294 0.03555549 0.043368604 -0.021483313 -0.06127357 -0.05543131 -0.009439644
0.01202584 0.09704797 0.1804192 -0.020150634 -0.010463822 0.13431546 -0.0460019 -0.14965738
0.013026691 0.23070431 -0.12024182 -0.024826115 0.14386345 -0.012924258 -0.05768868 0.009813571
-0.048276827 0.052480076 -0.03280602 -0.02827732 -0.009062602 0.09699536 -0.0602084 0.0050303796
-0.0025038812 -0.04721274 -0.028953118 0.10168665 0.04843084 -0.09071179 -0.040313117 0.011999075
0.09903924 0.010461976 0.111755095 -0.049905077 0.13925697 -0.064456604 -0.12350198 0.08074077
-0.14796925 0.050014805 -0.21334846 0.09367563 -0.1613831 -0.011210414 -0.13250363 0.17977482
0.049366318 -0.11924049 -0.0018579115 -0.07255185 0.08641772 -0.00985811 -0.098363385 -0.11693784
-0.109160654 0.09801006 -0.08356217 -0.06693045 -0.09558228 0.07419537 -0.08597995 0.08700114
0.014120901 0.17039211 0.092928834 0.044968143 -0.012614918 -0.1637812 -0.16532154 5.424412e-05
00000000: bd78 2c3d aa05 00be 9ab3 473b 3054 423c
00000010: d63b d5bd 681e fe3b 85c6 4b3d bbe3 c63d
00000020: 04a6 28be 98c1 44bd 2ee4 e53c 6b6b 033c
00000030: 5cc3 40bd 414b c53d 13df 853d 23a5 59bc
00000040: 1166 7d3d 240a c7bd 93ef 2dbe af69 b1bd
00000050: f59c 3b3e e7bf 2fbc 3d8e 163d 3a3c cf3c
00000060: 08a5 cb3d 219a a43c 43fd d9bc a7bc 03bd
00000070: 74f3 8bbe 5a42 aebc f9e3 333d e40e 3e3e
00000080: 8556 a93d 978d d3bd 7e5d ddbd f492 9fbc
00000090: 7b73 a4bd 17b8 c0bd e86e 36be 3bd5 f2bc
000000a0: 9ff3 33bd abed cc3d 0000 a1bb d6f4 4e3e
000000b0: e4e2 fcbc 8484 cdbc 5a34 d8bd 3ca4 78bd
000000c0: a55f c83b 646a ef3d 086c 0f3e 7344 43bd
000000d0: 3041 dcbb 0ca7 203e 9de8 c6bd a824 863d
000000e0: 5d29 dbbc 5e8e a03d f3c5 a63d 9665 79be
000000f0: adbb d23d 82ef 18be 1dc7 cbbd e21c 2b3e
00000100: c285 01bb 1599 173e 4d84 0f3e 4752 99bd
00000110: cfd5 4d3d e606 9d3d 6351 3fbd 1fba 6cbd
00000120: 6f6b 0ebe e92d 04be 7b6d d73a 1ddb 01be
00000130: 04f0 b6bd 4df1 813d 6856 6a3d 2646 353d
00000140: 56a1 be3d 8b22 4f3c 4d92 da3d c724 d33d
00000150: c7e8 fc3d ac91 09be c8df efbc 5bb8 46bd
00000160: 8f65 19bd d83a 183e 8194 1fbd f896 dbbc
00000170: 6d3e edbd e08c bcba 033f 8a3d 08c0 0bbe
00000180: 3d99 8ebc 987f fcb9 0816 043e 2bed a13c
00000190: 7189 e7bd e88c 90bc 173a 26be a8a8 eebd
000001a0: 17f8 9abd 28bb 0ebd eb15 743d f0ba c33c
000001b0: 8c6e be3d 5d5f 6ebd 70af 0d3d 9526 c43b
000001c0: 5181 dc3d 9d13 393e 7a22 62bc 1ea1 4abd
000001d0: a790 113c 585b b8bd b532 5b3c 8092 173c
000001e0: 61b5 bbbc 4a1b 883c 2e71 7f3c 8712 323e
000001f0: d040 75bd 4397 063d b1eb 03bd 15d1 213d
00000200: 7165 1cbe e9bb a5bd 799d 05bd 7d9e edbd
00000210: 93b2 efbd 5b9e 2f3d c6e4 f7bb bc55 79be
00000220: 8c66 a6bd efd1 0d3e 395d 843c d5a4 63bd
00000230: 3cc9 143d 45ea 063e b628 843d bf44 3c3e
00000240: a64a 29be 6133 ba3d 5e9c 11be 89a2 53bd
00000250: 4388 babd 4cff 803e fd5f 1e3e 1c1f 00be
00000260: 4800 9a3d caf5 34bd 6f6c 3e3b d755 bc3c
00000270: cc39 1bbd 84c9 46be 035e 19ba ddbd 1fbe
00000280: 007e 33bd 3087 06be 0276 44bd a073 96bd
00000290: 59dc b8bd 02c1 243e 5a3b 3b3d 829d 573d
000002a0: 4865 9abd 5cc1 6d3c b14f 4cbd 414c c6bd
000002b0: 93f8 a2bb 4f3e eabd d400 60bd 6f7c 063c
000002c0: 5a5d 36bc 096f 06be a2a2 113d 47a3 313d
000002d0: c6fd afbc fff9 7abd f10b 63bd bda8 1abc
000002e0: 0708 453c 16c1 c63d d0bf 383e f112 a5bc
000002f0: 7370 2bbc fe89 093e 7d6c 3cbd c93f 19be
00000300: e76d 553c c03d 6c3e 5841 f6bd 2360 cbbc
00000310: f150 133e 44c0 53bc f74a 6cbd 1ac9 203c
00000320: ecbd 45bd 59f5 563d 9b5f 06bd d7a5 e7bc
00000330: 4f7b 14bc 81a5 c63d 159d 76bd e2d5 a43b
00000340: 2818 24bb 2562 41bd 172f edbc 1741 d03d
00000350: 6b5f 463d 1ac7 b9bd 5e1f 25bd c597 443c
00000360: 16d5 ca3d b568 2b3c dbdf e43d 4469 4cbd
00000370: 6199 0e3e d301 84bd 9bee fcbd 6b5b a53d
00000380: 4085 17be 53dc 4c3d 0578 5abe 02d9 bf3d
00000390: 9d41 25be e2ab 37bc 08af 07be e416 383e
000003a0: 5634 4a3d 5c34 f4bd 2a85 f3ba 1096 94bd
000003b0: c6fb b03d e983 21bc be72 c9bd 1b7d efbd
000003c0: 9f8f dfbd 80b9 c83d a522 abbd d512 89bd
000003d0: a4c0 c3bd bef3 973d 4216 b0bd a72d b23d
000003e0: 5a5b 673c 457b 2e3e 7951 be3d 8430 383d
000003f0: cdae 4ebc 42b6 27be 0d4a 29be 2e84 6338
