results/BasicRotationObstacleMultiple4/BasicAgent/BasicAgent-2312.pt (torch, 497479 bytes, 33 tensors)

network_body.linear_encoder.seq_layers.0.weight f4 [128, 24]
00000000: 350f a3bb a94f 31be b939 a13e 36eb 9d3e
00000010: 00f7 9ebe c202 84be 6566 a0be d6ad 1fbe
00000020: b43e 953e fc1d cb3e 4776 e63d 34ca e9bd
00000030: 3457 e4bd 5f5d 67bd 25ca 4e3d ec66 abbe
00000040: 60c5 9d3d 0891 503c fccb 4f3d 5520 69be
00000050: 8b08 133e 7ab2 9c3c 71fe 0bbe 8f61 e73d
00000060: 73ba ac3c 9474 bb3c 28e8 94be 009b adbc
00000070: 19bc 803d e68a 80bd 3e9a 1b3e c843 a6be
00000080: 3ba6 c83d 1fd7 9dbe 6c23 093e 59de 05b9
00000090: 24c1 91bd 7fd2 7d3d 9f0c 4cbe 483c b6bd
000000a0: db2b 243e 37aa 8e3e 4717 b93c c61a 743e
000000b0: 130d 02be 27a6 ddbc 0bd6 fbbd 3da2 e4bd
000000c0: f48f 553e 5fd7 dabe 7204 c13c b7b6 6a3d
000000d0: 45de 9ebe a2c3 54be add7 653e 6f2e ad3e
000000e0: 0e27 dfbb b75f 923e 0883 8fbd 6385 da3d
000000f0: 1cd6 cf3d f691 14be ff28 103e 9bef 54bd
00000100: 11ae 6fbe ef10 04be 5db2 923e fdcd c43d
00000110: d4ce 18bd e468 703e 72c0 603e 7ce9 7dbb
00000120: 2fe4 1abc bd39 1ebc 3ca3 483e 0fc1 f53d
00000130: abc3 cdbb fc16 88bc d996 433e 8257 8d3d
00000140: f474 4cbe 7bd0 a4bd 7d5c 833d 1f95 e5bc
00000150: cd3e 8a3e 3c03 c0bd 0eb2 e63c 6115 6cbc
00000160: 0c6b a03e 5728 353e d93f 84bd 7c63 7d3e
00000170: 7462 54be 230c 28be 74e3 d13d 0b16 903b
00000180: 56a3 75be ef2e dcbd 58b0 babd c4e4 af3e
00000190: f29e 3dbd 88cb 16be 26c6 2abd 4c1d ee3d
000001a0: d19d acbc 3fb5 203d f4ed ef3c 45d3 a43e
000001b0: e1eb ed3d 37e9 a13e d169 58bd 1c99 f7bc
000001c0: 58a0 0fbe a5df 88be 5632 213e b12d 43be
000001d0: fcdd 16bd 8803 f8bd 2d81 5ebe 39fc cebd
000001e0: 827f 8cbd 168d cbbc d169 243d cc0b 21be
000001f0: 0abd d23e f0ca 70bc d969 bdbe 8062 e73d
00000200: 87a7 77be bb79 39be e4f3 2f3e 1d19 3f3e
00000210: d83a cb3d b610 38be 26a1 b5bc a938 56be
00000220: dbba 033e 1fb1 d83e 9fdb 243e c9ec 843d
00000230: 779f 2abe b7c3 1e3c 2942 aebd c076 043e
00000240: 8385 1a3f 4c74 013d c6d2 a23d 6da0 3cbb
00000250: c0e6 3abe 43d3 433e 3628 8a3e fbf6 533e
00000260: 1811 52bc 685a c53d fe93 883d 0b63 ffbc
00000270: 7957 823e f4b3 2abd 9ef6 33be 08bb 823d
00000280: 061f 6c3d 2267 07bd ff3c 73bb d630 193e
00000290: 0f03 bcbe 312f d43e d3e1 433d 3e9c 42be
000002a0: 59a9 f3bd 25fb 253d 6142 56bc 5d83 fd3d
000002b0: 8e8f 843e 8c1d 84be be17 b33d 5220 ab3d
000002c0: cc54 8dbe 40c5 f33d 56bd 103e 69cd f03d
000002d0: ded1 a2be 4e14 383e bd27 86be 34a6 ac3d
000002e0: e191 863e ea79 123e aa97 8bbe cd6f c8bc
000002f0: 840b 1fbe 740c b33d d619 793e 2332 cebe
00000300: afa9 82bd 5bd9 aa3d a790 d4bd 954e c83e
00000310: e266 303e 18d2 8bbe dfc1 fa3c 8b32 e8bd
00000320: e3d5 a33c a026 d8bd 2c5d 143e 6128 02be
00000330: 027e 08be 42f2 f23d 2263 d93b 05ff 023e
00000340: 50dd dcbe 487b 1cbe 680e 273c c5f5 ea3d
00000350: e777 b13c 94f3 a73e da98 4cbe bbf4 0a3e
00000360: b469 5abe 3365 27be f690 14be 29a3 7d3c
00000370: 06a8 24be 455b 31be 1b40 02be 2436 cb3d
00000380: 74bb cb3d 1399 603e 1ab7 08be cb34 293e
00000390: 4435 2d3e 972e 443c 6997 aebd be3b 21be
000003a0: 70cc 043e 4430 1d3e d5d1 673e bb79 c9be
000003b0: 572a 9b3e 0663 473e 4db1 be3e 8e33 c63d
000003c0: 2185 9d3c fc18 673d 3990 a93d 80fa 2d3e
000003d0: 1e91 a9bd ad18 26be 284c 0e3e 223c db3e
000003e0: ca84 ddbe 42ab 833e bf51 493c 3cbd 2bbe
000003f0: 8822 6f3e af19 da3d 83eb a03d c8c9 7c3e
-0.004976178 -0.17315544 0.3148935 0.30843514 -0.3104782 -0.25783354 -0.3132812 -0.15593657
0.291494 0.39671314 0.11253028 -0.1141552 -0.11149445 -0.05648553 0.05048575 -0.3347696
0.07703662 0.012729891 0.050731644 -0.2276624 0.14358728 0.019128073 -0.1367128 0.11297905
0.021085 0.022882737 -0.2908337 -0.021192074 0.06285877 -0.06276493 0.15195557 -0.32473588
0.09797331 -0.30828187 0.13392419 -0.000127667 -0.07116917 0.061968323 -0.1992669 -0.088982165
0.16032355 0.2786424 0.022594107 0.23838338 -0.127003 -0.027056767 -0.12296685 -0.11163757
0.20855695 -0.4274244 0.02356169 0.057303157 -0.31028953 -0.20777753 0.22445555 0.3382449
-0.0068100756 0.2858865 -0.07007414 0.10669973 0.1014826 -0.14508805 0.14078139 -0.051986318
-0.23406245 -0.12897085 0.28651705 0.09609602 -0.03730662 0.23477513 0.21948412 -0.0038743904
-0.009453817 -0.009657321 0.19593519 0.11999714 -0.006279429 -0.016612522 0.19100513 0.069014564
-0.19966489 -0.08047577 0.06414125 -0.028025208 0.27001038 -0.09375617 0.028161075 -0.014409394
0.3133167 0.1769117 -0.064574905 0.24744982 -0.20740682 -0.1641088 0.10248461 0.004397159
-0.23988089 -0.107511394 -0.09115666 0.34354222 -0.04629416 -0.14726079 -0.041692875 0.11626682
-0.021071346 0.03923535 0.02928827 0.32192436 0.11617256 0.3162324 -0.05283529 -0.030224375
-0.1402601 -0.26733127 0.15741858 -0.19060399 -0.036832795 -0.121100485 -0.21728964 -0.101067014
-0.06860258 -0.024847548 0.040139977 -0.15727156 0.4115985 -0.014696822 -0.36994818 0.11298084
-0.24185 -0.18112843 0.1718288 0.18661924 0.09923333 -0.17975125 -0.022171568 -0.20920052
0.12864248 0.42322633 0.16099404 0.06490476 -0.16662394 0.009690217 -0.08508713 0.12935925
0.6035997 0.03160505 0.07950358 -0.0028782145 -0.18252087 0.19123559 0.26983804 0.20699684
-0.012821458 0.09636384 0.06668852 -0.031175157 0.2545736 -0.041675523 -0.17574546 0.0638333
0.057646774 -0.03305734 -0.0037115214 0.14960036 -0.36721084 0.41442254 0.047822785 -0.19004914
-0.11897535 0.040522713 -0.013077349 0.12378571 0.25890774 -0.25803792 0.08744763 0.08355774
-0.27603757 0.11902857 0.14134726 0.11757929 -0.3180074 0.17976496 -0.26202193 0.08430138
0.26283172 0.14304319 -0.27264148 -0.024467373 -0.15531737 0.087426096 0.24326262 -0.40272626
-0.06380021 0.083422385 -0.10379153 0.39122453 0.17226747 -0.27308726 0.030610023 -0.11337765
0.01999945 -0.10554242 0.14488667 -0.12710716 -0.13329318 0.11862613 0.006634132 0.12792595
-0.43137598 -0.15281403 0.010196306 0.11472658 0.02166362 0.32803023 -0.19980183 0.1356992
-0.21329385 -0.16347198 -0.14508423 0.015480795 -0.16079721 -0.17319973 -0.12719767 0.09922436
0.09947863 0.21933393 -0.13351098 0.16524045 0.1691485 0.0119739985 -0.08524973 -0.15745446
0.12968612 0.15350443 0.22638638 -0.39350685 0.3030574 0.19471368 0.37244645 0.09677802
0.01922852 0.05642031 0.082794614 0.1699009 -0.08279632 -0.1622035 0.13896239 0.42819315
-0.43265373 0.25716597 0.012287556 -0.16771406 0.23353016 0.1064943 0.0785742 0.24686348

network_body.linear_encoder.seq_layers.0.bias f4 [128]
00000000: 209a 31bc 6381 02bc 2bc3 223c 47d7 e83b
00000010: dc53 77bb 4eec 483c 2c4f 49bb cd30 e1bc
00000020: 4595 6bbb 704e 20bc d8ad 7dbc 2eb5 a83c
00000030: 3c82 ae3b 690a 1ebc a8b5 863c 55c8 3abc
00000040: cb1c d9ba 863e 92bc d8f2 193d fb33 edbb
00000050: aa39 a5bb a9c9 4dbb 9c70 673a 60a7 293a
00000060: f4df 123c 86b7 893c 087e a33b 66db afbb
00000070: cf18 6ebb 668d 69bc ddfc 4b3c a3bf 0d3c
00000080: f237 a1bb d36a 413c aa9b 86bb 522a 573c
00000090: 637e 20bc 08f2 8a3b b2dc 02bc f110 023b
000000a0: 2647 8b3b 8f44 e03b 97fe 5ebb 9973 103a
000000b0: ad22 f1ba c4ee 403b bc44 8fba 0f5a e1bb
000000c0: a378 9d3c d610 f8b9 de46 f23a 7537 653c
000000d0: 53ee 3cbb 1861 39bc 1bf9 a0bc 83f6 88bc
000000e0: 991a cc3b 7d4d 7a3c 7183 143b e36a 493a
000000f0: b836 293c 242d 49bb a691 39bc 5bf6 0bbc
00000100: faf2 87bc df1a 01ba 2c3d b6bb 06a8 11bc
00000110: ee1f 3abc f35b 3abc 6132 923c 3149 7c3b
00000120: dafb 08bc 9106 51ba 521a a2bc e8d9 09bc
00000130: cfda 0e3c 0600 ba3a 83d3 6dbb 5425 d73b
00000140: c496 14bc 91c8 b53b ff29 6e3b 260d 79bb
00000150: 8689 033b 6481 563c 9d05 49bc 323c e2bb
00000160: cc91 d9bb 124e 61ba 9b44 32bc 9351 a23c
00000170: c4e6 903b b39c 97bb 5a23 92ba ba18 a9b9
00000180: a2f6 1e3a fd00 13bc 7c86 3e3b 2592 4fbb
00000190: 39c7 3a3b 3ad5 f93a f3a4 673c 9271 a53c
000001a0: b39b 62bc 45c6 643c 9a15 bdb8 2ec6 1fbc
000001b0: fbc5 033c 291a d6bb 1787 283c 0402 cf39
000001c0: 6141 2e3c a2cb b2bb a25b 79bc f639 bcbc
000001d0: 3357 d73a e348 2abc 1170 6eb8 da8d c73b
000001e0: dd28 13bc 81c9 463c 4665 493a 68b5 98bc
000001f0: 3e36 d33a d98e 573c 105c cb3b a6c3 1a3c
-0.010839969 -0.0079654185 0.009934227 0.007105741 -0.0037739193 0.012263371 -0.0030717356 -0.02748909
-0.0035947126 -0.009784326 -0.015483342 0.020594206 0.0053255837 -0.009646037 0.016444042 -0.011400302
-0.0016564367 -0.01785208 0.03758511 -0.0072388626 -0.0050422745 -0.0031400716 0.0008828731 0.0006471779
0.008964527 0.016811144 0.0049893893 -0.0053667305 -0.0036330705 -0.014254903 0.012450424 0.008651647
-0.0049199993 0.011805254 -0.004107912 0.013132649 -0.009795758 0.004240278 -0.007987188 0.0019846524
0.004250425 0.0068441103 -0.003402626 0.00055103895 -0.0018397175 0.002943919 -0.0010930519 -0.006877191
0.019222563 -0.0004731479 0.0018484255 0.013990273 -0.0028828576 -0.011314653 -0.019650033 -0.016719108
0.0062287566 0.015277264 0.0022661353 0.0007683469 0.010327987 -0.0030697072 -0.011326229 -0.008542622
-0.016595352 -0.00049249636 -0.0055614915 -0.008890158 -0.011360152 -0.011374461 0.017846288 0.0038495774
-0.008360827 -0.0007973696 -0.019787941 -0.008413769 0.00871916 0.0014190681 -0.00362894 0.006565729
-0.009069148 0.005547591 0.003634095 -0.0038002222 0.0020070984 0.013092373 -0.012269405 -0.0069041485
-0.006639695 -0.0008594702 -0.010880615 0.019814288 0.0044220407 -0.0046268343 -0.0011149452 -0.00032252615
0.0006063973 -0.008972404 0.0029071858 -0.0031672802 0.0028500094 0.0019060739 0.014138448 0.020195756
-0.013831067 0.013963287 -9.016246e-05 -0.00975184 0.008042808 -0.0065338803 0.010286114 0.00039483618
0.010635705 -0.005456404 -0.015219601 -0.022976857 0.0016429186 -0.010393354 -5.684799e-05 0.006089908
-0.0089819105 0.012133003 0.00076826324 -0.018641189 0.0016114188 0.013156616 0.006206043 0.00944606

network_body.linear_encoder.seq_layers.2.weight f4 [128, 128]
00000000: 4536 80bd b305 bfbd 0d9d 9dbd a11c 7ebe
00000010: 1239 71bd c043 31bc 9134 73bd 9773 143d
00000020: 927f a4bd 83ce 66bd 5d7a f63c b244 7cbd
00000030: 6e80 d3bd 52c5 cf3d bc98 95bb eac0 d73d
00000040: 0398 6a3d 23f0 97bd 454f ad3d 31cc c33d
00000050: 0bf2 a63c 3524 56bd e1dd 723c ac0d 82bd
00000060: 1ee2 083c cc95 0bbe 0138 0f3d a87f 37bd
00000070: 710b 2a3b ab5e 443d fefc d8bc 11c8 2ebc
00000080: 52d3 b83d d058 48bd 1c29 14bd 86a9 c13d
00000090: 134f 3e3d 226c f8bc b4af 03be ba6b babc
000000a0: ecc8 b2bb 856a 443d 310d 9b3d 3e68 62bd
000000b0: 1639 e2bd ce60 93bd ad8a 6a3c 1e39 9e3c
000000c0: 9564 a2bd f820 e0bc 832b e73b c766 27bd
000000d0: 59d6 3b3d e9b8 9fbd e7be 2f3d 6e7f 0e3e
000000e0: 7137 febc d501 debd 7abf 843d 05f4 be3d
000000f0: 2413 913d 6292 183e 0700 a03c d9b8 2ebe
00000100: ca09 9f3c 6a6b 523d 2d61 9b3d 8e29 e63d
00000110: dde2 6bbd ed47 abbd e207 d23d fd4a 63bd
00000120: 329d 913c c3ce 62bd 0256 1e3e 6e52 0cbd
00000130: 2638 80be b895 383d 3cda 5f3e e0bd debc
00000140: 3e6e ec3d 85ab f03b ba9b 08be 8c99 113d
00000150: 8a23 053c 16f4 863d d073 bc3c 4749 8abd
00000160: cf2c 233d fa42 2e3d 6fb5 8bbd 52f5 023d
00000170: 41b9 133e 8798 d13c c7dd 9dbc 4371 353e
00000180: ee41 0dbc f21f dc3d 9d92 973d fc24 93bd
00000190: 083b ec3c 2e73 d6bc 9a60 e5bd 966e ca3b
000001a0: 6fff fe3d 2d2d 61bc df9c 5cbc fb80 45bd
000001b0: d389 4a3e 5874 b33c 6085 bcbd 499f 26be
000001c0: c33e 303d 4e65 593d 5edd 243e 9939 903b
000001d0: 40f4 98bb dfb9 f0bc 1c9c a5bd bd6d b33d
000001e0: 6932 adbc 8df2 90bd 60a4 bcbd 9e4a 6abc
000001f0: 5bd6 943d 51e2 5fbd 52c1 5b3d 25d0 ee3c
00000200: ff10 e0bd 7ba9 3e3d 198e 50bd cca4 af3d
00000210: 2c9d 883d 80f2 8a3d c970 5c3c a04e 923d
00000220: fe58 ad3c 3128 1abe f625 65bd a00d 663e
00000230: 583e 683d 5cb3 0fbe 4416 c93d e924 b73d
00000240: edd2 4b3e 4056 8dbd 22e6 e8bd 7192 133c
00000250: 2e8a ad3c 8872 64bd c62c 383c 4a9c debd
00000260: f37f e93d 4c70 33bd 7658 88bd 4303 2cbc
00000270: 2783 da3d 56ad 01bd 8f08 2f3e 3816 0ebe
00000280: 9397 65bb fddc 86bc 9c53 c4bb 0454 ddbd
00000290: 6579 dd3d a4ac 2cbc 61de 913c d3b6 14be
000002a0: 6784 92bd edd5 c13d 51ec 463e dc43 34be
000002b0: 90f5 edbc f74a 46be 8b1a ddbd be9e f2bd
000002c0: f4bb 2abd 2346 2cbd f6ff a1bd 42b9 07bc
000002d0: 1e9d 093e fd79 1dbe b832 c6bd a0e4 6c3d
000002e0: 26d2 543d ffe5 5c3c 056d 1d3d d0a6 0b3e
000002f0: 82e2 703d 3687 c73d ec3c 0c3e 644d 70be
00000300: b0bf 663d 7893 9cbc 9557 f7bd 9009 993d
00000310: d8ec 45bd d5bb 623c 980e f9bd 90f7 ee3d
00000320: 9656 b93d 5933 113e 5063 763e fe4c 42bd
00000330: d79d 0f3e 40dd e3bc 864e 973d 01b5 853b
00000340: 3e1c 083d 5a5b 2e3d b820 93bd 9e62 99bd
00000350: 85f3 ef3c 15d2 b7bd 1cf2 bcbc 646e 773c
00000360: b715 febc 3ade 87be 7e2a eebd fd9f a33d
00000370: 5ff7 1f3e b9bc 76bd e2e4 43bd f87b f63d
00000380: 8f72 f93c 1326 d73b de13 14bd 0993 00be
00000390: d0ef aebb 39bd aabd 8cd5 6ebc c1df 26be
000003a0: a781 1f3d 292e bebc 88d6 ea3c f09f 243e
000003b0: cdf5 0fbd 04d5 393e c683 383d ee10 123d
000003c0: 9ae3 b93d b023 bf3d 1873 9fbd 2fd0 79bc
000003d0: 7b0a 593c 0327 c13d 9557 01be 513b cfbd
000003e0: 60e1 073e b31c 833c 2d27 813d e742 a1bd
000003f0: 1b3f 13be e104 f7bd d3f3 c93d 2b06 3c3e
-0.06260351 -0.09327259 -0.07695971 -0.24815609 -0.058892317 -0.0108193755 -0.059376303 0.036243048
-0.080321446 -0.05634929 0.030087644 -0.06158895 -0.103272304 0.10145058 -0.0045653265 0.10534842
0.057273876 -0.07418849 0.08462385 0.09560431 0.020379087 -0.052280623 0.014823408 -0.06350264
0.008354692 -0.13631362 0.03496552 -0.044799477 0.002594676 0.047941845 -0.026487824 -0.010667817
0.09024681 -0.048912823 -0.036172017 0.09456162 0.04646213 -0.030325 -0.12859994 -0.022756446
-0.0054560807 0.047953147 0.075708754 -0.055275194 -0.110460445 -0.071961984 0.014315289 0.019314345
-0.07929341 -0.02735947 0.0070547475 -0.0408695 0.045858715 -0.07798941 0.042906668 0.13915798
-0.031032296 -0.10840193 0.06481834 0.09323887 0.07083729 0.1489959 0.019531263 -0.17062701
0.019413847 0.05137197 0.07586894 0.11238395 -0.0575894 -0.08363328 0.1025541 -0.055491436
0.017775152 -0.055372965 0.15462497 -0.0342583 -0.25042838 0.045064658 0.21860594 -0.027190149
0.115444645 0.0073446655 -0.13340655 0.035546824 0.008126149 0.065895244 0.023004442 -0.06752258
0.039837655 0.042544343 -0.06821715 0.031972237 0.14426138 0.025585426 -0.01927079 0.17718987
-0.008621676 0.107482806 0.07401011 -0.071847886 0.028836742 -0.026177969 -0.11200066 0.0061777337
0.12451064 -0.013743681 -0.013465135 -0.04821871 0.19779138 0.021906063 -0.09205127 -0.162717
0.043028604 0.053075127 0.1610007 0.0044013974 -0.0046677887 -0.029385505 -0.08086416 0.08761165
-0.021142201 -0.07077513 -0.092110395 -0.014300017 0.072674476 -0.05465919 0.05365116 0.029151985
-0.10940742 0.046548348 -0.050916765 0.085763544 0.06670603 0.067845345 0.013454624 0.07143903
0.021160599 -0.15054394 -0.055944405 0.22466135 0.05670008 -0.14033264 0.098187 0.08942587
0.1990468 -0.069012165 -0.11372019 0.009007082 0.021184053 -0.055773288 0.011241144 -0.108696535
0.114013575 -0.043808267 -0.066574976 -0.0104988245 0.106695466 -0.031659447 0.17093109 -0.13875663
-0.0035032972 -0.016462797 -0.0059914123 -0.1080704 0.1081417 -0.010539208 0.017806234 -0.14522867
-0.0715416 0.09464631 0.19426085 -0.17604011 -0.029047757 -0.19364534 -0.10796078 -0.11846684
-0.041683152 -0.042059075 -0.07910149 -0.008283915 0.13438842 -0.15378566 -0.096776426 0.05783522
0.051958226 0.01348257 0.038434047 0.13637853 0.058809765 0.09742586 0.13695115 -0.23467022
0.05633515 -0.019113287 -0.12077252 0.07472527 -0.048321575 0.013838728 -0.12160987 0.116683125
0.09049718 0.14179744 0.24061322 -0.047436707 0.14025055 -0.027815461 0.07388024 0.0040804152
0.03323006 0.04256759 -0.07183975 -0.07489513 0.029290924 -0.08975617 -0.023064665 0.015102003
-0.031016214 -0.26536733 -0.116291985 0.079895 0.15621708 -0.060238574 -0.0478257 0.12035364
0.030450134 0.006565818 -0.03615176 -0.1255609 -0.0053386465 -0.083368726 -0.014577281 -0.16296293
0.038942005 -0.02321537 0.02866675 0.16076636 -0.035146523 0.18147665 0.045047544 0.035660677
0.09076615 0.09332979 -0.07785624 -0.015247389 0.013247128 0.09431269 -0.12631066 -0.101187356
0.13269567 0.016004896 0.063063 -0.07874089 -0.14379542 -0.120614775 0.09860959 0.18361728

network_body.linear_encoder.seq_layers.2.bias f4 [128]
00000000: 5d19 b7ba 6742 ae3b 189d 5fbb 7b30 77bb
00000010: 95f4 6bbc 2fd2 3cbc 1675 04bc 55e8 2ebb
00000020: 63a7 5abc b0ad 36bc 3f6a 0d3c b3b6 a9bc
00000030: 3f2d 473c d996 293d 272d debb e2d4 61bc
00000040: a115 ba3a 64b7 e33b d59d f0bb 77e3 28bc
00000050: 62ad b93c 9f96 48bc 25de b13c 0bff 07bc
00000060: 3f14 7c3b 8fff 123c 8c1a 1cbc 36de 64b9
00000070: a054 60bb 2722 b1bc 958c 2a3b e0ab bdbb
00000080: 8667 febb 4000 c5ba e56c a8bc ee81 1b3b
00000090: 1a2a 54bc e449 6cbc c4de 373b de9f 04bb
000000a0: c5d2 08ba 8206 073b 7b9b 9bbb e3f8 40bc
000000b0: 22c7 fbbb bf4d adbb 86f7 74bc 6b27 4dbc
000000c0: de2f 14bc 5a3d e9bb 156c f5b9 23b0 763c
000000d0: b20f 0cbc 1a83 b4bb 99b5 30bc 72ce 8b3b
000000e0: ff11 bc3b 4355 833c 0085 febb b631 7ebc
000000f0: 1311 76bc 0d72 abbb 138c a03b 5356 3abc
00000100: 3bb1 57bc ed47 103c e1e6 5cbc ded3 7dbc
00000110: 5b0f 29bc 4092 6239 beb2 1ebc 8866 01bc
00000120: 7e3b a1bc bc92 25bc 60cc 47bc 60ab b7bc
00000130: a57b 8c3b 484d 4abb f9ee 11bc 8f9e 3cbc
00000140: 6a64 a53c 21fa 6ebc 4688 9a3c 204e 78bc
00000150: 405a 15bc a6a3 80bc 3419 103c a355 61bb
00000160: 884f 943c 7bb8 263c 5cef 4abb f72c b13a
00000170: f228 e9bb 48eb 753a 09c5 cc3b d59a cc39
00000180: 8388 85bc deb4 8bbc a91d f4bb 437d 363b
00000190: 5dc4 0dbc aa2e 1f3c a035 ae3c 8b96 0abc
000001a0: 32ef 8b3b 0652 963b 4425 4cbc faa1 3a3a
000001b0: 5e6e 9dbc bf10 1b3d 51d4 8bbc e8be c3bb
000001c0: 6db2 d9bc 342c 11bb d92d f7bb 67ef 04bc
000001d0: cd77 1c3a 47b1 00bc 7b62 053c d2f4 a93c
000001e0: f4bd 0fbc a860 16ba 4154 64bc bf6d 17bb
000001f0: 40f1 8fbc ec2f cdbb 7093 94bb 3b32 b93c
-0.0013969351 0.0053179744 -0.0034120735 -0.0037718106 -0.014401575 -0.011524721 -0.008084556 -0.0026688774
-0.013345572 -0.011149809 0.008631288 -0.020717 0.012156784 0.041403625 -0.006780285 -0.013783665
0.001419712 0.006949352 -0.007343034 -0.010308138 0.022665683 -0.012242942 0.021712372 -0.008300553
0.0038464216 0.008972063 -0.009527814 -0.00021826554 -0.0034230128 -0.02162273 0.0026023735 -0.0057883114
-0.007763806 -0.0015029982 -0.020559737 0.0023728567 -0.012949491 -0.014421914 0.0028056363 -0.002023689
-0.00052193954 0.0020603244 -0.0047487593 -0.011778089 -0.0076836506 -0.005288809 -0.014951592 -0.012521605
-0.009044616 -0.0071179094 -0.0004681057 0.015056643 -0.008548664 -0.0055087926 -0.010785484 0.0042665536
0.00573945 0.016031867 -0.0077673197 -0.015514782 -0.015018719 -0.005232102 0.0048995106 -0.01137312
-0.013164814 0.008806211 -0.01348278 -0.015492408 -0.010318602 0.00021607522 -0.00968617 -0.0078979805
-0.019681688 -0.010105785 -0.012194723 -0.022420585 0.0042872005 -0.0030868817 -0.008907073 -0.011512413
0.020189483 -0.014586003 0.018863808 -0.015155345 -0.009115756 -0.015703034 0.008795071 -0.003438332
0.01810433 0.0101758195 -0.0030965423 0.0013517429 -0.0071154768 0.0009381068 0.0062490744 0.0003902527
-0.016300445 -0.017054018 -0.007449825 0.0027845658 -0.008652774 0.009715715 0.021265805 -0.008458744
0.0042704577 0.0045874147 -0.012460057 0.00071194733 -0.019217666 0.037857767 -0.017069014 -0.0059736855
-0.026574338 -0.0022151591 -0.0075433073 -0.008113719 0.00059687794 -0.007854766 0.008141155 0.020746622
-0.008773316 -0.0005736449 -0.013936103 -0.0023106185 -0.017571092 -0.0062618162 -0.0045341775 0.02260696

action_model._discrete_distribution.branches.0.weight f4 [5, 128]
00000000: 5389 2439 453f 4fbc 9aae 7ebc 0651 aa3c
00000010: 5075 e9bb 0ba3 053b 0747 473c b634 b4bb
00000020: 74e3 bd3b cf39 18ba 92ac 89bb 660e 6aba
00000030: e12c 893b d6da 0cbc e12a 43bc 3209 8bbb
00000040: a374 5ebc de52 343b 6dee 0c3c 4ad9 47bb
00000050: 3aa3 60bc 44d7 653a 51ee 01bb b3ba b43c
00000060: 905d 9dba e640 c5ba 6984 a4ba 99c0 623c
00000070: 6e92 023b 9080 6f3b a6f8 aa3a dae7 713b
00000080: 2b8c 873c aa6e 2b3c b991 d3ba 8aed 63ba
00000090: 8dd9 3d3b 8531 4d3b aa10 c83b 9b96 1e3c
000000a0: 1985 ecbc be1c f3bb 31f5 68bc 7d35 eabb
000000b0: 14fc 443c cc2b 4cbc 2d4c ff3b 7ec0 083c
000000c0: 53f2 5c3a 33a3 e43c 6e27 bdbb b6d6 78bc
000000d0: 2ebf 61bc 2537 4dbc 5780 fe39 4d5b ad3c
000000e0: 279f 873b 257a e4bb 24e8 7fbc bcf4 83bb
000000f0: a17d 7dbb 4ead b53a 28dc 2fbc 7b85 1c3b
00000100: b819 283b 662a acbb 053b 88ba dab3 d53b
00000110: d3e0 3f3b c77f 9cbc a7d1 823c daab 623b
00000120: 5f62 683c e050 d83b f4d9 3c3b d224 0dbc
00000130: db03 1abc ace5 d2bb babb 22ba 042f 65bc
00000140: 4988 3739 ea66 e13a 5846 d13b 4f69 803b
00000150: 1365 b1bb 5780 a4bc 8b0d 103b a5c8 623b
00000160: 820a 01bb 660c 46bc 20e2 5fbb a13e d9bb
00000170: 5c2f 00bc cc7f 93bc 7c71 a13b 1fc6 40bc
00000180: 959c a53a 6c80 96bc e394 f93b 6ecb 9abb
00000190: 02b4 3e3c b204 60bc 1cb4 35bb fe23 a5ba
000001a0: a618 d1bb 10a5 2dbb da87 cfb9 7b4a a3bc
000001b0: dc86 31bc a578 94ba aac8 e83b 8505 763c
000001c0: 55e8 c53b d825 1e3c 1fc5 ce3c 25cf 303b
000001d0: a4cb bdbc 18bc f2ba 7e77 49bb 488d 873b
000001e0: f617 c03b b8cb 1a3c 7bbf 883b 85b2 29bc
000001f0: 0fc3 df3a e820 80bb 61a9 f53a 2065 9035
00000200: 2fba ab3a 99de c0bb 440e 143c 2dda 1f3c
00000210: 595c e139 6ea0 c33c e056 123b 2126 10bc
00000220: e819 bd3b 8a96 fa3a d828 81bc 911a e93b
00000230: 1f5d 6cbc 5e74 8abc 9a51 a83b ae0f 883b
00000240: f2ba 783c 0166 dabb 8722 bcb9 f099 4f3c
00000250: 2a5a 65bb cbf7 973b 9caf febb 99c6 a53c
00000260: 2657 97bb a340 5cba ec7c 0a3c 4ed9 cb3b
00000270: c205 cd3b 3af6 123c 326c 623b cd27 5f3b
00000280: bd74 1b3b 0f7c 43bc 6a30 2f3c 34e9 d3bb
00000290: f517 2d3c c664 29bb 973d ffb9 9d3f f23b
000002a0: 6e11 643c ed5a 0cbc 38e7 003c 5799 75bb
000002b0: 4113 5d3b cbde f63a 24b5 403c 24e2 803c
000002c0: 9ee2 363c e5b7 1f3a 8121 21bc ea1b 31bc
000002d0: a3b3 3e3c a521 3a3c 5695 4c3b db11 debb
000002e0: c5f2 73bc fb14 b5bc 8d87 d53c 946e ca3b
000002f0: c0a9 ce3c 368f d2bb 7129 473c 01d2 813b
00000300: fb2b 043c c414 71bb 3de3 9b3c ab6f 143c
00000310: a0f3 783a d179 1d3a 6490 ce3c c413 b03c
00000320: 49c5 493c 3927 613c daf5 093c 0fda 00bb
00000330: 4ffc 26bc c13a 4e3c 362a 213c 2651 913c
00000340: 9185 5cba 119b a43b f8ba 03bc e7bd fc3b
00000350: 14a9 fc3a d1e6 753c 61ed 023c 9efc 503c
00000360: fa57 86bc fb62 043b e4e2 f939 1f14 a43b
00000370: cbbe bdba 9563 c03a 186e 80ba 4c1c f33b
00000380: 81bb 683c e174 7f3b d857 0e3c eb6b 03bc
00000390: 3c55 883c f041 19bc a977 cebc a02c 6d3c
000003a0: 880c 533c 8dee 9fbc e461 8a3b 0445 56ba
000003b0: e87f 633c c49f 9dbc ed93 4b3b 9ea0 2d3c
000003c0: c4f9 613c fbf1 8f3c c3e5 c73c d479 393b
000003d0: 0ff2 9d3c 8b7a 95bb dc1b d0bb a4e4 8dbc
000003e0: 72c1 383c 74b1 12bc d8e5 443c 0288 0d3c
000003f0: 00a4 043c e012 da3b b853 adba 824c 84bb
0.00015691416 -0.012649362 -0.015544558 0.020790588 -0.0071245804 0.002039137 0.01216293 -0.0054994477
0.005794937 -0.0005806954 -0.00420148 -0.0008928537 0.004186258 -0.008597096 -0.011912079 -0.0042430395
-0.013577613 0.0027515213 0.008601767 -0.0030494505 -0.013710791 0.0008767734 -0.0019825886 0.022061681
-0.0012006033 -0.0015049248 -0.0012551668 0.013839864 0.0019923705 0.0036545135 0.0013044074 0.0036911876
0.01654633 0.010463396 -0.0016141451 -0.0008694759 0.0028968782 0.0031310034 0.006105502 0.009679462
-0.02887206 -0.007419198 -0.014218614 -0.0071474896 0.012022991 -0.012461614 0.0077910633 0.008346675
0.0008428443 0.02790985 -0.0057725227 -0.01518791 -0.013778491 -0.0125253545 0.00048542276 0.0211617
0.0041388455 -0.0069725686 -0.0156193115 -0.0040269773 -0.0038679617 0.0013860853 -0.010733642 0.0023883271
0.0025650095 -0.0052540777 -0.0010393566 0.006521684 0.0029278293 -0.019103898 0.01596911 0.0034587295
0.01418361 0.006601438 0.0028816434 -0.008614736 -0.009400333 -0.0064360704 -0.0006207783 -0.01398826
0.0001750301 0.0017196808 0.0063865595 0.0039188038 -0.0054136603 -0.020080728 0.0021980728 0.0034604457
-0.00196901 -0.012087917 -0.003416188 -0.0066297804 -0.007823791 -0.018005274 0.0049268585 -0.011765986
0.0012635166 -0.018371783 0.0076166256 -0.0047239577 0.011639597 -0.013672994 -0.0027725762 -0.0012599227
-0.006381112 -0.002649609 -0.00039583334 -0.019932976 -0.010835376 -0.0011327459 0.007103999 0.015015964
0.006039659 0.009652577 0.025240479 0.0026978937 -0.023168392 -0.0018519191 -0.003074139 0.004136715
0.0058622314 0.009447984 0.004173217 -0.010357504 0.0017071682 -0.0039101727 0.0018742495 1.0758267e-06
0.0013101752 -0.0058859107 0.009036604 0.009756607 0.0004298415 0.02388021 0.0022329614 -0.008798153
0.0057709105 0.001911835 -0.015766546 0.0071137627 -0.014426499 -0.016901191 0.005136681 0.00415226
0.01518129 -0.006664992 -0.0003588388 0.012670979 -0.003499637 0.0046376935 -0.007772399 0.0202363
-0.004618543 -0.00084019656 0.008452635 0.006220973 0.00625679 0.008969838 0.0034549353 0.0034050823
0.0023720704 -0.011931433 0.010692695 -0.006467009 0.010564794 -0.002584742 -0.00048683278 0.007392837
0.013920171 -0.0085666 0.007867627 -0.003747543 0.00337334 0.0018834708 0.011761937 0.015732832
0.011162428 0.0006092771 -0.009834648 -0.010809878 0.011639508 0.011360561 0.003121694 -0.006777031
-0.014889424 -0.02210473 0.026065612 0.0061777327 0.025227427 -0.0064257635 0.0121558765 0.003961802
0.008067126 -0.003678606 0.019029254 0.009059827 0.0009496752 0.0006007227 0.025215335 0.0214938
0.012315103 0.013742262 0.008420432 -0.0019661223 -0.010191991 0.01258725 0.009836724 0.01773889
-0.0008412237 0.005023368 -0.008040182 0.007713068 0.0019276463 0.015008644 0.007991166 0.012755541
-0.016399372 0.0020200599 0.00047662028 0.0050072814 -0.0014476416 0.0014678115 -0.0009798435 0.0074191447
0.014204861 0.0038979577 0.008687936 -0.008021335 0.016642205 -0.0093541 -0.025203543 0.014475971
0.012881406 -0.01952293 0.0042230953 -0.0008173736 0.013885476 -0.019241221 0.0031063512 0.010597376
0.013792459 0.01757144 0.024401551 0.0028301375 0.019280462 -0.0045617274 -0.0063509773 -0.017320938
0.01127659 -0.008953441 0.01201769 0.008638384 0.008095741 0.006655082 -0.0013223803 -0.0040374408

action_model._discrete_distribution.branches.0.bias f4 [5]
00000000: 5386 cdb9 17eb 34bc 8577 6a3c a9e0 293b
00000010: 9db5 80bb
-0.00039200726 -0.011042378 0.014310722 0.0025921261 -0.0039279

critic.network_body.linear_encoder.seq_layers.0.weight f4 [128, 24]
00000000: 82af 6bbd e8ab 443d 7258 e4be e83f cfbe
00000010: 4ce0 023e 6d67 423e 993a 86be 46e4 ecbe
00000020: a3e6 34be 6b08 36be a12a c4bd e5db 693e
00000030: 236f a3bd 7cfb 163c 62e9 ba3d c535 6a3d
00000040: c47e a93d 2ad4 dfbd 1a41 1cbf 5039 14be
00000050: 852a 8fbe e63c ad3d 7bb3 ac3c 206b b53d
00000060: 5383 c1bc 984d 97be 0e03 813d c84c 6c3e
00000070: fc94 21be a869 3fbe 93a6 c63e f882 0d3b
00000080: b527 d3bd 4d44 d43c 9793 8ebe 9260 b4be
00000090: beb6 91be baa6 61bd 397b 803e 0197 af3d
000000a0: ef71 863c 3103 bfbe 62b4 6dbd 0dd2 823e
000000b0: 2a09 a73e b10e 8e3c 4954 76bd 6b3d d63d
000000c0: 4bc2 67bc c2a8 3c3d 3fce 14be 731a 65be
000000d0: f7d6 7f3e 45a5 553e cdb4 89be 315e ab3c
000000e0: 57da a3be 4650 883e 67b6 1bbf 7298 1ebe
000000f0: 37bb e23c 9f0b bbbd 4369 63bb ac71 503e
00000100: 3045 7fbe 3149 c93d eb5b 1b3e eaf7 863e
00000110: d336 14be 6bc3 a7bd c273 e1bd a4bc 0dbe
00000120: 995b e9bd 6806 bb3e 5a8c 183c f16a 9cbe
00000130: 87b7 083e 3292 acbc 3f4f 14bd 9572 a63d
00000140: 811d 9a3d dd4d c7bc 06df fc3d 1bf0 5ebe
00000150: f0c9 ad3d 4025 9cbd 7fdf 083f f2a4 633e
00000160: 8bf4 ec3e 96cf f23d e637 1e3e ad91 32be
00000170: 7643 353e e3d8 e43e 1788 12bc c686 87bd
00000180: 0958 c43d f5f2 933e 5b8f a7be ebd7 36bd
00000190: cc17 d03e 5ee7 07be 9821 4b3d 5de2 9bbd
000001a0: ca89 87bc adbf 2ebe 514d 2d3e e8d4 e33d
000001b0: a173 d03d e442 cc3e 79a8 113d a4a5 0d3e
000001c0: 7cdb cf3d 5d95 9e3d 7a04 753e c139 ab3e
000001d0: ea53 3e3e 81ec 2d3e f73f 62bd 9de6 163e
000001e0: d055 babd 812c cf3d d0e7 a93d 5c01 fe3e
000001f0: 0657 c2bc d0cc 36bd 56b3 d2be d52a 203e
00000200: e413 c23d a8b4 3b3e b46c e63d e710 32be
00000210: 863f 043c 5613 37bd e539 d8bd da7f 19be
00000220: 0424 9ebd 83f7 803d b0a3 303e ec51 0a3c
00000230: 0d6b efbe a2e7 e83d cbf9 6cbe d9f8 f13c
00000240: e2fb 9dbd 2143 36be edb2 093d 9119 003e
00000250: fb4c 83be 1437 53bd 82f5 debc 672d 413d
00000260: 4e25 f1be 9eb3 843e a95a 24be 1579 ecbd
00000270: c983 8d3d 76d5 023f 113b 193e 3161 d2bd
00000280: e771 a4bd 4627 973e 0b32 9fbb f29f 0bbe
00000290: 056b 8f3e fd25 7cbe ca45 833d e6c4 d73d
000002a0: 8b56 113e 67be 1f3e c6fc 093c 9c83 35be
000002b0: 23da 653e f49f eebd 9a4f ad3d d66a 1ebe
000002c0: fdca b4bc 0e06 ac3d e2f0 e1be 02b6 473e
000002d0: 2e0b 2ebe f045 42be 247d 11be dec9 febb
000002e0: 9b0c ac3d 45c3 38bd 7aa4 88bd daaf 67be
000002f0: 9438 0f3e a222 29be 4f39 9a3d 82c4 c7bd
00000300: 2327 0dbe 5bdf 28be b6b4 b1bd bc91 5b3d
00000310: 557d 60be 8d89 9fba 0240 8cbd 620e b6bd
00000320: e613 c2be a09b 82be 7e2a 9cbd 6d2e cd3e
00000330: bd53 2ebe 3ae5 cabd d141 97bd b067 4dbe
00000340: 8f34 b0bd 5824 e23d 638d 9fbc a8c8 e33d
00000350: 105d e53c e8ed 11be ac71 403e 82da c53d
00000360: 06e7 013d be31 8a3b 400b cebd a956 a13e
00000370: 0889 d03c 60ef 83bd 4dfd 083e 39ab 52bd
00000380: 1d59 663e ff3b 3ebd 037a 50bd f771 1c3e
00000390: cfbe 94bd 26c9 91bd f1be bd3d d949 253e
000003a0: 4361 dabd 9c69 afbd 63f4 853d 4742 3cbb
000003b0: 4df7 62bc 28f5 a13e ee34 51be be99 3f3e
000003c0: 663e 433e 1b4c 523e ffc0 d83b 8715 073d
000003d0: 3ee8 d63d 6513 f63d 696a 82bd 8d7b 03be
000003e0: 6b49 58be 7b6f 6cbe 5bd8 21be 339e b93d
000003f0: eb1f e03d dc65 9bbd 8a34 12be 56ec 72be
-0.057540424 0.048015505 -0.44598728 -0.40478444 0.12780875 0.18984766 -0.2621658 -0.4626791
-0.17666106 -0.17776649 -0.09578443 0.2283779 -0.07980182 0.009215232 0.091265455 0.057180185
0.08276132 -0.10929139 -0.6103684 -0.14474988 -0.27962127 0.08458881 0.021081677 0.08858323
-0.02362219 -0.29551387 0.06299411 0.23076165 -0.1577949 -0.18692648 0.3879896 0.0021592956
-0.10310308 0.025911475 -0.27846977 -0.35229927 -0.28459734 -0.055090643 0.2509401 0.085737236
0.01641175 -0.37307122 -0.058033355 0.2555088 0.3262418 0.01734099 -0.060138974 0.10460933
-0.014145444 0.046059377 -0.14531802 -0.22373371 0.24984346 0.20863827 -0.26895753 0.020918937
-0.32002518 0.26623744 -0.608252 -0.15487841 0.027677162 -0.09133076 -0.0034700192 0.20355862
-0.24928737 0.09828413 0.15171783 0.26361018 -0.14474039 -0.0819157 -0.11008407 -0.13841492
-0.11394424 0.36528325 0.009310806 -0.3055034 0.1335126 -0.021065805 -0.036208387 0.081273235
0.07525159 -0.02432912 0.12347226 -0.2177128 0.08485782 -0.076242924 0.5346603 0.2223089
0.4628032 0.11856 0.15451011 -0.17438383 0.17701516 0.4469672 -0.008943579 -0.06617503
0.09587104 0.288963 -0.3272656 -0.04463951 0.40643156 -0.13271853 0.049592584 -0.07611535
-0.016545195 -0.17065306 0.16924025 0.11124593 0.101783045 0.39894783 0.03556106 0.13832718
0.10149285 0.077433325 0.23927489 0.334425 0.18586698 0.1698475 -0.055236783 0.1473641
-0.09098399 0.1011591 0.08296168 0.49610412 -0.023723137 -0.04462892 -0.41152447 0.15641339
0.0947645 0.18330634 0.11251202 -0.1738926 0.008071786 -0.044696175 -0.105579175 -0.14990178
-0.07721713 0.06297209 0.17249942 0.008442383 -0.4676136 0.113723055 -0.23142163 0.029537605
-0.077140585 -0.17799045 0.033617903 0.12509753 -0.2564467 -0.0515662 -0.027216677 0.04716244
-0.47098774 0.25918287 -0.16050209 -0.11546532 0.06909902 0.51106966 0.14963938 -0.10272444
-0.08029538 0.2952215 -0.0048582605 -0.13635233 0.28011337 -0.24623866 0.064097956 0.10535602
0.1419317 0.15599976 0.008422082 -0.17725986 0.22446494 -0.116516024 0.084624484 -0.15470442
-0.022069449 0.08399592 -0.44129092 0.19503024 -0.16996452 -0.18971992 -0.14207894 -0.0077755293
0.08400842 -0.0451081 -0.066719964 -0.22625676 0.13986427 -0.16517118 0.07530462 -0.09754278
-0.1378446 -0.16491453 -0.08677046 0.05360578 -0.2192281 -0.0012171731 -0.06848146 -0.08889462
-0.37905806 -0.25509357 -0.07625292 0.40074483 -0.17024131 -0.09907003 -0.073856 -0.20059085
-0.08603775 0.11042088 -0.019476598 0.111222565 0.027998477 -0.1425091 0.18793362 0.09660818
0.03171446 0.0042173555 -0.100607395 0.3151143 0.025455967 -0.064421415 0.13377877 -0.051432822
0.22494932 -0.046443935 -0.05089761 0.15277849 -0.07262956 -0.07118444 0.09264935 0.16141452
-0.106630825 -0.08565065 0.06540754 -0.0028726028 -0.013852906 0.31632352 -0.20430347 0.18710992
0.19066772 0.20536844 0.006614804 0.032979514 0.104935154 0.12015418 -0.063679524 -0.128401
-0.21121757 -0.23089401 -0.1580519 0.09063377 0.10943588 -0.075877875 -0.14277855 -0.23722968

critic.network_body.linear_encoder.seq_layers.0.bias f4 [128]
00000000: f8ab 76bd 770d 373d e1b3 e23b 4c4c 1e3d
00000010: 9463 0e3d 158f 98bb c86e 9a3c fc30 21bc
00000020: b5ab 22bd 9b8a 223d 4219 c93c 36a3 fb3b
00000030: 5bac 32bd 4876 a23d bf85 11bd 5fba 303c
00000040: 40f5 f5bc cb9a 73bd 6298 d8bc e218 2d3d
00000050: b2d1 74bc 1214 263c a91b 86bc 5a30 e9bc
00000060: 21cf edbc 7e49 253d 0269 d6bc 8391 713d
00000070: 1511 b8bc 53f5 f93b b025 09bd 507b 7e3d
00000080: 002e 463d 937e dcbb 1158 043d 3da9 90bc
00000090: 97dd 17bd 3256 343d e109 82bc c390 163d
000000a0: 54a8 1bbb b931 143d b4f0 69bc c3b7 783c
000000b0: 7cf2 103d 983f 2dbd 283d 203d 76f6 e4bc
000000c0: d29b 9c3d 2f89 9c3c dfaa 823d 3f4d 9f3d
000000d0: 2864 493d c636 50bd 337b 413d 8bc7 8fbc
000000e0: 74c8 fc3c e52c 06bd 5d35 323d 5da8 3cbc
000000f0: 5875 99bc 391f 81bc e2ee a0bb 0c5e 5c3d
00000100: a2b2 d23a 971f ba3d d0a8 3c3c 9b23 863d
00000110: 8aae 00bd bab1 323c 9af1 a2bc 90bd 29bd
00000120: c64d 0d3d 8908 afbc 2ef7 e5bb 7559 833d
00000130: 63f1 443d 8e2b 1a3c d29c 973c 64f3 8cbc
00000140: f5ef f2bc 5f2c f43c f263 713d d6a2 923d
00000150: ee4a 6abc c78a d0bc 36cf 3f3d 58da 583d
00000160: 1050 263d d6a5 3a3d 8ebf 4a3c 730f 3c3d
00000170: 5519 85bc 1904 713c 32a3 923d 93d6 d33c
00000180: 6662 5f3d bebf 353b e4dd 643b 3602 803d
00000190: 968b b83d 97ce 293c 6465 273d 34c6 2fbd
000001a0: 5f6a 90bc 2766 da3c 0f7b 523d 34fa ac3c
000001b0: b62c 5abd 6be2 46bd da65 3b3d 08ed c3bc
000001c0: e3f3 61bb 7656 3ebd 2a23 d63c 7d23 853d
000001d0: 855e 8a3d ad60 d5bc f884 e53d 2786 8e3d
000001e0: 30d2 6cbc e260 3c3d 2a0d 22bd a8fd 843d
000001f0: 36e3 b23c d0fa 333d 829a b3bc aa99 8cbc
-0.060222596 0.044690575 0.006918416 0.03864698 0.034762934 -0.0046557286 0.018851653 -0.009838339
-0.039714534 0.039682966 0.024548177 0.0076793684 -0.043621402 0.079327166 -0.03552794 0.010786622
-0.03002417 -0.059473794 -0.02643985 0.04226006 -0.014942573 0.010136621 -0.016370611 -0.028465439
-0.02902943 0.04035329 -0.026173119 0.05897666 -0.022469083 0.007628122 -0.033483207 0.06212932
0.048383713 -0.006728956 0.03231055 -0.017658824 -0.03707656 0.044027515 -0.015873851 0.03675915
-0.0023751454 0.03618023 -0.0142785795 0.015180531 0.0353875 -0.042296976 0.039120823 -0.027949553
0.07646908 0.019108383 0.06380247 0.077784054 0.049167782 -0.050833486 0.047236633 -0.017551204
0.030857302 -0.03275766 0.043507922 -0.01151475 -0.018732712 -0.015761958 -0.0049112896 0.053800628
0.0016074965 0.090880565 0.011514857 0.0654976 -0.031416453 0.010906631 -0.019890595 -0.041440547
0.034498 -0.021366375 -0.0070179915 0.06413547 0.048081767 0.009409798 0.018507395 -0.017205901
-0.029655436 0.029806314 0.058933206 0.07159965 -0.014300091 -0.0254568 0.04682847 0.052942604
0.040603697 0.04556831 0.012374772 0.04591317 -0.01624743 0.01471045 0.07160033 0.025859153
0.0545372 0.0027732695 0.0034922296 0.06250422 0.09010999 0.010364196 0.040868178 -0.04291363
-0.017628847 0.026660038 0.05138689 0.0211154 -0.053265296 -0.048555773 0.04575143 -0.023916736
-0.0034477643 -0.046469174 0.026139814 0.065009095 0.067563094 -0.026047075 0.112070024 0.06959181
-0.0144544095 0.045990832 -0.039563335 0.064936936 0.021836858 0.043940365 -0.021924261 -0.017163116

critic.network_body.linear_encoder.seq_layers.2.weight f4 [128, 128]
00000000: c9ab 503d c4a7 ed3c e80d 543d eb7c 333d
00000010: 387e 7f3c a577 c4bd fc29 123e 48b6 09be
00000020: b044 9a3d 40e1 963d 6915 013e da32 1abd
00000030: ce0e 1ebb 1ee9 7fbc 65da 25be cb15 03be
00000040: 5837 b4bc 59dc 05bd be6e 323d 6919 54bd
00000050: cfef 7d3d 4f50 5a3d 776a cabd 92b4 f63b
00000060: 4f47 cebd 0408 6a3d 9a3c b13d 247d 39bd
00000070: edd6 e6bc 71bd 6e3d 8871 113e 94af 2bbd
00000080: 89fb 583d c540 55bd d527 0c3d e1cd d8bc
00000090: 4938 183e 7973 813d dccb e1bc 318d 2c3e
000000a0: 9659 36bc 0efb a03c ac09 d63d 6172 133d
000000b0: bd5c a33d f1d0 c53d 25bd d63d 6a3a a43c
000000c0: 98b3 23bd 7b63 28bd 4dfd f7bc bac7 f9bc
000000d0: b9ec 633d 7238 8dbc e5c6 673d bdca acbd
000000e0: 472d cebd 6ced 17bd 6347 b43c 26f6 a33c
000000f0: 1154 933d 1784 30bd ecec ee3d 775f a23d
00000100: 3d2f 2cbe c063 693e a7cb ddbb fe6c 073d
00000110: a506 723c 88c0 753d ce07 d93d 5c22 f03d
00000120: c0d1 5c3c d30c af3d 9f0e 82bc b317 b53d
00000130: ade5 ab3d b73a d93d 1589 89bb 3ccc 7abd
00000140: 3868 79be 3581 fdba 18aa 50bd 24cf 6e3d
00000150: 0634 0fbe adfd d8bd c716 e03c 6f0c 913c
00000160: 187f 7dbd ad89 583d 48c3 653a ac52 c73d
00000170: b60f 853d fcf2 a0bc e836 c73d 2f55 6abd
00000180: 19b0 5cbd 4d15 f63c 109a b6bd b033 37be
00000190: 2608 aebd 5980 153e 872e ca3d 0d89 d3bc
000001a0: 739e 58bd f508 10bd 151d 683e 393c 1e3e
000001b0: 2d7e ca3d ddb6 e5bd ec06 e43d 75bd cbbd
000001c0: 91d0 4ebd 2c8e 8cbd 6f03 da3c 2977 033e
000001d0: ce82 933c 49c7 d03c a674 c23d 2a90 1b3e
000001e0: e3af 5a3d 8fee d23d 694b ef3c 5449 513d
000001f0: d028 af3d d4f4 a83d dccb 90ba 0604 c6bd
00000200: df9c 91bc 054d bfbd b5f9 a83c 4dc1 88bc
00000210: 3089 04be 83b7 593d dc0f c7bd 5f53 803d
00000220: 9897 de3a 6fa8 29bd af33 de3d c2d7 34bd
00000230: 8e7a 32bc a11a 1ebe a12c f23d 207d 6ebd
00000240: 6987 3ebc b51c 5fbc f76f 953b 740a 0b3b
00000250: f61a 173d cc41 fcbd c7ff 463d 6dad b83a
00000260: bfa3 8f3d a525 6dbe 7a01 58bd e2cf 80bd
00000270: 2537 053e db74 1cbc a796 4ebb 1f2a a0bd
00000280: 00ba 2a3c 3f91 6cbd feaf 12be 9e0d b53d
00000290: fd8a 3ebe 4834 c4bd 4d0a 5f3e d982 dbbd
000002a0: 5ecb 63bb 8e17 3dbe fc44 af3d 233a 4a3d
000002b0: 76ff 59be 2399 133e 4cd3 0bbe a559 c83d
000002c0: ef6c debd 3b79 453d f892 2abe 62df c3bd
000002d0: 120c f0bd 026a 6dbd 72f8 32bd 7dbb 463d
000002e0: fe04 0b3e b9fb cdbc c1f9 25bd 08ea 823d
000002f0: c53b f63d 5ef2 133e 0711 65bc 1192 bcbc
00000300: 87e8 e73d bc10 26be f231 053d b21b ffbd
00000310: 8f6a 2dbd 279a c03d 72d3 553c 1238 a6bd
00000320: 0b1f a8bd 20ff 93bc 873b 853d ff65 2ebd
00000330: e740 1fbe 9538 143e 970a 3dbd 35d6 91bd
00000340: d330 4f3e a6e3 213d c907 45ba 6204 383e
00000350: dc3b 783d 8339 b53d 9e15 44bd 9617 a73d
00000360: 78a8 8cbd 95ef c0bd f73e 6bbc eca6 0cbd
00000370: 1ca7 87bb 088e dd3d 0a0a 82bd 4a96 fdbc
00000380: b3d2 193e 9ad8 1e3e e051 ef3d cc4d 6fbe
00000390: 349b c8bd a699 2f3e cebf d83d c04d 5cbe
000003a0: c91a 8fbd 9f6b 26bc a2fd c2bd c676 ad3d
000003b0: 0a73 42bd 7996 00be a460 793d e2b3 2dbc
000003c0: b4e9 5a3d 9d5c bdbd 44d5 c53d 550b 44be
000003d0: 6fbf 093d fd1a 8a3e db5f eabd 8b17 a43d
000003e0: 3ec3 7dba 3c4c 3b3d cd5d 8c3d a9f8 e63d
000003f0: 6a96 d23a 1798 c9bd 38bd 6a3c d5e3 b23d
0.050945077 0.029010661 0.051771075 0.043820303 0.015594058 -0.09593133 0.14273828 -0.13448441
0.07532632 0.07367182 0.12605824 -0.037646152 -0.002411771 -0.015619544 -0.16196592 -0.12801282
-0.021999046 -0.032680843 0.043562643 -0.051782046 0.061996277 0.053299244 -0.09883588 0.00752885
-0.10072195 0.05713655 0.08654137 -0.04528536 -0.028178656 0.058286134 0.14203465 -0.04191549
0.052974258 -0.052063722 0.034217674 -0.026465358 0.14865221 0.06320853 -0.027563028 0.16850735
-0.011129757 0.019650962 0.104510635 0.035997752 0.07976673 0.09658993 0.10485295 0.020047385
-0.039966196 -0.041110497 -0.03027215 -0.030490745 0.05564568 -0.01723883 0.056586165 -0.08437107
-0.1006723 -0.037091658 0.022006696 0.020014834 0.07193769 -0.04309472 0.11666283 0.07928365
-0.16814895 0.22791958 -0.006768662 0.033062927 0.014772092 0.059998065 0.10597192 0.117253035
0.013477743 0.08547368 -0.015876113 0.08842411 0.083934166 0.10606902 -0.0041972497 -0.06122993
-0.24356163 -0.0019340875 -0.050943464 0.058303013 -0.13984689 -0.1059526 0.027354611 0.017706124
-0.061888784 0.052865673 0.0008764756 0.09732565 0.06497137 -0.019647114 0.097272694 -0.057210144
-0.053878877 0.030039454 -0.08916104 -0.17890811 -0.08497648 0.14599742 0.09872156 -0.025822187
-0.052885484 -0.035164792 0.22667344 0.1545266 0.09887347 -0.11216519 0.11134133 -0.099482454
-0.050491873 -0.06863055 0.026612965 0.12838425 0.018006708 0.025485652 0.09494905 0.15191713
0.053390395 0.10299408 0.029210763 0.05109532 0.08552706 0.08249822 -0.0011047083 -0.09668736
-0.017774997 -0.09340862 0.020626882 -0.016693735 -0.12942958 0.053153526 -0.09719822 0.06265902
0.0016982434 -0.041420396 0.108497016 -0.044151075 -0.010893477 -0.15439846 0.118249185 -0.058224797
-0.011628964 -0.013617684 0.0045604664 0.0021215947 0.036890946 -0.12317237 0.048583772 0.0014089771
0.07013654 -0.23158891 -0.052735783 -0.062896505 0.13009317 -0.009549345 -0.0031522901 -0.07820534
0.010420322 -0.057755705 -0.14324948 0.08840488 -0.18607707 -0.09580284 0.21781273 -0.107183166
-0.0034758667 -0.18466017 0.085580796 0.04937185 -0.21288857 0.14413886 -0.13654822 0.09782723
-0.10860621 0.048211318 -0.16657627 -0.09564091 -0.11721052 -0.057962425 -0.043693967 0.048518647
0.13576123 -0.025144445 -0.040521387 0.06392294 0.12023119 0.14447924 -0.01398111 -0.023018869
0.11323648 -0.16217321 0.032518335 -0.12456454 -0.04233795 0.09404402 0.013050901 -0.08116163
-0.08209046 -0.018065989 0.065054946 -0.04257774 -0.15552102 0.1447471 -0.046152677 -0.07120935
0.20233469 0.039523743 -0.00075161137 0.17970422 0.06060396 0.0884886 -0.04787218 0.081587955
-0.0686807 -0.09420697 -0.014358274 -0.034338877 -0.004139794 0.10818106 -0.06349571 -0.030955452
0.15021782 0.15512314 0.11685538 -0.23369521 -0.09795228 0.17148456 0.10583459 -0.21514034
-0.06987531 -0.010157495 -0.09521033 0.0846992 -0.04747299 -0.12557401 0.06088318 -0.010601969
0.053445533 -0.0924618 0.09659818 -0.19144948 0.03362983 0.26973715 -0.11444064 0.08012303
-0.00096802774 0.045727 0.068538286 0.11277897 0.0016066555 -0.09843462 0.01432734 0.08734862

critic.network_body.linear_encoder.seq_layers.2.bias f4 [128]
00000000: 1a57 ec3c 9852 d9bb 8c67 18bc d517 54bc
00000010: 4ccd 9f3d 7842 383d 8048 10bc b8e2 70bc
00000020: 17ca a93d 50e8 1d3d 4a44 87bb d54a afbc
00000030: 8492 c43c cc20 8e3d 70b2 79bc 022a 22bc
00000040: cf33 8c3d e50b 0e3d 7559 b03c 4f01 1e3d
00000050: 9be4 b8bb 6511 9fbb 8191 283d 2913 2b3d
00000060: 476d 2f3d 932b 143d f979 38bc ac5e 523d
00000070: 4688 20bc 9e37 4c3d 23f6 443d 7888 38bc
00000080: 3af7 9a3d 3fe8 8a3d 3c8a e1bc 4d3a 50bc
00000090: c788 883c 725d 593d 3bb0 323d e2da 083d
000000a0: 04bd 053d 481a 12bc ea70 98bc a52f 77bc
000000b0: ed3b 2e3d 5ad2 b4bb 119d 6e3d 449d 3c3d
000000c0: e1e4 c2bb fbe0 8d3d 79d3 f0bb 81ac 323d
000000d0: a35e 6b3d 01c6 56bc 880e 063d ade1 b83d
000000e0: 8a90 923d bf88 7c3c 1669 d1bb cabe 363d
000000f0: 8fce 44bc d598 43bc 2998 22bc c80c fabb
00000100: 10ab 383d f2ab 0ebc 261c 1d3d 8d1e 943d
00000110: e2ee 503d 6ed8 103d c74b b53d 4418 05bc
00000120: 9181 1bbc ba10 33bc dc0c c03c 9852 913d
00000130: 003c 45bc 250a febb 7158 3bbc 18fc 003d
00000140: 80dd c0bc 35a7 5fbc 5ca9 593d 1b0a 5a3d
00000150: 9a92 19bc 28de 023d cc7e 323d 37d2 173d
00000160: b629 a6bb 4e57 9ebc ce63 c33d db1b 0c3d
00000170: b326 563c 4853 173d 5933 eabb dedc 52bb
00000180: 5945 19bc 48f6 d23c 3d9a afbc 2666 7cbc
00000190: 273a 083d dcba fe3a 9d9d 2b3d 4847 61bc
000001a0: 92f9 223d 5a28 663d dbfe 05bb f00e 03bc
000001b0: 2048 8ebc 8d45 bcba d1ac 1cbc 7742 103d
000001c0: cff9 27ba 2860 85bc fd67 f8bb 6395 963d
000001d0: b0e1 243d 8d63 54bb dfb3 203d 4e4a 4b3d
000001e0: 0a75 1abc 01a3 563d 653e 89bc 4d23 76bc
000001f0: cf0a bdbb c13f 56bc 8719 373d e278 22bc
0.028850127 -0.0066321604 -0.009302031 -0.012945135 0.07802829 0.044985265 -0.008806348 -0.014702491
0.08290499 0.03855163 -0.0041280137 -0.021397987 0.023995645 0.06939849 -0.015240297 -0.009897711
0.06845819 0.034679312 0.021527031 0.038575467 -0.0056424863 -0.0048543685 0.04115439 0.04176632
0.042828824 0.036174368 -0.011259549 0.051359817 -0.009798115 0.04985773 0.048086297 -0.011263005
0.07566686 0.06782579 -0.027531736 -0.0127092125 0.016666783 0.053067632 0.043625098 0.033411868
0.032650962 -0.008917399 -0.01860853 -0.015087043 0.04253762 -0.00551824 0.05825526 0.046048418
-0.0059476946 0.06927677 -0.0073494283 0.043621544 0.0574633 -0.013108731 0.0327287 0.09027419
0.07156475 0.015413462 -0.006390701 0.044615544 -0.012012138 -0.011938293 -0.009923973 -0.007630918
0.045085013 -0.008707987 0.038356923 0.072323896 0.051009066 0.035362653 0.08852344 -0.008123461
-0.00949134 -0.010929281 0.023443632 0.07095832 -0.012038231 -0.007752674 -0.01143466 0.031490415
-0.02354312 -0.013650705 0.05314003 0.053232294 -0.009373331 0.031950146 0.043577954 0.03706571
-0.0050708903 -0.01932874 0.095405206 0.034206253 0.01307075 0.036944658 -0.0071472344 -0.0032175104
-0.009354913 0.025752202 -0.021435851 -0.015405213 0.033258583 0.001943435 0.04189836 -0.013749905
0.03978879 0.056190826 -0.0020446095 -0.007999167 -0.017368376 -0.001436399 -0.009562687 0.035219636
-0.0006407769 -0.016281202 -0.0075807557 0.07352712 0.040254295 -0.003240797 0.03923404 0.04963141
-0.009427318 0.052401546 -0.016753385 -0.015023065 -0.0057691108 -0.013076724 0.04470208 -0.009916516

critic.value_heads.value_heads.extrinsic.weight f4 [1, 128]
00000000: e344 07be 3c85 533e bc21 e53d 72ab 213d
00000010: 25e7 63be 29a3 28be c403 293e 2277 543e
00000020: cc47 74bd c386 49bd 9977 e93d e46e 2e3e
00000030: 201a 69bd 3dde debd 5e8f 883e ea7e 6f3e
00000040: 1634 04be 546a 10be da46 85bd 4dd7 4abe
00000050: 068a 473e 3a86 593e 7b1d 29be 1c9f 1bbe
00000060: dd0c 33be 896f 29be 2950 513e c60c 1abe
00000070: cc8a 383e 62a2 a0bd f0ac 8ebd 5d20 7b3e
00000080: f67e f2bd 65d7 e8bc d264 b93d babd 953d
00000090: 5646 133d e3a2 21bd 1f7c d3bd bee7 07be
000000a0: 5c59 c2bd 788c cf3d b37f be3d 43d7 4f3e
000000b0: 9dd7 03be 901e 373e c0d6 3bbe 6ff4 03be
000000c0: 42c1 603e 73e6 8abe 1e1e 7a3e 6cf1 11be
000000d0: 6f43 77bd 795d 8f3d c7b3 f0bd bb5d bbbd
000000e0: c189 ffbd be62 343d c9b1 893e 3254 a3bd
000000f0: 9bce 7a3e 283e ee3d 4cc0 6f3e 4fa4 8c3d
00000100: f0ec a1bd f0d0 413e 3569 19be 4a9c 23be
00000110: 190f 58bd 2f3f d4bd 0e2a 6cbe 57f8 7f3e
00000120: 883d 0b3e b916 2d3e c50d 69bd b95c 72be
00000130: 2807 593e 4794 873e b914 763e 5636 90bd
00000140: 159c 9c3d c18a 2a3e 7ba4 40be f8ec 87bd
00000150: 9a5c 1e3e 20f6 16be 4b31 01be 4d10 31be
00000160: 88c4 723e d479 fb3d d1f3 07be 0349 5ebe
00000170: d69e cd3c 70f0 ffbd bd35 273e 960c 6b3e
00000180: 40c0 013e d293 13be 1b74 ad3d e0da c93d
00000190: a3b5 30be 0023 723e 4e45 65be b631 683e
000001a0: c764 9fbd 2651 c4bd 1f62 7c3e d614 753e
000001b0: 757f 043e 165c 493e 72e1 ef3d dcfe f5bd
000001c0: 64c7 18bd 0a85 153e a878 1d3e 86ba dbbd
000001d0: 65a1 f5bd 4068 443e 4524 0cbe 7736 3abe
000001e0: 80db b23d c8ce 4fbe 8290 903e 15a7 3f3e
000001f0: f2cc 643e dc94 283e 3549 6cbd 1877 613e
-0.13209872 0.20656294 0.11188075 0.039470144 -0.22256143 -0.1646849 0.16505343 0.2074857
-0.059638783 -0.049200784 0.113997646 0.17034489 -0.05690968 -0.10882232 0.2667188 0.23388258
-0.12910494 -0.14103061 -0.065076545 -0.19808693 0.19486246 0.2124261 -0.16515152 -0.15197414
-0.17485376 -0.16546454 0.20440735 -0.15043935 0.18021697 -0.07843472 -0.06966579 0.24524064
-0.11840622 -0.02842302 0.09052433 0.07311578 0.03595575 -0.03946198 -0.103264086 -0.13271996
-0.094897 0.10134214 0.093017004 0.2029696 -0.12875219 0.17882752 -0.1834364 -0.12886213
0.21948722 -0.27128944 0.24425551 -0.14252251 -0.060367044 0.0700025 -0.1175304 -0.09148737
-0.12477446 0.04403948 0.26893452 -0.07975043 0.24492876 0.11632949 0.23413199 0.06867277
-0.0790652 0.1892736 -0.1498154 -0.15977588 -0.052748773 -0.10363614 -0.23062918 0.24997078
0.13597691 0.169032 -0.056897897 -0.23668183 0.21194136 0.26480314 0.24031343 -0.07041614
0.07646958 0.16654493 -0.18812744 -0.06636995 0.15465012 -0.14742327 -0.1261646 -0.17291375
0.23707783 0.12279096 -0.13276602 -0.2170754 0.025100153 -0.12497032 0.16329093 0.2295402
0.12670994 -0.14411858 0.08469411 0.098562 -0.17256789 0.23646164 -0.22389719 0.22675213
-0.07782894 -0.0958579 0.24646805 0.2393373 0.12939246 0.19664034 0.11712922 -0.12011501
-0.03729953 0.14601532 0.15378058 -0.10728936 -0.11993674 0.19180393 -0.1368571 -0.18184839
0.087332726 -0.20293725 0.2823525 0.1871608 0.22343805 0.16463035 -0.057687003 0.22018087
