results/MovingObstacles_GAIL_20/BasicAgent/BasicAgent-2818027.pt (torch, 966503 bytes, 41 tensors)

network_body.linear_encoder.seq_layers.0.weight f4 [128, 156]
0.0046624877 0.1369327 -0.26765272 0.32076153 -0.1617759 -0.23320967 -0.12066521 -0.17352432
-0.06528583 0.32523954 -0.27285814 -0.011210748 -0.11304354 0.05214563 -0.0031339717 0.3888203
-0.17087922 -0.058530234 -0.4146678 0.11085184 -0.015506284 -0.03699266 0.1517404 0.04516041
-0.048885375 0.043744422 -0.07457933 -0.517397 0.32548365 0.21026044 -0.031787235 0.045643996
-0.024820462 -0.528547 0.24359916 0.21470422 0.074605174 0.06145342 -0.07607472 -0.7067977
0.34590948 0.10100542 -0.4247519 0.065605156 -0.059510913 -0.39467335 0.23228385 0.18645893
-0.22359058 0.029800005 -0.04964655 0.10376245 -0.0038922385 0.12063396 -0.1227359 0.03012312
-0.033437256 0.46466962 -0.09609963 0.07431074 -0.2936885 0.3607654 0.1504089 0.27274686
0.023386598 0.07840878 0.31322494 0.006502474 -0.09531184 0.24068587 -0.049545288 -0.05911442
0.32002875 -0.026866661 -0.09138563 -1.3329388 0.3379808 -1.0098785 0.41677877 0.1614518
-0.0032820883 -1.4989341 0.2741329 -0.96516067 0.69342124 0.084652476 -0.18816288 -1.0778495
0.0092247045 -0.63387024 0.69592714 -0.008759197 0.12000605 -0.978469 -0.040312 -0.28818244
0.62491196 -0.5700317 0.35532528 -0.8507677 0.08947996 -0.22065975 0.6723742 0.4093256
0.15117036 -1.0152262 -0.06542798 -0.009017167 0.6378843 -0.07161349 0.52808344 -0.23594679
0.100892454 -0.02660678 -0.36096087 -0.17096694 -0.07076364 -0.074282065 -0.04030973 0.010839887
-0.16817285 0.11138469 0.06155892 0.33643746 -0.05545849 0.07947602 0.043615602 0.12832132
-0.05106897 0.061302073 0.05409966 -0.0011290349 0.38047755 -0.07192437 0.09499007 -0.005081631
-0.035852898 0.035463266 0.32579803 0.05570382 -0.08279966 -0.048855107 -0.037424847 -0.065549985
0.503457 -0.10937188 -0.022291932 0.1238312 0.031651463 -0.11093417 0.41708234 -0.07507048
0.062231246 -0.01185359 -0.097820684 -2.3375747 -0.3418905 -0.05804653 0.02838221 -0.95346427
0.23397046 0.020977983 0.017741136 -0.12811998 0.11638235 -1.4175521 0.7256105 0.31691763
0.56628066 -0.47542056 -0.11704168 -0.5163635 0.19634157 0.030727115 -0.12122482 -0.0041273586
0.015110625 -0.21534106 0.072336756 0.12808141 -0.22876026 0.09801751 0.0824677 -0.11273966
-0.14986986 0.065293305 -0.3280803 0.31420338 0.022128865 0.08263316 -0.13214487 0.094503835
-0.3583671 0.0498388 -0.032620247 -0.43965954 0.0823876 0.097041234 -0.6702579 0.16421375
0.116193816 -0.5958977 0.2333198 0.02762581 -0.053245127 0.0643125 0.076517254 -0.65827787
0.18064846 -0.05490091 -0.28761315 0.16047865 0.058621902 0.35520408 -0.08196208 -0.07962347
-0.10839002 0.17072137 0.06584427 -0.26431063 0.222016 0.041635122 0.04603523 -0.0005215406
0.061860442 -0.6078924 0.16091622 0.21925074 -0.5142232 0.12708138 0.070081 0.053281926
-0.26697475 0.40784442 0.6306451 0.18840112 0.8247526 -0.17508972 -0.4179404 -0.74923766
0.70197016 -0.0064950585 0.9130673 -0.14391486 -0.2016314 -0.7518254 0.44928417 0.015088635
0.3737703 -0.29088646 -0.15915279 -0.24759509 0.22465627 -0.93652177 0.14913203 -0.6244526
00000000: c8c7 983b 1638 0c3e c709 89be db3a a43e
00000010: 95a8 25be 84ce 6ebe 521f f7bd 5cb0 31be
00000020: 94b4 85bd cc85 a63e 10b4 8bbe 49ad 37bc
00000030: 5f83 e7bd a896 553d 5263 4dbb 7413 c73e
00000040: f6fa 2ebe 66bd 6fbd 564f d4be 4a06 e33d
00000050: 120e 7ebc 9e85 17bd d661 1b3e 1ffa 383d
00000060: 083c 48bd 5a2d 333d 0cbd 98bd 2174 04bf
00000070: cba5 a63e 834e 573e 5533 02bd 33f5 3a3d
00000080: 4854 cbbc db4e 07bf 0f72 793e 6cdb 5b3e
00000090: 99ca 983d 95b6 7b3d 10cd 9bbd b2f0 34bf
000000a0: 0c1b b13e eedb ce3d 1579 d9be ff5b 863d
000000b0: b7c1 73bd a012 cabe d1db 6d3e 17ef 3e3e
000000c0: eef4 64be 241f f43c 2e5a 4bbd 6881 d43d
000000d0: ed14 7fbb f00e f73d f65c fbbd c3c4 f63c
000000e0: 81f5 08bd 2de9 ed3e e2cf c4bd 3b30 983d
000000f0: 575e 96be 3eb6 b83e ca04 1a3e 7aa5 8b3e
00000100: 4095 bf3c c894 a03d 055f a03e b512 d53b
00000110: db32 c3bd 5b76 763e 00f0 4abd f621 72bd
00000120: cfda a33e 7917 dcbc 6428 bbbd bd9d aabf
00000130: d20b ad3e b343 81bf 0764 d53e 9f53 253e
00000140: 4e18 57bb 13dd bfbf 265b 8c3e c514 77bf
00000150: 0e84 313f 475e ad3d c5ad 40be f9f6 89bf
00000160: 3723 173c 5245 22bf 4828 323f bc82 0fbc
00000170: bbc5 f53d f27c 7abf 321e 25bd a68c 93be
00000180: 3bfa 1f3f 99ed 11bf 32ed b53e e9cb 59bf
00000190: 4541 b73d a1f4 61be b720 2c3f 2093 d13e
000001a0: 67cc 1a3e eff2 81bf 1bff 85bd bdbc 13bc
000001b0: 634c 233f 18aa 92bd 7a30 073f 099c 71be
000001c0: b4a0 ce3d 76f6 d9bc ddcf b8be f511 2fbe
000001d0: 87ec 90bd 3221 98bd d11b 25bd c899 313c
000001e0: 8135 2cbe a81d e43d 3525 7c3d 8841 ac3e
000001f0: 7128 63bd 53c4 a23d 46a6 323d aa66 033e
00000200: b22d 51bd e217 7b3d 9b97 5d3d 20fc 93ba
00000210: f4cd c23e 164d 93bd 278a c23d cf83 a6bb
00000220: 7dda 12bd ee41 113d 00cf a63e b029 643d
00000230: de92 a9bd 4b1c 48bd cc4a 19bd 123f 86bd
00000240: 8fe2 003f 5dfe dfbd 929d b6bc 369b fd3d
00000250: f7a4 013d 7431 e3bd d18b d53e 8dbe 99bd
00000260: 31e6 7e3d 8f35 42bc 3656 c8bd d39a 15c0
00000270: 460c afbe 33c2 6dbd cf81 e83c 3c16 74bf
00000280: f495 6f3e 05da ab3c dc55 913c e231 03be
00000290: df59 ee3d 5972 b5bf 9cc1 393f 0743 a23e
000002a0: c5f7 103f 536a f3be 8cb3 efbd 6630 04bf
000002b0: c40d 493e 6eb7 fb3c b844 f8bd cb3e 87bb
000002c0: 8e92 773c 5e82 5cbe 4b25 943d c627 033e
000002d0: 2140 6abe 67bd c83d d3e4 a83d 0de4 e6bd
000002e0: 7c77 19be 7fb8 853d 24fa a7be 44df a03e
000002f0: 9847 b53c 933b a93d fc50 07be 3a8b c13d
00000300: e47b b7be c523 4c3d cf9c 05bd 0e1b e1be
00000310: d4ba a83d 8ebd c63d 0696 2bbf a627 283e
00000320: 06f7 ed3d c08c 18bf 63eb 6e3e 864f e23c
00000330: 9017 5abd 46b6 833d 14b5 9c3d e684 28bf
00000340: e9fb 383e c7df 60bd 0842 93be 8454 243e
00000350: 851d 703d 4fdd b53e bcdb a7bd a111 a3bd
00000360: 96fb ddbd 95d1 2e3e 5cd9 863d b953 87be
00000370: 2a58 633e 9789 2a3d 708f 3c3d ffb7 08ba
00000380: 6061 7d3d d69e 1bbf 39c7 243e 4483 603e
00000390: 22a4 03bf 9f21 023e a186 8f3d 263e 5a3d
000003a0: eab0 88be fcd0 d03e f571 213f 39ec 403e
000003b0: fd22 533f b84a 33be 49fc d5be 0ace 3fbf
000003c0: 51b4 333f 80d4 d4bb c7be 693f 6b5e 13be
000003d0: 7678 4ebe a177 40bf 9308 e63e 5236 773c
000003e0: d25e bf3e 12ef 94be f3f8 22be 9189 7dbe
000003f0: 4b0c 663e e4bf 6fbf 11b6 183e 20dc 1fbf

network_body.linear_encoder.seq_layers.0.bias f4 [128]
-0.008357825 0.0463271 -0.025712073 -0.005827858 -0.0745047 0.010872553 0.016483352 -0.035390414
0.0042553307 0.057125393 -0.017498752 -0.12846482 0.06269379 -0.17433657 -0.008163822 -0.009118847
-0.008628898 -0.0026352468 0.03303658 0.04989803 -0.29438207 0.051636443 0.057235923 -0.19406839
0.030898314 0.024644427 0.030309042 -0.02837474 0.014555983 0.017169302 -0.03914498 -0.19654599
0.027247228 -0.012951512 0.04026038 0.041248307 0.026811084 0.088427745 0.044547632 0.012096503
-0.010216841 0.005742814 -0.32407936 -0.013473965 0.07214132 -0.08785407 -0.0058069904 -0.04633252
-0.09760488 0.037865892 0.020592531 0.0051877825 -0.056255225 -0.0737181 -0.0046422947 -0.11826561
0.0024108235 -0.026965458 0.050152868 0.00284303 -0.035422172 -0.13261674 -0.0730815 0.03318232
0.0022729395 -0.13945042 -0.1050593 0.040471915 0.005601217 0.0979811 -0.09778992 -0.061940074
0.060908835 -0.0074049137 0.061658308 -0.10888917 0.014671209 -0.0103248125 0.05916511 0.018951746
0.03895345 0.04732434 -0.21926284 -0.0067216833 -0.059580687 -0.014133925 -0.011394573 -0.11054931
-0.076874554 -0.12037361 0.0021927175 -0.14859562 0.0067009707 -0.0012091799 -0.009377576 -0.0017215426
-0.010599607 0.019256342 -0.05145547 0.0053811623 0.07075035 -0.014427931 -0.013769959 -0.19758125
-0.009346211 0.04357757 -0.003681554 0.04747559 -0.05554078 -0.02444756 -0.036083747 0.021949792
0.04311527 -0.04526069 -0.012786913 -0.4112664 -0.003608356 -0.09686564 0.03248537 -0.030638497
-0.019932177 0.011967624 0.00018541711 0.05073401 -0.12428609 -0.01443222 -0.0030779417 0.071909375
00000000: 42ef 08bc 7cc1 3d3d 20a2 d2bc 9ef7 bebb
00000010: ec95 98bd cb22 323c 1808 873c 8af5 10bd
00000020: 4d70 8b3b 51fc 693d 8b59 8fbc 488c 03be
00000030: 9a65 803d 4985 32be 8dc1 05bc 3767 15bc
00000040: 3960 0dbc 1bb4 2cbb 5d51 073d e061 4c3d
00000050: 3fb9 96be bc80 533d 3770 6a3d ddb9 46be
00000060: 761e fd3c 1ce3 c93c ab4a f83c 2572 e8bc
00000070: 387c 6e3c a3a6 8c3c 7d56 20bd 5a43 49be
00000080: 9435 df3c 9432 54bc 11e8 243d fcf3 283d
00000090: eba2 db3c 9b19 b53d 9477 363d 6930 463c
000000a0: 8964 27bc 372e bc3b bbed a5be e8c1 5cbc
000000b0: d4be 933d d6ec b3bd 9148 bebb 2bc7 3dbd
000000c0: 11e5 c7bd 4419 1b3d abb1 a83c 46fe a93b
000000d0: e16b 66bd 84f9 96bd 641e 98bb 3d35 f2bd
000000e0: e8fe 1d3b aae6 dcbc 186d 4d3d 2152 3a3b
000000f0: d716 11bd afcc 07be c1ab 95bd 2fea 073d
00000100: 99f5 143b 17cc 0ebe 5529 d7bd e1c5 253d
00000110: 6a8a b73b 51aa c83d 1546 c8bd e0b4 7dbd
00000120: 8b7b 793d eba4 f2bb 6c8d 7c3d 4901 dfbd
00000130: 835f 703c 6729 29bc 1d57 723d b140 9b3c
00000140: a78d 1f3d 2bd7 413d 7086 60be 9141 dcbb
00000150: e10a 74bd fa91 67bc 4eb0 3abc ad67 e2bd
00000160: 6870 9dbd 7086 f6bd b2b3 0f3b 7329 18be
00000170: d193 db3b 587d 9eba 68a4 19bc 62a5 e1ba
00000180: f9a9 2dbc 7abf 9d3c f9c2 52bd 7654 b03b
00000190: 8fe5 903d 2163 6cbc 659b 61bc bd52 4abe
000001a0: da20 19bc 657e 323d 3a46 71bb c475 423d
000001b0: bb7e 63bd 4046 c8bc 8dcc 13bd 0dd0 b33c
000001c0: a399 303d 4663 39bd 3380 51bc 8291 d2be
000001d0: 2b7a 6cbb 7e61 c6bd 610f 053d 96fd fabc
000001e0: ce48 a3bc da13 443c 876c 4239 77ce 4f3d
000001f0: b589 febd 1e75 6cbc 4bb7 49bb 3945 933d

network_body.linear_encoder.seq_layers.2.weight f4 [128, 128]
-0.31920797 0.18669121 -0.09652739 0.30761498 -0.006710212 -0.113027714 -0.07212833 0.250228
0.0558023 0.33946833 0.2638249 0.0829545 -0.33668616 0.25207496 0.13588673 -0.03584189
-0.4144493 -0.017553253 -0.10960396 -0.059577286 -0.16818573 0.406449 -0.24330463 -0.21127062
0.3289311 0.2489951 -0.2275094 0.29584593 -0.1750535 0.02188616 0.035420083 -0.027676448
-0.33353114 0.4710166 0.08330231 -0.19279462 -0.0032988964 -0.3977194 0.21373981 0.054007705
0.051853202 -0.20699364 0.1609772 0.30800155 0.2874547 0.06650834 0.12881319 0.012395218
0.32662866 0.10695719 -0.040669497 -0.20929149 -0.3820525 -0.020140646 -0.074675776 0.107787065
-0.25748733 -0.11183226 -0.01178984 -0.17377216 0.052108396 -0.06824923 0.04495085 0.06233017
0.19394468 -0.18221872 -0.16254847 -0.023781555 -0.17840505 -0.064769946 -0.33963844 0.4889105
0.57563186 -0.084709845 0.15151961 0.43768668 0.25103486 0.016443282 -0.25833037 -0.012263015
0.06273527 -0.238285 -0.016915923 -0.585251 0.41394943 0.42426753 -0.2609368 -0.19247767
0.17001367 -0.028105777 0.23751707 0.20406891 -0.19205907 0.10368367 0.0014559091 0.27332103
0.30671373 -0.0019254448 -0.061328344 0.6256345 -0.14652364 0.1776363 -0.14160831 0.13506015
0.18844631 0.21827064 -0.1713019 0.21931328 -0.34059384 0.20849761 -0.12941058 0.46259865
-0.2453214 -0.024783311 0.046994712 -0.016986387 -0.25115088 0.5091531 0.0475131 -0.23081249
0.15236072 0.12049702 0.30684152 0.16644873 -0.04778542 0.034981012 -0.06205816 0.8152718
-0.283979 -0.058281165 0.3630145 0.21640931 -0.17753175 0.21792711 0.03832059 -0.030250652
0.12464475 -0.21177556 -0.09417078 0.14406602 0.032620426 -0.05236356 -0.037229616 0.30022556
-0.09802852 -0.092116445 0.11809263 0.19242206 0.061056606 -0.063494295 -0.1411157 0.65422744
0.6477828 -0.26338947 -0.011393957 -0.2911121 -0.023475954 -0.040218055 0.26171163 0.32207403
-0.13841806 0.004189859 0.18461108 -0.043548536 0.17863925 0.11386041 0.37735617 -0.2370375
0.46921018 -0.149279 -0.04992811 -0.13427666 -0.21520509 0.28861648 0.19350132 0.2150003
0.42822564 -0.08710583 0.074379206 0.42030513 0.48142427 -0.50270444 -0.1987553 -0.1597241
-0.39297226 -0.084838204 0.29726604 0.12616818 0.18293202 -0.087145306 0.118043825 -0.2533425
-0.28373078 0.54187477 0.20098597 -0.74329716 -0.002773966 -0.34893763 0.05371043 0.18140645
-0.30809695 0.44236025 0.021052485 -0.49430966 0.01614912 0.20135155 -0.5585918 -0.01101115
-0.63010925 -0.19285317 0.021787371 0.32784325 0.14802207 0.030819913 -0.14961372 0.2612017
0.29881626 0.112246834 -0.016724482 -0.2647155 -0.22549354 0.27808163 -0.39237985 0.1298066
-0.08183544 -0.43921357 -0.08021921 0.1617839 -0.33322254 0.30406827 -0.26413557 0.03139577
0.5968872 0.119364016 -0.3844865 -0.11901807 0.010849602 -0.09754723 0.13535355 -0.286579
0.15491314 0.1778713 0.3444332 -0.12686802 -0.018546935 -0.040090844 0.1726657 -0.34264055
0.09621074 -0.44207653 -0.32442337 0.11506288 0.07382656 0.2981011 0.4984604 -0.11926032
00000000: 3a6f a3be fb2b 3f3e 27b0 c5bd b67f 9d3e
00000010: 57e1 dbbb 137b e7bd 05b8 93bd e21d 803e
00000020: f490 643d cbce ad3e 0f14 873e 0de4 a93d
00000030: 2162 acbe f80f 813e e425 0b3e f2ce 12bd
00000040: b332 d4be d7cb 8fbc 0a78 e0bd 5007 74bd
00000050: e138 2cbe 151a d03e d924 79be 5357 58be
00000060: a869 a83e 92f8 7e3e 39f8 68be 1e79 973e
00000070: 3a41 33be 9b4a b33c a614 113d b8b9 e2bc
00000080: 98c4 aabe 1629 f13e 679a aa3d f46b 45be
00000090: 4c32 58bb e1a1 cbbe 9cde 5a3e 2f37 5d3d
000000a0: 0664 543d 24f6 53be 35d7 243e 61b2 9d3e
000000b0: 432d 933e 8635 883d 9be7 033e 5015 4b3c
000000c0: df3b a73e 5f0c db3d 0f95 26bd 8250 56be
000000d0: 639c c3be fffd a4bc 9def 98bd 77bf dc3d
000000e0: 61d5 83be 5008 e5bd 2c2a 41bc 54f1 31be
000000f0: 9d6f 553d 41c6 8bbd 621e 383d ec4d 7f3d
00000100: 6f99 463e 8b97 3abe 1b73 26be 89d1 c2bc
00000110: d0af 36be 1ba6 84bd 17e5 adbe 7a52 fa3e
00000120: 9c5c 133f 5b7c adbd f527 1b3e 7818 e03e
00000130: a487 803e 10b4 863c e143 84be d0ea 48bc
00000140: 597b 803d fc00 74be 4393 8abc 02d3 15bf
00000150: 2ef1 d33e 9839 d93e 8299 85be de18 45be
00000160: 1018 2e3e 163e e6bc ad37 733e 71f7 503e
00000170: 22ab 44be 1b58 d43d 34d4 be3a bcf0 8b3e
00000180: 9509 9d3e 355f fcba 6e33 7bbd 9529 203f
00000190: 4b0a 16be 4ae6 353e c501 11be 354d 0a3e
000001a0: 12f8 403e 5782 5f3e c469 2fbe a993 603e
000001b0: 5162 aebe 6680 553e 3584 04be bbd9 ec3e
000001c0: 8835 7bbe 5f06 cbbc 877d 403d 0927 8bbc
000001d0: d996 80be dc57 023f 199d 423d 1c5a 6cbe
000001e0: 7304 1c3e 24c7 f63d 551a 9d3e 8971 2a3e
000001f0: a5ba 43bd 4048 0f3d b230 7ebd a7b5 503f
00000200: b265 91be 3bb8 6ebd 09dd b93e 679a 5d3e
00000210: e2ca 35be 4928 5f3e 0df6 1c3d 37d0 f7bc
00000220: bf45 ff3d b1db 58be 9cdc c0bd 0b86 133e
00000230: ff9c 053d 2c7b 56bd 157e 18bd 2ab7 993e
00000240: 2dc3 c8bd 8ca7 bcbd 8cda f13d 4a0a 453e
00000250: 7e16 7a3d 4c09 82bd a280 10be 737b 273f
00000260: 18d5 253f fcda 86be b8ad 3abc a50c 95be
00000270: a550 c0bc b0bb 24bd 11ff 853e e3e6 a43e
00000280: 77bd 0dbe 164b 893b b00a 3d3e f35f 32bd
00000290: 35ed 363e a62f e93d d434 c13e f5b9 72be
000002a0: 513c f03e 98dc 18be 6b81 4cbd d27f 09be
000002b0: b95e 5cbe 8ac5 933e 3625 463e 0a29 5c3e
000002c0: 6440 db3e 8b64 b2bd 2054 983d 3c32 d73e
000002d0: 3e7d f63e 3db1 00bf 8286 4bbe b78e 23be
000002e0: a933 c9be a7bf adbd 4133 983e 3b32 013e
000002f0: 8852 3b3e 3d79 b2bd f6c0 f13d 1cb6 81be
00000300: 2945 91be 4eb8 0a3f 44cf 4d3e b948 3ebf
00000310: 6dcb 35bb f4a7 b2be 78ff 5b3d 9dc2 393e
00000320: e2be 9dbe 0b7d e23e 4376 ac3c 2816 fdbe
00000330: 294b 843c 1a2f 4e3e dfff 0ebf 1c68 34bc
00000340: d74e 21bf 4d7b 45be 6e7b b23c 12db a73e
00000350: 1993 173e 0b7a fc3c 5734 19be 3bbc 853e
00000360: 72fe 983e abe1 e53d c801 89bc ca88 87be
00000370: c7e7 66be b760 8e3e 03e6 c8be 05ec 043e
00000380: 5799 a7bd 9ae0 e0be f849 a4bd aeaa 253e
00000390: 259c aabe d6ae 9b3e c73c 87be da98 003d
000003a0: 99cd 183f 1f75 f43d 6adb c4be bfbf f3bd
000003b0: 87c2 313c d8c6 c7bd 1f9a 0a3e 7cba 92be
000003c0: 8da1 1e3e e523 363e 8c59 b03e b1e9 01be
000003d0: beef 97bc 4c36 24bd 47cf 303e 956e afbe
000003e0: 230a c53d db57 e2be d21a a6be 16a6 eb3d
000003f0: 6132 973d b5a0 983e 3436 ff3e c13e f4bd

network_body.linear_encoder.seq_layers.2.bias f4 [128]
-0.025145015 -0.1537228 0.0006408912 -0.14221105 -0.04329328 0.12714075 -0.21486767 -0.30677837
0.007698312 -0.18380871 -0.23846543 0.087808944 -0.09975139 0.051797394 -0.16461861 -0.07801536
-0.18685411 0.07790878 -0.1978714 -0.01761141 -0.0723589 -0.37679186 0.09293514 -0.1357041
-0.27499524 0.13888723 -0.028865365 -0.12220246 -0.06365421 -0.12062044 -0.19842756 -0.18352127
0.08550312 -0.15730335 0.011955955 -0.18693434 0.010350578 -0.0633154 -0.1313542 -0.18246676
-0.24315843 0.08938913 -0.035180643 -0.12110892 0.35350278 0.06238127 -0.15413846 0.012692797
-0.27296636 -0.12030653 -0.122233585 -0.14204243 -0.15453388 0.035683174 0.019792303 0.030808566
-0.10909621 -0.09024488 -0.106624134 -0.05897819 -0.06452549 -0.2535842 0.15642817 0.03114242
-0.0149427345 -0.12721394 -0.08876502 -0.1622561 -0.1794267 -0.028553143 0.074016735 -0.00089740223
0.07036419 0.026571378 0.09720618 0.005787587 -0.27354825 0.0656688 -0.069715336 0.14698865
-0.12834622 0.2177006 -0.24541678 -0.13181081 0.049854 -0.08184656 -0.076060385 -0.13804214
-0.23429543 0.040371254 -0.22296616 -0.18058895 0.04519517 -0.18671301 -0.08074952 -0.0070850877
0.037854638 -0.0672429 -0.2118255 -0.14520587 0.20783116 -0.009153478 0.08987405 -0.13502796
-0.07029116 -0.20761636 0.056042075 -0.08658332 -0.032236412 -0.31301877 0.112582184 -0.011781507
-0.14939559 0.06383599 0.010222674 -0.20718315 -0.09922264 0.07516783 -0.060629137 -0.08106134
-0.08863725 -0.057266172 -0.15970807 -0.07915564 -0.014111041 -0.09017493 -0.19397484 -0.17244285
00000000: ebfc cdbc 8269 1dbe 7b01 283a c69f 11be
00000010: 4b54 31bd 2f31 023e 4506 5cbe 0e12 9dbe
00000020: 1f42 fc3b 5a38 3cbe 4830 74be 2dd5 b33d
00000030: 754a ccbd 8129 543d c891 28be 84c6 9fbd
00000040: af56 3fbe a38e 9f3d cd9e 4abe ce45 90bc
00000050: e730 94bd ddea c0be c754 be3d 04f6 0abe
00000060: 2dcc 8cbe 7438 0e3e 0f77 ecbc 4945 fabd
00000070: 235d 82bd d907 f7bd 9830 4bbe 00ed 3bbe
00000080: 431c af3d 2114 21be e9e2 433c b76b 3fbe
00000090: 7995 293c 81ab 81bd b781 06be 91d8 3abe
000000a0: 86fe 78be a611 b73d 9419 10bd f407 f8bd
000000b0: 51fe b43e 8183 7f3d 79d6 1dbe 73f5 4f3c
000000c0: 3fc2 8bbe 4563 f6bd 9a55 fabd 9273 11be
000000d0: 213e 1ebe 8528 123d 7823 a23c 3f62 fc3c
000000e0: d56d dfbd 4fd2 b8bd c15d dabd 1d93 71bd
000000f0: f125 84bd cad5 81be b52e 203e 631e ff3c
00000100: 5fd2 74bc 5f44 02be 6fca b5bd 7726 26be
00000110: a2bb 37be 48e8 e9bc 1696 973d a53f 6bba
00000120: 1a1b 903d 38ac d93c 0914 c73d cca5 bd3b
00000130: 840e 8cbe 5d7d 863d eac6 8ebd 3184 163e
00000140: 316d 03be e8ec 5e3e 894e 7bbe 6af9 06be
00000150: b533 4c3d 2b9f a7bd 8cc5 9bbd eb5a 0dbe
00000160: 24eb 6fbe 545c 253d 3e51 64be 4fec 38be
00000170: 921e 393d b231 3fbe 0160 a5bd 062a e8bb
00000180: 770d 1b3d a5b6 89bd c9e8 58be d9b0 14be
00000190: b1d1 543e 78f8 15bc e30f b83d c544 0abe
000001a0: d0f4 8fbd 6299 54be 608c 653d 9852 b1bd
000001b0: 540a 04bd ff43 a0be 7d91 e63d 3907 41bc
000001c0: 28fb 18be 72bc 823d 017d 273c d227 54be
000001d0: 3d35 cbbd 97f1 993d 4256 78bd 7d03 a6bd
000001e0: 7287 b5bd ef8f 6abd 838a 23be 5a1c a2bd
000001f0: ff31 67bc a2ad b8bd 57a1 46be dc94 30be

action_model._discrete_distribution.branches.0.weight f4 [5, 128]
0.163613 0.081281915 0.2072435 0.04123123 0.26239052 0.40191314 0.32689983 0.26391718
0.21095094 0.1423632 0.21243627 0.26790637 0.31484935 0.28847405 0.049424313 0.086559124
0.16274983 0.049917154 0.19971985 0.1410541 0.3018578 0.32627398 0.42688027 0.21922761
0.09862977 -0.05856548 0.28004506 0.1916344 0.14645621 0.11286428 0.23154011 -0.36156932
0.3406443 0.045141496 -0.28881848 0.24532507 0.3847887 0.22651918 0.016817784 0.11375396
0.040259633 0.1925961 0.41295198 -0.04333605 0.138586 0.2507048 0.19246893 -0.08804802
0.11538491 0.26237693 -0.29094 0.19479503 0.3288037 -0.1351095 0.099188395 0.055429783
0.2434596 0.09034875 0.30267 0.079844885 0.20782116 -0.057307154 -0.017459823 0.1350152
0.24478912 0.1634107 0.051421884 0.28651273 0.39968762 -0.15849939 0.001571202 0.35169363
0.074807964 0.26259223 0.45653847 0.23560977 0.25216526 0.01706075 0.33862284 0.17794326
-0.10383055 0.15401992 0.1584569 0.30909076 0.28451726 0.06425448 0.013861733 -0.054815814
0.023073684 0.073633015 0.120901644 0.25424182 -0.0725217 -0.033383068 0.33864334 0.22576664
0.20055886 0.13788788 0.14883299 0.28482944 0.29222545 0.2598063 0.37692645 0.28541294
0.06441281 -0.2489305 0.06556438 0.14139698 0.4650039 0.16843075 0.10541013 0.08701693
-0.15480496 0.72335243 0.3514584 0.13192996 0.29626954 -0.0019621232 0.041925143 -0.06896187
0.14000267 0.03531452 0.34269315 0.0983532 0.40958387 -0.05778478 -0.066056006 0.5034173
0.16040859 -0.08042736 -0.27080888 -0.25406986 -0.48164105 0.08892294 -0.24991003 -0.048891257
-0.2713303 -0.70145696 0.05919121 0.12563875 0.301465 -0.2679705 0.1236485 -0.028068405
0.35215598 0.11487596 0.16763137 -0.009767292 0.2080936 -0.017226186 0.5432833 -0.1933038
-0.5250692 0.37595227 -0.08861363 -0.18704103 0.22450034 -0.12923995 -0.1866562 0.026060125
0.038830925 0.15322877 0.27098456 -0.17590412 0.17523322 0.22989242 -0.21256165 0.21208133
-0.13284096 0.008944531 -0.10353577 0.1262741 0.36886743 0.1409896 -0.10333722 0.06473575
-0.3520253 -0.35764334 -0.012316317 0.23522283 -0.005250883 -0.024343666 -0.17971021 0.23344663
0.030395096 -0.07681157 -0.08136504 0.32093373 -0.12467356 -0.19740981 -0.25111 -0.15651877
0.47745973 0.2973894 0.0054404857 0.2754554 0.0054239538 0.074596 0.5402703 0.29207957
0.2200955 0.20172176 -0.010593548 0.054654296 -0.08889267 0.2348163 -0.047404733 -0.054616127
-0.08583431 0.4607857 -0.00012394387 -0.051466227 0.102093145 0.26644304 -0.00021641105 0.32999453
0.3906521 0.5343516 0.25406322 0.012204907 0.24686576 0.018574893 -0.13867024 0.21702084
0.15960948 0.050024185 -0.26627243 0.047250178 0.49074247 0.25395796 0.043855447 -0.22069478
-0.015443237 -0.091781385 -0.18492344 0.17274532 -0.11838591 0.19683197 0.3050886 0.11453652
0.32874215 0.06194964 0.021279635 -0.15478006 0.08690125 -0.021080315 -0.13142267 0.010295426
0.08304604 -0.22101173 0.057400856 -0.044755988 0.3683444 0.192397 0.14381427 0.24296051
00000000: 2b8a 273e 2277 a63d a437 543e 14e2 283d
00000010: 0d58 863e 8fc7 cd3e 6a5f a73e 2720 873e
00000020: 8603 583e a9c7 113e e588 593e 062b 893e
00000030: ef33 a13e dfb2 933e 2671 4a3d e945 b13d
00000040: e4a7 263e ee75 4c3d 5c83 4c3e 7c70 103e
00000050: 1b8d 9a3e 620d a73e 0d90 da3e 347d 603e
00000060: 68fe c93d 5be2 6fbd 1162 8f3e cf3b 443e
00000070: 9ef8 153e 6325 e73d da18 6d3e 9d1f b9be
00000080: ee68 ae3e 4ae6 383d 04e0 93be 7f36 7b3e
00000090: 0603 c53e a5f4 673e 73c5 893c d6f7 e83d
000000a0: 49e7 243d e937 453e 716e d33e 2481 31bd
000000b0: 7de9 0d3e 615c 803e 9316 453e 8552 b4bd
000000c0: ec4e ec3d 4556 863e 16f6 94be 5978 473e
000000d0: f558 a83e 255a 0abe 4923 cb3d 570a 633d
000000e0: 794d 793e c408 b93d 90f7 9a3e b785 a33d
000000f0: 12cf 543e e8ba 6abd e707 8fbc 6d41 0a3e
00000100: 00aa 7a3e 2255 273e c19f 523d ccb1 923e
00000110: dba3 cc3e aa4d 22be caf0 cd3a 3011 b43e
00000120: eb34 993d 7d72 863e 69bf e93e b043 713e
00000130: ce1b 813e fcc2 8b3c f95f ad3e c236 363e
00000140: 1da5 d4bd 66b7 1d3e 8742 223e 2541 9e3e
00000150: 3fac 913e da97 833d 521c 633c 8c86 60bd
00000160: 0605 bd3c e8cc 963d 489b f73d fc2b 823e
00000170: 4286 94bd afbc 08bd a962 ad3e 5f2f 673e
00000180: 4d5f 4d3e 7b32 0d3e ad67 183e 2ad5 913e
00000190: 939e 953e 5505 853e 81fc c03e a521 923e
000001a0: ddea 833d a3e7 7ebe 9e46 863d 5fca 103e
000001b0: fe14 ee3e 1c79 2c3e 44e1 d73d ef35 b23d
000001c0: 3185 1ebe a02d 393f 5bf2 b33e a618 073e
000001d0: a4b0 973e f796 00bb b3b9 2b3d e23b 8dbd
000001e0: dc5c 0f3e f5a5 103d 7a75 af3e 676d c93d
000001f0: fab4 d13e bcaf 6cbd 5f48 87bd f5df 003f
00000200: 2642 243e 1ab7 a4bd 76a7 8abe 7215 82be
00000210: a899 f6be 3b1d b63d 6ae8 7fbe 3342 48bd
00000220: ceeb 8abe af92 33bf 7b72 723d 72a7 003e
00000230: 9f59 9a3e 6e33 89be 6d3b fd3d b6ef e5bc
00000240: ca4d b43e 1644 eb3d 8fa7 2b3e fe06 20bc
00000250: 7d16 553e ee1d 8dbc 9d14 0b3f 6ef1 45be
00000260: ef6a 06bf d17c c03e 107b b5bd af87 3fbe
00000270: 6be3 653e 7a57 04be ce22 3fbe 0b7c d53c
00000280: 2d0d 1f3d 01e8 1c3e 7dbe 8a3e 3620 34be
00000290: 5670 333e eb68 6b3e c3a9 59be d92b 593e
000002a0: 7607 08be 158c 123c 900a d4bd ff4d 013e
000002b0: 31dc bc3e 945f 103e 77a2 d3bd 2d94 843d
000002c0: a93c b4be 071d b7be 61ca 49bc 41de 703e
000002d0: 990f acbb 5e6c c7bc f405 38be a20c 6f3e
000002e0: 23ff f83c 624f 9dbd b7a2 a6bd 6d51 a43e
000002f0: da54 ffbd cc25 4abe 7d91 80be 7546 20be
00000300: 9a75 f43e 6c43 983e 1a46 b23b 7d08 8d3e
00000310: 6cbb b13b cac5 983d 284f 0a3f 748b 953e
00000320: b760 613e 2690 4e3e 9090 2dbc 2fdd 5f3d
00000330: 5c0d b6bd af73 703e 772b 42bd 29b5 5fbd
00000340: e6c9 afbd 1aec eb3e eef6 01b9 40ce 52bd
00000350: 3616 d13d 396b 883e 66ec 62b9 0bf5 a83e
00000360: 8d03 c83e 44cb 083f 9314 823e 17f7 473c
00000370: 61ca 7c3e 602a 983c 92ff 0dbe b63a 5e3e
00000380: ab70 233e 29e6 4c3d dc54 88be 6789 413d
00000390: 9942 fb3e c706 823e c5a1 333d d0fd 61be
000003a0: a105 7dbc e1f7 bbbd 925c 3dbe 26e4 303e
000003b0: 5074 f2bd 528e 493e 9334 9c3e 1f92 ea3d
000003c0: e450 a83e e8be 7d3d a152 ae3c aa7e 1ebe
000003d0: 48f9 b13d a0b0 acbc aa93 06be 25ae 283c
000003e0: 0b14 aa3d e650 62be 291d 6b3d 0e52 37bd
000003f0: a397 bc3e b803 453e 0c44 133e a4ca 783e

action_model._discrete_distribution.branches.0.bias f4 [5]
0.2902383 0.4100395 -0.48636633 -0.15061091 -0.019058961
00000000: 1d9a 943e b3f0 d13e 0205 f9be bf39 1abe
00000010: 8a21 9cbc

critic.network_body.linear_encoder.seq_layers.0.weight f4 [128, 156]
0.029178046 0.17214254 -0.19845308 0.107351445 0.113843404 0.0834793 -0.16699229 0.17667541
0.034115788 0.30038175 -0.16561483 -0.16194415 0.4792647 -0.20034167 -0.23825549 0.31060457
-0.06841815 -0.11268804 0.2958345 -0.02795185 -0.13336581 0.18869054 -0.0010530334 0.0402582
0.15313712 -0.02958202 -0.15372586 0.34821495 -0.0920441 0.17250715 0.11047131 0.041964374
-0.15858325 0.458434 -0.14007424 -0.03709705 0.10925723 0.05369331 -0.13008367 0.3826514
0.002402127 -0.04139025 0.12722117 0.022410618 -0.079800546 0.11247399 -0.03151542 -0.099013574
0.24540645 -0.119170815 -0.143339 -0.046838164 -0.07056628 0.01933009 0.705282 -0.153735
-0.17937988 -0.2681832 0.0700231 0.06612251 0.5873552 -0.1929988 -0.12608507 0.14175178
-0.079980955 -0.08845807 0.48397034 0.0116656395 -0.115826495 0.18957683 0.01540201 0.08377114
0.21917549 -0.026174238 0.042282708 -0.016848048 -0.0027570254 0.59071517 -0.332828 -0.08563232
0.6974227 -0.277909 -0.04458698 0.27639216 -0.8400421 -0.32301873 0.53222495 -1.2610997
-0.13990813 -0.58501935 -0.43611655 -0.31314313 -0.07258714 -1.159399 0.08535958 -0.5432479
-0.27489465 -0.5414161 -0.06762819 -0.87294567 0.0111049665 -0.49878713 -0.26228908 -0.3897477
0.35375938 -0.25016606 -0.040287018 -0.51305085 0.15253623 -0.001860253 0.68946016 0.24458806
0.051402256 -0.49095404 -0.070284925 0.040206116 0.0314365 -0.09334004 0.091428 0.007148783
-0.28351492 0.12581098 0.05323747 0.3762913 0.119913705 0.019620428 -0.017636994 -0.0571183
0.12695053 0.028313877 0.08671982 0.060112767 0.6357846 0.06693687 0.1348933 0.04979292
0.10106577 0.14180636 0.52124995 0.12945847 -0.033432487 -0.11156904 0.030061131 0.089290336
0.7509711 0.017745439 -0.055169616 -0.35492963 0.024205627 0.078311756 0.6406657 -0.21018544
0.038276 -0.11552593 -0.51622427 1.5593898 0.5129261 -0.15203027 0.11398761 0.4674537
0.17990322 0.21708989 0.67782027 0.045672428 -0.14783075 0.55423325 -0.004910961 0.20034522
0.44015104 0.19411358 -0.27146405 0.31170022 -0.095852226 0.28431302 0.09403564 0.1518122
0.007176838 0.33289793 -0.19081536 0.13398357 0.052089598 0.13180602 -0.13421987 0.4218457
-0.25837922 -0.04322329 0.028020155 -0.013435713 -0.04133996 0.23586956 -0.028322347 0.0054549174
0.20843688 0.08247683 -0.05338732 0.20155135 0.06482693 0.10095205 0.33706772 -0.16069935
-0.018274719 -0.0027621496 0.030726591 0.055389754 0.27278927 -0.0021409267 -0.02070409 0.107829064
-0.031075547 0.07412302 0.12344111 0.09371606 0.08271216 -0.1163331 -0.16281015 -0.07605275
0.26545832 0.12841687 0.04298572 0.4831488 -0.08113083 -0.05591118 0.34970197 -0.030071042
-0.078417666 0.48194942 -0.19416614 -0.04708746 0.47056812 -0.02794954 -0.037705682 -0.6281339
0.3521949 -0.94285226 -0.21209 -0.03260233 0.012381978 -1.1913228 0.018211082 -1.3810757
-0.42044103 0.09688575 1.2516935 -0.56888175 -0.45108768 -0.3011182 -0.29140884 -0.107510306
0.9714712 -0.92940736 -0.7401875 0.035592165 0.32567188 -0.28556657 0.5397168 -0.6068575
00000000: cc06 ef3c 2246 303e 4937 4bbe 13db db3d
00000010: bb26 e93d 32f7 aa3d 0700 2bbe 66ea 343e
00000020: ffbc 0b3d a3cb 993e ef96 29be b0d4 25be
00000030: 2f62 f53e 5e26 4dbe 3ff9 73be 9007 9f3e
00000040: d11e 8cbd fdc8 e6bd 9f77 973e 47fb e4bc
00000050: 0c91 08be 1838 413e f005 8aba c8e5 243d
00000060: facf 1c3e fe55 f2bc 506a 1dbe 3b49 b23e
00000070: 9e81 bcbd b7a5 303e c83e e23d d6e2 2b3d
00000080: a663 22be dcb7 ea3e 9f6f 0fbe 14f3 17bd
00000090: 41c2 df3d 84ed 5b3d a734 05be e2ea c33e
000000a0: 016d 1d3b d388 29bd 4446 023e 7996 b73c
000000b0: 786e a3bd c358 e63d 5016 01bd a1c7 cabd
000000c0: d44b 7b3e d40f f4bd 75c7 12be 60d9 3fbd
000000d0: 0e85 90bd 235a 9e3c 5c8d 343f b56c 1dbe
000000e0: 5caf 37be 4f4f 89be 4568 8f3d 3d6b 873d
000000f0: e95c 163f 7aa1 45be 721c 01be 6127 113e
00000100: 0ecd a3bd 8129 b5bd f6ca f73e 3d21 3f3c
00000110: 7136 edbd 6e20 423e b658 7c3c 3490 ab3d
00000120: 8a6f 603e 5b6b d6bc a230 2d3d eb04 8abc
00000130: 36af 34bb 1c39 173f 6e68 aabe ff5f afbd
00000140: 4b8a 323f 174a 8ebe d6a0 36bd 4683 8d3e
00000150: 000d 57bf b662 a5be e53f 083f b76b a1bf
00000160: 1444 0fbe d4c3 15bf ab4a dfbe 4c54 a0be
00000170: 91a8 94bd 3067 94bf 01d1 ae3d 4b12 0bbf
00000180: febe 8cbe 3f9a 0abf a680 8abd 5e79 5fbf
00000190: 9bf1 353c 0761 ffbe c14a 86be 038d c7be
000001a0: f31f b53e c415 80be 0004 25bd 4d57 03bf
000001b0: 7532 1c3e bcd3 f3ba 7680 303f 4b75 7a3e
000001c0: 2c8b 523d 545e fbbe 8bf1 8fbd 2baf 243d
000001d0: 8fc3 003d 1029 bfbd 9a3e bb3d 5740 ea3b
000001e0: de28 91be 98d4 003e 890f 5a3d 41a9 c03e
000001f0: 5195 f53d 05bb a03c 757b 90bc e1f4 69bd
00000200: 52ff 013e 81f2 e73c 299a b13d ce38 763d
00000210: c8c2 223f 3316 893d 7821 0a3e a9f3 4b3d
00000220: 92fb ce3d b035 113e a370 053f c390 043e
00000230: 81f0 08bd 4f7e e4bd c342 f63c dadd b63d
00000240: a43f 403f e25e 913c 89f9 61bd 56b9 b5be
00000250: e14a c63c ea61 a03d ab02 243f da3a 57be
00000260: 4cc7 1c3d dc98 ecbd 4627 04bf 169a c73f
00000270: 204f 033f d3ad 1bbe 5672 e93d 1756 ef3e
00000280: 8d38 383e d04c 5e3e a185 2d3f 0313 3b3d
00000290: f260 17be 3be2 0d3f 20ec a0bb 4c27 4d3e
000002a0: 7a5b e13e b6c5 463e 56fd 8abe 2c97 9f3e
000002b0: 2c4e c4bd 7a91 913e c295 c03d a874 1b3e
000002c0: ae2b eb3b 9971 aa3e 1a65 43be fd32 093e
000002d0: e75b 553d 28f8 063e ef70 09be 29fc d73e
000002e0: 484a 84be e80a 31bd 868a e53c 7721 5cbc
000002f0: 1754 29bd ca87 713e 4404 e8bc 2abf b23b
00000300: 7a70 553e 9de9 a83d aaac 5abd 7a63 4e3e
00000310: fbc3 843d f3bf ce3d 2494 ac3e 5f8e 24be
00000320: ddb4 95bc 2e05 35bb 55b6 fb3c 5ee0 623d
00000330: 09ab 8b3e ca4e 0cbb a09b a9bc 7cd5 dc3d
00000340: 2592 febc cfcd 973d b1ce fc3d 35ee bf3d
00000350: fe64 a93d 0c40 eebd b4b7 26be 8bc1 9bbd
00000360: 27ea 873e b67f 033e cb11 303d 485f f73e
00000370: ec27 a6bd 1f03 65bd 230c b33e 8c57 f6bc
00000380: 7199 a0bd 13c2 f63e 7dd3 46be c8de 40bd
00000390: 4eee f03e 6ff6 e4bc 4671 1abd 62cd 20bf
000003a0: e452 b43e c45e 71bf 1f2e 59be 058a 05bd
000003b0: c8dd 4a3c 447d 98bf 682f 953c 17c7 b0bf
000003c0: 0c44 d7be 096c c63d 7e37 a03f 3ca2 11bf
000003d0: f7f4 e6be 2a2c 9abe 8a33 95be 5d2e dcbd
000003e0: 56b2 783f a4ed 6dbf ee7c 3dbf 17c9 113d
000003f0: 77be a63e c835 92be e12a 0a3f 035b 1bbf

critic.network_body.linear_encoder.seq_layers.0.bias f4 [128]
0.08313128 0.09819166 0.10392664 0.015588436 0.11765092 -0.0838912 -0.028261894 0.044294488
-0.13820079 0.0080909785 0.04704304 0.68568105 0.08821495 -0.0392044 -0.0004383892 0.084964946
0.08443967 -0.02300224 0.100614205 0.048459943 0.1911636 0.08197036 0.049937494 -0.057434704
-0.06915294 -0.06775193 -0.079617314 0.14148429 -0.051410418 0.15826292 0.41812018 0.07341553
0.09971414 -0.0898244 0.010201569 0.0028173556 0.3390981 -0.012641538 -0.009127355 0.02194396
-0.023009008 -0.07518281 -0.16282374 -0.0022835515 -0.05064063 -0.03486129 0.14294733 -0.02623399
-0.034938708 0.04156469 -0.064407036 0.11391513 -0.1076023 0.26527774 0.1215087 -0.011700522
-0.15282229 -0.05812704 -0.026738279 -0.006274845 -0.124384336 0.019855822 -0.061272427 0.03650593
0.030105444 0.14892134 0.05358056 0.03561716 0.12263765 -0.11650528 -0.08167113 0.121083744
-0.023282021 -0.085511126 0.035244673 -0.09004421 -0.07260805 0.050660543 0.04258316 -0.039478492
-0.07256923 -0.14163242 0.101559445 -0.15631722 0.1324738 0.24864113 0.10492124 0.26817894
-0.16634977 -0.20975828 -0.05467061 0.11800153 0.08345661 -0.0016401366 -0.010488566 -0.011595523
0.22944136 -0.1528027 0.099741 0.037641294 0.08393152 -0.11117642 -0.10930646 0.1369855
0.100471124 0.008204135 0.024502203 -0.048877425 -0.13392462 0.06897537 -0.110270575 0.11893759
0.18134128 0.3820376 0.027637826 0.19346206 0.0869727 0.053354565 0.04179343 -0.069694944
0.013175678 0.060035523 -0.05915993 -0.07042675 -0.057131227 -0.047753103 -0.045138516 0.011366717
00000000: bc40 aa3d b618 c93d 7dd7 d43d a466 7f3c
00000010: f7f2 f03d 26cf abbd 7d85 e7bc 236e 353d
00000020: 8284 0dbe 0690 043c 34b0 403d cb88 2f3f
00000030: 0aaa b43d cb94 20bd 9ad7 e5b9 1a02 ae3d
00000040: b5ee ac3d 326f bcbc d20e ce3d ef7d 463d
00000050: 64c0 433e 13e0 a73d 428b 4c3d a740 6bbd
00000060: 0ea0 8dbd 86c1 8abd 670e a3bd 42e1 103e
00000070: bb93 52bd ad0f 223e d913 d63e e25a 963d
00000080: ed36 cc3d dbf5 b7bd 7b24 273c 62a3 383b
00000090: 449e ad3e 741e 4fbc e78a 15bc d2c3 b33c
000000a0: 637d bcbc 72f9 99bd 44bb 26be a3a7 15bb
000000b0: 8d6c 4fbd b6ca 0ebd c960 123e aae8 d6bc
000000c0: e41b 0fbd bd3f 2a3d d6e7 83bd 564c e93d
000000d0: 985e dcbd 7cd2 873e 8ed9 f83d 8cb3 3fbc
000000e0: 727d 1cbe 9e16 6ebd 3c0a dbbc 379d cdbb
000000f0: 37bd febd ada8 a23c ccf8 7abd 3e87 153d
00000100: b19f f63c d67e 183e 4a77 5b3d 4de3 113d
00000110: 7329 fb3d 529a eebd 3243 a7bd c1fa f73d
00000120: f0b9 bebc 7520 afbd b85c 103d 1969 b8bd
00000130: 88b3 94bd 6e81 4f3d ae6b 2e3d 33b4 21bd
00000140: 2d9f 94bd 1708 11be 66fe cf3d 9f11 20be
00000150: 36a7 073e c89b 7e3e f2e0 d63d c04e 893e
00000160: 9857 2abe e0ca 56be 4aee 5fbd c9aa f13d
00000170: 4deb aa3d daf9 d6ba 3cd8 2bbc 26fb 3dbc
00000180: adf2 6a3e 5078 1cbe 0245 cc3d c22d 1a3d
00000190: 4ae4 ab3d 76b0 e3bd 11dc dfbd ed45 0c3e
000001a0: cec3 cd3d a36a 063c d8b8 c83c b233 48bd
000001b0: 8923 09be f542 8d3d 8ad5 e1bd 8d95 f33d
000001c0: 87b1 393e 6f9a c33e b968 e23c eb1a 463e
000001d0: be1e b23d 518a 5a3d 962f 2b3d 39bc 8ebd
000001e0: cdde 573c cfe7 753d af51 72bd e63b 90bd
000001f0: 6f02 6abd c298 43bd 2ae3 38bd 773b 3a3c

critic.network_body.linear_encoder.seq_layers.2.weight f4 [128, 128]
0.5601665 -0.44163108 -0.25005993 0.4044726 -0.21973054 0.40673375 0.0076894457 0.48400754
0.088095576 -0.098124035 0.1220778 0.19609235 0.10116476 0.6340149 0.3508024 -0.50082487
0.10575258 -0.7838641 0.46027797 0.28383836 0.072132945 -0.69274175 0.41051042 -0.06801979
-0.17581686 -0.8568308 -0.067418925 -0.19405368 0.26075596 0.042405315 0.121939085 -0.142478
-0.27626485 -0.3051378 0.5078598 -0.35533193 -0.1453737 0.34476352 0.10213883 -0.16510747
-0.3881251 0.1478598 -0.47541457 -0.39361754 0.025147786 -0.06826819 -0.016726244 0.035569526
0.12011403 -0.11390929 -0.015180093 0.076389365 -0.3051348 -0.17532924 -0.1889807 0.13072506
0.36186934 -0.34888044 0.04829604 0.29823807 0.028101351 -0.47522798 0.06065296 -0.11423135
0.18307115 -0.15459143 0.4868492 0.5091019 -1.4445276 -0.27721387 -0.35512406 0.0064378968
-0.03434507 0.17479585 -0.77434635 -0.6310394 -0.6188784 -0.628737 -0.7365134 0.13995983
0.65958047 0.74973613 -0.43278226 0.05253223 0.45080405 0.060604423 0.39756507 0.21048574
-0.5543652 -0.8082318 0.19748391 0.16518228 -0.05042894 0.24517035 0.10720571 0.053116605
-0.18515165 1.1085695 -0.6623713 0.19720802 -0.356284 -0.18136725 -0.02930835 -0.030372176
0.10040023 -0.48952895 -0.21907134 0.49031448 -0.50385416 0.21698104 -0.22216043 -0.23707351
0.0027287644 -0.11005962 -0.4179236 -0.5656919 0.069418736 0.061727375 -0.035283946 0.15804759
-0.45452982 0.11704111 -1.0840224 -0.02110017 -0.6371769 0.05181527 -0.7269184 0.15537225
-0.26251522 0.27066407 0.16914834 -0.25161728 -0.097333394 0.19606829 -0.25281322 -0.33009902
-0.2848291 -0.63878226 -0.06844552 0.22748573 0.033645246 -0.4737883 -0.21278982 -0.4007384
0.46149227 -0.3496964 0.61294794 -0.17141663 -0.21578129 0.11928614 0.47145537 0.52774525
-0.8447593 -1.297269 -0.033972044 -0.04562659 -0.09573277 0.003288735 -0.062440544 0.09736834
0.23089617 -0.86006063 0.3955351 0.34107903 0.012018083 0.1639265 0.12164929 -1.1640583
0.23808801 -0.41004637 -0.45659348 -0.5556602 -0.6338574 0.56373656 -1.3969238 -0.106673844
0.05659355 0.17892127 -0.1274201 -0.0106996605 -0.21210566 -0.11999888 -0.4267011 0.27528855
0.60471624 -0.7672029 -0.3373081 0.5724758 -0.48234874 -0.4296435 0.50223035 -0.14889194
-0.9423548 -0.08151403 -0.276518 -0.02686777 -0.040637635 -0.09036674 -0.25800654 0.003982114
0.71568865 0.4747968 -0.59628356 -0.11328251 0.049607523 0.22448045 -0.6398331 -0.0008889856
-0.4009063 0.010856219 -0.6651557 0.23252963 0.03477988 0.04083878 0.32916617 -0.34280434
-1.1471196 0.3278178 -0.04046761 -1.3386129 0.14768705 0.0054152 -0.76478577 -0.19581066
-0.053230207 -1.0108445 -0.16260715 0.13271275 -0.14335865 -1.0014888 -0.19091842 -0.2142999
0.26103124 -0.49758184 -0.580053 -0.39636105 0.37410602 -0.44815972 -0.5853308 0.181762
0.2660449 0.049234115 0.09033044 -0.28240845 -0.155011 -0.009973549 -0.046390925 0.61963165
-0.036878973 -0.51906675 -0.9270666 -0.14057098 -0.02751237 0.13478863 0.5290183 0.046217877
00000000: 1267 0f3f 781d e2be db07 80be 0817 cf3e
00000010: 0b01 61be 683f d03e bff7 fb3b d6cf f73e
00000020: 746b b43d 41f5 c8bd ed03 fa3d 6fcc 483e
00000030: 782f cf3d cd4e 223f 5f9c b33e 0f36 00bf
00000040: cf94 d83d 51ab 48bf 8ea9 eb3e 4353 913e
00000050: 70ba 933d 8657 31bf 6c2e d23e f64d 8bbd
00000060: 5609 34be 4359 5bbf ef12 8abd 02b6 46be
00000070: ce81 853e 32b1 2d3d 33bb f93d c1e5 11be
00000080: 9672 8dbe 063b 9cbe 1a03 023f 11ee b5be
00000090: d8dc 14be d884 b03e 2a2e d13d ef11 29be
000000a0: 55b8 c6be 8f68 173e 8a69 f3be 3d88 c9be
000000b0: bb02 ce3c 31d0 8bbd 7a05 89bc 5ab1 113d
000000c0: 58fe f53d 4649 e9bd edb5 78bc 0772 9c3d
000000d0: a13a 9cbe 8289 33be 2884 41be cadc 053e
000000e0: f046 b93e 75a0 b2be 12d2 453d a9b2 983e
000000f0: ce34 e63c 1551 f3be 3d6f 783d 20f2 e9bd
00000100: 0177 3b3e 374d 1ebe 4c44 f93e 8154 023f
00000110: 48e6 b8bf faee 8dbe d2d2 b5be fef4 d23b
00000120: 6bad 0cbd affd 323e 903b 46bf cc8b 21bf
00000130: d16e 1ebf e8f4 20bf 248c 3cbf a151 0f3e
00000140: 44da 283f b5ee 3f3f a395 ddbe 092c 573d
00000150: cacf e63e 583c 783d a68d cb3e 9389 573e
00000160: e1ea 0dbf 47e8 4ebf 3939 4a3e 8b25 293e
00000170: 948e 4ebd f00d 7b3e ab8e db3d cc90 593d
00000180: 6598 3dbe 9be5 8d3f 2a91 29bf e6f0 493e
00000190: db6a b6be 56b8 39be 1118 f0bc 12cf f8bc
000001a0: a39e cd3d 8aa3 fabe 3d54 60be 800a fb3e
000001b0: 96fc 00bf 4730 5e3e 067e 63be 66c3 72be
000001c0: 12d5 323b f066 e1bd 15fa d5be 2fd1 10bf
000001d0: 692b 8e3d d8d5 7c3d e685 10bd 3ad7 213e
000001e0: 22b8 e8be 40b3 ef3d 3fc1 8abf 44da acbc
000001f0: 061e 23bf 403c 543d 5317 3abf e719 1f3e
00000200: 6568 86be 7b94 8a3e 3935 2d3e fbd3 80be
00000210: bb56 c7bd 20c6 483e bc70 81be bd02 a9be
00000220: 1fd5 91be 3c87 23bf 2a2d 8cbd 05f2 683e
00000230: 99cf 093d 6194 f2be 93e5 59be 952d cdbe
00000240: b748 ec3e 680b b3be 28ea 1c3f d787 2fbe
00000250: c5f5 5cbe 4b4c f43d 9962 f13e 501a 073f
00000260: 2542 58bf e90c a6bf 4526 0bbd f2e2 3abd
00000270: 8b0f c4bd d187 573b a8c1 7fbd 0d69 c73d
00000280: 0c70 6c3e ef2c 5cbf 9483 ca3e e9a1 ae3e
00000290: 7ee7 443c 59dc 273e 4323 f93d ddff 94bf
000002a0: 58cd 733e 99f1 d1be 9fc6 e9be bf3f 0ebf
000002b0: 7b44 22bf 0a51 103f 66ce b2bf d177 dabd
000002c0: a3ce 673d 2337 373e 6a7a 02be a14d 2fbc
000002d0: 3a32 59be f9c1 f5bd 9178 dabe 9ff2 8c3e
000002e0: afce 1a3f 6967 44bf a6b3 acbe c68d 123f
000002f0: 6af6 f6be 3cfa dbbe 2b92 003f 2177 18be
00000300: 2a3e 71bf d4f0 a6bd c493 8dbe cc19 dcbc
00000310: a673 26bd 3312 b9bd 6f19 84be 657c 823b
00000320: 5f37 373f 9118 f33e 0aa6 18bf a900 e8bd
00000330: 4231 4b3d 34de 653e 1acc 23bf d00a 69ba
00000340: 9743 cdbe 48de 313c a547 2abf 3f1c 6e3e
00000350: 5975 0e3d 9146 273d 7888 a83e 0d84 afbe
00000360: d1d4 92bf bcd7 a73e 5dc1 25bd ab57 abbf
00000370: 463b 173e fd71 b13b 00c9 43bf 9782 48be
00000380: eb07 5abd 5a63 81bf 7d82 26be dae5 073e
00000390: 9ccc 12be c930 80bf 1e80 43be 6f71 5bbe
000003a0: e3a5 853e 0cc3 febe 5a7e 14bf d6ef cabe
000003b0: d38a bf3e 3175 e5be 3dd8 15bf d11f 3a3e
000003c0: 0a37 883e b6a9 493d 2aff b83d d797 90be
000003d0: 34bb 1ebe 1968 23bc 6904 3ebd 2ea0 1e3f
000003e0: 680e 17bd 8fe1 04bf 3d54 6dbf d7f1 0fbe
000003f0: 9f61 e1bc 0806 0a3e be6d 073f f54e 3d3d

critic.network_body.linear_encoder.seq_layers.2.bias f4 [128]
0.16253811 0.09905027 0.14806738 0.29188997 0.08847286 -0.03578987 0.36417794 -0.013122831
0.22618656 0.42540434 0.076070175 0.18537512 0.21953115 0.19917774 0.28208974 0.44814262
0.36641482 0.20126086 -0.05934483 0.14887868 0.4861965 0.2816166 0.03955115 0.13610682
0.2738448 0.1708466 0.23976804 0.015317954 0.01222682 0.20638318 0.056900796 0.16461061
0.14838368 -0.0061582164 0.29724243 0.15370728 0.028687954 0.08816337 0.02556032 0.23448493
0.3240022 0.28893188 0.10614712 0.20207207 0.26166734 0.29297855 0.22747438 0.34705454
0.29919836 0.32668662 0.05222763 -0.14316317 0.005441908 0.14406908 0.24535163 -0.05536386
0.04051932 0.08666352 0.15013097 -0.17019485 0.044703286 0.032752976 0.063165024 0.052787095
0.22773579 0.3364884 0.30542386 0.31401956 0.2281389 0.20729363 0.5299897 -0.08912772
0.022062637 0.018884698 0.13968885 0.08601095 0.41170216 0.30745164 0.14636466 0.02887517
-0.044299595 0.73820907 0.083826765 0.12951152 0.13629504 0.38467118 0.05415752 0.024094885
0.28569266 0.20516019 0.09772964 0.073222436 0.1451674 0.038084432 0.14286494 0.1303141
0.025500206 -0.08162651 0.33349985 0.1483523 0.27470955 0.12244739 0.38873747 -0.0027891279
0.2987957 0.19811302 0.5811688 0.33351198 0.22101311 0.085418046 0.085396774 -0.066063456
0.12995473 0.20359094 0.49991095 -0.13124871 -0.008635906 0.2124935 0.3077966 0.11146956
0.017808365 0.26129532 0.3068974 0.17188352 0.019128194 0.1733281 0.13789733 -0.21885516
00000000: 6470 263e deda ca3d fa9e 173e 9a72 953e
00000010: 4231 b53d 6698 12bd 8875 ba3e 2401 57bc
00000020: 739d 673e 99ce d93e aeca 9b3d fad2 3d3e
00000030: c6cc 603e 40f5 4b3e 116e 903e f372 e53e
00000040: b99a bb3e 5417 4e3e 9113 73bd a773 183e
00000050: bfee f83e 0d30 903e 6300 223d 965f 0b3e
00000060: 6335 8c3e 69f2 2e3e c185 753e 28f8 7a3c
00000070: 0053 483c 1d56 533e cf10 693d af8f 283e
00000080: e4f1 173e ddca c9bb 2930 983e 7165 1d3e
00000090: 0003 eb3c ff8e b43d e063 d13c d11c 703e
000000a0: 9ee3 a53e e1ee 933e a963 d93d fbeb 4e3e
000000b0: 43f9 853e 4901 963e 0bef 683e 22b1 b13e
000000c0: 8730 993e 7843 a73e a4ec 553d 5e99 12be
000000d0: 0852 b23b d886 133e 753d 7b3e 37c5 62bd
000000e0: 96f7 253d a57c b13d efbb 193e 8f47 2ebe
000000f0: cb1a 373d fc27 063d aa5c 813d 4837 583d
00000100: 9233 693e 3548 ac3e 8460 9c3e 2cc7 a03e
00000110: 3e9d 693e c844 543e 68ad 073f 9888 b6bd
00000120: b4bc b43c 15b4 9a3c 980a 0f3e 8226 b03d
00000130: a0ca d23e 4d6a 9d3e 9ee0 153e 9f8b ec3c
00000140: 7e73 35bd 45fb 3c3f 5ead ab3d ab9e 043e
00000150: ed90 0b3e 9ff3 c43e 47d4 5d3d a362 c53c
00000160: 4f46 923e 8315 523e 7a26 c83d a5f5 953d
00000170: c3a6 143e 6cfe 1b3d 304b 123e 0f71 053e
00000180: cfe5 d03c cd2b a7bd 7ec0 aa3e aae9 173e
00000190: bba6 8c3e b2c5 fa3d 9908 c73e cdc9 36bb
000001a0: c0fb 983e 24de 4a3e 7ac7 143f 15c2 aa3e
000001b0: 4351 623e a8ef ae3d 81e4 ae3d 474c 87bd
000001c0: da12 053e 257a 503e 54f4 ff3e 1066 06be
000001d0: 9d7d 0dbc e597 593e 8497 9d3e 274a e43d
000001e0: d9e2 913c 80c8 853e a821 9d3e 3c02 303e
000001f0: bbb2 9c3c ec7c 313e f534 0d3e 911b 60be

critic.value_heads.value_heads.extrinsic.weight f4 [1, 128]
-0.98590314 -0.35798764 -3.921606 0.44423026 -2.5034974 -0.25570455 -3.467364 -2.6689372
-1.2356586 0.15647843 -0.9512013 -2.7091196 -1.5424738 -2.2183826 -3.9719753 0.13615261
-2.5740705 0.04979034 -2.2964108 -0.4794241 -4.981267 0.7291268 -2.2624521 0.011780916
-3.7329042 -0.63209236 -2.82328 -0.066222966 -3.1597404 0.07791917 -1.0011065 -3.0189805
0.002677168 0.2593195 -2.668122 -0.687028 -0.88839364 0.28467956 -0.5910005 -0.47452572
-2.5933921 -1.7422938 -0.32787317 0.07246484 -0.42039376 0.0687967 -5.1760793 0.5165911
0.43773842 0.24995153 -1.3165598 -4.254582 -0.8938991 -2.4269276 0.1021692 -0.8551529
-1.409665 -1.2030679 0.42600948 -0.71648395 -3.3963482 -0.99985075 -2.6191006 -1.927208
-3.47265 0.09090056 0.218396 -2.1750689 0.017481761 -2.514493 -3.4071236 -0.72193605
-0.94002587 -0.78844047 -4.0627685 -1.6828699 0.52396 -3.1124232 -0.33468056 -1.8236306
-2.9606524 -4.2141786 -3.982411 0.1311856 -1.361815 -4.3646693 0.029668035 -3.5709622
-3.6041393 -3.0614874 0.32772297 0.24019437 -2.065449 -0.069640145 -0.2767928 -4.509402
-1.8230233 -2.0968146 -2.0895448 -0.52316076 -3.1369326 0.07898482 -1.6104082 -0.22218917
-0.68725055 0.095722295 -4.2652454 0.13553971 0.3478283 -3.420879 -1.3648319 -0.04258246
-2.9950037 -4.376909 -3.5785112 0.022915445 -2.6519318 -3.5252664 -2.2381828 -0.6993222
-1.5753373 -0.9758514 0.22916672 -4.014681 -0.4272934 -1.8738678 -1.7420306 0.35526463
00000000: 2664 7cbf 284a b7be 98fb 7ac0 2672 e33e
00000010: 4d39 20c0 b5eb 82be 4be9 5dc0 decf 2ac0
00000020: 102a 9ebf e23b 203e ee81 73bf 3762 2dc0
00000030: c86f c5bf fbf9 0dc0 d834 7ec0 976b 0b3e
00000040: 92bd 24c0 f5f0 4b3d 65f8 12c0 1377 f5be
00000050: 8a66 9fc0 0ea8 3a3f 04cc 10c0 be04 413c
00000060: e7e7 6ec0 ced0 21bf 9fb0 34c0 e89f 87bd
00000070: 3039 4ac0 1694 9f3d 4224 80bf fa36 41c0
00000080: 6d73 2f3b 87c5 843e 83c2 2ac0 11e1 2fbf
00000090: c46d 63bf 85c1 913e cf4b 17bf 09f5 f2be
000000a0: 23fa 25c0 7c03 dfbf fede a7be 7268 943d
000000b0: da3d d7be 49e5 8c3d 71a2 a5c0 503f 043f
000000c0: 401f e03e 4bf3 7f3e 0885 a8bf 8925 88c0
000000d0: 92d6 64bf c852 1bc0 163e d13d 4deb 5abf
000000e0: e76f b4bf 21fe 99bf ea1d da3e 7e6b 37bf
000000f0: c55d 59c0 38f6 7fbf 589f 27c0 c0ae f6bf
00000100: e63f 5ec0 132a ba3d 33a3 5f3e 5434 0bc0
00000110: e935 8f3c 74ed 20c0 500e 5ac0 cdd0 38bf
00000120: 89a5 70bf 3cd7 49bf 3302 82c0 4868 d7bf
00000130: 3e22 063f f131 47c0 405b abbe ba6c e9bf
00000140: 547b 3dc0 8dda 86c0 d2df 7ec0 8555 063e
00000150: f44f aebf 5fab 8bc0 610a f33c a58a 64c0
00000160: 38aa 66c0 69ef 43c0 4ecb a73e 83f5 753e
00000170: 5130 04c0 7e9f 8ebd c9b7 8dbe 054d 90c0
00000180: d458 e9bf 3632 06c0 1abb 05c0 dded 05bf
00000190: 81c3 48c0 cbc2 a13d db21 cebf 8f85 63be
000001a0: a7ef 2fbf 0d0a c43d e47c 88c0 ecca 0a3e
000001b0: 8d16 b23e aeef 5ac0 d0b2 aebf f26a 2ebd
000001c0: 24ae 3fc0 a30f 8cc0 5406 65c0 2cb9 bb3c
000001d0: 40b9 29c0 f79d 61c0 633e 0fc0 c806 33bf
000001e0: a7a4 c9bf 66d1 79bf aeaa 6a3e 4478 80c0
000001f0: 33c6 dabe e6da efbf dcfa debf 3fe5 b53e

critic.value_heads.value_heads.gail.weight f4 [1, 128]
-0.01756598 0.009732964 -0.08348574 0.0045678806 -0.024806352 0.01954468 -0.065917715 0.0004629307
-0.025020288 -0.0005990925 0.0153072765 -0.01798055 -0.001281707 -0.12436906 -0.01396084 0.012118168
-0.08728656 -0.008202025 -0.007691673 -0.0017388012 -0.027134178 0.0043451823 -0.016926715 0.010041122
-0.048517384 0.0013835306 -0.0016408082 0.0022491924 0.010975955 0.016297873 -0.024018358 -0.039094344
0.0008323782 -0.0009832775 -0.11220013 -0.032913033 0.004688349 -0.0077210306 -0.001325685 -0.0004055257
0.0019147856 -0.006021672 0.012416761 0.0050074453 -0.0015885328 0.028208585 0.0084675355 0.0032140051
0.0017241817 -0.008618163 0.033005502 0.020177683 0.001851181 0.011387797 0.028848303 0.014474439
-0.009640548 -0.0054746103 0.0022176683 0.00043289675 -0.029974572 0.01330196 0.008497883 -0.007833036
-0.06766614 -0.011604883 0.0064302254 -0.1024522 -0.016703518 -0.050119266 0.0046985066 -0.0023828342
-0.023554703 -0.025266243 -0.055317372 0.014067566 0.016983306 -0.039304536 -0.007001128 -0.009185106
0.0070486763 -0.022914696 -0.13879347 -0.011186577 -0.008880203 0.006574131 -0.030450689 -0.024938995
0.0357964 -0.021704493 0.01420421 0.011056629 0.0024881745 0.0024694388 0.003385454 0.046577003
0.004892077 -0.0026716518 -0.0041825543 0.01539888 0.053486064 0.009750102 -0.008508851 -0.0045238235
-0.010241676 0.0018500213 0.0043490175 -0.014433485 0.010017558 -0.021763416 0.0133077325 0.010751494
-0.06708966 -0.48388353 -0.36510143 -0.011979766 -0.02169644 0.032785855 -0.029710887 -0.0034616978
-0.001548484 -0.0033459116 0.0024607573 0.23115118 0.020754421 -0.07160371 -0.0025193354 0.010640255
00000000: 88e6 8fbc 0377 1f3c 92fa aabd 29ae 953b
00000010: b136 cbbc 2a1c a03c deff 86bd 82b5 f239
00000020: 59f7 ccbc 6b0c 1dba 5fcb 7a3c f24b 93bc
00000030: f3fe a7ba 35b5 febd 02bc 64bc 488b 463c
00000040: 4cc3 b2bd c961 06bc 6e0a fcbb 7de8 e3ba
00000050: 7f48 debc 0862 8e3b e5a9 8abc 8583 243c
00000060: 2aba 46bd 9557 b53a 6310 d7ba 3067 133b
00000070: 7ed4 333c 1e83 853c 26c2 c4bc 6421 20bd
00000080: f533 5a3a 51e1 80ba 2fc9 e5bd d1cf 06bd
00000090: b9a0 993b b300 fdbb 9bc2 adba bd9c d4b9
000000a0: 8bf9 fa3a 7251 c5bb ac6f 4b3c 7f15 a43b
000000b0: 5136 d0ba b115 e73c 6bbb 0a3c 0fa2 523b
000000c0: f0fd e13a 3233 0dbc c730 073d ab4b a53c
000000d0: 54a3 f23a e293 3a3c 4753 ec3c 3326 6d3c
000000e0: 64f3 1dbc 5c64 b3bb 4d56 113b 6bf6 e239
000000f0: 3c8d f5bc 77f0 593c b43a 0b3c 2256 00bc
00000100: 8c94 8abd 6822 3ebc a4b4 d23b 76d2 d1bd
00000110: d1d5 88bc dc49 4dbd eef5 993b 5329 1cbb
00000120: cbf5 c0bc 27fb cebc 7894 62bd a67b 663c
00000130: 9320 8b3c cbfd 20bd b869 e5bb 207d 16bc
00000140: 95f8 e63b 9ab7 bbbc e01f 0ebe e847 37bc
00000150: 457e 11bc cf6b d73b b973 f9bc dd4c ccbc
00000160: 3f9f 123d 9fcd b1bc c6b8 683c dd26 353c
00000170: a410 233b 4fd6 213b 7ede 5d3b 87c7 3e3d
00000180: b74d a03b e116 2fbb cf0d 89bb 954b 7c3c
00000190: 3414 5b3d e4be 1f3c b568 0bbc 953c 94bb
000001a0: b4cc 27bc 6a7c f23a 3482 8e3b 6d7a 6cbc
000001b0: af20 243c 3149 b2bc ad08 5a3c 0927 303c
000001c0: 4e66 89bd 95bf f7be 93ee babe c846 44bc
000001d0: bcbc b1bc 764a 063d 3f64 f3bc a7dd 62bb
000001e0: 80f6 caba 1547 5bbb a844 213b e5b2 6c3e
000001f0: 2d05 aa3c f7a4 92bd 6f1b 25bb 7754 2e3c
