results/Basic4Dirs3Obstacles8/BasicAgent/BasicAgent-311267.onnx (onnx, 83273 bytes, 6 tensors)

action_model._discrete_distribution.branches.0.bias f4 [5]
00000000: 9d5d 823d 14d8 003e 0532 73bd 8a60 94bd
00000010: e7ff c4bd
0.063655116 0.12582427 -0.059373874 -0.07244976 -0.09619122

action_model._discrete_distribution.branches.0.weight f4 [5, 128]
00000000: c850 8e3c 3808 153d 79aa 573d 5afd 2f3d
00000010: a821 1dbd dfb4 823c b863 0b3d 76a7 473b
00000020: f607 1c3d 378a d73c 851a a23a 21e7 233d
00000030: f6dd 9bbd c272 8d3d 3ee0 2dbb 2672 733d
00000040: 04df 073d 0128 ff3c de1b 8e3d 7a47 283d
00000050: a5a4 35bd 197c 373d 67ed ba3c b91d a93c
00000060: 6fb0 a6bd 3113 b73c 6778 123d 921f 583d
00000070: 7698 223d fed3 4abd 23b8 2a3d 4796 0bbd
00000080: 9298 ef3d ab33 be3c e306 0f3d 0f67 773d
00000090: 2563 413d 635a aa3d 14fb b93d ac95 973c
000000a0: 33c1 b13c 97a4 8e3d 33e1 413d e791 db3c
000000b0: 6ce8 363c 2423 823d 72d6 763d 3424 9c3d
000000c0: a14e b9ba e09e b73c 3e7f 773d 3eff 1abb
000000d0: fbbf d33d 4dcd 52bd 9f8a 773c 8699 243d
000000e0: 36be 003d 9eab 7fbd bc50 bd3c 6baa 58bd
000000f0: d6d9 44bd 2267 b1bc 2bd1 c43d b933 4f3d
00000100: 9d28 893d 4c44 c0bd fc74 cf3c 394d abbc
00000110: fe93 e0bc c6c0 213d 94e2 583d a9a3 9f3d
00000120: 50be 1f3d 1731 96bd 90dc 183c d65b 0e3d
00000130: 2f7a 8d3d c66e 623d 759d ba3d b16a 1a3d
00000140: 254f 21be 3604 353d fb0a 0a3d db8c 2e3d
00000150: b318 6c3d c039 723d 9685 cfbd 7b07 7d3d
00000160: 5a23 7a3d a8b4 ad3d cfcb bc3c 83f2 563d
00000170: fd34 7b3c bb38 8ebc 8cde 393d ee6e c03c
00000180: b7ef 983d 1a28 a23c 846b ecbd c2b7 6cbc
00000190: 48ff c8bd 7dc9 9cbc aca4 e5bd 17df a33d
000001a0: e5a8 9dbc e04f 1abe 6297 873d 22fd 6a3d
000001b0: 6ff3 b8bc 0359 063d f8d7 d23c 6ac6 9f3b
000001c0: 5045 7abd 423d 7d3d 7f98 e83c 5c9a 13bd
000001d0: cbf3 d9bd be42 853d d891 e6bc a8d5 29b9
000001e0: 4730 6e3d 01ec 8c3c adf7 c33d e908 8fba
000001f0: 0840 1ebd a308 a1bc 0256 ae3c 21ba 593d
00000200: eff3 273d ce36 18bd 299d 11bc 7042 683d
00000210: abd1 e7bd 7428 513a 76d7 e33d af4c 5ebe
00000220: be22 143d a91b b4bd eab9 13be c3e1 cf3d
00000230: adef bf3d 6075 1d3d a415 183d 51c1 d03d
00000240: 9a81 723d 599b adba c549 0bbe 163b f2bd
00000250: ac2f 39be c24c df3c cfa9 08bd 07cc 183d
00000260: 840f bc3d af2e 0e3d 6c39 0e3d cf22 d0bd
00000270: 2bf4 833d 6a38 cebd 5d87 133d 9011 28be
00000280: cf08 23be 9879 c6bc abc2 c13d a75b 2d3d
00000290: 585b 62be 95a7 25be 8271 86be 6a9a 743d
000002a0: 222d 29be b0e7 77be 5ed7 31be 440f 4ebc
000002b0: 5600 db3c 0513 95be 2547 583c 3781 823d
000002c0: c15d 573d 4f99 aa3d ed12 19bd 043c 0e3d
000002d0: 62c5 1d3d dd2d 3a3d 48d7 a73d bd38 583d
000002e0: cadf 2dbb 8a39 5d3d 7b6e ba3c 7a6f 093e
000002f0: 4ed3 b43d de34 35be 322a 333d 92f5 86be
00000300: 35a4 e7bd 003c efbc 1361 693d 30d9 6dbe
00000310: 8c33 59be 5199 c0bc 784e 04bd 5d48 903d
00000320: 8b7f 4dbe cd94 503d 6226 7ebe 5c44 d03d
00000330: 72ef 43be 70a7 7bbd 271e 17be e0eb 663d
00000340: e5db e43d 02dd 3c3c 492a 7fbd 8227 4dbe
00000350: cfc8 2d3d 5935 40be 2410 4bbd 829a 9dbc
00000360: 9fd1 a93d a2b2 28bd e718 d73c 842b 92bd
00000370: b647 b53d 716f 123d 60d8 753d 55bc ebbc
00000380: 0f07 d13d 38c1 80be 792a d4bd ebf6 2abe
00000390: ac5a 103e 4048 3abe 3632 8d3c b991 a13d
000003a0: d82e c6bd 1e48 823d eb5d 60be e5f2 4c3d
000003b0: 48d1 0fbd 303e 94bd 7fb6 92bc 993d 7abe
000003c0: 1d50 05be b318 2c3d ac19 81be 3141 cdbd
000003d0: 15d2 babd 00e7 07be abcb 2abe f390 9d3d
000003e0: de25 533d 2ad9 e13c 3bfe 5ebe 83b6 573d
000003f0: a7c3 c83d e048 da3d dd66 5fbd 8ae8 9d3d
0.017372504 0.03638479 0.05265281 0.042966224 -0.038362175 0.015955387 0.034030646 0.0030464805
0.03809353 0.026311023 0.0012367523 0.040015344 -0.07610695 0.06906654 -0.0026531364 0.059435032
0.03317167 0.031147005 0.06938909 0.04108379 -0.04434647 0.044796083 0.02281828 0.020644056
-0.08139121 0.022348018 0.035759356 0.052764483 0.03969618 -0.049518578 0.041679513 -0.034078863
0.11699022 0.023217997 0.034918677 0.06040102 0.047213692 0.08318021 0.090810925 0.018503986
0.02169857 0.06964987 0.047333907 0.02680297 0.011163812 0.06354359 0.060263105 0.07624093
-0.0014137813 0.022414625 0.060424082 -0.0023650671 0.10339352 -0.05146532 0.015108733 0.040185474
0.0314314 -0.062419526 0.023109786 -0.0528969 -0.048059307 -0.021655623 0.09610208 0.050586436
0.066971995 -0.093880266 0.025324337 -0.020910846 -0.027414318 0.039490484 0.052950457 0.077948876
0.038999856 -0.07333582 0.00932993 0.03475555 0.0690807 0.055281423 0.09112064 0.037699405
-0.15752847 0.04419347 0.033701878 0.0426148 0.057640743 0.059137106 -0.10132901 0.061774712
0.06106887 0.08481723 0.023046402 0.05247737 0.015332458 -0.017361036 0.045378253 0.023490395
0.07467597 0.019794513 -0.115439445 -0.014448108 -0.09814316 -0.019139046 -0.11213049 0.080015354
-0.019245574 -0.15069532 0.06620671 0.057370313 -0.022577016 0.032799732 0.025737748 0.0048759477
-0.061101258 0.061825998 0.028393028 -0.03603588 -0.10642203 0.06506871 -0.028145716 -0.00016196689
0.05815151 0.01720238 0.09568725 -0.001091269 -0.038635284 -0.019657439 0.021281246 0.053156022
0.041004118 -0.03716164 -0.008887568 0.056703985 -0.11319288 0.0007978745 0.1112508 -0.2170894
0.036165945 -0.08794338 -0.1442639 0.101504825 0.093718864 0.038442016 0.037130013 0.10193122
0.05920563 -0.001324515 -0.1360236 -0.11827676 -0.18084592 0.02725828 -0.033365067 0.03730395
0.09182647 0.03471249 0.03472273 -0.10162889 0.06443056 -0.10069354 0.036017764 -0.1641295
-0.15921329 -0.024227902 0.09460958 0.042323735 -0.22105157 -0.16177209 -0.26258475 0.059717573
-0.16521123 -0.24209476 -0.17367312 -0.012576882 0.026733559 -0.29116073 0.013200556 0.06372302
0.052579645 0.083300225 -0.037371565 0.034725204 0.038518317 0.045453895 0.081953585 0.052788485
-0.0026531094 0.05400995 0.02275776 0.13421431 0.08829366 -0.17695948 0.043741412 -0.2635923
-0.11310617 -0.029203415 0.056977343 -0.23227382 -0.2121107 -0.023510607 -0.032301396 0.07045052
-0.20068185 0.050923157 -0.2481933 0.101692885 -0.1913431 -0.061438978 -0.14757596 0.05637729
0.11174754 0.011527302 -0.062296186 -0.20034602 0.042427834 -0.1877035 -0.04957594 -0.019238714
0.08291935 -0.041185983 0.026256992 -0.07137206 0.088515684 0.03575081 0.060020804 -0.028776327
0.102064244 -0.25147414 -0.103596635 -0.16695754 0.14097089 -0.18191624 0.017235857 0.078891225
-0.096769035 0.063614115 -0.21910827 0.05003633 -0.035111696 -0.07238424 -0.017909287 -0.2443756
-0.13018842 0.042015743 -0.252149 -0.100222 -0.09122101 -0.13271713 -0.16679256 0.076936625
0.051549785 0.027569372 -0.21776669 0.05266429 0.09802943 0.10658431 -0.054541457 0.07710369

network_body.linear_encoder.seq_layers.0.bias f4 [128]
00000000: 85fc 623e e93e 273e ac17 3c3c 3115 9a3d
00000010: 8151 d43d 2a51 b4bd 0f32 e23d 4d4a 4bbe
00000020: 6b25 633d 7f8e f73d 57f0 383e 0216 1a3d
00000030: b76d 03be f2fa e0bd 89ad d73d 9c8b 94bc
00000040: 143f 983d 4208 08be bce3 eebc 468d 353e
00000050: 45d1 81bd e9e1 31be c76f e73d 1f54 5a3d
00000060: 564d 06bb 26a6 893e abf1 6c3e 099b a23d
00000070: 4d1e 0ebd a673 08bd ae9e a83d ae6f 003b
00000080: 88f3 5ebd 1771 63bc 6439 46bd 3866 803c
00000090: 4d97 e6bb 792c 7d3d c759 e8bb 9db5 0c3e
000000a0: b2dd 94bd 7c0d 193e 5d92 bf3d 0add 323e
000000b0: 62d7 cf3c d1da fdbc 0ec1 4c3d 795c a7bd
000000c0: 6f29 813d 8ab6 d0bc 3b67 e23d 76f0 04bd
000000d0: 6c69 5dbd 5bb6 83bc b9b8 bcbd 92c8 9ebd
000000e0: a113 5cbe f7a3 28be cd5d 85bd 6da3 96bd
000000f0: a8ab c03d e2e9 8abc 4f8d 49bd ad2a a43d
00000100: 752e 89bc e61c 713e c7c9 76bd d917 d53b
00000110: 70e2 f83d 36d8 3a3e d819 4fbd 57ef 98bd
00000120: dcdb 7cbd 79bb e5bc 2e04 e5bd 8f93 323e
00000130: ac37 3cbd 0d94 dcbd f449 233e f8bc a1bd
00000140: ea2b bebd b314 b3bd 16fd 443d b04f d9bd
00000150: d6ba 723e ac48 de3c b065 18be d0ab 363e
00000160: aec8 28be c2a7 a1bd e35b 793e 8de4 c3bc
00000170: 17ff e63b d82a d6bd 0795 cbbd 2030 913d
00000180: 5ce4 9bbb 74db e13d d56c 0e3e 81ec f138
00000190: 5726 3a3e f259 42bd 6b44 953d de44 fabc
000001a0: e324 b9bd 74ce 8a3d eb9d 59bd 2001 0bbe
000001b0: b1ab cdbc 15fb 853d eeda 313e 819a c3ba
000001c0: 0507 423e d470 d13d 6a5e 2a3c 364b 12be
000001d0: 5e25 083d ca80 febc 5ee8 f23d e6d7 5e3e
000001e0: 3e05 473e 2b16 27be dec8 0f3e 0574 dd3d
000001f0: ccd3 ea3b 0134 3cbd 727b bcbd 191e 163e
0.22166641 0.16332592 0.011480253 0.07523573 0.10367108 -0.08804543 0.11044704 -0.19852562
0.055455606 0.12087726 0.18060432 0.037618645 -0.12834822 -0.10985364 0.10531146 -0.018132977
0.07433906 -0.132844 -0.029161327 0.17729673 -0.06338743 -0.17371334 0.11300617 0.05330288
-0.0020492873 0.26884574 0.23139064 0.07939727 -0.034696866 -0.033313416 0.08233391 0.0019597816
-0.05443147 -0.013881943 -0.048394576 0.015673742 -0.0070370794 0.06180999 -0.0070907804 0.13741155
-0.072688475 0.1494655 0.093540885 0.17467132 0.025371257 -0.030988129 0.0499888 -0.08171935
0.06306731 -0.025477666 0.11054846 -0.032455884 -0.054055616 -0.016078165 -0.092149206 -0.077530995
-0.21491863 -0.16468798 -0.06512032 -0.0735539 0.09407741 -0.016957227 -0.049207028 0.08015952
-0.016745785 0.2354618 -0.060251024 0.006503087 0.121525645 0.1824654 -0.050561756 -0.074675255
-0.06173311 -0.028043495 -0.11182438 0.17439102 -0.04595153 -0.10770426 0.1594618 -0.07897371
-0.0928572 -0.087441824 0.048092924 -0.10610902 0.23704085 0.027134262 -0.1488254 0.17838979
-0.16482803 -0.078933254 0.24351458 -0.023912692 0.007049452 -0.104573905 -0.09940534 0.07089257
-0.004757447 0.110281855 0.13908704 0.00011535828 0.18178688 -0.04744906 0.0728844 -0.030550417
-0.09040239 0.06777659 -0.053129118 -0.13574648 -0.025106283 0.06542031 0.17368671 -0.0014923365
0.1894799 0.102265984 0.010398487 -0.14286503 0.03323876 -0.03106727 0.11860727 0.21762046
0.19435593 -0.1631705 0.14041469 0.108131446 0.0071663614 -0.045948032 -0.09203233 0.14659919

network_body.linear_encoder.seq_layers.0.weight f4 [128, 23]
00000000: dd21 f8be 6a9a 373e a5fa a53e 3fba 57be
00000010: 2681 623e cb8b 533e 84f9 bf3d 50ad cdbe
00000020: 686c ad3e 2e1d 41be 1eb4 403f d708 593e
00000030: 9eb7 e33e 8688 71bc 07ac 0abe f321 223e
00000040: 7959 433e 6e98 983c 84a5 da3e 27a5 4b3c
00000050: ca63 cd3d ddf4 02bd 3a7b e4bc 85a4 a13c
00000060: 6f32 d83d a95c 343f 83ed 0e3d f2c8 70be
00000070: 43b2 cb3e 7ba0 90be 62e9 7b3d 8e11 3b3e
00000080: 95d0 14be 0457 25be 2edb 4c3e d299 4a3e
00000090: 1772 e2bd 6c6d b3bd fa1b 1f3e abcf 07be
000000a0: 1d66 973e a8ed 3abe 8200 f43d 2daf eb3d
000000b0: 2c27 873d f44e c53d 496a 91bd e9b7 16be
000000c0: b79c 7c3e 30cc 9cbe c18d 2ebd 8c0d e63e
000000d0: 73b4 08be abd1 f9bd 53f1 d6be 2c90 1bbe
000000e0: a949 eb3e fe34 0cbe 4cfc 1a3a 99a6 123d
000000f0: 6fd7 123f 2be0 4d3d 3f0d 0c3e 021d 4e3d
00000100: 27d3 4d3e 9106 2dbe 8f79 973e 6219 11bd
00000110: f279 523e e216 90bd c240 bcbe e832 c6bc
00000120: be07 343e 32c5 a33e 8f1c 40be dccb f3bd
00000130: bde9 8c3c 445a 9e3e 9a60 f3bd 3e68 113d
00000140: fd27 8b3e 2bd8 14be 9b8a 96bd ef78 723e
00000150: 4327 093f 5d49 023f 9c47 53be eac2 d23c
00000160: a663 69bd 8e22 713e 4db6 c5be e53d da3d
00000170: 0f6c 2cbf 0806 95be dc6b f1bd 31f1 543e
00000180: d5bf 353e 385e 27be bd32 efbd b0fb 0bbe
00000190: 64af bd3e 2db2 a43e 34a7 d6be 6f61 283e
000001a0: 7f53 1abe 1313 01bf d80e 89be 87c6 92bb
000001b0: 0d0d 6fbd 0b87 f0bd 05d5 563d 9cf0 a9bd
000001c0: 73bf 32be 231d 85be adc5 2d3e 40df bcbe
000001d0: a73e 31bc 5884 80bc 512b ee3e b654 36bd
000001e0: 3d68 4c3e 8064 02bf a620 1fbd eaf0 e13d
000001f0: 56a3 16be 02df da3e e6b5 c1bd e18e 98be
00000200: 2926 083d 4531 2abe f108 793c e4f3 193d
00000210: 1820 23be b055 83bd 9882 5e3e 5639 2d3e
00000220: 5698 ff3d ebc4 09be 32e2 4ebe b103 5a3e
00000230: ccaa 9c3e b15b 4bbe ed5b d1bd e39a 0f3f
00000240: d552 ebbe 975d 12bf 3508 9c3e a4ca b5be
00000250: 0b49 1ebe bdbe 253e 50e1 5abd e834 89be
00000260: d703 ed3e a792 913e 3db5 40be 2097 a83d
00000270: 0340 eebd 7fc5 723e e588 293d 1aff 6bbd
00000280: 96a6 ccbd 7e54 92be d839 51be eb3c 65bd
00000290: 1c1e 0a3e 7d7e 54be d631 f3bd 42b4 223e
000002a0: 8e0b 033e e6fa 6fbd a758 bebe 6c2b 81be
000002b0: 16d8 9bbe d86d 9ebe 665e 27be 89aa ebbe
000002c0: c48a 16be 0b08 dd3d 9216 0dbe 0dd3 f3bd
000002d0: 4fd9 913d 8db4 c4be fcff 47bb c0e2 41be
000002e0: f79e 603e 69e1 44be de17 aebe 672c c53e
000002f0: e47f 84bc 9225 323e 587b 69be 5751 71be
00000300: 5e98 963e 2de4 ef3e ae0b e2be b107 87bd
00000310: 3137 7ebe ede3 453e da17 203f 0a07 cd3e
00000320: 30df 7abe 05c8 86be c266 95be 1ed4 663e
00000330: c6d6 9e3e c775 ddbd 7d35 873e 4be5 0e3f
00000340: 8583 4dbe 30cd b3bd e522 b83d ee40 25be
00000350: 60cb 763e b55c dc3d 4d9b 3cbe 7454 b7be
00000360: ca0b 22be 5702 66be 6b7c f6bd dbc8 dc3e
00000370: cfde 5ebe a980 65be 1bef f7bc fd1a 9dbd
00000380: 8e72 333e 81df 303e c791 0ebe 5444 083d
00000390: 0c73 253c a652 c43d 38bd cfbe f2fe 2a3e
000003a0: 1128 683e 2f7a d4bd 5ef9 0e3f 031b 033f
000003b0: 5d8f bd3d aa55 ae3e 5a16 083e d6fa 38be
000003c0: e3c0 cc3e f162 5f3e c27b 9d3e 7a7d 0cbe
000003d0: 001d d23e 7c2d eabe 163a 8e3e 9c15 3f3e
000003e0: 458b fa3d 598a 6f3e a372 f13d adc9 79bd
000003f0: 1c41 5f3c e644 963e f362 e7be f97d f4bd
-0.48463336 0.17929998 0.3241779 -0.21067141 0.22119579 0.20658796 0.09373763 -0.4017129
0.3387177 -0.18858787 0.75274837 0.21194778 0.44476026 -0.014742022 -0.13542186 0.15833263
0.190771 0.018627372 0.42704403 0.012429512 0.10028799 -0.0319718 -0.02789079 0.01973177
0.105564944 0.7045389 0.034894478 -0.23514155 0.3978444 -0.28247437 0.061501868 0.18268415
-0.14532693 -0.16146475 0.20005485 0.1978524 -0.11056917 -0.08761105 0.15538016 -0.13262813
0.29570094 -0.18254721 0.11914159 0.115080215 0.06599268 0.096342 -0.071003504 -0.14718594
0.24669157 -0.30624533 -0.042615656 0.4493221 -0.13350086 -0.12198194 -0.4198099 -0.15191716
0.45954636 -0.1369209 0.0005912229 0.03580341 0.57359976 0.05026261 0.13676928 0.050320633
0.2010008 -0.16897036 0.2958493 -0.035424598 0.20554331 -0.070356146 -0.36768156 -0.024194196
0.17581078 0.31986386 -0.18760894 -0.119041175 0.017201299 0.30928242 -0.1188366 0.035499804
0.27178946 -0.14535587 -0.07350656 0.23678945 0.53575534 0.50893193 -0.20632786 0.025727708
-0.056979798 0.23548338 -0.38615647 0.10656337 -0.67352384 -0.29106164 -0.11788151 0.20795132
0.1774896 -0.16344535 -0.116795994 -0.1367023 0.37047875 0.32167187 -0.4192444 0.16443418
-0.15070914 -0.5041973 -0.26769137 -0.0044792327 -0.058362056 -0.117445074 0.052449245 -0.08297846
-0.17455845 -0.25998792 0.16969939 -0.36889076 -0.01081816 -0.015688106 0.46517423 -0.04451438
0.19961639 -0.509346 -0.038849495 0.11032279 -0.14710745 0.42748266 -0.094585225 -0.29796508
0.033239517 -0.16620357 0.015199886 0.037586108 -0.15930212 -0.06412828 0.21729505 0.16916403
0.12480228 -0.13454024 -0.20203474 0.2129047 0.30599058 -0.19859196 -0.102226116 0.56095713
-0.45961633 -0.57174057 0.3047501 -0.35506165 -0.15457551 0.16186042 -0.05343753 -0.26798177
0.46291992 0.284322 -0.18819137 0.0823195 -0.11633303 0.23708151 0.04139032 -0.05761633
-0.09992711 -0.28580087 -0.20432222 -0.0559663 0.13488048 -0.20751376 -0.1187474 0.15889075
0.12797377 -0.058588885 -0.3717701 -0.2522844 -0.30438298 -0.3094318 -0.16344604 -0.46028545
-0.14701372 0.1079255 -0.13778141 -0.11905489 0.071215264 -0.38419 -0.0030517569 -0.18934155
0.2193564 -0.19226612 -0.34002584 0.3851044 -0.016174264 0.17397144 -0.22800958 -0.23566185
0.29413122 0.46853772 -0.44149536 -0.06593264 -0.24825741 0.19325228 0.62536395 0.40044433
-0.24499202 -0.26324478 -0.2917996 0.22541854 0.31023234 -0.1081348 0.26407996 0.55818623
-0.20069702 -0.08779371 0.089910306 -0.1613805 0.24101019 0.1075987 -0.18418618 -0.3580662
-0.1582481 -0.2246183 -0.120354496 0.4312199 -0.21764682 -0.22412361 -0.030265382 -0.07671163
0.17524168 0.1727276 -0.13922797 0.033268288 0.01009823 0.095860764 -0.4057405 0.16698816
0.22671534 -0.10374867 0.55849254 0.5121309 0.0925586 0.34049731 0.13289776 -0.18064436
0.3999091 0.21815087 0.30758482 -0.1371974 0.4103775 -0.45737827 0.2777869 0.18660587
0.12233595 0.23392619 0.11789443 -0.06098335 0.013626363 0.2934944 -0.4519268 -0.1193809

network_body.linear_encoder.seq_layers.2.bias f4 [128]
00000000: 9929 5c3d 159a f03b 8dae 063d a020 1a3e
00000010: 987a 9bbd 2ed4 c5bd bed6 383e ba5b 30bd
00000020: efd0 ce3c 0ed3 09bd 623d a7bc 7135 3c3e
00000030: ccd4 903d 6283 fa3d e468 573c 4d85 3f3e
00000040: 5a79 843d 7b23 26bc 54cb 2abd e607 8dbd
00000050: e2a6 a6bd 6702 0b3d ba9d 6bbd 340e 51bd
00000060: 0ba0 2b3e c496 8cbb f5b5 373d b891 9abd
00000070: 0296 b33d c662 88bc 7558 9e3d 2a6c 2abc
00000080: e2bd e7bc 32cb 8abd 6b2a 463e c5c0 9e3d
00000090: 4052 45bc 04e8 35bd a48c e23c 44b0 023e
000000a0: f87f c3bc 7484 e93a d342 33bd b3c5 c9bd
000000b0: 340a 513c b2a7 32bd 86a1 8d3d 69d0 0f3e
000000c0: a1ea febc eacb 313e ea0d 00bd 81d9 da3d
000000d0: 86ad 153e 12e9 10bc 961a 193e 109b 603c
000000e0: fd65 c6bc 1688 f83d b1a3 1f3d 1980 df3d
000000f0: d6ba 003d 4ee4 dcbc 33f7 363e 5110 20bc
00000100: 5320 37bd 2c46 8dbd 3922 ec3d cf95 3abd
00000110: 3b1e 43bc 49b2 5abd 6bd6 50bc a9f2 1f3e
00000120: 15bb 51bd ab6b 623d 5980 ecbc 5ffd 383e
00000130: 4276 a4bd 8457 16bd 64a8 6e3b 18c6 8f3d
00000140: 6431 073e 4606 003b c0e5 04bb 7668 60bc
00000150: 6208 ad3d b21f 7fbd b35a 9ebd 29f8 31bc
00000160: 2ec8 e53d 0db5 ba3b abc2 cd3c 77a0 12ba
00000170: b6d0 f63d 4ae5 0fbd d218 f03d 644f a7bd
00000180: 4c5f 333e d30e 4abc acb0 a5bd 50e6 50bc
00000190: 70be 1c3e eb80 43bd 2ace 0bbb 38d9 423e
000001a0: 6e84 bebc f19a 673d 1949 bbbc 3cf4 f63d
000001b0: a7bb 4abd e66c 99bc a813 56bd 93d3 15bd
000001c0: 1c0d 83bd fa9a b53d 4f8b 70bc 0d49 79bd
000001d0: eb9a 95bc 0820 81bd 6cff 97bd ac1b 443d
000001e0: de06 d13d 400f 683d f43b 093d 6fe3 2e3d
000001f0: 9ac9 113e a516 783d e31f 03bc a686 243e
0.053750608 0.0073425868 0.03288131 0.15051508 -0.07591742 -0.09659611 0.18050668 -0.043056227
0.025246112 -0.033648543 -0.020415012 0.18379761 0.07071838 0.122320905 0.0131475665 0.18703194
0.064684585 -0.010140295 -0.041697815 -0.06886272 -0.08137299 0.033937838 -0.057523467 -0.051038936
0.1676027 -0.0042904336 0.044851262 -0.07547325 0.08768846 -0.016648661 0.077317156 -0.010401765
-0.028288785 -0.06777038 0.19352119 0.077516116 -0.012043536 -0.04441072 0.027654953 0.12762552
-0.023864731 0.0017815963 -0.0437649 -0.09852161 0.01275878 -0.043616958 0.06915574 0.14044346
-0.03111774 0.17362943 -0.03126327 0.10686017 0.14616975 -0.008844631 0.14951548 0.013708845
-0.024218554 0.12135331 0.038974468 0.109131046 0.03142818 -0.026964333 0.17867737 -0.009769515
-0.04470856 -0.0689815 0.11529965 -0.045553025 -0.011909063 -0.053392682 -0.012746434 0.15619911
-0.051203806 0.05527846 -0.028869795 0.18065403 -0.080303684 -0.036704555 0.0036416287 0.07020205
0.13202435 0.001953499 -0.0020278543 -0.01369678 0.084488645 -0.062286086 -0.07732143 -0.010862389
0.11219822 0.0056978525 0.025117239 -0.0005593369 0.12051527 -0.035130776 0.11723484 -0.081694394
0.17516822 -0.012332636 -0.08090338 -0.012750223 0.15307021 -0.047730368 -0.00213326 0.19028175
-0.023256507 0.056544248 -0.022862004 0.12058303 -0.049495365 -0.018728685 -0.05226484 -0.036578726
-0.06398985 0.0886745 -0.014681651 -0.060860682 -0.018262347 -0.063049376 -0.07421765 0.047877952
0.10206388 0.05665517 0.03350444 0.042697366 0.14237061 0.06056847 -0.008003208 0.1606699

network_body.linear_encoder.seq_layers.2.weight f4 [128, 128]
00000000: 4543 823d 5b38 8f3d d549 163e ab0a 31be
00000010: 211e bcbd 452a 06be 7ded b5bd 3ad5 363d
00000020: eaab 583d b60b 873e 0ce5 bb3e e3e5 a3bd
00000030: 42e0 52be 3016 4e3b 915f febc 09bf efbd
00000040: ad99 bd3c 583f cebd 3e2d 5a3d abdd 383e
00000050: e50c 6cbd 3a2b 793d 2033 7fbe fbb8 013e
00000060: d073 85bd ba85 043e dc66 96be 610d 6cbd
00000070: 469f a33d ac8c a9bd 19ad 75bd 3239 6ebd
00000080: 1a4d 17be d118 a6bd fb24 7cbe 43d7 c7bc
00000090: 3996 6abc 01f1 413d cc2a 25bd 9b0c 8b3d
000000a0: 4ac6 07be 3fa2 febd 34de a3bd 2221 0bbd
000000b0: 0837 f73d 0f17 1fbe 902f a03d a388 5ebe
000000c0: caea 23bd 88a0 82bd 13a4 6a3d 367c 9d3d
000000d0: fc6f 24be a41f abbd 4650 0d3e c39a 2ebe
000000e0: ddd5 133d 32ab 72bd b0aa 3d3e 9920 03bc
000000f0: ec66 03be 8ea5 4bbd a81f 4c3e 1a6f a9bd
00000100: 9c7b 62be 6a23 dd3d 2814 d9bc 0f35 2cbc
00000110: 8571 143e 7822 00be 8a09 823c d9df 093d
00000120: 751c 64bb c3e6 acbd f922 1f3e e523 11be
00000130: 59a8 85bd d5b2 2dbe a080 44bd 9923 febc
00000140: 1d1c 513d 2595 613a 1a64 a13d 2a2f 19be
00000150: a1a0 273e ec03 493d 0074 58bd 8a11 713e
00000160: e6e9 a9bc f991 ee3c 2561 b8bc fb7a 023e
00000170: 9ba8 8ebe 9fd2 41be aad7 52bd d2cb a73d
00000180: 2ca7 f8bc 2d58 48bd 1130 9abe cbee 503d
00000190: fa0e 78be fda9 cb3c ebb1 cf3d 4ab5 923d
000001a0: 2a79 103b 7fa8 2fbe 5196 2f3d b841 0d3e
000001b0: cd76 3ebd 1987 9f3d 8b59 42bd 4ec9 ab3c
000001c0: 0959 3b3e d124 edbd 05de 57bc 5f9d 823d
000001d0: 1ef3 543e 5873 04be 0dd0 8f3e 5b24 623d
000001e0: f607 a8be 9b01 613c 9e39 c73c b13f 00be
000001f0: 0ae5 1e3d 02ab 063d 68f9 8a3e b51f 1b3e
00000200: 9e48 64be 6e72 06be c60c 40bd b20e 7dbd
00000210: 0c8c 4b3d 4a8a 82be 8ff2 4cbd f687 993c
00000220: 9e28 6bbe c934 bc3d 3bb1 453e 41f7 403e
00000230: 3278 93bd 7740 2b3d 4ead 623e 5157 49bd
00000240: 9bb3 c03d 6626 8dbd a4e4 683d 87e6 15bd
00000250: 9c03 293e 5f9a 27be ffc4 003d 7c46 443e
00000260: d3a7 29be 6e35 3cbe 7d09 8bbd 3c7a 68bd
00000270: 460b 043e 7007 863c d526 dcbc f564 f2bd
00000280: 9872 313d 3631 b03d f0ea debc 8210 2fbd
00000290: 484e 103d a993 523d d2e5 7abe 826d 093d
000002a0: 57db ce3d d9b5 36be f4b9 ce3d 8de0 98bd
000002b0: 65d9 17bd ea70 c9bc 7ef9 1dbd 5732 dbbd
000002c0: b215 053d 924d 313c 2070 15be 9c8a 783e
000002d0: 6d5e c4bd 7674 ce3c 6627 b33d 8cd5 4e3e
000002e0: af46 0a3e 6185 2abe 2bc3 05bd 7c06 02be
000002f0: 275d 193d ee78 ea3d f563 6fbd 36d2 c83d
00000300: ffd7 b33c 7bc5 5c3e f7b3 953d 17dc c83c
00000310: d8e8 debc 3ce3 80be b8b0 3fbe 0747 d7bd
00000320: a372 5f3d 3baa 8e3d b86f c53d 28dc ebbd
00000330: 122b 023d e03a 993d a100 6fbc 43d9 933e
00000340: 2c72 8dbd 5ee3 f23d cd5e 4c3b f72d 02be
00000350: 082c 83be 3649 023e d3f7 2f3e 75f1 ec3b
00000360: 5665 48be 1d22 e53c b17b 42be d462 84bc
00000370: 4a2d 73bd 2613 933d 14ff 9b3b 7d12 9f3c
00000380: 3527 153e 3651 6ebd baee adbd 0dcc afbd
00000390: 4b19 48be c3e3 333e 2a84 edbd f62a fbbd
000003a0: 8e7c 673e 1a85 e2bd fd28 69bd c07a d33d
000003b0: b0a2 093e 2965 203e c7ac 46be 2426 19bd
000003c0: 6640 ae3d bcc6 b3bd aac2 a33d eb7a fabc
000003d0: cbcb c33e 6f27 97be 1565 173e 1b1a b4bd
000003e0: 88e5 c4be 88a6 9dbc e630 dbba 2ecf 59bb
000003f0: a78a 393d 638e 6e3d accf 553e c82f d23d
0.06360487 0.06993171 0.14676602 -0.17289226 -0.09185434 -0.13102062 -0.08883188 0.044636942
0.052898325 0.26376122 0.36698186 -0.08002832 -0.2059336 0.003144633 -0.031051429 -0.11706359
0.023144567 -0.100706756 0.053265803 0.1805331 -0.057629485 0.06083224 -0.24921846 0.1266822
-0.0651623 0.12941638 -0.2937535 -0.057629947 0.07989363 -0.08278784 -0.059979532 -0.058160014
-0.14775506 -0.08110202 -0.24623482 -0.024394637 -0.014318042 0.04734898 -0.040324017 0.06789514
-0.13259235 -0.1243329 -0.08001366 -0.033967145 0.12071043 -0.1553614 0.07821572 -0.2173181
-0.040018834 -0.06378275 0.05728538 0.07689707 -0.16058344 -0.08355644 0.13800153 -0.17051224
0.036092628 -0.059245296 0.18522143 -0.008003377 -0.1283223 -0.049718432 0.19933951 -0.08273144
-0.22117466 0.1079777 -0.026498869 -0.010510697 0.1449643 -0.12513149 0.01587369 0.033660743
-0.0034807 -0.08442452 0.15540685 -0.14173849 -0.065262504 -0.1696275 -0.04797423 -0.031022834
0.0510522 0.0008605293 0.07880421 -0.14959398 0.16369869 0.049076006 -0.052845 0.23541847
-0.020741414 0.02912234 -0.02250726 0.12742226 -0.2786301 -0.18928002 -0.051475205 0.081931725
-0.030353151 -0.048912216 -0.30114797 0.05100898 -0.24224463 0.02486133 0.10141357 0.071634844
0.0022044876 -0.1715412 0.042867962 0.13794601 -0.046500016 0.0778944 -0.047448676 0.020970013
0.18295683 -0.11579288 -0.013175492 0.063776724 0.20795867 -0.12934625 0.28088418 0.055210453
-0.32818574 0.013733293 0.024319466 -0.12524296 0.038792647 0.03287793 0.27143407 0.15148814
-0.22293326 -0.13129589 -0.04688718 -0.061781593 0.049694106 -0.2549613 -0.05003601 0.018741589
-0.22964713 0.091897555 0.1930589 0.1884432 -0.0720066 0.041809525 0.22136423 -0.049155537
0.09409257 -0.068920895 0.056858674 -0.0365968 0.16505283 -0.16367482 0.03143787 0.19167513
-0.16567926 -0.18379757 -0.06788919 -0.056757197 0.12894925 0.016360968 -0.026873985 -0.11835662
0.043322176 0.08603136 -0.027211636 -0.042740352 0.035230905 0.05141035 -0.24501732 0.0335517
0.101004295 -0.17842807 0.100940615 -0.07464705 -0.037072558 -0.024589974 -0.038568012 -0.10702961
0.032491393 0.010821717 -0.14593554 0.24271625 -0.09588323 0.025202017 0.08747749 0.20198649
0.13503526 -0.16652443 -0.03265683 -0.12697786 0.037442353 0.11448847 -0.058444936 0.098057196
0.02195358 0.21559708 0.07309716 0.02451901 -0.027210638 -0.25173366 -0.18719757 -0.10511594
0.054552685 0.06966063 0.09640449 -0.11516601 0.031779356 0.07481933 -0.014587552 0.28876695
-0.06906542 0.11859773 0.0031184435 -0.12712847 -0.2561953 0.1272324 0.17184381 0.0072309324
-0.19569907 0.027970368 -0.18992497 -0.016160406 -0.059369363 0.07181387 0.0047606323 0.019417996
0.14565738 -0.058182918 -0.08492799 -0.085838415 -0.19540899 0.17567353 -0.11597474 -0.122640535
0.22606108 -0.11060543 -0.056923855 0.10326147 0.13440967 0.1566359 -0.19401847 -0.03738989
0.08508377 -0.0877814 0.079961136 -0.03057619 0.3824142 -0.29522273 0.14784653 -0.08794042
-0.38456368 -0.019244447 -0.0016722947 -0.003323506 0.045298245 0.05824126 0.20880002 0.1026302
