results/SelfPlay_FreezeTool_OnlyBehind_4/BasicAgent/BasicAgent-58314.onnx (onnx, 173150 bytes, 6 tensors)

action_model._discrete_distribution.branches.0.bias f4 [6]
000000 1d 5c 47 3b a1 b8 e1 3c 0f 26 03 be f5 ac 6b 3c
       0.0030419894 0.027553858 -0.12807487 0.014384498
000010 89 4b 63 3b 78 e2 5f 3c
       0.0034682474 0.013664834

action_model._discrete_distribution.branches.0.weight f4 [6, 128]
000000 10 16 a7 3c 32 89 0d 3b dd 09 bc bb 65 a2 bd bb
       0.020396262 0.0021596667 -0.0057384805 -0.005787181
000010 bd 14 c5 3c 03 77 14 3b fe f3 64 bc 0b 72 16 3c
       0.02405774 0.0022653944 -0.013974188 0.009182463
000020 e7 1a d1 bb 10 92 96 3a 8b 8c 51 39 39 e8 8a 3c
       -0.006381381 0.0011487622 0.0001998415 0.016956436
000030 45 da bc 3c f2 de a4 bb 8c c4 17 3c da 73 86 3b
       0.023053298 -0.00503146 0.009263169 0.004103166
000040 18 3c 05 3d d6 10 b4 bb 9f fe dd 3c 0a 16 01 3c
       0.032528013 -0.005495171 0.027098952 0.00787879
000050 99 e7 80 bb 54 fe 24 ba 31 3d 6c 3b 17 dd ae bc
       -0.0039338586 -0.00062940014 0.0036047215 -0.021345658
000060 61 7e d4 3b 7b 59 cd 3b ea 54 a4 bb 17 fc 25 bc
       0.006484792 0.0062667704 -0.0050150054 -0.010130904
000070 22 dc d4 3b 3b c4 c6 ba 11 13 e5 bc 19 92 9f bb
       0.0064959684 -0.0015164682 -0.027963193 -0.004869711
000080 9a 7a 0d 3b 71 df 94 bb ae 19 31 bb 1e be 2b 3d
       0.0021587969 -0.004543238 -0.0027023363 0.041929357
000090 8e 42 ba bb a3 c9 34 bc 53 bc 39 3d 0a 34 0b bd
       -0.0056842035 -0.011034402 0.045345616 -0.033985175
0000a0 7c 7c c6 3b c8 12 c2 3c d6 b3 8e 3c 76 65 a3 bc
       0.00605732 0.023690596 0.017419737 -0.019945841
0000b0 59 45 a5 bc 2c 99 bb 3b c6 b4 3e bc ca 58 5b 3c
       -0.02017467 0.0057250466 -0.011639779 0.013387868
0000c0 b0 20 c0 bc 33 1e 81 3c 31 b6 24 3c 3f 7a 39 bc
       -0.023453087 0.01576147 0.010053203 -0.01132065
0000d0 7b 6a 4b 3c 41 76 3f bc 3e 89 52 bb 69 71 c7 3c
       0.012415524 -0.011685909 -0.003212526 0.02434607
0000e0 b4 92 d0 bc 78 93 ae b9 ce a8 ef bb 0d 88 40 3c
       -0.025460579 -0.0003329774 -0.0073138243 0.011751187
0000f0 05 e3 24 3b 88 d9 51 3c 29 c6 61 bb 69 03 f6 3c
       0.0025159728 0.012808211 -0.0034450388 0.030030923
000100 1a 9b 95 3c e8 be e9 3a 48 d4 9e 3c 21 e6 51 bc
       0.018262435 0.0017833384 0.019388333 -0.012811215
000110 b0 9b b4 bb e5 b2 4b 3c 38 3b 80 bc e1 93 6e bb
       -0.0055117235 0.0124327885 -0.015653238 -0.003640406
000120 93 6b a3 bd 0d f4 02 3c b8 33 10 bc 6d 25 26 3c
       -0.079795025 0.007992757 -0.008801393 0.010140759
000130 9a 44 2b 3a fc 2f 28 bc ed 4d e5 bb 17 18 8e bb
       0.0006533355 -0.010265347 -0.006997815 -0.004336368
000140 b0 96 7f 3c f4 3c 97 3c 1c 14 af 3c 3c 0a 86 b9
       0.015599892 0.018461682 0.021371894 -0.00025566097
000150 e7 b3 b5 3c a9 ef da 3b 38 6a 89 3c 2b ef e7 3c
       0.02218051 0.0066814017 0.016774282 0.028312286
000160 80 3e 8a 3c c3 96 7d 3c 17 38 b3 3b 49 cd 01 bd
       0.016875505 0.015477839 0.005469333 -0.031689916
000170 d9 27 96 3c 7f 69 24 bb 78 69 4b 3c 3c 5b 9c bc
       0.018329548 -0.0025087295 0.012415282 -0.019086473
000180 7a 4b da 3c 05 0c 9a 3c 2c 9f 54 bb 6f 5e db bc
       0.026647318 0.01880456 -0.0032443507 -0.026778428
000190 78 d1 d5 3b 4a fd be 3c 67 10 45 3b 5a 9b f1 3c
       0.0065252148 0.023314137 0.003006959 0.029493023
0001a0 d3 9a 2d 3b fa d9 18 bd 2d 34 54 3c cb d7 b6 3b
       0.0026489988 -0.037317254 0.012951893 0.0055799237
0001b0 8f e7 31 3c 92 09 c6 ba 5f aa a0 3a 5d 4d a5 bc
       0.0108584305 -0.0015109053 0.0012257806 -0.020178491
0001c0 6c 18 26 bc 56 f0 4e 3a 7b a8 66 bc 24 8b a9 bb
       -0.010137659 0.0007894089 -0.014078255 -0.0051740576
0001d0 36 41 26 bb 53 59 fe 3c 7a 62 de bc 45 eb bb 3c
       -0.0025368459 0.031048452 -0.027146567 0.022939334
0001e0 1f 57 a6 3c d3 67 61 bc 07 a0 2f 3b 2b 98 e9 bb
       0.020305214 -0.013757664 0.0026798265 -0.0071287355
0001f0 78 b8 84 3c 71 f9 43 b9 f1 9e 18 3c fa 5f 05 3c
       0.016201243 -0.00018689573 0.009315238 0.008140558
000200 19 86 95 bc 30 02 24 bd ca 84 23 bd 1c ea cd bd
       -0.01825242 -0.04004115 -0.03992156 -0.100544184
000210 43 0a b1 3b f4 33 54 bd d4 2f b0 3c a4 19 88 bd
       0.0054028346 -0.05180736 0.021507181 -0.066455156
000220 16 4c 83 3d 41 aa 8d bc cc 5f 81 bc 4b ad 3a bd
       0.064109966 -0.017293097 -0.01579275 -0.04557542
000230 9d cb f9 bd 12 15 f8 bb 18 87 be bd 4d df b7 3c
       -0.12197039 -0.007570871 -0.09303111 0.022445345
000240 69 44 b3 bc e3 1c b5 bb 6c 36 2c 3d 10 8c 34 3c
       -0.021883206 -0.005527125 0.04204409 0.011019722
000250 80 89 c4 3c 22 e3 12 38 46 b9 07 3d 9d 09 f4 bc
       0.023991346 3.5020646e-05 0.033135675 -0.02978974
000260 91 d2 1e 3d 2b 71 1f 3d 74 b9 85 3d 75 c1 90 3b
       0.03877503 0.038926285 0.06529513 0.004417593
000270 64 e1 80 3d 11 54 87 bd 37 58 80 3d 69 d9 76 bd
       0.0629299 -0.06607831 0.06266826 -0.060265932
000280 3e ec 17 bd ff 95 34 bd 71 d3 f2 3c a8 94 1a bc
       -0.037090532 -0.04408836 0.029641839 -0.0094348565
000290 63 36 bc bc 3b 99 dd bc 88 8b 66 bb 9b 62 67 bc
       -0.022975152 -0.027050605 -0.0035178382 -0.0141226305
0002a0 a8 72 78 bc 9b 7b 6a bc 0a 22 25 bc bb 8b 79 3d
       -0.015164055 -0.014311696 -0.010078916 0.060924273
0002b0 bf c6 05 3d d8 61 67 bc 3c 90 95 3d 9b 38 5e 3b
       0.032660242 -0.014122449 0.07302901 0.0033908251
0002c0 fa 9d 1f 3c d8 3e 14 3d 3a 7a f1 bc 0e 65 0d bd
       0.009742254 0.036192745 -0.029477227 -0.0345202
0002d0 96 6e 20 bd f4 ce c5 bc 10 8c b1 bd e4 13 24 bb
       -0.039167963 -0.024146535 -0.08669293 -0.002503627
0002e0 ab a1 c3 3b c5 38 ac bb e9 01 3d 3d 3f eb 29 bd
       0.0059702 -0.005255791 0.0461444 -0.041484114
0002f0 dc f4 75 3d 64 5e 35 bd 75 5e a7 3d 49 59 46 bd
       0.06004797 -0.04427947 0.08172313 -0.048424993
000300 3e 36 c5 3c 4a ee 99 bd dd c7 d3 3c 82 3d a3 bc
       0.024073716 -0.07516153 0.025852138 -0.01992679
000310 60 e3 c0 3c d5 0f 81 bc 45 b2 61 bd c1 17 90 3d
       0.02354592 -0.01575462 -0.05510165 0.07035781
000320 43 50 62 3c b0 0d 1b bd 77 80 63 bd 9b 88 81 bd
       0.013813081 -0.03785485 -0.055542435 -0.063248836
000330 70 84 a2 3c 7c 9a 3e 3d df 65 e9 3c d3 6e 9f bd
       0.019838542 0.046534047 0.028490959 -0.0778481
000340 b5 29 44 bd f3 52 88 bc 31 05 09 3c 2d f4 22 39
       -0.047891337 -0.016641116 0.008363054 0.00015540486
000350 40 55 01 bd 4b 42 9d bd 1a 98 86 3c f2 7d c3 bc
       -0.03157544 -0.0767866 0.01642995 -0.023863766
000360 af 7f 5a bd 68 29 e4 bc 08 e5 63 bc c3 be 2b 3b
       -0.053344425 -0.027851775 -0.013909586 0.0026206232
000370 de 15 df 3b 45 0d 67 3d f0 78 93 bc 36 9e 86 3d
       0.0068080267 0.05640914 -0.018002003 0.06573145
000380 1e d8 b5 bd ee d4 33 3d 33 04 31 bd 1d d0 8b 3b
       -0.08879112 0.043904237 -0.043216895 0.0042667524
000390 0e f5 f7 bb 79 59 c8 bd e7 82 b2 bb 2a 8e 9e 3b
       -0.0075670546 -0.097826906 -0.0054477337 0.0048387246
0003a0 f9 96 9b 3d 66 e6 41 3d 8e 98 3d bd 07 88 5e bc
       0.07597155 0.047338866 -0.046288066 -0.013582236
0003b0 08 82 b9 bd 17 69 ab bc fc 01 a3 3d 81 28 e5 3c
       -0.090580046 -0.020924134 0.07959363 0.027973415
0003c0 09 fa 94 3d 0c 06 34 bd 74 f2 44 bd d1 f7 61 3d
       0.07274253 -0.04395108 -0.048082784 0.055167977
0003d0 da c7 90 bc e3 8b e7 bc c6 90 5d bc 78 d4 8d bc
       -0.017673422 -0.028264945 -0.013523286 -0.017313227
0003e0 9d d6 a4 bc b5 79 2a 3d f0 0a 4b bc 40 45 3f bc
       -0.020121867 0.041619975 -0.012392744 -0.011674225
0003f0 3c 22 17 3c fb e8 86 3c bc 11 1e bc a0 f9 32 bd
       0.009224471 0.016468516 -0.009647783 -0.043695092

network_body.linear_encoder.seq_layers.0.bias f4 [128]
000000 51 cd 62 bb 67 d5 05 bb 4d ca a0 bd 03 81 53 bd
       -0.0034607241 -0.0020421387 -0.07851086 -0.051636707
000010 f0 e3 41 3c 2e 11 6c 3c 79 15 09 3b 19 77 7d 3c
       0.01183413 0.014408393 0.002091734 0.01547029
000020 6d 84 33 3c d3 95 71 bc e6 c5 22 bc 11 9b de 3c
       0.010956866 -0.0147451935 -0.009934878 0.02717355
000030 d6 17 e0 bc e0 1b 9f 3c 58 fd 53 bb c5 a2 6e 3a
       -0.027355116 0.019422472 -0.003234705 0.0009103234
000040 78 70 30 3b 27 4f a2 3b 10 7a b2 3a 7d 17 02 3c
       0.0026922505 0.0049532834 0.00136167 0.00794017
000050 19 02 01 bc 35 9b b2 3b aa 64 77 bd 12 6e 7a 3c
       -0.007874035 0.005450631 -0.060398735 0.015285032
000060 15 23 88 bc a2 19 5a 3c d3 16 8e bc 5e e3 6b 3a
       -0.01661829 0.013311775 -0.017344868 0.0008998419
000070 37 ae c1 3b 03 8c 8b 3c 53 fc ca bb 04 05 df bb
       0.0059106606 0.017034536 -0.00619463 -0.006806018
000080 b7 b7 e7 3b 07 76 da 3b 96 d9 9b bc 15 cf 0b bc
       0.007071461 0.006666902 -0.019024651 -0.008533259
000090 ce 6c 12 bd 18 4e bc 3c 20 4a 86 3c d4 c2 c0 3b
       -0.035748295 0.022986457 0.016392767 0.0058826003
0000a0 2a 20 cf bb 94 87 95 3c 88 ff 21 ba 7c d2 9a bb
       -0.006320973 0.018253125 -0.000617974 -0.0047247987
0000b0 3f 21 c0 bc 4d 9f a3 3b e2 ab 80 3b 4a 14 ab 3c
       -0.023453353 0.0049933554 0.00392674 0.020883698
0000c0 36 bb 26 3c d5 81 2d 3c a9 cb 5c bd 2e 47 92 3c
       0.0101764705 0.010590036 -0.053905163 0.017856207
0000d0 1a 8a 36 bd 1f 8e 92 bc 9c 68 d5 39 2f c0 da 39
       -0.044565298 -0.017890034 0.00040704466 0.00041723388
0000e0 7d a9 3e 3c c9 77 da 3b 25 d1 00 bd 48 35 7e 3c
       0.011637089 0.0066671115 -0.031449456 0.015515633
0000f0 87 f1 ce 3a 77 ab b1 bb 31 38 93 ba 03 4b 7c 3a
       0.0015788533 -0.0054220515 -0.0011231956 0.0009624215
000100 90 e4 4d bd 99 77 60 3c 66 23 2c 3c 4a ee bb bc
       -0.050266802 0.013700389 0.0105064865 -0.022940774
000110 18 84 94 3c bb 84 0d bc c5 6e 9a bb 22 92 2d bd
       0.018129393 -0.008637602 -0.004712912 -0.04237569
000120 4d 58 9f bc 3d ce b7 bb 3a 14 7e 3b 64 62 0b 3d
       -0.019451285 -0.0056093023 0.003876938 0.03402938
000130 74 ab 09 bd 19 45 75 bb d0 19 5f 3b 3e fd 61 3b
       -0.033610776 -0.0037425219 0.0034042485 0.003448322
000140 4c cb a0 3c 2b 4d 6f bc ac 90 8a bc 00 18 bb 3a
       0.01962819 -0.014605801 -0.016914688 0.001427412
000150 5e 4e ab bb 29 7e b3 bb 06 47 8d bb c5 e6 2a bc
       -0.005227848 -0.005477686 -0.004311445 -0.010430996
000160 d3 48 76 3c a7 2d 8b bc f8 60 a0 bd 88 ae a2 3a
       0.015032011 -0.016989542 -0.07830995 0.0012411634
000170 3d aa 9e 3c f4 41 e1 bb 04 99 14 bc 50 7a a3 bc
       0.019368285 -0.0068743173 -0.009069685 -0.019955784
000180 49 0e be bc 58 82 4c 3c 54 2c d9 b9 d4 18 95 3c
       -0.023200171 0.012482248 -0.00041422492 0.018200316
000190 f6 36 1c 3c 5f a3 4d 3b 7d 8e 85 bc b3 0b 86 3c
       0.009534588 0.0031377894 -0.016303295 0.016363
0001a0 c9 32 c2 3b 14 65 13 bd 25 d3 9a 3b 87 a4 b3 bc
       0.005926464 -0.035985067 0.0047248774 -0.021929039
0001b0 9e c2 1c bc 38 1b 21 bb 2c 0c 13 3c 37 4d e8 3b
       -0.009567885 -0.0024582874 0.00897507 0.007089283
0001c0 d2 79 ec bc a4 e2 84 bb 7d 84 2e 38 45 30 20 3c
       -0.028866682 -0.004055338 4.1608222e-05 0.009777133
0001d0 be 89 b3 3c bc fc a4 3c d5 6d fb bb 09 41 0a bc
       0.021916267 0.020140044 -0.007673005 -0.008438357
0001e0 5e 01 98 3b 0f fb df 3b 4c e4 39 bc c9 54 91 3b
       0.004638835 0.0068353484 -0.011345934 0.004435156
0001f0 5b ba c4 bb b6 b4 22 3b b1 e8 38 bc 6a 6b 4d ba
       -0.0060036606 0.002482695 -0.011285947 -0.00078361353

network_body.linear_encoder.seq_layers.0.weight f4 [128, 197]
000000 8d ee 19 3c 7e 7a 5b be 76 0b ba bd bd 8f 9e bb
       0.009395254 -0.21433446 -0.09084217 -0.0048389123
000010 40 64 e5 bd a8 9a b1 bd 54 d5 7d bd e2 33 1e 3d
       -0.11200762 -0.086720765 -0.061971024 0.038623698
000020 d7 93 ca bd d5 fc 8d 3d 35 81 81 3d fc 37 7e 3c
       -0.098914795 0.069329895 0.063234724 0.015516277
000030 41 d7 43 3d 0f c3 73 3d 72 3c 5a bc d0 e2 63 be
       0.047812704 0.059512194 -0.013320075 -0.22254491
000040 31 90 c7 bd 2e 31 87 3b 5d ba fb bc e7 bc d1 3c
       -0.09744299 0.0041257357 -0.030728513 0.025602771
000050 e4 c3 a8 3c 71 ec 15 bb ac fe e4 3a e3 65 91 3d
       0.02060122 -0.0022876526 0.0017470918 0.070995115
000060 c7 0b 66 bd e9 18 b8 3b ae 55 96 bc ee 97 77 bc
       -0.056163576 0.005618204 -0.018351402 -0.015111906
000070 25 ce 4e 3d a7 9a fd bc 6c 7d 5b bc c7 fd c8 3d
       0.050489563 -0.030957533 -0.013396602 0.09814029
000080 75 a7 b3 3c e3 6f ce 3c d1 a6 1b bd 1e 66 31 3d
       0.021930436 0.025199836 -0.038000885 0.043310277
000090 93 f8 ac 3d 47 58 11 bd 7f 11 33 3d 05 13 c1 3d
       0.08445849 -0.03548458 0.043717857 0.09427456
0000a0 1a 39 0b bd 55 3b 7f 3d 94 94 5a bd 73 ea e2 bc
       -0.033990003 0.062312443 -0.05336435 -0.027699685
0000b0 c2 5d 70 bc 2e bf a5 bd 38 48 a3 bd 31 21 d5 3c
       -0.014670791 -0.08093105 -0.07972759 0.026016803
0000c0 cc 01 7e bd 3c 49 92 3d 24 58 19 bd a5 6d e8 bd
       -0.062013432 0.071428746 -0.037437573 -0.11349038
0000d0 00 33 1e bd 4b ed 7c 3d 84 9f e7 ba 33 dd 26 bd
       -0.038622856 0.061749738 -0.0017671441 -0.040738296
0000e0 08 a8 e4 3d 6f ce 0e 3e 0d a2 80 bd 02 c0 90 bd
       0.11164862 0.13945936 -0.06280909 -0.070678726
0000f0 5d bd ce 3c 5b 52 b1 3d 63 ac 7b 3d 7e d1 16 bd
       0.02523678 0.08658286 0.061443698 -0.03682088
000100 f7 a3 01 bd fe fd 9e b8 ff 6c f6 bd bb 05 3a bc
       -0.03165051 -7.581337e-05 -0.12032508 -0.011353905
000110 56 12 1b 3e 3c a1 cb bc 81 33 b5 3c ef f8 f0 3c
       0.15143713 -0.024857156 0.022119286 0.029415576
000120 4c 46 b3 3d 93 ec 24 3d a3 1d eb bb af 99 a9 3c
       0.087536424 0.040264677 -0.007175164 0.020703165
000130 e7 8e 46 bd 04 ec 5a 3d 47 8e 08 bd 20 26 af bb
       -0.048476126 0.05344774 -0.03333881 -0.005345121
000140 7a 01 bd bc f1 7b a5 3c 6b 78 c1 bd c3 92 de bc
       -0.023071993 0.020200701 -0.09446796 -0.02716959
000150 7f 0e 9e bd af 2f 1e 3d 20 d4 45 be 08 74 7e 3d
       -0.07717609 0.038619693 -0.193192 0.062122375
000160 e2 02 18 3d 70 96 a9 bc 70 e4 aa 3d ce 34 c6 3d
       0.037112124 -0.020701617 0.08344352 0.096780404
000170 98 18 cf bd eb 79 b9 3d f1 82 2c 3d 51 1b b8 3d
       -0.10112113 0.09056457 0.042117063 0.08989585
000180 b1 dd 5f 3c c3 46 b6 3d 58 ce 00 3d ff 91 46 bd
       0.013663695 0.089002155 0.031446785 -0.048479076
000190 58 be 08 3c 97 fd 94 bc 38 4c 79 be d5 09 18 be
       0.008346163 -0.018187327 -0.24345481 -0.148475
0001a0 f8 a8 42 3b 98 17 82 be 41 5f fa bc b3 35 36 3d
       0.0029702764 -0.25408626 -0.030562999 0.044484805
0001b0 5c ed 9e 3d 4b 01 3a 3d a8 59 ba bc c6 25 49 3d
       0.077601165 0.04541139 -0.02274783 0.04910829
0001c0 e0 c9 97 bc 18 8f dc bd 8c 08 73 bb 05 58 90 bc
       -0.018528879 -0.107694805 -0.0037083952 -0.017620096
0001d0 7e c6 6e 3d 83 cb 9a bd 55 74 17 bd 3e e4 8a 3d
       0.058294766 -0.07558348 -0.036976177 0.06781815
0001e0 b0 b5 8c 3d 57 68 9b 3d 68 54 91 bd be 6d 17 be
       0.06870592 0.075882606 -0.07096177 -0.14787957
0001f0 d1 d5 2e bd 66 27 72 bd 5a 75 31 bd ea e5 5c 3d
       -0.04268438 -0.059119605 -0.043324806 0.0539302
000200 b9 47 0c be b9 b9 8b be 2b 5e 4e 3d 98 ce 10 be
       -0.13699235 -0.27290133 0.050382774 -0.1414131
000210 b1 5b c3 bc 50 00 22 3d d3 cf d2 bd 0d 86 4b be
       -0.023847433 0.03955108 -0.102935456 -0.19875355
000220 b5 04 3f bd 15 5e 41 be 06 f5 5b bd d8 21 9c 3d
       -0.04663535 -0.18883546 -0.05370047 0.07623643
000230 ee 1d ce bb 11 37 e2 bc de 4e 1b bd 97 8a 24 be
       -0.006290189 -0.027614148 -0.03791701 -0.16068493
000240 e7 52 c0 3d c4 f3 85 bb 6b 96 4e 3d ed af db bc
       0.09390812 -0.004087897 0.05043642 -0.026817286
000250 6f 70 3d be c1 8e d7 3d 26 b2 05 3e bb 3c d8 bc
       -0.18499921 0.10525275 0.1305624 -0.026396146
000260 23 6a 6c 3d b2 bb cf 3d f9 77 3b 3d d9 4e c6 bd
       0.057718407 0.10143222 0.04576871 -0.09683008
000270 16 fb c5 bd 03 33 cf 3c 68 62 0c 3e 68 ad 92 bc
       -0.096670315 0.025292879 0.13709414 -0.017904952
000280 ac 6d 06 be 1d 32 ae 3d 0c 6d 2d 3c 26 f3 8f 3d
       -0.13127774 0.08505652 0.010585081 0.07028799
000290 c3 d8 81 3c 9d e5 35 3d d4 e0 50 3d e8 c6 1e bd
       0.01585043 0.04440843 0.050995663 -0.03876391
0002a0 29 9a 30 3c d1 7e 2d bc 55 8a 07 be a7 0f 05 3e
       0.010778942 -0.010589317 -0.13236363 0.12994252
0002b0 6a 6c 14 bd b3 9a 84 3d a0 0f c6 bd ad ae a4 bd
       -0.036236204 0.06474819 -0.09670949 -0.08041129
0002c0 d1 34 08 3c 1f 41 94 bc 3f dc e5 bd ec 78 bb ba
       0.008313374 -0.018097458 -0.11223649 -0.0014303005
0002d0 89 a5 a7 3d f8 13 d2 bc 01 36 99 bd 05 64 fd bb
       0.0818587 -0.025644287 -0.074810036 -0.0077328705
0002e0 38 19 17 bc c2 b6 74 bd f2 b0 8e bd 86 4e d3 3c
       -0.009222321 -0.059744604 -0.069673434 0.025794279
0002f0 bf c4 db bc 2d 49 8a 3d 1b 23 0e 3d ad 25 67 3d
       -0.026827214 0.067522384 0.034701448 0.056432415
000300 10 0a fa 3d 6d 57 3d bc 29 02 4f 3e 18 3d 4a 3e
       0.122089505 -0.011556488 0.20215668 0.19749868
000310 a2 1b cf bd 9b e7 05 be a4 13 2f be b8 19 be bd
       -0.101126924 -0.13076632 -0.17097336 -0.09282249
000320 65 f3 d0 3c ab 30 9b bd 0b 3e 04 bd ae 73 d0 ba
       0.025506685 -0.07577642 -0.03228573 -0.0015903616
000330 d7 c9 63 3c 43 e8 bd 3a f3 d7 d6 bb 7b 89 95 bd
       0.013903103 0.0014488775 -0.006556505 -0.07301613
000340 06 af d9 3c 7f b8 95 bd 15 17 b9 3d 16 56 85 3d
       0.026572715 -0.073105805 0.09037606 0.0651056
000350 06 54 13 be 26 ee 05 bb 36 43 38 3c bc 44 77 3d
       -0.14387521 -0.0020436137 0.011246493 0.060368285
000360 f8 cf 8e bd 64 f0 81 bd 3a 37 ba bd ee 21 e6 3d
       -0.06973261 -0.06344679 -0.09092565 0.1123694
000370 28 20 09 3d 1d 78 e1 bb 5e 91 81 bd 4c 03 de bd
       0.033477932 -0.0068807737 -0.06326555 -0.108404726
000380 db c0 07 3c 85 51 5e bc 0e db 27 3d dd 52 29 bd
       0.008285726 -0.01356924 0.04098039 -0.04133879
000390 18 d7 ab 3a 0d 8c 9b 3d 31 f1 41 3c 62 21 7e 3c
       0.0013110368 0.07595072 0.01183729 0.015510889
0003a0 01 1c 99 3c 31 f7 39 bd 0b 7f 91 bd 0e 79 8b bd
       0.018690111 -0.045401756 -0.0710431 -0.06810199
0003b0 f7 34 88 3d c2 28 8f bc f3 60 da 3d 4d c4 af bd
       0.06650727 -0.01747549 0.10663023 -0.08582363
0003c0 a9 f0 b5 3d c2 ba 0c 3e ec 33 bb 3c a6 9d 89 ba
       0.08883793 0.13743117 0.022851907 -0.0010499253
0003d0 e6 a4 50 bd 50 cc e8 bc 78 de fa bc 9f 94 36 3c
       -0.05093851 -0.028417736 -0.03062366 0.0111438325
0003e0 be 14 8e 3d 9a 74 75 3c 4b fa 51 3c 4e 80 ce 3c
       0.0693755 0.014981413 0.012816022 0.025207665
0003f0 39 f3 e3 bd 02 49 18 3d 93 a6 15 3e 6c 96 c8 3c
       -0.111303754 0.037179 0.14614324 0.02448579

network_body.linear_encoder.seq_layers.2.bias f4 [128]
000000 3a ef 1d bb 24 d0 f1 bb e9 2f 78 bc 05 39 50 3b
       -0.002409889 -0.0073795486 -0.015148141 0.0031772268
000010 f8 73 09 bd ce b7 30 bc de 65 b3 3a cb 0c 2f bc
       -0.033557862 -0.01078601 0.0013686975 -0.010684202
000020 11 91 87 3c 62 4f 39 bc 1e a9 19 bd 64 bb 2f bc
       0.016548665 -0.01131043 -0.0375148 -0.01072583
000030 28 9a 00 3d 8c ad 17 bc 4c 78 0d bb bd 7f 0b bb
       0.031397015 -0.009257685 -0.0021586595 -0.0021285855
000040 99 0f 94 3b c3 07 8f bc e4 37 9d bb ac d6 06 3a
       0.004518461 -0.017459756 -0.0047979224 0.0005143683
000050 51 f0 f8 bc b2 fe ae bc e0 6e b6 3c db 58 1b bd
       -0.03038803 -0.021361683 0.022269666 -0.037926536
000060 f4 3f ce ba 28 82 f4 3b 27 fe a9 3c bf 1a 96 ba
       -0.0015735612 0.007461805 0.020751072 -0.0011452063
000070 d9 8f e7 3b d7 a1 bd bc 2c b7 6c 3b 20 48 4d bc
       0.0070667085 -0.02314846 0.003611992 -0.012529403
000080 8a 02 c7 3b ce c4 48 ba dc 90 0d 3d 2c 2c 54 3b
       0.0060733007 -0.0007658721 0.034561977 0.0032374961
000090 bb f5 50 bd 6a f9 c8 3c b7 0a b1 bc aa 6e 0c 3b
       -0.051015597 0.024532992 -0.021611555 0.0021428266
0000a0 6c 62 c0 bc 3c 11 62 bc 57 ac 1f 3d d1 78 f4 bb
       -0.023484431 -0.013798054 0.038982715 -0.0074606915
0000b0 14 a3 29 3a c4 40 13 3a cd f3 1c 3d c5 e1 55 bc
       0.0006471139 0.0005617256 0.038318444 -0.013054316
0000c0 ca 3e fb 3c 22 92 70 3c e4 b5 8e bc 0e aa f5 bc
       0.030669589 0.014683278 -0.017420717 -0.029988315
0000d0 8d 87 ee 3a 0a 13 ff bc 96 1f 9a bc eb 6f fd bb
       0.0018198356 -0.031137008 -0.01881389 -0.007734289
0000e0 ab 2b e8 bc 76 e1 69 3b c4 44 46 3c aa 8f 93 bc
       -0.028341135 0.0035687364 0.012101356 -0.01801284
0000f0 51 f4 19 3d 20 54 af bc 4b 27 1f 3d 7f 25 85 bc
       0.037586514 -0.021402419 0.038855832 -0.016253231
000100 76 ad 4c bc a3 27 f3 3b 5c 69 6d 3b ac a8 0c bd
       -0.012492528 0.0074204965 0.003622613 -0.034340546
000110 93 81 8c bc 4d 65 90 bd 2e 6d 9a bb 13 f5 68 3b
       -0.01715163 -0.070505716 -0.0047127223 0.0035546466
000120 81 7b ce 3c 23 91 34 3c 66 24 4c 3c af ca f1 ba
       0.025205376 0.011020931 0.01245985 -0.0018447245
000130 0f 02 6a 3c fa 93 b2 3b fa 67 11 3d aa f5 09 bc
       0.014282717 0.005449769 0.03549955 -0.008420387
000140 66 f4 b2 bc aa b6 37 bc 3d b6 fd 3c f4 03 9c bc
       -0.021845054 -0.011212984 0.030970687 -0.019044854
000150 8a dc 49 bd 3e 0c dd 3b 49 24 8e 3c a0 3a 2f bd
       -0.049282588 0.006745844 0.017351286 -0.04278052
000160 1e 8c 56 bd e4 e8 26 3d 88 8d 94 3c e9 1a 98 bc
       -0.05237972 0.040749446 0.018133894 -0.01856752
000170 d5 08 15 bd 07 ef 33 b9 35 53 4a bc ba 04 ee 3c
       -0.036385376 -0.00017159815 -0.01234894 0.029054988
000180 a8 95 ab 3c 16 77 90 3c ea eb 96 bc 0d 16 80 3b
       0.020945385 0.01763491 -0.01842304 0.0039088787
000190 28 05 dd bc a8 f7 2d 3c e1 49 e0 3c d8 d1 3d 3c
       -0.026979998 0.010618128 0.027378978 0.011585675
0001a0 7f 7a 28 3d a2 ac f5 3b 67 2b 09 3c c0 1c 28 3d
       0.041132446 0.007497386 0.008372164 0.041043043
0001b0 5e a8 83 3c 9c 78 27 3c f4 65 cc 3c 00 b7 5a bc
       0.016071495 0.010221627 0.024950959 -0.013349295
0001c0 85 65 0b 3d 9b 75 28 3a d5 21 fd 39 74 e6 5c bc
       0.034032363 0.0006426216 0.00048281127 -0.013482679
0001d0 f9 1a a2 3c d0 52 a4 3c c9 ad e9 3b 72 92 f8 bc
       0.019788252 0.02005902 0.0071313125 -0.030343268
0001e0 d5 9e d7 bc dd b6 7a 3b 58 35 58 bc 9f e5 7b bc
       -0.026320854 0.0038255968 -0.013196312 -0.01537457
0001f0 e2 83 b8 bb 3f 95 d8 3c 8a 08 55 3c 6c 48 3f bd
       -0.005630956 0.026438354 0.013002524 -0.046699926

network_body.linear_encoder.seq_layers.2.weight f4 [128, 128]
000000 ad 9e 88 3d be 31 18 3d c3 09 3f 3e bd b6 e2 3d
       0.0667089 0.037156813 0.18656068 0.11070011
000010 ef 7e d5 3d 66 7a ba 3d ba b7 2e 3e 82 1e 90 bd
       0.10424601 0.09105377 0.17062274 -0.07037069
000020 db 88 c5 bc 61 c2 19 3d ed a9 1f be 9f 38 c2 3d
       -0.02411311 0.03753889 -0.15592165 0.09483456
000030 16 22 97 3c 3c ce 92 3e be fe 15 3e bd 4d c2 bd
       0.01844887 0.2867297 0.14647958 -0.09487484
000040 1e 66 ad bd 05 34 3e be b9 66 e4 bd 54 47 13 3e
       -0.08466743 -0.18574531 -0.11152405 0.14382678
000050 9d a7 ca bd 51 7e 0e 3d fe 67 7d 3e 4e df bc 3b
       -0.09895251 0.034788433 0.24746701 0.0057639247
000060 e5 57 5c 3d 8d 4a 6e 3c 78 37 aa bd 83 15 4a 3d
       0.05379476 0.0145441415 -0.08311361 0.04933692
000070 94 0f 23 bd aa 30 82 3d 4a 66 48 bb a1 ee 46 bd
       -0.03980978 0.06356938 -0.0030578547 -0.048567418
000080 6f d4 39 3e 9e 10 36 3d 88 8f cc bc d9 95 94 bd
       0.18147443 0.04444944 -0.024970785 -0.07255144
000090 00 d5 07 be b9 72 a4 3d 7f d2 ca bd cf ee 15 bd
       -0.13264847 0.08029694 -0.0990343 -0.0366047
0000a0 69 78 8d bc 57 0b 17 3e 2e 53 09 3e 4a ad 46 be
       -0.01726933 0.1475042 0.13410637 -0.19402042
0000b0 f0 5a b3 bc d6 37 5f bd 29 cf 1e 3d 08 91 0e 3d
       -0.021893948 -0.05449661 0.038771782 0.03480628
0000c0 9e a1 cd 3d f4 a1 23 bd f0 78 eb bc 19 df 3a bd
       0.10040592 -0.039949372 -0.02874419 -0.04562292
0000d0 ff e7 05 3e 11 51 32 3e 94 68 f3 3d 8b f9 35 be
       0.1307678 0.17413737 0.11885181 -0.17770974
0000e0 54 65 98 ba c9 fb 53 bd 91 59 c2 3d ce 8b fb 3d
       -0.0011626878 -0.051753793 0.0948974 0.12282525
0000f0 d3 1b cb bc cc 25 18 be 7e 27 64 bd 19 9f 40 3d
       -0.024793541 -0.14858168 -0.055701725 0.047026727
000100 27 87 58 bd 6a 46 5e bb 39 1a 81 bd 63 51 0a 3e
       -0.052863266 -0.0033916482 -0.0630383 0.13507609
000110 91 95 06 be 95 61 15 3e e2 ad cf 3d 46 12 f5 bd
       -0.13142993 0.14588006 0.101405874 -0.11966376
000120 df b2 8f bc 02 dd 57 3d c2 44 f9 3d 77 1e ac bd
       -0.017541347 0.052701004 0.12171318 -0.08404248
000130 c7 cb e2 3c d4 5d eb bc 5c 51 d5 3d 5d 52 25 be
       0.02768506 -0.028731264 0.10415909 -0.161447
000140 4a 03 92 bd 31 d3 81 3d c1 40 2b 3c e6 e4 01 bd
       -0.071295336 0.0633911 0.01045245 -0.031712435
000150 d6 c3 34 be 3c b8 3e bd ad 59 04 3e 25 25 33 be
       -0.1765283 -0.04656242 0.12924834 -0.17494638
000160 f2 4c ed 3d 8d a0 a1 3d 48 5e 33 3d ca c2 ca 3c
       0.11586942 0.07891951 0.043791085 0.024751086
000170 35 29 20 3e e3 2a 5d bb e6 a9 c8 3a 7a 15 a6 bc
       0.15640719 -0.0033747486 0.0015309423 -0.020273913
000180 0d 3b 0a be d2 c3 ce 3d 59 70 70 3c e1 84 6f 3c
       -0.13499089 0.100959435 0.014675223 0.014619083
000190 a6 df d8 bd 64 e5 79 3d ff 92 46 3d 32 17 50 bd
       -0.105895326 0.06100978 0.04848003 -0.05080337
0001a0 63 ce a1 bd 5f 01 ad 3d 82 a0 4b 3d 25 c1 16 be
       -0.07900693 0.08447527 0.04971362 -0.14722116
0001b0 4a 09 b4 bd 63 df 21 3e 30 b4 ab 3d 29 64 89 be
       -0.08790834 0.15807872 0.083839774 -0.2683423
0001c0 09 88 6e 3d d1 01 94 bc cd 98 da bd 10 90 04 3d
       0.058235202 -0.018067272 -0.10673676 0.03236395
0001d0 8d d8 f0 bc 62 1e 9b bc cb 4e eb 3b fa cc 79 be
       -0.029400134 -0.018935386 0.0071810237 -0.24394599
0001e0 b9 a4 79 bd 2b 87 26 3e 9e 50 08 be 9d 0b 1e be
       -0.060948107 0.162625 -0.13312003 -0.15434118
0001f0 f4 d4 3b 3d 1c 46 6c 3c 51 2f 1b bd 3a 84 b6 3c
       0.045857385 0.014421012 -0.03788692 0.022279847
000200 e1 87 28 3e 81 35 25 3d 54 d1 46 3c f9 6e bd bc
       0.16458084 0.04033423 0.012134869 -0.023124205
000210 4d 7a 2f 3d a9 4d 4e 3d 74 06 f7 3d 9f c7 1b bd
       0.042841244 0.05036703 0.12061778 -0.03803217
000220 f4 9f 1a be 5b bd f8 3d 23 c5 5f 3d 65 00 19 3d
       -0.1510008 0.12145492 0.054631364 0.037353892
000230 f1 90 b9 bd 40 22 57 3e a2 ab 17 be 69 30 c0 bd
       -0.090608485 0.21009159 -0.14811566 -0.093842335
000240 5f d7 1d be 46 bd c6 3c 82 8f c3 3d ee 8e b7 3d
       -0.15414189 0.024260174 0.09548856 0.089628085
000250 e5 ff 3f 3d 94 02 61 3d 56 8d d1 bd 1f 59 6b bd
       0.0468749 0.0549341 -0.10232036 -0.05745804
000260 e1 f9 e9 3d 3e 44 25 bc 9c 11 63 3d 75 8d 83 bd
       0.11424614 -0.010087071 0.055436715 -0.06423465
000270 bf 0f d8 3c ab d3 4a bd 74 d9 3d 3d 51 52 60 bd
       0.026374696 -0.04951827 0.046349958 -0.054766003
000280 f6 7d cc bb 5e f4 12 3d 6e 76 27 3c 0e 29 6e bc
       -0.0062406017 0.035877578 0.010221107 -0.014536155
000290 73 b6 12 bd 92 c4 08 bd dd da 2f bc b0 06 51 be
       -0.03581853 -0.03339059 -0.010733333 -0.20412707
0002a0 e0 fe 06 be db a8 d1 3c 51 4b f0 3d 74 9d 15 3d
       -0.13183165 0.025593212 0.117331155 0.036527112
0002b0 e6 38 0b 3d a4 fe a1 3d ec ee 03 3e e4 5b 7a bd
       0.03398981 0.07909897 0.1288411 -0.06112279
0002c0 d1 d6 53 3d d9 5c 2d 3c fc a4 df bb 66 62 00 be
       0.051718537 0.010581219 -0.0068250876 -0.12537536
0002d0 38 6b 6f be 7e f9 80 bd 1f 8e 68 3e c1 73 2b bd
       -0.23380744 -0.06297587 0.22710465 -0.04185844
0002e0 0d 84 89 be e6 81 ef 3d 6d b2 07 be a7 f1 a9 bd
       -0.2685856 0.11694698 -0.13251658 -0.08298045
0002f0 44 e2 3b 3d 3e 37 9c 3a c3 90 93 3b fd 4b 94 bd
       0.04587008 0.0011918319 0.004503341 -0.07241056
000300 94 74 b1 37 51 29 f9 3d d7 1d 19 bc 4b 0f 28 bd
       2.115433e-05 0.121660836 -0.009345493 -0.04103021
000310 d1 0c c1 bc 27 c9 b1 bd 3a 46 ce 3d bd 7b e9 bd
       -0.023565682 -0.08680945 0.100719884 -0.11400554
000320 60 1f 0c 3d 49 c0 9b bd 90 9e e4 3c 4f 6a 02 be
       0.03420961 -0.07605035 0.02790764 -0.12735866
000330 4f 5f 7a 3d 75 ec d2 bb 7d da 46 3d 06 7f 2e bc
       0.06112605 -0.0064368793 0.04854821 -0.010650402
000340 88 06 f3 3c 9c af 9b bb e7 4c 4f 3d 54 8a 27 3d
       0.0296662 -0.004751159 0.05061045 0.040903404
000350 77 c1 58 bc ed 09 62 3d c2 f0 37 3e 83 21 84 bd
       -0.013229719 0.055185247 0.17962936 -0.06451704
000360 c5 7e 40 3e 63 02 a7 3d 4f b2 4c 3c 7f 44 c3 3d
       0.18798359 0.08154752 0.012493684 0.09534549
000370 fd 43 da 3d b4 32 2d be 2b d1 ef bc 7a ce 61 3c
       0.10657499 -0.16913873 -0.029274544 0.013782138
000380 02 11 12 3d 13 36 7d 3c 69 b7 b3 3d 82 ff 02 be
       0.03566075 0.015454787 0.08775217 -0.12792781
000390 75 c2 21 3e 15 e6 8a 3d 33 8e d5 bd c5 7d 87 bd
       0.15796836 0.06782166 -0.10427513 -0.066157855
0003a0 3c 55 9e 3d d5 7d 26 3e 8e 7f 82 3d 73 8c f5 bd
       0.07731101 0.16258939 0.063719854 -0.11989679
0003b0 fa 4e c2 bd 93 b5 a8 bd 52 69 ac bc f5 b1 74 3d
       -0.0948772 -0.082377575 -0.021046314 0.059740026
0003c0 ba 87 2a 3e ef 93 25 3e ba c5 b3 bd 9d fe 31 bd
       0.16653338 0.16169713 -0.08777948 -0.04345571
0003d0 39 78 a6 bd e6 af 96 3d 33 84 95 bc 67 c9 06 3d
       -0.081283994 0.07357769 -0.018251514 0.032906916
0003e0 26 11 33 3e 33 0b 8c 3c 81 c5 93 bd 96 41 b3 bc
       0.1748701 0.017095184 -0.07215405 -0.02188186
0003f0 af d6 b9 3c 13 a6 01 bd aa 83 10 be 2f 23 f0 3d
       0.022685377 -0.03165252 -0.14112726 0.11725461
