results/SelfPlay_Flag_NoTool_SingleWFlag_5/BasicAgent/BasicAgent-499940.onnx (onnx, 220252 bytes, 6 tensors)

action_model._discrete_distribution.branches.0.bias f4 [5]
000000 e6 0f ed bc f9 a5 2a 3e 66 3a 65 be 92 df e1 3d
       -0.028938245 0.16664876 -0.22385558 0.11028971
000010 8d 66 d5 3d
       0.10419951

action_model._discrete_distribution.branches.0.weight f4 [5, 128]
000000 d4 39 a2 3d 16 72 48 3d 67 b3 63 3e 6d f6 92 3d
       0.07921186 0.048936926 0.22236405 0.07175908
000010 b8 62 83 3d b3 04 4c 3e 06 a4 e7 3c ee ab f6 3d
       0.064153135 0.19923668 0.028276455 0.12044512
000020 4b 0b 23 3e 93 6c e5 3c 17 02 f6 3d 1b b5 01 3e
       0.15922277 0.028005874 0.12012117 0.12666743
000030 82 15 4c 3d 8d b1 1d bc a2 94 ee bc 52 15 29 3e
       0.0498252 -0.009624851 -0.029123608 0.1651204
000040 f3 c5 08 3c f0 80 b4 3d 92 d4 93 bc a3 61 ba bd
       0.008347976 0.088136554 -0.018045697 -0.09100654
000050 56 8e 9f 3c 22 49 99 3d 93 f4 ab bc b2 24 2a 3e
       0.01947705 0.07484652 -0.020990646 0.1661556
000060 c8 f6 fd 3b b4 ab 0c 3e 2c 1a 24 3e 24 bb a8 bd
       0.007750366 0.13737375 0.16025609 -0.08238819
000070 da cb 1a 3e da 57 02 3e a3 0e 5f 3e 35 05 6f 3a
       0.15116826 0.12728825 0.21782927 0.00091179024
000080 41 cd 11 3d 78 a1 13 3c ff 42 7a 3d 55 95 d5 bd
       0.035596136 0.009010665 0.06109905 -0.104288734
000090 40 23 2c 3c ab b1 39 be 5c 26 89 3d 40 d1 e1 3b
       0.010506451 -0.18134181 0.066967696 0.0068913996
0000a0 5d 79 50 3d 26 ad 17 3d 37 a9 82 3d c0 09 0f 3e
       0.05089699 0.03703036 0.063799314 0.13968563
0000b0 b9 b3 56 3d 7b f1 5e 3d 30 fa 54 bd f9 c3 7a bd
       0.05241749 0.054429512 -0.05199641 -0.06122205
0000c0 e4 d7 a4 bd 09 76 19 3d d1 f1 d9 3d 6c 87 45 3d
       -0.0804899 0.037466083 0.10641826 0.04822485
0000d0 55 ce 16 3d 4d b6 b9 3d 5d 03 38 3d e2 39 27 3e
       0.036817867 0.09067974 0.044925082 0.16330674
0000e0 c6 c1 1e 3e 20 8d 91 bd bd b7 fc 3c 91 59 67 3d
       0.15503606 -0.071069956 0.030849332 0.0564819
0000f0 3e d7 84 3d fd d7 d0 bd 25 c3 64 bd 43 40 d5 bb
       0.06486367 -0.101974465 -0.055850167 -0.0065079047
000100 f8 55 e9 3c 22 55 1a be 5d 92 f3 bd 0c c2 8a 3d
       0.028483376 -0.15071538 -0.11893151 0.06775293
000110 a3 6f 6f bd 01 c7 f3 3d 5e ea 83 3c ee 23 93 3d
       -0.058456074 0.11903191 0.016102966 0.071845874
000120 11 e4 52 3e 80 5f 00 3e a2 9d 26 3d 34 17 a8 3d
       0.20594813 0.1253643 0.040677674 0.08207551
000130 79 5c 1d 3d 69 b8 35 3d 6c 99 06 3d 89 69 10 bc
       0.038418267 0.04436532 0.03286116 -0.008814224
000140 f1 00 a6 3d bf 23 58 3d a4 c3 b5 b9 4d f5 99 bd
       0.08105648 0.052768465 -0.00034668774 -0.075174905
000150 aa aa cf 3d d8 eb 35 3e 3f 39 8f bd 67 52 95 bc
       0.101399735 0.17765749 -0.06993341 -0.018227769
000160 5d 72 37 3e 93 9f d6 bd 42 b1 43 bd c2 36 ac bc
       0.1791472 -0.10479655 -0.047776468 -0.021022204
000170 e4 6e 85 bd ff 1d 1b 3d 5f 61 8a 3d b3 1b 04 be
       -0.06515291 0.037870403 0.06756853 -0.12901191
000180 23 b7 81 3c 70 02 2e 3e 12 ca 5a bc 59 99 8a bd
       0.015834397 0.16993117 -0.013353841 -0.0676753
000190 d4 da 0d be 81 69 2b 3d 3b 5a d1 3d 28 c6 f0 3d
       -0.13853008 0.041848663 0.10222288 0.11756545
0001a0 04 0f 14 3e 09 ee 1f 3e d8 02 c5 3c e8 11 15 3e
       0.14458853 0.15618147 0.024049208 0.14557612
0001b0 c2 0c 47 3e 7c 6d 31 3e 58 ad 32 3c 4d 51 8e 3d
       0.1943846 0.17326921 0.010905586 0.06949101
0001c0 bd a1 8b 3d 86 13 a0 3d a0 0c 87 3d 25 91 8b 3d
       0.068179585 0.07816224 0.06594205 0.068147935
0001d0 d1 73 9f bc 6e 98 75 ba 30 da da 3d 2b 54 12 bd
       -0.019464405 -0.0009368722 0.10686147 -0.0357248
0001e0 14 ae ec 3b 8c 55 14 bd 92 cc 5b 3e da 65 6b 3d
       0.0072229 -0.036214396 0.21464756 0.05747018
0001f0 d8 9a 69 3d 7c c5 e3 3d eb 39 3a 3e e8 f2 93 3d
       0.057032436 0.111216515 0.18186156 0.07224065
000200 34 df ca 3d 92 c2 1f bd 44 6b d1 3b 9a 23 85 bd
       0.09905854 -0.039003916 0.006390961 -0.06500931
000210 4d 23 cc bd a5 eb 6b 3d 41 b8 88 bd c4 73 c9 3d
       -0.099676706 0.057597775 -0.06675769 0.09836534
000220 94 96 03 3e 00 f8 b7 3d 6b b0 fa bc 68 17 16 3e
       0.1285041 0.08982849 -0.0306017 0.14657366
000230 3d 71 9c 3c 27 95 15 bd 6a 78 c5 bd 7e f4 98 3d
       0.019096965 -0.036519196 -0.09642108 0.07468508
000240 42 69 ae bd d5 c3 84 3e 06 c3 80 3c 30 41 31 3e
       -0.0851617 0.25930658 0.015717994 0.17310023
000250 5c f6 4a bd bd 98 10 bd 0c 53 8f bc cd ec 13 be
       -0.049551353 -0.035301913 -0.017495655 -0.14445801
000260 3c 4b 53 3d 35 e9 8a bd 5e 8b 77 bd 96 59 f6 3d
       0.05158542 -0.06782762 -0.060435645 0.12028806
000270 ea 0d 3d be 29 7c 67 bd 28 34 c6 bd e4 7f 4f 3e
       -0.18462339 -0.056514893 -0.09677917 0.2026363
000280 11 25 eb 3d b0 f1 90 bd c6 72 2c 3d 32 c6 32 3e
       0.11481679 -0.07077348 0.042101644 0.17458418
000290 2b ca 9f 3c 35 67 13 bd 2c a0 a3 3d e7 5e a3 3d
       0.01950558 -0.035987098 0.07989535 0.079770856
0002a0 f2 1f 39 bd bf 5a 0a 3d dd fb 54 3d 92 41 9f bd
       -0.04519648 0.03377795 0.051998008 -0.077761784
0002b0 cc e5 e9 3d 98 eb d8 3d 7e 5c e1 3d 43 27 e2 3c
       0.114207834 0.10591811 0.110039696 0.027606612
0002c0 8e 83 9d 3d d4 9d 20 be 29 a6 a8 3d 9f e8 e8 3d
       0.07691108 -0.15685207 0.082348175 0.11372494
0002d0 a5 d8 a0 3d 95 18 c4 bd 2b 6f de bd 7c ee 01 3e
       0.07853822 -0.09575001 -0.10861047 0.12688631
0002e0 4f 47 91 3e fc cf 9e bd 74 b9 4f 3d 21 ee 8e bd
       0.28374717 -0.077545136 0.05071397 -0.06979013
0002f0 e9 82 4a 3c 2b ad 78 3d 94 a8 da 3d a0 21 94 3e
       0.012360313 0.06071202 0.10676685 0.28931904
000300 4c f6 1d bb 9f 9a f6 bb 35 68 70 bd 4a f8 5f be
       -0.0024103103 -0.0075257565 -0.05869313 -0.21872059
000310 ea b2 1d bd f7 5c 4a 3c 94 33 60 bd 91 d6 2e 3c
       -0.038500704 0.012351266 -0.05473669 0.010671274
000320 df 5b 94 bd 3a f8 b3 bd ad 65 71 3c 72 49 46 3e
       -0.072440855 -0.0878758 0.014733714 0.19363955
000330 82 09 4a bd c4 7b 22 bd 10 59 e0 3c 63 d8 00 3e
       -0.049325474 -0.039668813 0.027386218 0.12582545
000340 5e 9c 9c bb cf 3b 05 3e 79 b2 c4 bc f8 c3 bc 3c
       -0.0047793826 0.13011096 -0.024010884 0.023042664
000350 07 4c 0b 3d 73 43 4b 3d e4 55 8e bd 02 81 ec bd
       0.034008052 0.04962487 -0.06949976 -0.11548044
000360 0e 58 69 bd f7 05 10 3d 26 31 7c bc f7 d0 48 bd
       -0.05696874 0.03516194 -0.015392577 -0.04902741
000370 90 b3 f3 3c 45 bf c4 bc 15 80 a4 bc 7d fb eb bd
       0.029748708 -0.024016986 -0.020080606 -0.11522577
000380 ab 67 d6 bc b2 5a 29 3e 57 a8 68 3d 18 95 99 3d
       -0.02617248 0.16538504 0.056801166 0.074991405
000390 e4 1c 2a bd b1 42 45 3e a6 33 25 3d 6f 8b df 3c
       -0.04153146 0.19263722 0.04033246 0.027288167
0003a0 d7 b4 0a 3e c9 bb e2 3c be e3 94 3d 68 ad 1e be
       0.13545547 0.027677434 0.07270001 -0.15495837
0003b0 f4 fc 46 3d b7 d6 e5 bc f4 6c f4 3d fc 22 3f bd
       0.04858108 -0.028056486 0.11934844 -0.046664223
0003c0 31 43 01 be a5 2c 3b be cc 9a 77 bd 1b 38 cf 3d
       -0.12623288 -0.1827875 -0.06045036 0.10118123
0003d0 d4 12 d0 3d 22 c4 9b 3d 7d e3 0e 3d 4d d1 0f bb
       0.10159841 0.07605769 0.03488492 -0.0021944821
0003e0 62 a2 0a 3d d5 3d c0 3b ad 0a a3 bd 13 6e 09 3e
       0.033846267 0.005866746 -0.079610206 0.13420896
0003f0 16 5f 3d bd a6 28 49 3e 37 4a 0b 3d 98 ba b2 3d
       -0.04623326 0.19644412 0.034006324 0.08726996

network_body.linear_encoder.seq_layers.0.bias f4 [128]
000000 c5 53 b9 bc 72 83 28 be c5 bf 52 3c d4 4c 85 bc
       -0.022622952 -0.16456392 0.012863104 -0.016271986
000010 40 45 e3 bc 01 ca 71 bd b2 5b af bd 28 e0 4b bd
       -0.027742982 -0.059030537 -0.08562411 -0.04977432
000020 81 80 38 3c 1a 77 c4 3b ef d9 2e bd 5e 52 d1 bc
       0.0112611065 0.0059956433 -0.042688306 -0.025551971
000030 45 5e 72 bd f2 2e b7 bc b7 3d d8 bc e4 7b 8d bd
       -0.059171934 -0.022361252 -0.026396615 -0.06908396
000040 69 7e 92 bd 27 0f 19 3d b0 84 5a bd be 1a 57 bc
       -0.07153017 0.037367966 -0.053349197 -0.013128934
000050 7c f8 40 3d 97 03 fd 3b 1f 9e 89 bc 0c 93 65 bb
       0.047111973 0.007721375 -0.01679903 -0.0035030274
000060 3d b0 e0 bd 96 d4 44 bc 53 f3 18 3a 22 9d 99 bd
       -0.10971115 -0.012013575 0.0005834598 -0.07500674
000070 e4 26 c3 bc 50 7d 5a bd 41 18 25 be c4 21 62 bc
       -0.023822255 -0.053342164 -0.16122533 -0.013801996
000080 a8 ce 05 bc dd dd b4 3c 09 65 ef 3c a7 d5 ab bd
       -0.0081669465 0.022078449 0.029222982 -0.0839036
000090 57 8a c5 bc 55 1e 63 3c e6 5b 3a bd 2d d1 79 3c
       -0.024113817 0.013862212 -0.045497797 0.015247625
0000a0 d2 7b 88 bd fd c8 bc bd 44 b7 6f bd f6 69 9e 3b
       -0.06664242 -0.09218023 -0.058524385 0.004834409
0000b0 15 03 96 3c b8 75 de 3c 82 80 7e 3d 32 72 95 3a
       0.018312017 0.027155742 0.062134273 0.0011401831
0000c0 7c fc 04 bd e0 6a b9 ba 27 b4 8d 3d 27 00 60 bd
       -0.03246735 -0.0014146231 0.06919127 -0.054687645
0000d0 a4 84 e8 3c a3 33 06 bc 82 48 47 3d 52 29 1b bd
       0.02838356 -0.008191022 0.048653133 -0.037881203
0000e0 06 e1 1b bd cf 95 c8 3b 06 e6 27 3c ad 6b bf bd
       -0.038056396 0.006121374 0.010247713 -0.093467094
0000f0 bd 58 e6 bc 67 01 93 bb 4f 10 9f 3c e4 76 be 3b
       -0.028118486 -0.004486251 0.019416956 0.0058125127
000100 24 87 14 bd 98 38 c9 bb 4e 79 e8 bd 56 03 23 bd
       -0.036261693 -0.0061407797 -0.11351262 -0.039798103
000110 fb 08 dc bc e3 d8 1e be 42 61 1b 3a 51 70 e3 bc
       -0.026859751 -0.15512423 0.00059272733 -0.027763518
000120 2d 67 0b be 7f 89 08 3d 7e 7e 1b be c2 7f ac bc
       -0.13613577 0.03333425 -0.15184972 -0.021057013
000130 d9 8d 7e 3c c8 1a 1b bc f8 a0 db bc 98 52 90 3b
       0.015536749 -0.009466834 -0.026810154 0.004404377
000140 a9 9e 3b 3c 28 38 e2 bc 94 04 54 bd c9 f1 09 3c
       0.011451402 -0.027614668 -0.05176218 0.0084194625
000150 ce f0 4f 3c 20 77 1b 3d 86 04 02 3c 18 21 ec 3c
       0.01269169 0.037955403 0.007935649 0.028824374
000160 11 bd d5 3b 52 95 fe 3b df 4a c9 bc ee fa 10 3c
       0.0065227826 0.007769265 -0.024571834 0.008848889
000170 46 f9 d3 3c 9b 30 91 bb 1b 97 5c 3c ad ee d9 bc
       0.025875699 -0.004430843 0.013463761 -0.026603067
000180 4d e9 e6 3c b7 02 7c 3a c5 4b c3 bc a2 32 c4 3c
       0.028187418 0.00096134417 -0.02383984 0.023949925
000190 d8 1e b4 3b 96 a6 d0 bd ef ac 1b be b8 f6 a8 3c
       0.005496841 -0.10188024 -0.15202688 0.020625457
0001a0 18 76 90 bc 46 38 3c 3c 53 85 85 3c 30 3c 65 3c
       -0.017634436 0.011488026 0.016298926 0.013991401
0001b0 33 65 01 3d 56 58 35 38 51 ed b5 bc a0 3b f8 3c
       0.03159065 4.3236032e-05 -0.022207888 0.030301869
0001c0 c0 d3 ec 3b 62 22 af bd 13 38 92 3b 22 1c e7 3c
       0.007227391 -0.0855148 0.004462251 0.028211657
0001d0 e8 5d 37 3c 15 b5 72 3c 7b 05 0e be ad b5 0c bb
       0.011191823 0.014813681 -0.13869278 -0.0021470592
0001e0 17 a2 0e 3d 5b 1c bd bc 5c ab 54 3b ae 64 af 3b
       0.03482255 -0.02308481 0.003245077 0.005352578
0001f0 11 9a 95 bd f0 e5 20 bc aa a6 00 3d a6 13 e7 3c
       -0.073047765 -0.009820446 0.031408943 0.028207611

network_body.linear_encoder.seq_layers.0.weight f4 [128, 290]
000000 22 de 89 bc dd 58 17 3d 10 65 26 b7 41 10 d5 3d
       -0.016829554 0.03694998 -9.9179015e-06 0.10403491
000010 6d d5 dd bd 24 d9 53 bc 98 87 fb bd 25 f0 6c 3d
       -0.10831723 -0.012930188 -0.12281722 0.057846207
000020 a3 71 ae 3d fa cd 1c 3b a2 89 8c bc f1 e9 da 3c
       0.08517768 0.0023926483 -0.017155472 0.02672288
000030 87 da 1c 3e 4d 62 e1 bd 98 4a a5 3d e4 e0 1e 3d
       0.15317737 -0.110050775 0.08070868 0.03878869
000040 27 c4 52 3d af 8e 45 3e ff 14 50 3e 25 4d 09 be
       0.051456597 0.1929271 0.2032051 -0.13408335
000050 6d 9d 26 bd b9 58 14 3e 5f 72 e5 3d e7 0a 9f 3d
       -0.040677477 0.1448697 0.11203455 0.07765751
000060 29 d1 77 3d df b8 78 3c 7a fa 71 3c 68 d0 54 bd
       0.060502205 0.015180795 0.014769191 -0.051956564
000070 ae b8 24 3e 3c 10 b5 bc b8 f7 f3 bd a3 cf 75 bd
       0.16086075 -0.022102468 -0.11912483 -0.06001247
000080 b8 fa 22 3e 20 c6 e5 bc f1 8d 83 3c 96 9d 3d 3d
       0.15915954 -0.028048575 0.016058894 0.046292864
000090 a5 54 b6 be 1e aa 5d bd 0f 86 aa bd 16 a2 08 bd
       -0.35611454 -0.054117315 -0.08326351 -0.033357702
0000a0 06 88 a2 3d 57 15 f1 3a b1 f5 c6 be 8f 4d b2 bd
       0.07936101 0.0018393201 -0.38859323 -0.087061994
0000b0 71 c6 10 3d a4 e7 1e 3e 61 ef 74 3c a0 23 84 bd
       0.0353455 0.15518051 0.0149496505 -0.064521074
0000c0 da c9 71 be 1d c0 2a bd 18 19 a3 3d bd 8c 50 3e
       -0.23612157 -0.04168712 0.07963771 0.20366187
0000d0 ea a5 7e bd 3c 5c 82 bd 2e c4 37 be 13 10 0f bc
       -0.062169947 -0.063652486 -0.1794593 -0.00873186
0000e0 28 55 b2 3d d9 21 f5 3c 80 1b c1 3c 7a 35 d8 bd
       0.087076485 0.029923366 0.023572683 -0.10557075
0000f0 36 a7 05 be 57 83 87 bc 87 64 b1 3d 8a cb 4a 3e
       -0.13052067 -0.01654212 0.08661752 0.19804206
000100 4b 19 0b be af 34 bb 3c 4a 36 8e 3e 06 30 c6 bd
       -0.13583867 0.02285227 0.27775794 -0.096771285
000110 85 a6 8d 3d f5 20 a0 3e 6f 4f 82 bd 49 a1 d4 3c
       0.06916527 0.31275144 -0.06362807 0.025955813
000120 76 8d 49 3e ff 42 d2 bc 86 ae c5 3d a0 d1 ef bd
       0.1968287 -0.025666712 0.09652428 -0.11709905
000130 3b f7 27 be c7 e3 7e 3e 99 ba 6a bd 4e 1a 68 bd
       -0.16402905 0.24891578 -0.05730686 -0.05666571
000140 e6 28 21 be 5c 11 df 3e 60 90 24 bd e7 6b 41 be
       -0.15738258 0.43567932 -0.04017675 -0.18888818
000150 0d d1 57 be 61 35 6c 3e 3f d1 7c be 8e 20 0a 3c
       -0.2107584 0.23067237 -0.24689196 0.008430613
000160 db cf ad 3d d2 72 19 3f 07 14 81 3e 68 b4 98 bd
       0.08486911 0.59940827 0.25210592 -0.07456285
000170 22 95 1e bf 45 1d d8 3e a0 8a 15 be 1f 72 5c be
       -0.6194631 0.4220983 -0.14603662 -0.21527909
000180 17 96 a2 3e 5a 72 8d 3e 4c ff 1b 3e 59 59 e7 3c
       0.31755134 0.27626306 0.15234107 0.028240846
000190 d3 d1 ae be 2e ee 8e 3e a5 cf 2a be 7d 3f ab 3d
       -0.34144458 0.27916092 -0.16680773 0.08361719
0001a0 0b 78 ce 3e 40 5c 16 3e 2d 90 86 3e 01 bb 24 3e
       0.4032596 0.14683628 0.26281872 0.16086961
0001b0 00 f3 55 bf 69 b6 b2 3c af 1d 84 be 99 90 81 ba
       -0.83573914 0.021815496 -0.25803897 -0.0009885012
0001c0 38 38 bc 3e e7 57 1b be e5 10 07 3e 49 89 d6 3c
       0.36761642 -0.15170251 0.13190039 0.02618851
0001d0 f1 26 fd be 00 a0 6d 3e c5 b7 8f bd bd 3c 4e bc
       -0.49443772 0.23205566 -0.07017473 -0.012587723
0001e0 19 25 7d 3e a4 3e b7 3e 71 14 c5 3d da 6a d9 bb
       0.24721183 0.35789979 0.096230395 -0.006635052
0001f0 5b a4 e0 be be f1 37 3d 0c 66 62 be f4 62 91 bc
       -0.43875393 0.044908278 -0.2210924 -0.01774738
000200 97 50 bd 3d 60 b6 e3 3d 77 3d a3 3e 53 1a d1 3d
       0.09243887 0.1111877 0.3188283 0.10210099
000210 15 bd 34 bf 97 5e 8b bc 16 22 d5 bd 3e 94 89 3d
       -0.70601016 -0.017012877 -0.10406892 0.06717728
000220 51 65 b3 3e a3 83 3b 3d cf 47 64 3e b5 18 da 3d
       0.35038236 0.045779835 0.22293018 0.10649244
000230 8f 31 e6 be 41 f5 e0 3d 9f 72 0d be 4f 64 5e bd
       -0.44959685 0.109842785 -0.13813256 -0.05429488
000240 ce 3f cb 3e 1f 58 09 be a6 8d 90 3e d0 3a 0e 3e
       0.39697117 -0.13412522 0.2823307 0.13889623
000250 66 97 43 be 81 c0 16 bd 80 9f 44 3c d0 c0 92 3c
       -0.19100723 -0.03680468 0.012000918 0.017914206
000260 15 b2 d6 3d 23 07 a9 bd c3 85 6d 3e f2 e7 ea 3c
       0.10483185 -0.08253314 0.23195557 0.028675053
000270 f5 2d 70 3d 1e 06 48 3e 54 54 20 3c 4d 55 92 3d
       0.058637578 0.19533584 0.00978573 0.07145176
000280 95 7f 20 3e 0a 51 de bd bd 00 44 3e 0c e8 e0 3c
       0.15673669 -0.10855301 0.19140907 0.027454399
000290 37 97 a0 3e 9d bd b9 3d 18 b7 b9 3d 94 c3 b6 3d
       0.31365368 0.09069369 0.090681255 0.08924022
0002a0 ce ea f9 bd 66 47 b9 bd 1b 51 f1 3d b9 e4 6f 3d
       -0.122029886 -0.09046821 0.11783048 0.058567736
0002b0 dc dc 11 3e dd 05 fc 3a f3 74 92 bd 50 4b 08 3e
       0.14244407 0.0019227822 -0.071512125 0.1330998
0002c0 bd 30 3a be 52 98 0f 3d 05 f7 26 3e bc 6e 98 bc
       -0.18182655 0.035057373 0.16305168 -0.01860749
0002d0 4e e1 d5 3e 05 30 05 bc 96 a0 53 3d be ae 88 bb
       0.41773456 -0.0081291245 0.05166682 -0.0041712215
0002e0 74 5f c6 bd 27 86 b4 bd 8f 90 8c 3c 6c 30 90 3d
       -0.09686175 -0.0881465 0.017158775 0.07040486
0002f0 7a 46 fb 3e 5d df 44 3d fd fb 67 3c 41 eb c9 3d
       0.49077207 0.04806458 0.0141592 0.09859324
000300 12 d5 f5 3e e5 4b a6 3d c4 5e a1 3b 93 7d a4 3d
       0.48014122 0.081199445 0.004924627 0.08031764
000310 9a ef b4 3e b8 2c d0 3d 11 42 cc 3a b6 c7 dc 3c
       0.3533905 0.101647794 0.0015583654 0.026950698
000320 ab a2 f9 3d 2c ad 69 bc 2a 75 cf 3c d2 ef ae 3d
       0.121892296 -0.014262479 0.025324423 0.08541836
000330 7d 08 88 3e 8c bb b2 bd 2f cd 9d bd bd 43 5c bc
       0.26568976 -0.08727178 -0.07705151 -0.013443884
000340 58 40 ea bd fe ee b6 bd a0 12 97 3d b2 52 7d 3e
       -0.11438054 -0.08932303 0.07376599 0.24738577
000350 55 ce 9e 3c 57 4a 8c 3d 5d 12 4c 3e 94 3f f6 bd
       0.019385496 0.06850117 0.1992888 -0.12023845
000360 01 dc bf 3d 01 15 a5 3e 19 b6 3d 3e 72 21 73 be
       0.09368134 0.32242587 0.18526496 -0.23743227
000370 b9 63 03 bd 54 d7 86 be 93 51 dc 3c dd 3c 8f 3d
       -0.032077525 -0.26336157 0.026894366 0.069940306
000380 fe b6 8a 3e dc 97 e5 3d 50 e9 53 be ae 83 f0 bd
       0.27092737 0.112106055 -0.2069447 -0.11743866
000390 ce 3a c8 3e 9a 5e c7 3d dc f5 80 3d 28 0a 88 3d
       0.39107364 0.09734841 0.06296894 0.06642562
0003a0 87 c3 06 3b d8 46 04 be d4 56 26 3e 0c 0b 4f bc
       0.002056332 -0.1291765 0.1624406 -0.012636911
0003b0 20 02 3e 3e 5d e6 b3 3e 42 0f b9 3d 35 50 4a be
       0.18555498 0.3513669 0.09036113 -0.19757159
0003c0 d4 8e 95 3e 93 06 bb bb 3f 01 3c 3e bb 44 05 3f
       0.29210532 -0.005707571 0.1835985 0.52058
0003d0 d8 87 80 3d 82 21 5a bd 8d 6f 5b be f3 0a 88 bc
       0.0627591 -0.05325461 -0.21429272 -0.016606783
0003e0 52 3b f8 3c c9 df 3c bd 59 69 05 3e 90 fa e6 3c
       0.030301724 -0.046111856 0.13028468 0.02819565
0003f0 98 8f c1 bd d5 25 20 bd cd 8f 47 bd 58 d1 67 3e
       -0.094512165 -0.03909858 -0.048721123 0.22638452

network_body.linear_encoder.seq_layers.2.bias f4 [128]
000000 b2 eb 5b bd 9c ca 5b be 64 d1 bc bb 43 fc 11 be
       -0.053691573 -0.21464008 -0.005762266 -0.14256386
000010 f7 a5 44 be ef 8e ed 3a d1 42 90 be db e0 e4 bb
       -0.19203936 0.0018124263 -0.28175977 -0.0069848127
000020 4d 8d 77 3d 65 8f cd bd cb 96 f4 bd 4e b2 89 bd
       0.06043749 -0.10037116 -0.11942824 -0.06723462
000030 24 ac 5a bd 80 8e fa bd 20 96 8f be 36 e7 d7 bd
       -0.053386822 -0.12234211 -0.28044224 -0.10542147
000040 31 17 93 3c 05 ab 3a 3c de b0 e8 bd 7c 07 03 bd
       0.017955394 0.011393313 -0.1136186 -0.03198956
000050 27 11 ab bd d5 52 37 be 67 b4 f6 bc 50 8a 81 3d
       -0.08352881 -0.17902692 -0.03011532 0.06325209
000060 c2 d7 fe bc 22 84 f5 bd 1d e5 84 bd d5 d6 db bd
       -0.03110874 -0.11988093 -0.064890124 -0.10734335
000070 e3 8a 17 3d 3b 49 00 bd f5 d9 f3 bc d2 bf 4c 3d
       0.036997687 -0.031319838 -0.029767016 0.04998762
000080 df 52 1d bd d5 f4 5d be 59 2a 46 bd 74 71 8b bd
       -0.03840911 -0.21675427 -0.04838023 -0.06808749
000090 ee 79 c5 bd 13 1a d6 bc b8 37 e5 bd f5 dd e3 3c
       -0.09642397 -0.02613548 -0.11192268 0.027815798
0000a0 4e 23 2b 3d ee 86 2a be b6 ff 4c 3c 76 34 bc bd
       0.041781716 -0.16653034 0.012512138 -0.09189694
0000b0 b1 b4 c5 3c b9 c9 cc bc 5e d3 28 3d 43 91 a9 be
       0.024134012 -0.024998533 0.0412172 -0.33118638
0000c0 c9 c6 15 be 1e 2e a4 3d 08 d3 5a bd a2 b0 32 bd
       -0.14626612 0.08016609 -0.05342391 -0.04362548
0000d0 c3 39 25 bd 22 c0 7a be 3e 02 c9 bd 36 36 6d bc
       -0.04033829 -0.24487355 -0.09814881 -0.014478257
0000e0 fc 59 01 bc 87 d2 19 bd 67 d4 93 bd 47 35 f2 bc
       -0.007894989 -0.03755429 -0.07218247 -0.02956642
0000f0 9f f1 2b 3d d5 c0 78 3a 5e 68 98 bd 3e bc 14 3e
       0.041978475 0.00094891834 -0.074417815 0.14524934
000100 13 e9 4f be 06 27 58 bd 26 82 b4 be f6 93 2d 3d
       -0.20303755 -0.05277159 -0.35255545 0.042377435
000110 35 32 8f be fb fe b4 bd f1 0e 8a bd 78 00 1d 3d
       -0.27967992 -0.08837696 -0.06741131 0.038330525
000120 68 65 5c bc 4a bd f0 bd a6 bc e3 bd 39 b8 84 bb
       -0.0134519115 -0.11754854 -0.11119966 -0.0040502814
000130 ab d9 72 be 41 d4 aa be 8c 8b a6 be 06 87 58 bd
       -0.23715846 -0.33365062 -0.3252834 -0.052863143
000140 23 ed 8c bd 55 a3 03 be ee aa 97 be e6 3f 35 be
       -0.06881168 -0.12855275 -0.29622597 -0.17700157
000150 11 54 9d bd 2e e7 93 bd 8d 14 a1 bd 56 1a 65 be
       -0.0768205 -0.072218284 -0.07865248 -0.22373328
000160 cb 47 ca bc be a3 92 bd a0 36 59 be 92 42 9b be
       -0.024692437 -0.071601376 -0.21212244 -0.30324227
000170 be f9 85 be e2 72 e3 bd 74 db 63 be e4 1c a2 bc
       -0.261671 -0.111058965 -0.22251683 -0.019789167
000180 86 73 1f be 8b 05 1d bc 41 26 e2 3c 06 65 cc bd
       -0.15571412 -0.009583841 0.027606132 -0.09980206
000190 ea aa a3 be 21 2e 33 3d 23 a2 4a be bd 5b 0b bc
       -0.31966335 0.043745164 -0.19788413 -0.008505759
0001a0 85 1e 62 be a9 dc 4b bd 0e 7c 4c bc c0 8c 2a 3c
       -0.22081955 -0.049770985 -0.012480749 0.010409534
0001b0 9c 41 d0 bd ae 32 09 3c f6 95 48 bd 5a 7a 0d be
       -0.10168764 0.008373899 -0.04897114 -0.13816205
0001c0 90 ae 27 be 04 e4 35 bd fd 9a 20 be 36 46 52 be
       -0.16375184 -0.044406906 -0.15684123 -0.20534596
0001d0 1b 8e 08 bd 68 95 41 be 0f 22 da bd 4b c2 97 be
       -0.033338647 -0.1890465 -0.106510274 -0.2964042
0001e0 47 d8 3e bd 43 99 fc bd d7 51 ff bb 08 b2 6c bd
       -0.046592977 -0.1233392 -0.0077917385 -0.05778697
0001f0 3d bb df bd 98 36 7e 3b d6 d5 8c bd a5 35 db 3b
       -0.10924385 0.0038789865 -0.068767235 0.0066897445

network_body.linear_encoder.seq_layers.2.weight f4 [128, 128]
000000 3d b2 bc bd ed 4b a2 3d d5 ba 9a 3d cf 67 f5 3d
       -0.09213684 0.07924638 0.07555167 0.119826905
000010 ba 54 22 be c7 ca 19 3e 64 9e 9b bc 64 bd 2a 3e
       -0.15852633 0.1501876 -0.018996425 0.1667381
000020 d0 fd 75 b9 a1 06 02 bf cb 6c 41 be 7f df 71 be
       -0.00023459573 -0.50791365 -0.18889157 -0.23620413
000030 2e 07 47 3d 38 5f 06 3e 02 91 29 3e d5 fd 91 bd
       0.04859083 0.1312226 0.16559222 -0.07128493
000040 9c 56 86 3d d9 7f e1 3d 48 94 6f be cf f4 7f be
       0.06559488 0.11010713 -0.23396409 -0.24995731
000050 9b 74 31 3e f7 fb 0c 3e fb 66 c7 bc b4 63 ac be
       0.17329638 0.13767992 -0.024341097 -0.33669817
000060 fa 16 b0 bd 5b a8 7a 3d 48 99 ee bd 6b 2b 28 be
       -0.085981324 0.061195713 -0.1165033 -0.16422813
000070 87 ea 22 3e f3 cc 2a bd 19 81 4d bd 13 d2 91 be
       0.15909778 -0.04169936 -0.050171945 -0.28480586
000080 08 9c 81 3d 7a b9 98 3e dc df 08 3e b8 fd c1 bd
       0.06328589 0.29829007 0.13366646 -0.09472221
000090 be a2 fa bd 6f d9 f2 bd a0 58 2a be 65 40 9e 3d
       -0.12238072 -0.118578784 -0.1663537 0.07727126
0000a0 b1 90 e2 bd cb 9e 91 bd 96 e0 08 3e 13 fb c3 3b
       -0.11062754 -0.071103655 0.13366923 0.005980858
0000b0 47 a2 cd 3b ec 59 30 be 16 b5 4b 3d 9a 77 11 3c
       0.0062754485 -0.17221802 0.049733244 0.008878613
0000c0 da ea 50 3d 16 33 ef 3d 76 e4 98 3d 3f 49 0e bd
       0.051005222 0.11679666 0.074654505 -0.03473782
0000d0 ce 7f f4 3c 15 b2 94 bb 7b ee ff bd 2a f1 9f bd
       0.029846098 -0.0045378306 -0.124966584 -0.0780967
0000e0 48 5d 1c 3e 53 5c d6 bd 81 34 72 3d cb 2f 9b 3d
       0.15269959 -0.10466828 0.059132103 0.07577475
0000f0 1f 4a 16 bf fc 80 54 3e 29 7f 9a bd 0d 91 23 be
       -0.5870685 0.20752329 -0.07543785 -0.15973301
000100 74 75 39 3d 0a 91 9e bc eb d1 16 bd df 1a 2a 3e
       0.045278028 -0.01935627 -0.036821287 0.16611813
000110 0a ae 9e 3b f1 56 12 3d 87 14 91 ba ee d3 c1 3b
       0.0048425244 0.035727445 -0.001106874 0.0059151566
000120 aa e9 1b 3c 00 16 10 bd bd 40 2e 3e dd eb 72 3e
       0.009516159 -0.03517723 0.17016883 0.23722787
000130 0e 5b 65 3c 61 e4 d0 3d fd 6d 85 be 4a 70 b0 be
       0.01399876 0.1019981 -0.26060477 -0.3446067
000140 be ee 33 3b 05 d0 41 bc 16 94 67 be 77 64 fb bd
       0.0027455534 -0.011829381 -0.22615084 -0.122750215
000150 3e 25 d5 3c 4f 0d 22 3d 96 9b 25 3e 6f b5 10 be
       0.026018735 0.039563473 0.16172633 -0.14131711
000160 7f 8c 9d bd be c7 b4 bd a3 e2 a5 bd f3 44 ee 3d
       -0.07692813 -0.0882716 -0.08099868 0.11634245
000170 76 e9 d4 bc 8c 76 d7 bc d7 79 4d bd 7e 63 98 bd
       -0.02599023 -0.026301645 -0.050165024 -0.07440852
000180 39 2a 7c 3e 4f 24 f8 3c d0 93 a9 be 92 e2 86 3d
       0.24625482 0.03029075 -0.33120584 0.065861836
000190 3e 41 20 3e 98 e3 c5 bb 7e 02 94 bd 82 8b 95 bd
       0.15649888 -0.006039094 -0.07227038 -0.07302
0001a0 cf 72 c8 bd 6d 77 1f 3d db 90 11 3d ac fd 43 3e
       -0.09787523 0.038932253 0.035538536 0.19139737
0001b0 83 68 a2 bd c6 83 a8 3e c0 7d a9 be 46 c9 1c bd
       -0.0793009 0.32913035 -0.33103752 -0.038277887
0001c0 99 5a ae bd b5 63 24 3e fd f1 0f be 9c f7 01 3c
       -0.08513374 0.1605366 -0.14057155 0.00793257
0001d0 a1 6e 59 3e 3d 68 9c bd a9 ce a6 3e 2a d3 8b be
       0.21233608 -0.076370694 0.32579544 -0.27309543
0001e0 fa 75 74 be fd c4 06 be 96 0c ae 3d c1 33 86 be
       -0.2387313 -0.13161083 0.08498494 -0.2621136
0001f0 63 48 7b 3d 0c 1d 03 3e 71 7d b6 3e 13 11 44 be
       0.06134833 0.12804049 0.3564258 -0.19147138
000200 1f 51 cc be 53 ec 02 be e7 ea f4 3e 61 c8 07 3e
       -0.3990564 -0.12785463 0.47835466 0.13260032
000210 a3 88 42 be fe 15 8b 3e 88 f8 7d bd 87 ce 89 3d
       -0.18997435 0.27165216 -0.062004596 0.06728845
000220 cc ad 42 3d de b5 c3 be 3b 66 40 3e 05 4c 31 3e
       0.047529027 -0.3822469 0.18788998 0.17314155
000230 59 06 ca 3c 26 11 61 3e 72 b8 12 3e b4 9e 02 bd
       0.02466123 0.21979198 0.14328173 -0.031889632
000240 84 02 85 3e 4b 8a 05 be fc 5a 7f 3e c7 6a 13 be
       0.25978482 -0.13041036 0.24937052 -0.14396201
000250 88 c0 31 3e 03 b1 35 3d 15 7a d3 3c f9 0e 9c 3d
       0.17358601 0.044358265 0.02581505 0.07620043
000260 a2 cb cd bd cb 36 46 3d 37 c6 70 bc ec 6f 39 3d
       -0.100486055 0.0483921 -0.014695696 0.045272753
000270 34 dd 7e 3d 3c 13 e5 3c a9 75 f7 3d 8c dd 99 be
       0.062222674 0.027963273 0.12082989 -0.3005184
000280 f5 ee c3 bd 50 bf 35 bd 70 a9 3f 3e 3d 91 f4 bd
       -0.09567062 -0.044371903 0.18716979 -0.119417645
000290 0a f8 c9 bc 12 e1 a7 bd 32 7a e8 3d 6f b8 dd bd
       -0.024654407 -0.08197226 0.11351432 -0.108261935
0002a0 ad 58 3f bc ca 1c 88 3d 58 06 32 3d dc 8f 57 be
       -0.011678857 0.06646116 0.04346308 -0.21050972
0002b0 06 f8 b4 be 2c 52 84 be 8d 8f ae be c4 b4 6f 3d
       -0.35345477 -0.25843942 -0.34093896 0.058522
0002c0 4e cc ee 3d 05 20 8a bc 82 cc 1f bd 9d 17 9a 3d
       0.11660062 -0.016860971 -0.039013393 0.07524035
0002d0 74 5e 38 bc d8 d9 71 bd 3c 45 f6 3d fe 19 42 3e
       -0.011252988 -0.059045643 0.12024924 0.18955228
0002e0 01 d8 2e 3e 6e 94 82 bd c9 b6 42 3d b9 d1 1f 3e
       0.17074586 -0.06375967 0.0475376 0.15607347
0002f0 55 ab c3 bd 65 1c 93 3e f5 da e7 bc fe 16 40 3e
       -0.09554163 0.287326 -0.028302649 0.18758771
000300 87 72 8a 3e 79 73 ad 3d 64 9b 22 3e e7 ff a7 bd
       0.27040502 0.0846929 0.1587959 -0.082031064
000310 69 92 78 3d 21 c5 15 3e b6 67 13 3d ec 5e b7 3d
       0.060686503 0.1462598 0.03598758 0.08953652
000320 15 e8 24 3e 12 0f c6 3d 4e a4 27 3e 28 83 54 3e
       0.16104157 0.09670843 0.16371271 0.20753157
000330 5b 72 c9 bd 4d da 50 bc 2f a2 55 bd f4 01 c3 3d
       -0.09836265 -0.012747359 -0.052156623 0.09521857
000340 61 30 dd bc c0 ec 52 be 7b 29 1c be a2 94 65 3e
       -0.027000608 -0.20598125 -0.15250199 0.2241998
000350 62 7b fa 3d 0c fd 10 be 71 60 70 3d 07 43 be be
       0.12230565 -0.1415903 0.058685724 -0.37160513
000360 6b ec 27 be fe 64 f6 bd 64 21 c7 3c 77 ef 2c 3d
       -0.1639878 -0.120309815 0.024307914 0.04222056
000370 4f e3 39 be 54 a7 2c 3d 03 b5 ef bd ee 32 5e 3d
       -0.18153118 0.042151764 -0.11704447 0.05424779
000380 29 ed 2a 3e 27 1d 00 3e 51 a6 76 be e9 b9 78 bd
       0.16692032 0.1251112 -0.24086882 -0.060724173
000390 87 72 66 be b1 f6 ee 3d cd 4f 00 3e 60 52 fa bd
       -0.22504626 0.116681464 0.12530442 -0.12222743
0003a0 fb 73 b2 bd d5 b9 dc 3d 52 a0 25 be be b0 3a be
       -0.08713528 0.10777632 -0.16174439 -0.18231484
0003b0 e8 a0 e6 bd 09 f6 df 3e 71 5f a8 bd e2 6a f7 bd
       -0.11261159 0.43742397 -0.08221329 -0.12080933
0003c0 5e 3f 98 3d 31 94 66 3d 66 1b 47 3d e7 5e 95 3c
       0.07433961 0.05629367 0.048610114 0.01823373
0003d0 02 91 a4 bd c0 15 c4 bd 90 99 dd 3d 74 76 e5 be
       -0.080354705 -0.09574461 0.10820305 -0.44816935
0003e0 a7 24 84 bd a7 8d db bd 68 9f 0f be c9 73 0d 3e
       -0.064523034 -0.107203774 -0.14025652 0.138137
0003f0 80 84 95 bd b9 2f 78 3d 43 09 5d 3d 96 52 e6 bd
       -0.07300663 0.060592387 0.05396391 -0.11246221
