results/SelfPlay_Flag_NoTool_SingleWFlag_8/BasicAgent/BasicAgent-48934.onnx (onnx, 221276 bytes, 6 tensors)

action_model._discrete_distribution.branches.0.bias f4 [5]
000000 60 57 2f 3c b9 3b 07 3c ff d8 04 bd 2d a8 e1 bb
       0.010701984 0.008253985 -0.032433506 -0.006886503
000010 c4 53 af 3c
       0.021402247

action_model._discrete_distribution.branches.0.weight f4 [5, 128]
000000 f2 07 4b 3c ae 17 fa 3c c6 da 5a 3c 1d 1c a6 3c
       0.012392031 0.03052887 0.013357824 0.020277077
000010 b7 f7 c2 3c 83 50 30 bd 68 6d 30 3c 36 e5 b6 3a
       0.02379976 -0.043045532 0.010768272 0.0013953808
000020 62 0b 83 3c 37 21 6b bc 4f 7c 4e 3c c0 13 81 3c
       0.015996639 -0.014351181 0.01260288 0.015756488
000030 74 2d 4b ba a0 f2 da 3c 04 14 35 3c 6c 37 4c bd
       -0.00077506085 0.02672702 0.011052135 -0.049857542
000040 d2 f2 4d bd 5c 5d 16 3d 82 c9 50 3c 27 b2 0c 3d
       -0.0502804 0.03671013 0.012743356 0.034349587
000050 cc 61 3b 3c 78 2e 93 bb 3c d6 b4 bc 28 6b 6e 3b
       0.011436891 -0.0044916235 -0.022074811 0.0036379788
000060 9f 60 dc bc b5 68 80 bc b9 f9 80 3c de eb 18 bd
       -0.026901541 -0.015674928 0.015744077 -0.037334315
000070 ed e4 d5 3c 50 12 9c 3c 1e 9a ee 3c a7 16 c0 3c
       0.026110137 0.0190517 0.029126223 0.023448301
000080 af c1 36 3d c9 44 bd 3c e0 9a df 3b 1f e5 84 3c
       0.044618305 0.023104088 0.0068238825 0.016222535
000090 d2 27 e0 3c 5c 9d 24 3b cf 17 c0 3c 61 28 06 3c
       0.027362738 0.0025118208 0.023448853 0.008188338
0000a0 99 cf e4 bb 1b d5 0c 3b 99 df 9c 3c 9d e3 d0 3c
       -0.0069827554 0.0021489325 0.019149588 0.02549916
0000b0 35 3f 3f bb e7 a7 4a 3c 18 5d cb bc e9 b3 12 3c
       -0.0029181961 0.012369133 -0.024824664 0.008954027
0000c0 4e fe 01 bc b1 98 a4 3c 72 3b f1 bb 3c b6 18 3d
       -0.007934166 0.02009234 -0.0073618228 0.037283167
0000d0 3c 47 1d 3d 6d 6e 77 3c 09 df 9b 3c c1 57 a8 3c
       0.038398013 0.015102011 0.01902725 0.020549657
0000e0 18 4c f3 3c 5e 49 93 3c d0 85 c7 3c 73 83 08 3c
       0.02969937 0.01797932 0.024355799 0.008332121
0000f0 ec 44 1b bd 2c d3 8e 3b b8 3b fe 3c 0e ea 18 3a
       -0.037907526 0.0043586697 0.031034335 0.0005833217
000100 16 e4 0d 3d 8e c9 24 3d a0 91 50 3c e9 46 48 bc
       0.034641348 0.04023128 0.012730032 -0.012223938
000110 cf 68 40 3d 6d 61 d7 bc 3f e0 72 3d 09 62 a2 bc
       0.046974953 -0.026291573 0.05929589 -0.019822137
000120 70 13 c6 b8 c7 9d 26 3d 90 94 9f 3b 09 e5 f4 3c
       -9.444996e-05 0.040677812 0.004870005 0.029894369
000130 f6 db 6c ba 56 58 b4 3b 06 77 80 bc 49 b3 9c 3c
       -0.0009035462 0.0055036945 -0.015681755 0.019128459
000140 ac 10 32 3d 55 58 f6 3c 8d 4b d7 3c 2e ba dc 3c
       0.04347293 0.030071417 0.026281143 0.026944246
000150 48 ed a5 bc 0e 12 68 bb 42 13 bf 3b c7 af fb 3c
       -0.020254746 -0.0035411152 0.005831153 0.030723466
000160 37 ba 70 3b c5 7d a9 3c 8c d8 94 3a 70 60 04 3d
       0.0036732086 0.020689854 0.001135604 0.032318532
000170 17 2a 7f bc 67 77 c6 3c 45 eb 84 3c b6 d3 d1 3c
       -0.015574 0.024226857 0.016225467 0.025613647
000180 90 9b 4d 3a 35 75 c2 3b 18 a5 95 3c 90 9b 21 3d
       0.000784331 0.0059343823 0.0182672 0.039454997
000190 cb 28 d8 3c 5b ad b8 bb f3 8d 95 3c 5e 5c 07 3d
       0.02638664 -0.0056359 0.018256163 0.033047073
0001a0 28 6a 12 3d 49 b5 54 bd bf 21 00 bd ea 25 6c bc
       0.03574577 -0.0519307 -0.031282183 -0.014413336
0001b0 9b 4a ff 3a 24 cc b3 3c 69 ee 3d bc c9 ff 7a bb
       0.001947719 0.021947928 -0.011592486 -0.0038299432
0001c0 8b 83 ab 3c 2b aa 45 3b 27 5c 13 3d 45 b4 31 3d
       0.020936748 0.0030161242 0.035976555 0.04338481
0001d0 64 cd be 3c 61 7e d6 bc ba 3a 5d 3d 39 3d 67 3c
       0.023291297 -0.026183309 0.054011084 0.014113718
0001e0 52 2b 5b bd 62 2f a1 bc 99 fb 05 bd 65 68 fe 3c
       -0.05350811 -0.019675914 -0.032710645 0.031055639
0001f0 f4 f8 95 bc ee 58 c0 3c b7 90 b9 3c 35 d8 5d 3c
       -0.018307187 0.023479905 0.022652013 0.013540317
000200 1a 73 96 3c 17 75 75 3d a5 84 91 bd b5 24 d9 3c
       0.018365432 0.05992612 -0.07105378 0.026506761
000210 ef fd 48 3b a0 de 67 3d 41 95 99 3c d2 6d b4 bc
       0.0030668934 0.056608796 0.018747928 -0.022025023
000220 c4 97 ba 3c ad df 2c bc df 74 b0 bd bf d7 93 bc
       0.022777446 -0.010551375 -0.086160414 -0.018047212
000230 8c d1 ef bc cb f8 0b 3d d4 b0 4c bd c7 4f 2e 3c
       -0.029274724 0.034172814 -0.049973324 0.010639138
000240 f2 97 38 3c 19 0b ac ba 9f cd 01 bc b7 38 83 3c
       0.011266695 -0.0013125866 -0.007922559 0.016018255
000250 39 e2 33 3d 6d 36 85 bc ee 6d ef 3c 3a ad b7 3d
       0.043916915 -0.016261304 0.029227223 0.08968587
000260 8b a2 9e bc b6 51 f3 bc ca d2 a0 bc 16 2d a1 bc
       -0.019364616 -0.029702049 -0.019631762 -0.019674819
000270 43 43 9c bb 59 d0 b2 bd b5 27 14 3d 11 ad a5 bd
       -0.0047687604 -0.087311454 0.03617068 -0.080896504
000280 0e ab 9a bd 0f b7 8f 3d 74 c9 23 3d a1 94 d4 bd
       -0.07552157 0.070173375 0.039987043 -0.10379911
000290 0a 97 de 3c d5 ea b8 3d 9c f7 67 3d 3e 5a db 3c
       0.02717163 0.09029166 0.056632623 0.02677643
0002a0 a5 b6 45 3b 86 3a a7 3c 9d 3b 71 bd d1 07 ad bd
       0.003016868 0.020413648 -0.058894742 -0.084487565
0002b0 93 00 61 bd 56 a7 ef 3c 09 60 91 bc 79 7f 48 3c
       -0.05493219 0.029254597 -0.017745988 0.012237423
0002c0 b1 d8 fb bc e7 88 81 3d 79 62 96 bd fe ed 30 bd
       -0.030742975 0.0632494 -0.07343001 -0.043195717
0002d0 b8 f8 fe 3c 88 af 97 3d 4a a4 7f 3d 6d c4 d6 bc
       0.031124458 0.07406527 0.062412538 -0.02621671
0002e0 9c 9c bd bd 05 fe d7 3c 63 2a de bc 73 39 59 bc
       -0.092583865 0.026366243 -0.027119821 -0.013258326
0002f0 8e ff bb 3c 14 58 b6 bd d8 b8 9f 3d d6 fc de 3b
       0.022949006 -0.08903518 0.07798928 0.0068050427
000300 76 48 4c bb 5b b0 39 3d aa 6c 06 bd 26 f6 f2 3c
       -0.003117112 0.0453342 -0.032818474 0.029658388
000310 43 99 a9 3c 7f e0 a4 3c 00 4c c2 3c d4 5a c9 3a
       0.020702964 0.02012658 0.02371788 0.0015362152
000320 0a f4 6b bd 15 88 b4 b9 05 23 68 3d 20 38 df 3b
       -0.05760578 -0.00034433664 0.056674022 0.0068121105
000330 21 65 19 bd 2f e8 bb bc c4 44 aa bc cf e8 5b 3d
       -0.03744996 -0.022937862 -0.020784743 0.05368882
000340 b1 56 7f 3d ce f4 52 bd b9 66 02 3c 86 61 2c bd
       0.062338535 -0.051502995 0.007959061 -0.042085193
000350 a6 06 68 3c 7c ec 04 b9 a3 cf 09 3d 51 d9 47 bc
       0.014161741 -0.00012676598 0.033645283 -0.012197808
000360 ed 6f 52 bc e9 47 0e 3c ab c8 3a 3d 9e 52 a7 bc
       -0.012844068 0.008684137 0.04560153 -0.020425137
000370 df d8 10 bd 8f 58 b3 bd 9a e9 73 bd 47 c0 ee bb
       -0.035363074 -0.087571256 -0.05954895 -0.007286105
000380 1f 2a 9c bb 5b 35 4e 3d 1b a4 b6 bc 7c 84 8d bc
       -0.0047657634 0.050343852 -0.022295048 -0.017275088
000390 26 e1 b7 bc c1 0c a0 3b 14 be 43 3d c0 ca 23 bc
       -0.022446226 0.004884333 0.047788695 -0.00999707
0003a0 71 a7 ed 3c a5 5a 81 bc 98 03 8e bc 4e 65 dd 3c
       0.029010506 -0.015790293 -0.017335698 0.027025845
0003b0 c8 d7 60 3d 96 1f 55 3c 57 f4 ca 3b 05 32 c3 3c
       0.054893285 0.013008019 0.0061936784 0.023827562
0003c0 b9 d1 6e 3c 2f e9 64 bc 02 ad 18 3c b9 51 dc bb
       0.014576369 -0.013971611 0.009318592 -0.0067236093
0003d0 01 19 84 3d 85 78 8e bb 07 16 15 3c 92 5c 76 3d
       0.064500816 -0.004347863 0.00909949 0.060146876
0003e0 6b 17 32 3d 9f ba 9f bb ab c6 11 bd f3 ea 34 3d
       0.043479364 -0.004874542 -0.035589855 0.044169378
0003f0 73 7e 11 bd 1c c4 8e 3c c6 de 82 bd 6f 54 df bd
       -0.035520982 0.017427497 -0.06390147 -0.10904776

network_body.linear_encoder.seq_layers.0.bias f4 [128]
000000 e1 00 48 bc 79 9e d9 3a 65 5a ea 3b 35 5a 4b 3a
       -0.012207241 0.0016603015 0.007151889 0.00077572773
000010 f5 eb e1 3b 48 06 91 bb 9d be d4 3c 91 af c4 3a
       0.0068945833 -0.0044257976 0.025969798 0.0015005936
000020 45 4e b0 3b 16 45 76 3b 34 bf 2d 3b 75 b6 66 3c
       0.005380424 0.00375778 0.002651167 0.014081587
000030 41 55 63 3c 75 79 fd ba f0 3a 46 bb 0e 0e 7a bb
       0.013875307 -0.0019338565 -0.0030247532 -0.003815535
000040 e7 14 1a bc bb 5f bd bb 11 0d ed 3b 3f 09 5b 3c
       -0.009404398 -0.005779234 0.0072342237 0.013368904
000050 21 03 2b bc a5 e8 9e bb 86 85 b7 ba 2c 9e 2a bc
       -0.010437758 -0.0048495107 -0.0014001585 -0.010413688
000060 8e 32 a1 bb aa 3f 8a ba f4 df a2 bb 11 e8 17 bc
       -0.0049193567 -0.0010547538 -0.004970545 -0.009271638
000070 77 9e 2c bc 78 b8 94 ba 47 87 65 bb 50 6d 4b bd
       -0.010535828 -0.001134648 -0.0035023259 -0.049664795
000080 43 29 85 bb 03 95 31 bb 52 ff 8d bb 94 3a 01 3a
       -0.0040637567 -0.0027096875 -0.004333415 0.00049296883
000090 1f 42 87 3a f6 81 3b 3c 6b dd 1b 3c d9 5c 4b 3b
       0.0010319388 0.011444559 0.009513239 0.0031030683
0000a0 2d 48 8e bb 39 35 f1 3a 60 6c f1 3b e5 79 21 bd
       -0.0043421 0.0018402702 0.0073676556 -0.03942289
0000b0 fb a0 36 bb 0f 35 b9 bb 4e 86 9e 3c 0b 64 18 3c
       -0.0027866948 -0.005652077 0.01935115 0.009301196
0000c0 16 3a b7 3c 14 51 b6 3b 52 2e 33 3c f2 c5 08 ba
       0.022366565 0.0055638645 0.010936337 -0.00052174844
0000d0 d0 ff aa 3b 03 9c 35 bc 76 f4 a3 bb 12 46 75 3b
       0.0052184835 -0.011084559 -0.0050035072 0.0037425798
0000e0 45 fa 1d 3b 66 ad 72 bb ef 06 eb 3a b7 3f 6a ba
       0.002410547 -0.0037029623 0.0017931144 -0.0008935886
0000f0 cd 5d 13 bc 12 89 b2 3a 79 77 ce b8 cd 0a 93 3a
       -0.008994532 0.0013621172 -9.845099e-05 0.0011218429
000100 93 de 59 bb 12 30 1e 3c 25 c8 c1 3b e7 b8 04 bc
       -0.0033244237 0.009655016 0.0059137517 -0.008100725
000110 b1 9d 08 bd ec e1 fc bb cd 5a 75 bb f5 7e 0b bd
       -0.03335351 -0.0077173617 -0.0037438155 -0.034056623
000120 fb 09 68 3c 84 fa 27 bb e1 55 ab 3b 21 16 04 3b
       0.014162536 -0.0025631497 0.0052287434 0.0020154791
000130 35 6d b5 ba 2b ce 33 3b f2 da fe 3b d5 92 3c bb
       -0.001384175 0.0027436118 0.007777565 -0.0028774042
000140 7c 7c a0 bb 1e 2d 7b bd 77 9e 38 bc 3e 23 c7 3b
       -0.004897652 -0.061322324 -0.01126825 0.0060771992
000150 da 3a 88 3c cc b9 04 bc 92 c7 ee 39 26 b8 85 bc
       0.016629625 -0.008100938 0.0004554359 -0.01632316
000160 a7 d9 64 3c f9 39 e1 3a 5d 86 d3 3a 85 b0 fd 3b
       0.013967908 0.0017183415 0.0016138066 0.00774199
000170 cd 7d 98 bc 4a f7 3b 3c 9c 24 65 bb aa 65 55 bc
       -0.018614674 0.0114725325 -0.0034964448 -0.013024727
000180 2e c9 f3 bc 49 92 9e bb d1 32 ec 3b c7 68 0a bb
       -0.029759016 -0.004839216 0.007208206 -0.002111958
000190 cb 08 bd bb 60 59 9c 3c 9b 85 8c 3b d2 38 2c bb
       -0.0057688705 0.019085586 0.004288388 -0.0026278985
0001a0 7e a1 2b 3c ac 88 a0 bb 07 f3 76 bc ef d5 98 3b
       0.010475514 -0.004899105 -0.015072591 0.0046641747
0001b0 79 74 16 3c 08 dd 8b bc 2d 7b 91 3c 70 03 ba bb
       0.009183043 -0.01707317 0.01775893 -0.0056766793
0001c0 01 cd ad 3b a7 dd 4f 3c b5 0b a0 bb 1c 5a 63 bc
       0.0053039794 0.012687123 -0.004884208 -0.013876464
0001d0 85 e3 75 3b a3 3e 50 bd 55 99 2e 3a ec cb 19 bb
       0.0037519645 -0.050840985 0.00066604215 -0.0023467494
0001e0 cd b2 38 bc 4f 5c 7a bb c0 22 48 bb 40 10 73 3b
       -0.011273098 -0.0038201993 -0.003053829 0.0037088543
0001f0 4f 3e bc 3b f5 b1 1e bc 58 d4 3e bb 57 db 86 bc
       0.0057447325 -0.009685983 -0.0029118266 -0.016462011

network_body.linear_encoder.seq_layers.0.weight f4 [128, 292]
000000 ba d7 8f 3d 23 f6 81 3d 9a c6 19 bd fa 0a 1b bc
       0.070235685 0.06345775 -0.037542917 -0.009463066
000010 ab a1 5b ba 20 1a d9 bd 27 46 2d 3d fe e2 64 3c
       -0.00083782774 -0.10600686 0.04230323 0.013970135
000020 a9 2f 0f bd 6f 46 cb 3d a1 e1 35 bd a8 aa 3e bd
       -0.03495756 0.099255435 -0.04440463 -0.04654947
000030 6f 8c 22 3d bd 7f 1d 3c e5 c4 8c bd c0 96 8c bc
       0.03968471 0.009612975 -0.06873492 -0.017161727
000040 a8 f0 34 bd 4b 12 5d 3d 42 02 f4 3c a0 12 5e bc
       -0.04417482 0.053972524 0.029786233 -0.013554245
000050 46 be 95 bd b1 b1 81 3d bd 0c 1d 3d c2 53 a4 ba
       -0.073116824 0.0633272 0.038342226 -0.0012537169
000060 d6 35 82 bc 2c af 07 3c cc 64 f1 bd 6a 99 9b 3c
       -0.015894812 0.00828151 -0.117868036 0.018994052
000070 d3 48 0f 3d ef c0 a0 3d 6b 3e 80 3d 9a 36 c2 3d
       0.03498156 0.07849299 0.06261905 0.09483071
000080 83 d6 9b bd 95 83 f4 3d 9e 06 74 3c 6d 3a 2b bd
       -0.07609274 0.1193916 0.014894156 -0.041803766
000090 0d 0a a2 b9 2b 83 31 bd 06 2a 77 bd a6 95 8b 3d
       -0.00030906536 -0.043337982 -0.06034281 0.068156525
0000a0 b9 68 db 3b 50 b9 98 3c 8f 94 a6 3d d5 93 05 be
       0.0066958335 0.018643051 0.08133804 -0.13044675
0000b0 54 b0 c0 bd 28 87 27 3e bc ec 1b 3d 1e 53 a5 3b
       -0.09408632 0.16360152 0.038067564 0.0050453087
0000c0 97 70 a4 3d 79 cd 12 be 14 db 6e bd ce bc 0f bd
       0.08029287 -0.14336194 -0.058314398 -0.035092168
0000d0 c4 c3 c8 bb af e0 d4 bc c1 91 82 39 f6 b2 14 3d
       -0.0061268527 -0.025986044 0.00024904127 0.036303483
0000e0 4e 77 f8 bd 37 3a 01 3e f8 e6 33 3c 3c bb 18 bd
       -0.121321306 0.12619863 0.01098036 -0.037287936
0000f0 1c c6 a4 3c b3 0f 1e bc 65 0b 2e 3d 34 32 69 3d
       0.020113997 -0.009647298 0.042491335 0.056932643
000100 7d cd e7 bd d3 1a 1c 3c ab fc ba 3c ae 19 cd bd
       -0.11318491 0.00952788 0.02282556 -0.10014664
000110 97 62 6b bd 49 5f b2 bc bc 22 35 3d 85 a8 19 3d
       -0.05746707 -0.021773951 0.04422258 0.03751423
000120 83 dc a3 bc 7d 69 09 3b b3 7c 1a 3d f3 3f 05 be
       -0.02000261 0.0020967417 0.03771658 -0.13012676
000130 c9 b8 9d 3d c0 d0 e2 3d df 39 03 bb e1 4e 3a 3d
       0.077012606 0.11074972 -0.0020023508 0.04548538
000140 7e 59 f4 bc 12 09 32 3d b1 90 89 bc 90 d1 b6 3d
       -0.02982783 0.04346568 -0.016792627 0.089266896
000150 e0 04 ed 3c a9 52 e1 3c e0 74 dc bd 71 74 db 3b
       0.028932989 0.027505236 -0.1076448 0.0066972305
000160 d7 6d 1f be 85 ee 73 3e 84 aa 70 3d f4 f6 2f be
       -0.15569244 0.23821457 0.058756366 -0.17184049
000170 c2 0f 4e bb 06 7b 13 3d 92 1f f1 bd 84 89 83 3b
       -0.0031442498 0.036005996 -0.117736 0.004014196
000180 31 94 37 3d 56 9a 9e 3d 6a 76 12 bd 92 20 81 bc
       0.04481906 0.07744281 -0.03575746 -0.015762601
000190 45 d8 1e bc ae c8 08 be 0d a9 d8 bc 9a 82 4a 3c
       -0.009695117 -0.13357803 -0.026447797 0.012360239
0001a0 13 bc e4 bb f9 28 4c bd ac e3 52 bd d1 ea c7 bd
       -0.006980428 -0.049843762 -0.051486656 -0.097615846
0001b0 23 cc f8 bd c5 96 0a 3d 23 5e c4 bb 3f 2d d8 bc
       -0.12148311 0.03383519 -0.0059926673 -0.026388763
0001c0 04 d3 28 be 9c ea 25 3e 15 31 37 bd 6c 12 46 3d
       -0.16486746 0.16202778 -0.044724543 0.048357412
0001d0 2d 45 d2 bd 6b 99 72 3d 80 d3 93 3c 23 af 47 bd
       -0.102671005 0.059228342 0.018045187 -0.048751008
0001e0 3c 39 11 3d fd e3 27 39 f7 a7 86 3b b2 5f 22 be
       0.035454974 0.00016011293 0.0041093784 -0.15856817
0001f0 1e bb 6e bd dd 06 5b bd cc 32 b9 bc e1 96 4f 3d
       -0.058283918 -0.053473342 -0.02260723 0.050681
000200 90 17 14 3d 09 2b 54 bb 1b 24 96 bd e7 59 53 bd
       0.036155283 -0.0032374284 -0.07331105 -0.05159941
000210 17 9a 25 bc ab 58 74 bd 39 93 55 bd e2 52 e8 3c
       -0.010107539 -0.059654873 -0.052142356 0.028359834
000220 46 89 3d 3d b6 bc 3b 3d b8 61 29 bd 95 9e 94 bd
       0.046273492 0.045834266 -0.041352957 -0.072568096
000230 ed 65 59 3d 89 e7 4f 3d 1a f7 aa bb 02 cb 7c 3c
       0.05307572 0.05075792 -0.005217445 0.01542926
000240 e5 20 ac bd 6a 14 8e bd b7 cb 7b bd 80 56 21 3d
       -0.08404712 -0.069374874 -0.061473574 0.039389133
000250 4f 50 c7 3d fd c0 be bd a2 ad 78 bd 3d e6 04 bc
       0.097321145 -0.09314153 -0.060712464 -0.008111534
000260 7a 96 ac 3d 77 14 b5 bd 03 a5 4f bd 60 c4 f6 bd
       0.084271386 -0.08841794 -0.050694477 -0.12049174
000270 73 47 b3 bc 46 88 d4 bd 9e d8 c2 bd ce d7 ec bd
       -0.021884656 -0.103775546 -0.09513973 -0.11564599
000280 fc 6b e6 3c a0 27 89 3d bc 37 d1 3b f7 5e 8e bc
       0.028127663 0.06697011 0.006384818 -0.017379267
000290 21 63 94 3d 49 24 bf bc 44 17 54 3d f0 8d 70 3b
       0.0724547 -0.023332732 0.05178 0.0036705695
0002a0 c7 4e 48 bd ac 40 61 3c dd 5f ca bc 39 84 7e bd
       -0.048903253 0.013748329 -0.024703914 -0.062137816
0002b0 9f 13 a3 3d 56 61 84 3d fd e9 aa 3d 97 41 d2 ba
       0.07962727 0.06463878 0.08345411 -0.0016041276
0002c0 7b 8e 44 3e 49 f4 53 3d 3d 8f c2 3d e6 d2 1f 3d
       0.19194977 0.05174664 0.09499977 0.039019488
0002d0 53 71 e8 3d 1b 40 1f 3e 54 8f 99 3d 21 04 1b bc
       0.1134974 0.15551798 0.07498041 -0.009461434
0002e0 16 88 d9 bc c8 d6 21 3e 83 91 bc 3d 3b 02 27 3d
       -0.026554149 0.15804589 0.09207442 0.04077361
0002f0 76 30 db 3d 3d e0 ae 3d 3c 81 df bc a9 79 42 3d
       0.107026026 0.08538864 -0.027283303 0.047479305
000300 06 5e ad 3d b1 0a f8 3c d7 74 11 3d 3b e5 42 3d
       0.08465199 0.030278536 0.035511818 0.047581892
000310 9c 55 93 3d 69 f6 e2 3d a1 56 1d 3d cb 49 52 3d
       0.07194063 0.11082155 0.038412694 0.051339906
000320 41 83 5c 3d 32 5c 1c 3d c0 6c 2e 3d 63 c3 17 3d
       0.05383611 0.03817386 0.04258418 0.03705157
000330 f4 23 d3 3d 55 7f 3f bc 1f f3 39 3e 5e 4d 10 3d
       0.10309592 -0.011688073 0.1815915 0.035230033
000340 c3 34 49 bd ad 0b 8d 3d af e7 9d 3b 20 06 80 3c
       -0.049122583 0.068869926 0.0048188786 0.01562792
000350 c1 d5 19 3d 25 cb f9 bc 46 a7 d8 ba fb 15 c5 b8
       0.037557367 -0.030492375 -0.0016529344 -9.397786e-05
000360 5b d5 72 bd fb f3 5b bc 08 49 a8 bc de 2b 91 3d
       -0.059285503 -0.013424869 -0.020542637 0.07088445
000370 ce 1a 17 bc 15 ff 03 bd 60 b3 f8 bc 6c 7b 0f 3d
       -0.009222699 -0.032225687 -0.03035897 0.035029814
000380 1d c9 8a 3c 1a d9 ac bd 49 92 61 bc 46 eb ae 3d
       0.016941601 -0.08439846 -0.013767787 0.085409686
000390 5d cd 10 bd d5 4a 16 3d d9 98 e3 bc 6e 3b 3d bd
       -0.0353521 0.03669246 -0.027782844 -0.046199255
0003a0 cf 5d b2 3d d9 1d 1f bd 87 d2 38 be 88 c1 d9 3d
       0.08709299 -0.038846824 -0.1804906 0.10632616
0003b0 82 90 8c 3d 41 60 93 bd b4 4d db b9 8d 2d a0 bd
       0.068635 -0.07196093 -0.00041828828 -0.07821188
0003c0 d6 9e 0b bc 88 83 36 3d dd 5b 2f 3d 49 0b 3c bb
       -0.008521756 0.04455903 0.042812217 -0.002869325
0003d0 f6 c6 07 3d 8c 69 9b bc 86 b8 a4 bd 38 0f 56 3c
       0.03314873 -0.018971227 -0.080430076 0.013065152
0003e0 f9 3a 9e bd e5 01 02 3c 37 3c 2e bc 43 75 d9 bc
       -0.07726092 0.007935022 -0.0106344735 -0.026545173
0003f0 b1 97 d4 bc 4a 4e bf 3b 1c a4 80 bd 0d 3a 57 bd
       -0.025951238 0.00583819 -0.062813014 -0.052545596

network_body.linear_encoder.seq_layers.2.bias f4 [128]
000000 a4 4a e5 bb a5 94 16 3c b3 9c 68 3c ba 28 8f bb
       -0.0069974232 0.009190713 0.014197516 -0.0043688687
000010 81 4f c9 bc bb 9f 8f 3c d0 a3 ce bc 1d b0 c0 3c
       -0.024574043 0.01753222 -0.025224596 0.023521477
000020 21 07 42 bc 13 40 0f 3d f6 5c b7 3c 87 ce f2 bb
       -0.01184252 0.034973215 0.022383194 -0.007409874
000030 98 98 82 3c 88 04 d8 ba 0b c7 74 3b 8c b2 3a 3d
       0.015941903 -0.0016480843 0.0037350084 0.04558043
000040 ce 19 53 bc 44 a5 56 ba 37 84 17 bb ed a7 bb 3c
       -0.01288457 -0.00081880786 -0.0023119578 0.022907222
000050 6c 00 73 3c de 08 8f 3c 78 c3 17 3c 55 d0 15 3d
       0.014831644 0.017460283 0.009262912 0.036575634
000060 9f 70 94 3b 9e ad 09 3c 25 38 86 bb 14 21 a8 3c
       0.004530027 0.00840321 -0.0040960484 0.020523585
000070 b4 90 da 3c f1 32 d5 3c 04 7b 71 3c 5f 11 53 3c
       0.026680328 0.026025267 0.014738802 0.01288256
000080 3e 65 76 bb ba fd 1f 3d de ff 06 3b ea 7b d8 3c
       -0.0037596966 0.039060332 0.0020599286 0.026426274
000090 82 ef 8a 3c 71 92 1a 3c ae 96 ac 3c 7e 62 8c 3c
       0.01695991 0.009434328 0.021067943 0.017136808
0000a0 bd 6c 98 3b 71 1c 57 3c 8d 1a 49 3c 95 a0 b5 3a
       0.0046516345 0.01312934 0.012274397 0.0013857061
0000b0 f9 cc 71 3c b4 7e 6a bb 9e 0e 89 39 94 7e 89 3c
       0.014758342 -0.0035781087 0.00026141567 0.01678399
0000c0 38 f1 83 37 b1 7b bd 3c 92 94 0f 3c 76 de 82 bc
       1.5728743e-05 0.02313027 0.008763449 -0.015975218
0000d0 e2 2b 5c 3c 50 1e 00 3d 61 22 8a bc 01 43 e7 bc
       0.013438197 0.03127891 -0.016862096 -0.028230192
0000e0 42 7b 12 3d d5 f6 b6 3c a5 1f 76 3b ea f8 a4 ba
       0.03576208 0.022334496 0.0037555483 -0.0012586389
0000f0 2a f5 59 3c fb 72 6d 3c 7e bd 0a 3d be be c2 3a
       0.013303081 0.0144927455 0.03387212 0.0014857871
000100 6f b5 39 bb e6 70 c0 3c 4c 79 15 bc 55 6b ac 3b
       -0.0028336903 0.023491334 -0.009123158 0.0052618184
000110 32 de ff ba d5 a0 be 3c ab ed d5 3c a1 9a 54 bb
       -0.0019521175 0.02327005 0.026114305 -0.0032440799
000120 8e 0b 79 3c 87 70 45 3c fe 6a 25 3b 58 54 d2 3c
       0.015200509 0.012050754 0.0025240774 0.025674984
000130 56 85 0c 3d ed a1 8d bc 52 d1 9e 3c fd 48 a6 3b
       0.034306847 -0.017289126 0.019386921 0.005074619
000140 5b e0 56 3c 5a bb 2e 3c 2c 2a 7b bc d1 e5 a5 3c
       0.013115014 0.010664785 -0.015329879 0.020251187
000150 3b d5 48 3c 4c e7 91 3c f6 59 0d bc d4 4e 86 ba
       0.012257869 0.017810486 -0.008627405 -0.0010246881
000160 14 05 96 3b 78 a7 79 bc ae c6 d9 bc e7 53 0a 3d
       0.004578242 -0.015237682 -0.026583996 0.03377142
000170 b7 52 07 3d 29 01 26 3c 91 52 71 3c 68 bb 5d bc
       0.033037867 0.010132113 0.014729158 -0.013533451
000180 28 88 cf 3b 9f fa 89 ba a8 09 ad 3c 08 40 4b 3c
       0.0063333698 -0.0010526961 0.021122769 0.012405403
000190 06 ba a4 bc 07 18 d3 3b c5 06 1e 3c c5 42 e1 3c
       -0.020108234 0.0064420733 0.009645169 0.027497659
0001a0 a7 3b d4 bc 2b ad 8e 3c ef 7d 58 3c e7 94 85 bc
       -0.02590735 0.017416557 0.013213619 -0.016306354
0001b0 25 c5 93 3c f9 19 53 bc 5e ed b6 bb 19 ea 06 bc
       0.018038342 -0.01288461 -0.0055824956 -0.008234524
0001c0 b6 0a a6 bb 59 cb 17 bc 92 20 40 3c bc 99 a6 3c
       -0.005067195 -0.00926479 0.011726515 0.020336978
0001d0 d6 89 14 3c 44 92 1e 3c ef c7 01 3d 02 2c 8e bc
       0.009066066 0.009678427 0.031684812 -0.017354969
0001e0 97 72 b8 3b f2 82 e0 3b d5 61 95 3c cc 31 6d 3c
       0.0056288945 0.0068515474 0.018235127 0.0144772045
0001f0 bb 68 87 3c 9f 9f 78 3c ed a2 9b 3c db 09 d8 3c
       0.016529432 0.015174775 0.018998588 0.026371887

network_body.linear_encoder.seq_layers.2.weight f4 [128, 128]
000000 16 93 14 bd d6 11 b4 3d 0b 9d 7e bd 73 db 59 bd
       -0.036273085 0.087924644 -0.062161487 -0.0531878
000010 6b 7d 1d bd 5a 19 e2 3d 9a 96 91 b9 10 b6 f9 bc
       -0.038449686 0.11039992 -0.00027768762 -0.030482322
000020 81 67 cf 3c 84 28 d1 bd 17 20 4c 3d 61 d4 f3 bc
       0.02531791 -0.10212806 0.04983529 -0.029764356
000030 bf d8 29 3d c0 b2 c6 3d 01 c5 1c 3e 1f 5c 86 3d
       0.04146647 0.097020626 0.15309526 0.065605395
000040 28 8f 11 3e 93 2c 65 bd ec e5 27 3d f4 d5 c1 3d
       0.14214766 -0.055950712 0.040990755 0.094646364
000050 49 ec be 3d 56 22 1d 3c 12 ea 8f bd 65 23 99 3d
       0.093224116 0.009590706 -0.07027067 0.07477454
000060 e1 35 a7 3d 09 f6 44 bd 38 0d 39 bd 60 a0 c0 3b
       0.081645735 -0.0480862 -0.045178622 0.005878493
000070 68 15 43 3e e6 d7 08 3d 21 97 b5 bd 0f d3 ee 3d
       0.19051135 0.03340902 -0.08866716 0.1166135
000080 6e 97 05 bd 42 02 59 3d 91 b9 0e be 0e 42 0f bc
       -0.032615118 0.05298067 -0.13937975 -0.008743776
000090 2a 6a aa bd e7 33 8f 3d 5d 66 30 be 62 30 10 3e
       -0.083210304 0.069923215 -0.17226548 0.14080957
0000a0 7c b6 5b 3d 8b 80 e3 bd 71 40 ce 3d 0c 58 5b be
       0.053640828 -0.11108502 0.10070885 -0.21420306
0000b0 03 24 b7 3d 53 e3 bf bc 0d 67 8d 3d 3b 86 75 3c
       0.089424156 -0.023423826 0.06904421 0.014985616
0000c0 a4 53 0f 3e 53 61 95 3d 2c f9 1b 3d 95 5f 6a bd
       0.1399675 0.07293954 0.038079426 -0.05722006
0000d0 20 e6 07 be a3 b8 ac 3c 67 76 40 3c d1 9c f4 3d
       -0.1327138 0.021084135 0.011746979 0.11943973
0000e0 bb 88 25 bd f5 f0 ac 3d 04 ce be bc b4 28 b4 3d
       -0.0404136 0.084443964 -0.023291595 0.08796826
0000f0 a5 f5 9b 3d 9e 5a 67 be 18 4e e1 3d 8c 88 fc bd
       0.07615212 -0.22593161 0.11001223 -0.12330732
000100 a0 1b dc bc 20 63 7e bd 2b 2c c1 3d 6a 2a c4 3d
       -0.026868641 -0.06210625 0.094322525 0.09578402
000110 8f 57 ef bb d6 c6 2e 3c a0 11 38 be 37 a5 a0 bd
       -0.007304139 0.010667523 -0.17975473 -0.07844012
000120 d1 6b b1 bc b3 05 24 bd 3d a9 ef 3d 3a d5 63 bc
       -0.021657856 -0.040044498 0.117022015 -0.013905818
000130 c5 39 a8 3d de cc d0 3d dc b8 56 3e d9 59 65 bc
       0.08214144 0.10195325 0.20968956 -0.013998472
000140 9d 72 29 3d 8c 67 83 3e 65 13 e0 bd 8d 3e 49 bd
       0.04136907 0.25664937 -0.10941199 -0.04913192
000150 7d 73 35 3d 18 32 81 3c 1f 4f a1 bc 73 69 ed bd
       0.04429959 0.015770957 -0.019691048 -0.115923785
000160 3a 67 9f 3d 97 84 de bd d0 1e 0f bd c6 39 9f bd
       0.07783361 -0.10865133 -0.034941494 -0.07774691
000170 31 e7 38 be c7 35 b5 bb 3f 8e 81 3d 77 8d 2a 3e
       -0.18056943 -0.0055300924 0.063259594 0.16655527
000180 78 3f cd 3c 59 39 f2 3d 2a 57 3d bd e9 6c 72 3c
       0.025054678 0.118273444 -0.046225704 0.014796474
000190 5e 72 14 3b 90 0a b2 bd 75 69 1b 3e 9b 16 3a bc
       0.0022651176 -0.08693421 0.15176947 -0.011357929
0001a0 ad 59 c4 3d b8 83 0d 3e 5c 1d e2 3d 58 85 9f bd
       0.09587417 0.13819778 0.11040756 -0.07789105
0001b0 bb 92 03 bc 63 d8 4b bd c7 1d d7 bd e9 ec 14 bd
       -0.008030589 -0.04976691 -0.105037265 -0.036358748
0001c0 57 f2 60 3d da 0c 42 bd 59 16 87 3d 02 f0 d5 bc
       0.054918613 -0.047375537 0.06596059 -0.026115421
0001d0 b6 ac 2b bd 2e 7c 32 ba 2c 23 18 bd f9 ce 85 3c
       -0.041912757 -0.00068086653 -0.037142918 0.016334044
0001e0 28 18 b0 bd 28 e0 3b bd 7e fe 43 3e 0d a0 12 3e
       -0.085983574 -0.04586807 0.1914005 0.14318867
0001f0 5d 6f a1 3c f9 fb 3e 3c 23 16 84 3d ed 18 8c bc
       0.019706422 0.011656755 0.06449535 -0.01710173
000200 ba 0d a4 3c 35 a3 dc 3c c6 e4 8b be 92 45 81 3e
       0.020026077 0.026933292 -0.27322978 0.2524839
000210 b1 13 2a be 2b fa 26 bd 3c 19 01 3d 74 4f 82 bd
       -0.16609074 -0.040765923 0.031518206 -0.06362811
000220 ee e9 3a 3e a5 11 0e be 77 d1 83 be 71 ef 16 3d
       0.182533 -0.13873918 -0.25745746 0.036849443
000230 90 c6 4c 3e 3d 1f 0b be 4d 42 bb 3d 89 3d 59 bd
       0.1999762 -0.13586135 0.09143505 -0.0530372
000240 f3 62 20 be f0 e4 b6 3d 16 e9 f5 3d 7f f9 78 bb
       -0.15662746 0.08930385 0.12007348 -0.0037990508
000250 ab 30 a7 3b f8 75 25 be 98 17 1e be c6 49 fa bd
       0.005102237 -0.16158283 -0.15438688 -0.122211024
000260 18 b9 c6 3d c3 79 8b bd 49 56 e1 3d cf bb a6 3d
       0.097032726 -0.068103336 0.11002786 0.081412904
000270 3c bf 39 bd a4 24 87 3d 9d 19 76 3e 55 ff 01 3e
       -0.04534839 0.065987855 0.24033208 0.12695058
000280 c1 b6 0c bd 26 fc 5d bd a3 21 0d be 92 13 08 be
       -0.034353975 -0.054195546 -0.13782363 -0.13288715
000290 7a 0a 00 3d 25 19 6b bd a6 d6 4f bd eb ad 23 3e
       0.03125999 -0.057397027 -0.050741814 0.15984313
0002a0 a3 dd a8 3d 32 8a fa 3d 0c 6e 3a 3e 12 19 61 bd
       0.08245399 0.1223339 0.18206042 -0.05495555
0002b0 b3 b0 b7 bc ae c3 e6 3c 60 45 cd bd ab 2e 7d be
       -0.022423124 0.02816948 -0.10022998 -0.24724834
0002c0 1d 48 52 bc 8f 2c a9 be 11 e1 3f 3c 47 5d 25 bb
       -0.012834576 -0.33041808 0.011711375 -0.00252326
0002d0 22 ee 20 be 54 57 f5 bc 96 ed 03 3e 3a 5a a2 3d
       -0.1571584 -0.029948868 0.128836 0.079273656
0002e0 af 56 dc 3c 9b b3 40 bc 7c 73 cd 3d 7b 33 4b bd
       0.026896803 -0.011761571 0.100317925 -0.049609642
0002f0 7b ca 03 3e 04 92 ed bb c2 58 48 bb a5 17 d4 bc
       0.12870209 -0.0072500724 -0.0030570482 -0.02589018
000300 81 c9 00 3e 36 1e 9e bc 8c a8 91 bd 87 a2 25 bd
       0.12576868 -0.019301515 -0.07112226 -0.0404382
000310 f0 53 13 3e 39 52 e1 3d 5d 5f ad 3c 89 a2 b0 3c
       0.14387488 0.11002011 0.021163637 0.021561878
000320 e7 89 0a bd a9 62 87 bd 0a dc 94 bd 82 a8 2e bd
       -0.03382292 -0.06610615 -0.072685316 -0.04264117
000330 37 86 44 3e bb cd 1b 3d 72 5d d6 bb d7 d2 8e 3e
       0.19191824 0.038037997 -0.0065419013 0.27895233
000340 87 76 3e 3d ef f2 db 3d 14 39 9b 3d 60 c9 58 3c
       0.046499755 0.10739695 0.07579246 0.013231605
000350 bd d9 31 bd 5f e7 88 3e 70 6c cb 3d 51 1b 8a bd
       -0.043420542 0.26739022 0.09932792 -0.067434914
000360 96 2c 21 bd e8 03 20 be 8a 01 07 bb 31 69 d5 bd
       -0.03934916 -0.1562649 -0.0020600283 -0.10420454
000370 f1 8f 0b bd 4f 83 e0 3b d9 37 8b 3d cd b8 5f 3e
       -0.03407282 0.0068515907 0.067977615 0.2184784
000380 69 34 d7 3d 76 df c6 bc 4c 4f 06 3c 4c a9 42 bd
       0.10508043 -0.024276476 0.008197617 -0.047524735
000390 44 72 b9 3d f5 1a 38 be ee 04 e5 3d 80 61 07 3e
       0.090549976 -0.17979033 0.11182581 0.13220787
0003a0 2a 56 b9 3d d5 ed 11 bd a2 fa f3 3c 71 a7 f5 3c
       0.090496376 -0.035627205 0.029782597 0.029987069
0003b0 54 19 b4 3c 7d 08 d6 bc 21 82 03 3d 13 42 07 3e
       0.021984734 -0.026127094 0.032106522 0.13208799
0003c0 a7 73 a4 3d de cb dd bd ea 65 d9 3d 88 f2 a8 3d
       0.080298714 -0.108299 0.10615142 0.08249384
0003d0 59 eb be bd 1f 87 7a bd a4 b5 24 3e 79 d7 4f 3d
       -0.09322233 -0.061164018 0.16084915 0.0507426
0003e0 ec 43 dd bd 5d 43 97 3d e4 f3 a2 3c a9 b3 be 3d
       -0.10803971 0.073858954 0.019891687 0.09311611
0003f0 53 01 84 bd d6 61 18 3d ac 67 61 bc 25 fe 89 bd
       -0.06445565 0.03720268 -0.013757627 -0.06737927
