results/Moving2Obstacles5/BasicAgent/checkpoint.pt (torch, 752455 bytes, 33 tensors)

network_body.linear_encoder.seq_layers.0.weight f4 [128, 107]
00000000: bc35 463e 2ae4 e33c 9105 cb3a 4e01 b63d
00000010: c5de 1b3e 3937 683d d21f 2d3e d234 133b
00000020: d57e a13d cfea 77be 1fd9 d6bd 80f3 213e
00000030: 147a 38bc b868 2f3e 32e9 a13c f2b7 2c3e
00000040: bf39 f1bd 9526 60bd cc92 f8bd d3e2 2c3d
00000050: ed8c 97bc 6d15 953d 0f90 aa3d a658 4ebb
00000060: 6712 03bd ca7d 1abe c9cd b83c 1dcf 4c3c
00000070: 2834 263e 9853 85bd 7cbe 9f3c 0162 ad3d
00000080: 7c3e b93d e126 9ebd 8b9b 573d bac4 353e
00000090: 66f2 f1bc 5930 8ebd 0ef6 9c3d c945 913c
000000a0: a6d0 773c 775f 44be d37b 2fbc b478 5b3e
000000b0: 0086 e6bc 022b 9cbb fa41 353e d8e0 ae3d
000000c0: ad26 d13d 898a 37be 0058 743d 5d24 6fbd
000000d0: 5818 27be 1e3b 753e 13b8 8f3d eaa1 333e
000000e0: 9a6f 053e cb5f 393d 3f77 2bbe 9b8c 7e3e
000000f0: 9111 96be 4c43 b53d b0aa 04bd e965 793e
00000100: e23e 0a3e 9199 bebb 7fc1 2fbe 1800 0b3d
00000110: 784a 9dbd e259 193e 406e 2fbd f93d fc3d
00000120: 947e 133e 333a 70bc 0dd9 aebc dffe 323a
00000130: 8b3b d2bd 9a5b 2fbe ac6c 2abe d171 733e
00000140: 0c69 473e 577a b6ba 467b 4a3d 8215 c0bc
00000150: d654 ee3c 2c56 623d 80fe 1fbe 1b20 4c3e
00000160: e260 cd3d 3d55 363d 08dc 83bd c530 093a
00000170: 80a6 733c 6107 17bc 3a78 d7bd 559a 073d
00000180: 1a25 c6bb 1753 a4bd f9c2 e639 06ce f73d
00000190: fb74 933d aa0c 9bbe b280 b4bd fea7 1f3e
000001a0: de7a d039 6cfb c13d ce69 0fbe 5bb8 6fbe
000001b0: 2a3c d83d 05a7 c83d a204 603d 9439 aabd
000001c0: 1311 2c3d 0057 27be 302c afbd c76e 9c3d
000001d0: f2f4 9cbd 24a6 8e3b 00ac 493e ac5b 4dbd
000001e0: c6f8 4a3e dd98 01be e6e8 463c 6d99 0f3e
000001f0: 4fa4 72be 5018 4b3d 36f1 49be a765 8e3d
00000200: bb47 2f3d 0a6e 9f3d b3ba 27bd 6448 82bc
00000210: e714 26bd 8f95 c03c 92fc eebd 4a7b 4f3d
00000220: 0d45 80be d594 60be c6c7 183d 5a78 44be
00000230: c121 a43d 0f8c cfbc eb22 5cbd 4d3b 7ebe
00000240: 2884 06bd 1db7 19bd 2397 05bd 56ee 3bbe
00000250: a93c 0b3e 5136 143e e384 86be fcc0 30be
00000260: cb65 cebd 9fe7 1bbe 5434 f7bd 5d97 80bd
00000270: 8b40 c63c 4bea 8ebc 186f 9e3d 235e 383e
00000280: 2efa 663d e7e9 8cbd aeff b4bd 6652 15bd
00000290: 4fc0 2a3c 1a00 8dbd 0e97 96bc 1750 873e
000002a0: e793 81be 7c35 a4bd f377 0ebe 2112 923d
000002b0: 7efc eb3d b878 59bd 7c33 1c3e 2fa1 d3bd
000002c0: 0998 5dbe 6bf7 113e 5e1f 9abd 8bb7 ddbd
000002d0: 2069 d23d c48a 5cbd f1e4 1abd 947b 17be
000002e0: 5068 f3bc e15e ddbc f0c0 0bbe a64b c4bc
000002f0: 0190 543d 08d9 fdbd 1852 bbbd 22a5 e6bd
00000300: 71b1 553e 53ec c6bd affa bfbc 56c7 803e
00000310: 6539 1bbe c3ee 3bbd 2c0e f2bb 6ea1 e03a
00000320: d4d1 92be e2ac ac3d f09c 8ebd 5042 fabc
00000330: d294 6b3e 8068 083e aab9 a2ba 8336 13be
00000340: 7ce8 d73c 4074 9ebc 5558 a1bd a4a3 6fbc
00000350: 60ab 2fbd 4522 233e 57bf 853d 53d9 33be
00000360: 1abb a03d 7cdd bd3d 76f1 163e 8e96 a1bd
00000370: 8625 8b3d 45cb cc3d c554 15be 9b98 43be
00000380: 7dca 69bd d6e2 eebb 70f7 d9bd 6d18 aa3c
00000390: eb0d a2bd 5c48 9fbc fd63 b63d 3654 873e
000003a0: 73bb febd 9edd 4d3e c81d 1fbe 29b9 933d
000003b0: 257d 983d 5fcb 083d b881 123e c3cf 13be
000003c0: b740 3d3e 1f7d 273d 2ab1 dbbd 4580 6dbd
000003d0: 1696 a33d e755 1f3e 1647 a63d 32ee 6bbe
000003e0: 683f b83d 96dc 3a3e 4eee 6f3e fe5f 26bc
000003f0: c4dd 15bd 0e33 6e3c d664 b33d 0055 a6bb
0.19356436 0.027818758 0.001548933 0.088869676 0.15221699 0.05669329 0.1690667 0.0022461903
0.078855194 -0.24210666 -0.10490631 0.15815544 -0.011259574 0.17129791 0.019764517 0.16867045
-0.11778592 -0.054724295 -0.12137374 0.042208504 -0.018499816 0.07279477 0.08328258 -0.0031485944
-0.03199997 -0.15087047 0.022559064 0.0125005515 0.16230834 -0.06510085 0.01950001 0.084659584
0.09045121 -0.07722259 0.05263857 0.17750826 -0.02953453 -0.06942815 0.07664119 0.017733471
0.015125429 -0.19177042 -0.010710674 0.21432763 -0.028140068 -0.004765869 0.1770095 0.08538979
0.10212455 -0.1792394 0.059654236 -0.058384288 -0.1631788 0.23948333 0.07017531 0.17542234
0.13030854 0.04525737 -0.16744708 0.24858324 -0.29310277 0.088507265 -0.032389343 0.24355282
0.1350055 -0.0058166464 -0.17163657 0.033935636 -0.076802194 0.14975694 -0.042829752 0.12316508
0.14403754 -0.014662313 -0.021343732 0.000682814 -0.10265263 -0.17124787 -0.16643018 0.23773886
0.19473666 -0.0013921958 0.04943397 -0.023447756 0.029093187 0.05525796 -0.15624428 0.19934122
0.100282446 0.044514883 -0.06438452 0.00052334025 0.01487124 -0.009218068 -0.10520978 0.033106167
-0.0060469033 -0.08023661 0.00044014285 0.12099843 0.07200047 -0.302831 -0.08813609 0.15591428
0.00039764395 0.09471783 -0.14005205 -0.2341017 0.105583504 0.097974814 0.05469192 -0.083117634
0.04200847 -0.16341782 -0.0855335 0.076383166 -0.07663907 0.0043533016 0.19694519 -0.050136253
0.19821462 -0.12655969 0.012140488 0.14023371 -0.23695491 0.049583733 -0.19720921 0.069529824
0.042793017 0.0778466 -0.040949535 -0.01590366 -0.040547278 0.023508815 -0.11669268 0.050654687
-0.25052682 -0.21931775 0.037299894 -0.19186535 0.080142505 -0.02533534 -0.053744238 -0.24827309
-0.032840878 -0.037528146 -0.03261484 -0.18352637 0.13597359 0.14473845 -0.2627326 -0.17261118
-0.10078009 -0.15225075 -0.12070528 -0.0627887 0.024200698 -0.017445704 0.07736033 0.1800466
0.056390934 -0.06880551 -0.088378295 -0.036455534 0.0104218265 -0.06884785 -0.018382575 0.2642829
-0.25308153 -0.08018014 -0.13912944 0.07132364 0.115227684 -0.053093642 0.15254015 -0.10333478
-0.21640028 0.14254539 -0.07525514 -0.10826024 0.10273957 -0.053843275 -0.03781599 -0.14793235
-0.029712826 -0.02702278 -0.13647819 -0.023961853 0.051895145 -0.12394911 -0.091465175 -0.11261965
0.2086847 -0.09713044 -0.023434965 0.2515208 -0.15158613 -0.045881998 -0.0073869433 0.0017137954
-0.2867571 0.08431412 -0.06963527 -0.030549198 0.23005989 0.13321114 -0.0012414951 -0.14376263
0.026355974 -0.019342542 -0.07878176 -0.014626417 -0.042888045 0.15931042 0.06530636 -0.17563371
0.07848187 0.092707604 0.14740548 -0.07890044 0.067942664 0.09999708 -0.14583118 -0.19101183
-0.057077873 -0.0072902245 -0.10642898 0.0207636 -0.07912811 -0.019443683 0.0890579 0.26431435
-0.12438097 0.20104071 -0.15538704 0.07213051 0.074457444 0.033397075 0.14307296 -0.14434724
0.18481718 0.04089081 -0.10727151 -0.057983655 0.07987611 0.15560113 0.08119027 -0.23040083
0.08996469 0.1824821 0.2343075 -0.010154722 -0.036588445 0.01453854 0.08759467 -0.0050760508

network_body.linear_encoder.seq_layers.0.bias f4 [128]
00000000: 5449 fa3c c90c 94bd 4160 823d bbd4 f63c
00000010: a1ff 053c ee94 3ebd 2719 473c 9b5f 21bc
00000020: 4c51 2aba f439 0e3d ea60 16bd 321f 993d
00000030: 8a54 30be 2b28 38bd cd38 323c 5080 8fbc
00000040: a9a1 0e3b b74a c73d 5319 323c ac00 333c
00000050: 5d9a 5b3d 2ec0 513d 58fd cdbc 2d16 c93b
00000060: b332 393d 389e cebc 5641 d7bb 1e1b b2bd
00000070: 1527 8b3b f65d 1d3c 8648 0fbd 8a30 dd3c
00000080: 604c 283d 3bde 313d c90f f13c a64b 8e3c
00000090: 5d85 993c b15c d33c d2f0 553d 7329 99bb
000000a0: b5d6 54bd 320c b23b 066e b43d de52 683d
000000b0: 4212 d1bb 7997 a33d bf95 d5bc 2485 553d
000000c0: 9882 f83c 3a6b 333d a1e8 613c 7bf9 d2bc
000000d0: f599 5c3d 47c3 44bd f161 51bc e187 1b3c
000000e0: f8a7 e2bc 461c 893b 2d66 d3bc 05f3 4bbd
000000f0: 23e5 f33c 3c1d a13d daa2 bc3d 3d9b 7b3c
00000100: dd7e 2a3c 1996 073d cd5f 8fbc 92bb 0d3d
00000110: a62e 53bd 5924 2e3d da0e eebc 1f83 623d
00000120: 512a c63d 1adc 9d3c 69dd 253d b442 6e3c
00000130: db04 fdbb 4293 033d 3fc5 b83b 9099 2d3d
00000140: 5fd3 a53b 066e 8b3d 3464 6eba c0f1 55bc
00000150: e891 74bc f91f 8b3d cd55 a1bc 354c 903c
00000160: 924d 333d 5d2e c83c a8c9 56bd fbe2 5c3c
00000170: 4e22 913d f7ee aebc 4c87 3cbc a431 0d3c
00000180: 511c 3fbc 2b31 953c f634 723d bc58 853c
00000190: 3f53 ed3c 229d 0abc 83ae 1d3d 4452 b13c
000001a0: 066f f13c 6fe7 8d3c 1116 e13c e970 913d
000001b0: d84b a5bd db0a 0d3d 9a84 2c3d 58b1 d9bc
000001c0: 77ae bcbc ce7a 8abc fd30 173d b3f3 a03c
000001d0: 86ea 993c 560b 383d 320f 95bd 0ca7 433d
000001e0: d772 fcbc 04b7 aa3c 991a e53c 6b4d 473c
000001f0: 1f63 323b aebd 083d 6185 263d 861a 1cbb
0.030552544 -0.07229001 0.06366015 0.030130735 0.008178622 -0.04652875 0.012151993 -0.009849454
-0.00064970995 0.034723237 -0.03671352 0.07476653 -0.17219749 -0.044960182 0.0108778 -0.017517239
0.0021763837 0.097310476 0.010870296 0.010925453 0.05361401 0.051208667 -0.025145218 0.0061366768
0.045214366 -0.025221929 -0.006569068 -0.086965784 0.0042466023 0.009604922 -0.034981273 0.027000684
0.041088462 0.043424826 0.029426472 0.017370056 0.01874035 0.025801035 0.052231617 -0.0046741306
-0.051962573 0.0054335827 0.08810048 0.056719653 -0.0063803503 0.079878755 -0.026072381 0.052128926
0.03033571 0.04380343 0.013788373 -0.025753727 0.053857762 -0.048037793 -0.012779699 0.009492845
-0.027667984 0.0041842787 -0.025805557 -0.04979231 0.029772347 0.07866904 0.09210749 0.015356836
0.010406223 0.03310213 -0.017501736 0.03460271 -0.05155816 0.042515133 -0.029059816 0.055300828
0.0967604 0.019269992 0.040494356 0.01454227 -0.007721526 0.032122858 0.005638748 0.042382777
0.005060598 0.06808095 -0.0009093911 -0.013058126 -0.014927365 0.06793208 -0.019694233 0.017614463
0.04377515 0.02443617 -0.052438408 0.013481851 0.07086621 -0.021354182 -0.011506867 0.008617792
-0.011664466 0.018211922 0.05913254 0.016277663 0.028970359 -0.008460315 0.038496505 0.021645673
0.029471885 0.01732227 0.027476342 0.07101614 -0.08071107 0.03443418 0.042118646 -0.026573822
-0.02303241 -0.016904261 0.036911953 0.019647455 0.018788587 0.044932686 -0.07278289 0.04776673
-0.030816479 0.020839222 0.027966784 0.012164454 0.0027219725 0.033384018 0.040654544 -0.002381952

network_body.linear_encoder.seq_layers.2.weight f4 [128, 128]
00000000: bed7 c0bd 42cd ab3b 4b24 3d3e c5a3 ec3d
00000010: f233 52bd 81b6 4ebe bffe cb3c c09b 80be
00000020: ed0f 2e3d 3e9e 143d e35c 773b 2856 59bd
00000030: 0451 26ba 15fc 623c e121 df3d 62eb 2fbe
00000040: 736d b13d d49b 933d 395f d43a a17f 3e3c
00000050: 3c85 793e fb2c 0c3e 5a33 f83d 099d 0cbd
00000060: 37c2 45be fee0 5e3d 3b39 f3bd b6ab 603b
00000070: f8cb 4ebe 48ff 14be e0fb ba3c cad0 c23d
00000080: 80f1 34be 1434 1b3d 93ab 0abd 576b 35be
00000090: f752 573e 9287 92bd 6132 85bb 5458 533d
000000a0: 8b55 de3d c5e0 903d c53b 1b3d 32d6 a13c
000000b0: a7ac 25bb 39b3 553d e4fe 58bd 63ae 8c3d
000000c0: 959e 23bd 6b24 86be 5ebd 4b3c 09b0 3fbc
000000d0: 5acf 84bb 5bae 90bd f3fe 133c 6dd3 bf3d
000000e0: 34ec 1bbd 94bb 29bd 3f94 07be ee69 89bd
000000f0: 1075 41bc 4c28 253e 3033 b1bd b4e2 2abd
00000100: ef06 013d 136f 9cbc 6227 bebb 9f56 7e3b
00000110: b190 0d3e 1c7c a33d 2da3 183e 85e2 113d
00000120: 84c1 5ebe 4a4c 0b3e 6fd8 3c3d 69c6 82bd
00000130: b2d3 a53d 8db4 043e 587b 5dbd e3f2 823e
00000140: 7104 173d 0745 d3bd 8de6 53bd 6f91 28be
00000150: 32a0 babd 119b 62bd cb76 3b3e fe0b 3f3d
00000160: 4930 7d3d fc2d 153d a961 40be 7ea2 18be
00000170: 5adc 40be ded9 e2bd a299 e13a 1428 0bbb
00000180: 5c7f 3abd 511e 933c 1f28 323e ac97 36be
00000190: dd85 7d3e 939d 21be 3039 1cbd aa9e 3abd
000001a0: 6eb9 2c3e e4b7 c43c 4aa4 9b3c 7b3d a13d
000001b0: bfee 4b3e a22c e03d 41c5 91bc 99ca 2bbb
000001c0: a0e9 9fbb 4c02 683d c0bc bdbd de31 3dbe
000001d0: cad7 d63d d14a fb3c cbc4 043d 9076 43be
000001e0: 6892 033e e32e 7c3e 04af a2bd b45a 2abd
000001f0: 0114 973b 267d babd de2d ad3b 0ee4 193d
00000200: 4181 54be bd89 13be d258 543e 6ece cb3d
00000210: 81b5 483c 5093 15be fb0d 29be 8c90 0abd
00000220: 234a 803d 46e0 b5bc e55f a43d 1315 853e
00000230: e561 23be ff2c 50be d77c c53d 725a d9bb
00000240: a980 353c 0fd0 8e3e a8b1 803c 9367 e2bd
00000250: 0f3c f13c 5758 233e 3e20 ebbd a1df bbbc
00000260: 2c35 b93c 8a83 63be 9328 26bd fd9b cb3d
00000270: 2ae1 d53d 15bd ffbd 996b f13a 1a21 ae3c
00000280: f322 78bc 455a de3d 7573 51bd af84 7f3d
00000290: e117 57bc fb21 203e 94c6 873e 4a81 973d
000002a0: ab33 ab3d a2d1 9e3d 6796 993e 04c8 133e
000002b0: 4d20 9b3d 1cf5 483e b3ed 643e 15ac 1c3e
000002c0: 383b b7bd 9acc 30be 0706 873e 64c4 aabd
000002d0: c041 b53d 2079 173d ff52 d4bd 81e9 d5bd
000002e0: 2f47 acbc fe07 963d 2b24 68be 6668 aa3d
000002f0: 006f d33d ab8a 6e3e b35e 5d3e 8bca 31be
00000300: 1eac 2c3d 8fa4 65bc d519 633d 2c55 fd3d
00000310: 64f4 1abe dd3d 503e 6825 d7bd a185 203e
00000320: 5357 aabc 3237 53be dc9d 463d da4c 013e
00000330: c7ef a33d 3b67 253d ed52 a63d 1e5f f53d
00000340: cbc6 f13c 0d4b ab3d 6123 39be 6bcb 3fbc
00000350: 5331 723e d0e2 723e 0a41 cebd 4b02 55be
00000360: ba3a a13d 11c1 27be 44be ddbc 763a e5bd
00000370: f23d 883d e514 acbd 7bca 0fbc c93d 06be
00000380: 0bcd 1f3e 9afc 55be 0e29 a1bd 4b6e ebbd
00000390: c428 6abe 438e adbb a22f a9be 0b56 793e
000003a0: 65a6 663c f2e7 993d a183 4b3d e9cf aebd
000003b0: ef50 db3d 7cb7 f2bc 6995 fcbd 6c5c 0ebe
000003c0: 82a3 f93d 2a62 3abd be0f 343d dbc8 d7bc
000003d0: 3b06 4dbe edd2 683e e2e9 b6bd df42 b7bc
000003e0: bbdc 733d 680f 083d 15ab 483c 9bbe 813d
000003f0: 54a9 7ebc a0ee 853b f375 5cbd 257b 20be
-0.094161496 0.0052429745 0.18470876 0.11554674 -0.05131907 -0.20186807 0.024901746 -0.25118828
0.042495657 0.036283724 0.0037744574 -0.05306068 -0.000634447 0.013854046 0.10895134 -0.17179635
0.08663454 0.07207456 0.0016202695 0.011627109 0.24367231 0.13689034 0.121191695 -0.034329448
-0.19312368 0.054413788 -0.1187615 0.0034282035 -0.20194995 -0.14550507 0.022825181 0.095124796
-0.1767025 0.037891462 -0.033855032 -0.17716728 0.21027742 -0.07154764 -0.0040648435 0.05159791
0.1085616 0.070741214 0.037898798 0.019755457 -0.002527991 0.052172873 -0.052977458 0.06869199
-0.039946157 -0.2619966 0.012435285 -0.011699685 -0.0040530385 -0.07064506 0.009032953 0.09366498
-0.038067058 -0.041438654 -0.13240145 -0.067096576 -0.011807695 0.16128653 -0.08652341 -0.041720107
0.031500753 -0.019095933 -0.0058030346 0.0038808954 0.13824727 0.07982656 0.14905997 0.035616416
-0.21753508 0.1360332 0.046104845 -0.063855 0.08097018 0.129595 -0.054072708 0.25575933
0.03686947 -0.103159 -0.051733542 -0.16461729 -0.09112586 -0.055323664 0.18307035 0.046642296
0.061813626 0.036420807 -0.18787254 -0.14905736 -0.18834057 -0.11076711 0.0017211924 -0.0021233605
-0.045531616 0.017958792 0.17398117 -0.17831296 0.24758096 -0.15782766 -0.038140476 -0.04556147
0.16867611 0.024013467 0.018999238 0.078730546 0.19915293 0.10946013 -0.017794253 -0.0026213287
-0.004880145 0.056642815 -0.09264517 -0.18476054 0.10490377 0.030675324 0.03241424 -0.19088197
0.12848818 0.24627261 -0.07943538 -0.041590407 0.004610539 -0.091059014 0.005285009 0.037571006
-0.20752431 -0.14408012 0.20737007 0.09951483 0.012250305 -0.14606977 -0.1650924 -0.033829257
0.062641405 -0.022201668 0.08026103 0.2599264 -0.15955313 -0.20329665 0.09642952 -0.0066330964
0.011078038 0.2789311 0.015709713 -0.110549115 0.029447583 0.15951668 -0.11480759 -0.022933783
0.022608362 -0.22218147 -0.04056604 0.09941862 0.10443337 -0.124872364 0.0018418907 0.021256018
-0.015145051 0.10857061 -0.0511355 0.062382396 -0.013128252 0.15637963 0.2651869 0.07397707
0.08359464 0.07754828 0.2999756 0.14431769 0.0757452 0.19624752 0.223563 0.15300019
-0.08946842 -0.1726555 0.26371786 -0.0833824 0.088504314 0.03698075 -0.10367393 -0.10444928
-0.021030037 0.07325743 -0.22670047 0.08320694 0.10323906 0.23295085 0.21618156 -0.1736242
0.04215633 -0.014016285 0.055444557 0.12369761 -0.1513229 0.20336099 -0.105051816 0.15675975
-0.020793593 -0.20626524 0.04849039 0.12626973 0.08004718 0.04038165 0.081212856 0.11981033
0.029513737 0.08363924 -0.18079902 -0.0117062135 0.23651628 0.23719335 -0.10070999 -0.20801656
0.07872529 -0.16382243 -0.027068265 -0.11192791 0.0665244 -0.08402423 -0.008776302 -0.13109507
0.15605561 -0.20897141 -0.07869159 -0.11495646 -0.22867113 -0.0052965 -0.33044153 0.24349229
0.0140777575 0.07514943 0.049686078 -0.085357495 0.10708796 -0.029628508 -0.12333185 -0.13902444
0.1218939 -0.045503773 0.043960325 -0.026340893 -0.20021908 0.22736712 -0.08931328 -0.022370754
0.059536677 0.033217818 0.01224782 0.06335183 -0.015543301 0.004087284 -0.053823423 -0.15671976

network_body.linear_encoder.seq_layers.2.bias f4 [128]
00000000: 6d29 d53c 3c17 ba3d 34b9 433d 004b cbbc
00000010: 85e5 4e3d 86a6 713c d218 873d d6da 833b
00000020: caca 07bd aed9 9c3c 00be 0f3d d95d 3a3d
00000030: b04f 5a3d 7f3c 9a3d 715a 333d cbc7 063d
00000040: e560 4bbc cd57 a33c 8441 4d3d a00f a73d
00000050: 118d c53c 2197 283d 1f6a af3d 8ecd 393d
00000060: e61e 0d3d d880 9e3b e70a f0b9 d5c2 f53c
00000070: 3739 503d a3ba a03a 9b72 01bc 723a 033d
00000080: ddfd 413d d9d2 a43c 1e2c 053b 4651 2fbc
00000090: b60d 3e3d 7907 51bc 66cf 333d 894b d8bb
000000a0: ac0d a5bb e6ec 933c 7cad 07bb 140d ca3c
000000b0: bc17 8e3d b00a 523c bbf1 0f3d a983 9b3d
000000c0: 30d6 cf3c d692 9b3d 3117 15bb 5707 ab3c
000000d0: 8a13 47bc 0be0 953d 45d0 0c3d d329 3c3d
000000e0: 6b11 183c baa4 053d 07dd 083d 6af4 ab3c
000000f0: 5578 8a3c 6f44 92bc 4cb2 983d 66cb 293d
00000100: 23d5 cd3b 280a 983c e731 8e3d e4d0 77ba
00000110: cd9e 1b3c 2bad 4e3d 2525 453d ef8d 233d
00000120: b966 263c a132 4d3d e6b2 f23c e361 763d
00000130: 61d5 0dbd 42bb 2c3d 87d1 0fbd 8f1c a53c
00000140: 6d86 113d 4604 833d afe8 303d b053 983c
00000150: 8027 2e3d dea4 e53c ba32 d43c 5fcf 8b3c
00000160: 1d49 203d 4e10 6fbb ea39 593d 0211 b4b9
00000170: 7cb0 023d 30ce bd3c a154 a43c c5ad 363d
00000180: 936d e53c 1da7 453d 07fd b03b aa2d f83c
00000190: 4cfb 0a3d e68b d33c fe41 9f3d 81aa 1abc
000001a0: 040f 9d3d 123e 843b 623f 80bc ab76 6b3c
000001b0: 37b5 763d a956 bd3d 2ee4 ca3c 6756 7ebc
000001c0: 431b 813d d92d 673b 0f68 373c 794e 36bc
000001d0: 2816 403d 4f78 143d 7175 f7bc 5bb9 f93c
000001e0: 29e1 ac3c 90c1 753d caf8 3abc 5017 403d
000001f0: b98f 7d3d 0108 4c3d d135 ac3c 6d64 69bc
0.02602073 0.09086463 0.047784045 -0.024816036 0.050511856 0.014749175 0.06596531 0.00402389
-0.03315238 0.019146767 0.035093307 0.045499656 0.053298652 0.0753107 0.043787424 0.03290538
-0.012413238 0.019939328 0.05011131 0.08157277 0.024115117 0.041159753 0.08565163 0.045362048
0.034453295 0.0048371367 -0.0004578449 0.03000013 0.050835814 0.0012262653 -0.007900859 0.03203816
0.047361244 0.020120071 0.0020320485 -0.010700529 0.046399795 -0.012758129 0.043898962 -0.0066008014
-0.00503703 0.018057298 -0.002070277 0.02466444 0.06938121 0.012819931 0.03514264 0.075934716
0.025370687 0.07596366 -0.002274942 0.020877523 -0.012150655 0.073181234 0.03437831 0.045938324
0.0092814965 0.0326278 0.033413913 0.02099057 0.016903082 -0.017854897 0.074558824 0.04145374
0.0062815114 0.01855953 0.06943112 -0.00094534294 0.00949831 0.050458115 0.048131127 0.03993028
0.010156327 0.05009711 0.029626321 0.060151946 -0.034627322 0.04217077 -0.03511193 0.02015522
0.03552859 0.063972995 0.043190654 0.018594593 0.04251814 0.028032716 0.025903095 0.017066656
0.039132226 -0.0036478224 0.053033747 -0.00034344947 0.03190659 0.023169607 0.020059885 0.044599313
0.02800635 0.048255075 0.005401257 0.030295212 0.03393106 0.025823545 0.07776259 -0.009440065
0.0766888 0.0040357197 -0.015655223 0.014371554 0.060231414 0.09245045 0.024767008 -0.01552353
0.06304028 0.003527513 0.011194243 -0.011127108 0.04689613 0.036247548 -0.030207368 0.030483892
0.021103458 0.05999905 -0.011411855 0.046897233 0.061904643 0.04981232 0.021021755 -0.014245135

action_model._discrete_distribution.branches.0.weight f4 [5, 128]
00000000: 5750 d0bd 2377 b3bd 778c d9bd 2ab7 383a
00000010: a83c 6d3d 8fc2 0a3d b87a 35be 49e2 de3c
00000020: 2d8f 193c 8424 a13d 3c53 84bd a664 bb3d
00000030: 8e5e a7bb fb9f 983d d010 b3bc 5fa4 b83d
00000040: a563 b9bd ac85 b0bd 4889 08be d5e6 b5bd
00000050: b95b 333d 1639 1abe 1ec8 5b3d 7128 43bd
00000060: 1097 de3c 1bd2 a93d a204 a83c 6763 f6bd
00000070: efa8 debd ecf7 783d 1f89 203d 6625 cbbb
00000080: 916e 113d eb53 873d 0dda 8a3d f854 ac3c
00000090: d861 ddbd 21de 46bd 6bff 06be 67c3 fabc
000000a0: 9408 e5bd 0b86 2a3d d8b9 9abb 6f69 fb3d
000000b0: 1ba4 b83d 7a28 d5bc fa27 6c3d b4fb d83d
000000c0: 2fe0 a03d 3deb 073e a4ac 36be a6fb b5bb
000000d0: 4132 5abd e9e1 573d 1dcf bf3d 665b 3ebd
000000e0: c474 c1bc 1bcb 8b3d d970 f6bd 4ab6 11bd
000000f0: 9926 623d 1250 64bd c77a 003e f6bb aabd
00000100: 76f6 83bc de7b e73c ef19 0f3d eb9b 5fbd
00000110: 4308 3b3d 450e cd3d ad66 b43a 63ee 943d
00000120: 7269 483d 382a dd3d a8ec b6bb 1d12 8a3d
00000130: f80b ee3c b58d 46bc b298 91bc 1c7f 88bd
00000140: 39b7 a0bb 8c59 d73d f349 c8bd 60d1 88bd
00000150: bdf0 41bd 6f08 a1bd a034 833d d83e 673d
00000160: 2974 33bc 9679 da3c 5ce8 11be c79a 333c
00000170: 3e8d 183d 4691 0f3d a128 5c3d 88ee 953d
00000180: b06d 003e db40 ba3d 07c0 22bc 3019 d3bd
00000190: dba2 75bd 7fd6 3d3d 7878 95bc e22d 6a3d
000001a0: 4c87 f5bc ada2 5dbb 39ad bc3d b2e9 febd
000001b0: 0adb c93d 5dc7 743d cfce 8d3d 667e 99bd
000001c0: a1be 373d 1df9 b8bd a3bf 60bb 61f8 98bd
000001d0: 9a00 713d 1d37 283d c455 8abd 0660 183d
000001e0: 725a 4abd 3dc0 e8bd 4c3b 253d 327e 903d
000001f0: b0a0 d0bd 5cd0 dcbd 6bab e23c c848 133d
00000200: 873f 633d 1fdb 22bd 39e5 51bd e26d 843c
00000210: 778b ea3d 11a8 03bd 774b fe3d e3c7 b9bc
00000220: 4669 5dbd ab5f 4e3d 096a 463c 60f0 14be
00000230: 1593 3c3c 5868 16be 8bbd bebc 1bdc 113d
00000240: d636 d2bc 8782 763c 80f9 273d c40b 9fbd
00000250: a8cc c9bd 2783 3abc 5f1b 17be 9f9d c73d
00000260: c16b 9dbd cdc1 5a3c cfe3 303d 97c2 a43d
00000270: 0d34 e33d dc96 093d 9dbb 73bd 5e73 6a3c
00000280: 3aa9 0d3d f781 b23d 46a9 01bd 42a6 a1bd
00000290: 665e 203e 6073 f53c 0825 9e3d 1937 913d
000002a0: ffe7 3f3d cb0d ac3d e932 153b fae9 e8bd
000002b0: 3264 21bd 7a85 f13d ba4a bc3d 36a7 98bd
000002c0: 27cf c83d 171b 38be d66a 813d 9251 da3d
000002d0: 121c 4fbc 2ee0 d83d 7cac 0d3c 955b 08bd
000002e0: 0800 ee3d 9878 21bd 0e93 c53d 56b6 8e3d
000002f0: d4ae 7c3d 2d41 07bb 91f0 37be 0072 a73c
00000300: 9102 683c 6612 843b 67b3 aa3c b71d 09bd
00000310: cad2 b43c f739 bfbd a07c 16be 78fb 11be
00000320: 065c f7bd d13c 833c ab19 1d3d 323f 9bbd
00000330: 119f 96bd 4753 7c3d 05fa 653c 9149 b4bb
00000340: 5ed7 b53d 94de acbd f2e2 d53d 6e66 a4bd
00000350: 44f9 d43c 1a3c aa3d b451 9c3d f250 183d
00000360: 116c e4bc 6de1 e63c 5c81 b73d 5c07 8d3c
00000370: 6999 923d 09d1 3dbd 9ac5 793d 0e7e d53d
00000380: f800 f2bd 831f b03d 5ec0 d73c c474 533c
00000390: 51c9 c13d 6f49 b2bd 043b 053c a6d9 0abd
000003a0: 7c3c 44bd 5c5e acbd 901a 113c 5750 b53d
000003b0: 9720 08be ff1f 5b3d 6850 c93d 156b 933c
000003c0: faf5 09be d9c3 2c3d 0b9e 673d bd80 88bd
000003d0: 0b4d aa3d a646 e4bc 471d 0a3c 5633 133c
000003e0: 5473 ab3d 81be 17bd cc64 053c 518e 823d
000003f0: 8bb2 433b 9a83 413d b7a2 acbd efe6 473b
-0.101715736 -0.08762958 -0.10622495 0.00070463365 0.057919174 0.03387695 -0.17722595 0.02720751
0.009372515 0.07868293 -0.06461188 0.091500565 -0.0051077073 0.07452389 -0.021858603 0.09015726
-0.09052209 -0.08619246 -0.13333619 -0.08881918 0.043788645 -0.15060839 0.053657643 -0.04764599
0.027171642 0.082920276 0.020510022 -0.12030678 -0.10872065 0.06078331 0.03919327 -0.0061995266
0.035505835 0.06607803 0.06779871 0.02103661 -0.10809678 -0.048551682 -0.13183372 -0.030610753
-0.11183277 0.04163174 -0.0047218613 0.12275969 0.09015676 -0.026020277 0.057655312 0.105948836
0.078552596 0.1327333 -0.17839295 -0.0055536805 -0.053270582 0.05270568 0.093656756 -0.046473883
-0.023615249 0.06825849 -0.12033243 -0.035574235 0.05521259 -0.055740424 0.12546836 -0.08336632
-0.016108733 0.028257307 0.03493684 -0.054592054 0.045662176 0.10012487 0.001376351 0.07272031
0.048928685 0.10799068 -0.005582411 0.06741736 0.029058442 -0.0121187465 -0.017773006 -0.06664869
-0.0049046543 0.105151266 -0.0977973 -0.0668056 -0.047348727 -0.07862937 0.06406522 0.056456417
-0.010952988 0.026669305 -0.14248794 0.010962195 0.037244074 0.035050653 0.053749684 0.07320887
0.12541842 0.090944014 -0.009933478 -0.103075385 -0.059969764 0.046347138 -0.01824592 0.057172664
-0.029971741 -0.0033818886 0.09212727 -0.124469176 0.098562315 0.05976044 0.06924211 -0.07494812
0.044859532 -0.090318896 -0.0034293912 -0.074692495 0.058838464 0.041068185 -0.0675464 0.03720095
-0.04940266 -0.113647915 0.040339753 0.0705532 -0.10186899 -0.10781929 0.02766963 0.03595808
0.055480506 -0.03975975 -0.051243994 0.016165677 0.11452382 -0.032142702 0.124167375 -0.022678321
-0.054055475 0.050384205 0.012110242 -0.14544821 0.011509676 -0.14688241 -0.02328374 0.0356103
-0.025660913 0.015045769 0.041009426 -0.07765916 -0.09853488 -0.011383808 -0.14756535 0.09746861
-0.07686568 0.01335187 0.043186005 0.080449276 0.11093912 0.033591136 -0.059505094 0.014309732
0.034585215 0.08716195 -0.031655572 -0.07893039 0.1566101 0.029962242 0.07721907 0.07090587
0.046852108 0.08401068 0.002276594 -0.113727525 -0.039402194 0.11793037 0.091939405 -0.07453768
0.09805136 -0.17979084 0.063192055 0.106600896 -0.01264097 0.10589634 0.0086470805 -0.033290464
0.116211 -0.039421648 0.09647189 0.069683716 0.061690167 -0.0020638213 -0.17962863 0.020440102
0.014160768 0.0040305136 0.020837499 -0.033475604 0.022073168 -0.09337228 -0.14695978 -0.14256084
-0.12078099 0.01602021 0.038354557 -0.07580413 -0.07354558 0.061602857 0.01403666 -0.005501934
0.08878969 -0.08440891 0.10443677 -0.080273494 0.025997765 0.08312245 0.07632771 0.03718657
-0.027883561 0.028183663 0.0896022 0.017215423 0.07158167 -0.04634193 0.060979463 0.10424434
-0.11816591 0.085997604 0.026336845 0.012906257 0.09462226 -0.087054126 0.008131746 -0.033898972
-0.047909245 -0.08416435 0.008856431 0.08853214 -0.13293682 0.05349731 0.098297894 0.017995397
-0.13472739 0.042178962 0.056547206 -0.0666518 0.08315476 -0.027865719 0.008429832 0.008984407
0.083716065 -0.037046913 0.008141708 0.06374801 0.0029861059 0.047244646 -0.08429473 0.0030502637

action_model._discrete_distribution.branches.0.bias f4 [5]
00000000: 0b2f d93c 4fae b73c ba65 01be b9e7 363b
00000010: 336e 263d
0.02651169 0.022421984 -0.12636462 0.0027909114 0.040632438

critic.network_body.linear_encoder.seq_layers.0.weight f4 [128, 107]
00000000: 173c 0e3e 0fd0 dabd d3f8 03be a957 023e
00000010: 439d 0bbd fc05 afbc 8706 413e 08d5 c8bc
00000020: 0b6b b93d 492c 643d 02f8 703d 5c64 353e
00000030: 0bf3 943e cb9c 0c3e 4941 da3d 7df3 c93b
00000040: 18ac 093e d87d c6bc 776a 28be 3322 cd3d
00000050: f618 863c 25eb 58be b11a 17be 164e 0d3d
00000060: 47a4 513d 78b0 7d3d f198 b03d bb51 693e
00000070: aa9a f63d 0d14 e63b d9ab c73d 305d c6bd
00000080: 4968 a83d df76 21bd 4c5d d23c f2e3 303e
00000090: 43cd e33d a60c b23d fcd3 00be 6e9b a23d
000000a0: 3c13 bc3d b728 dbbd 23c1 e8bd 8aad 3a3e
000000b0: b159 033c f4c6 3abe 1c43 523d 6d6e f4bd
000000c0: a5d3 7c3e ecf4 abbd 4db6 6c3d 384b 033d
000000d0: 47cb 4e3e 0e29 453d fc8f 4b3e b869 5f3e
000000e0: 7a70 603e f406 c1bd b8df eb3c db0d b23b
000000f0: 8a43 df3c 00bc 883c e1d1 3c3c 4dda 7a3e
00000100: 52a8 313d 954b 873d fd4f 34bd 3d15 d43d
00000110: d200 a63d cfd4 e23c 180c 1fbe c1bc 0c3e
00000120: 1540 7c3e 136c f33d eb61 623e e521 623e
00000130: 606b 5b3d f310 403e 78f6 56bd 882e fb3e
00000140: 0364 143e 72f4 b13d 5b82 943d 9d5b 023e
00000150: b40f 9b3c af18 953d 480b 0fbd 7f14 943e
00000160: dd5c aabc 53a9 16be d551 50bc 5fb4 c13d
00000170: 5d0a a43d 7056 1ebe d91b 11be 1535 d03e
00000180: 7a42 343e 5cbb 2abc 17cf a23b ca1d f23d
00000190: 1ee5 943d b9f8 e43d 9cdf 17bd 3a8e 443e
000001a0: 8a6c ffbc d28f 79be e57d 253e 5f57 18bd
000001b0: f057 563d f4c9 98be 43af 0a3e 0259 e1bd
000001c0: 54f7 b83d ca66 713d 8e49 6a3e 2d31 b8bc
000001d0: 9750 073e 5c47 ed3d ea19 0a3e 606e 803d
000001e0: 2ac5 fb3d f6f2 7fbd 5805 313e 05d2 533d
000001f0: 1129 303d 4c76 303d 5345 8e3d bbac 88bd
00000200: ba85 6a3e 3274 e9bd 01a0 3e3e b93c ccbd
00000210: 48d7 e43d 867a 49ba e1ae 6a3e 71ac cbb9
00000220: ce45 b13d babc a0bc 03d8 1d3e 2704 9dbd
00000230: d0ef 87bd 3445 d63c b0ac dd3d 56a4 58bd
00000240: 708d 8cbc 34e8 633d 0c02 b93d c7f4 c23d
00000250: 661a cf3e 07ee 2cbe 7300 193e 96fa acbd
00000260: a5a1 863e 663b 5f3b 5409 f83c 1a8d 913e
00000270: 9773 823d fdb8 b8bd bafc 1c3d 74c2 d8bc
00000280: 3e17 75bd f1a4 623c 4b7b f13d a137 223e
00000290: c906 253b 7307 5f3c e274 823e 098e 0e3e
000002a0: 2c32 1f3e e6fe b1bc 8c8b 563e 645c 86bd
000002b0: cef7 af3d 4084 a1be b2b7 f33c 8506 83bd
000002c0: 13e5 543d f1ac 673d feea 9d3e d94a c93c
000002d0: 52d3 143e f885 e9bd 5d26 203d 2533 75be
000002e0: 5ccf babd fc91 5fbc 85da 9c3e 5f9b 1dbe
000002f0: cf7c 4f3e 1ca1 babd cae3 103e 4697 a33d
00000300: 954b 44bd 8088 fbbd 1fc0 823e 0794 37be
00000310: ddca 133e b6ed 10be 8cbb 8f3e e0a0 3d3d
00000320: e9ac 83bb e115 7dbe 945a 573e 4e8a 57be
00000330: bda1 c83d a6b7 44bd b2db a63d 8456 ac3d
00000340: 651e a53d b16f f4bd 4920 b33e b990 523d
00000350: 7d84 bf3d 8ca0 1cbe f35c 96be 6984 e8be
00000360: a3eb 363d 5f2b 42be d220 dcbd 18a2 eebd
00000370: ded7 d8bc b7f2 a9be 439d abbd 44f3 8bbe
00000380: 88b2 c53d d6ac 81be 41bc 84be 85ff 12bd
00000390: 0d11 6b3c c704 edbd ef40 35be cf32 40be
000003a0: fba1 3c3e 4aa7 18be e909 dfbd f4f6 45bb
000003b0: 68e0 8fbd 0cd5 40be 1c1e 233d 34c7 4cbd
000003c0: e5b7 8dbd fad4 42be 8dc0 75be 61c2 423e
000003d0: 02b8 3f3c 0f6e 9cbe 1423 f63c 726a 1bbc
000003e0: 7f68 9ebd aa86 eabe 2c09 41be f923 823e
000003f0: 9785 ea3b 5579 bcbe 981c c43d f413 bc3d
0.1389011 -0.10684215 -0.12887888 0.12728752 -0.034085523 -0.021365158 0.18850146 -0.024515644
0.0905362 0.055706296 0.05883027 0.17714065 0.29091677 0.13731687 0.106569834 0.0061630593
0.13444555 -0.024229929 -0.16446863 0.100162886 0.016369324 -0.2118345 -0.14756276 0.034498297
0.051182058 0.06193587 0.08622921 0.22785084 0.120412186 0.007021433 0.09749574 -0.09685743
0.08223016 -0.039420005 0.025679253 0.17274454 0.11123135 0.08693819 -0.12580866 0.07939802
0.09183356 -0.10701125 -0.11364963 0.18230262 0.00801699 -0.18239957 0.05133353 -0.119351245
0.24690111 -0.083963245 0.057791043 0.032054156 0.20194732 0.048134856 0.19879144 0.21817672
0.21917906 -0.09425154 0.0287932 0.0054337806 0.027253885 0.016691208 0.011524648 0.24497338
0.043373413 0.06606213 -0.044021595 0.103556134 0.08105625 0.027689366 -0.15531957 0.13743879
0.2463382 0.11885848 0.22107665 0.22083242 0.053569198 0.18756466 -0.052481145 0.49058938
0.14491276 0.08689202 0.07251426 0.1273026 0.018928386 0.07280099 -0.034922868 0.28921887
-0.020796234 -0.1471303 -0.012714823 0.09458231 0.08009789 -0.15462661 -0.1417078 0.40665498
0.17603484 -0.0104206465 0.0049685347 0.11822088 0.07270263 0.111802526 -0.037078485 0.1919488
-0.031179685 -0.2437127 0.16161306 -0.0371927 0.052329957 -0.29841578 0.1354342 -0.11003305
0.09031549 0.058935918 0.22879621 -0.022484386 0.13214336 0.11585876 0.13486448 0.06271052
0.122934654 -0.062487565 0.17287195 0.051713962 0.043007914 0.043081567 0.06946816 -0.06673571
0.22902575 -0.113991156 0.18615724 -0.099725194 0.11173874 -0.0007685799 0.22918274 -0.00038847656
0.08655892 -0.019621242 0.15414433 -0.076668076 -0.066375375 0.026156045 0.10823953 -0.052891098
-0.017157286 0.055641368 0.090335935 0.09519344 0.40449828 -0.16887675 0.14941578 -0.08446233
0.262952 0.0034062504 0.030277885 0.28427964 0.06369703 -0.09019659 0.038326956 -0.02645991
-0.05983662 0.01383327 0.117910944 0.15841533 0.0025181046 0.013612616 0.254798 0.1392137
0.15546483 -0.02172799 0.2095167 -0.06560591 0.08592187 -0.3154621 0.029750679 -0.06397728
0.051976275 0.056561414 0.30843347 0.024571823 0.14533737 -0.11402506 0.039099086 -0.23945291
-0.09121582 -0.013645645 0.30635467 -0.153913 0.20262454 -0.091127604 0.14149395 0.079878375
-0.047923643 -0.12281895 0.25537202 -0.17927562 0.14432855 -0.1415318 0.28072774 0.046296
-0.004018415 -0.24715377 0.21030647 -0.21048853 0.09796474 -0.048026703 0.08147372 0.08414939
0.08062438 -0.11935366 0.3498557 0.05140755 0.09351442 -0.15295619 -0.2936779 -0.4541352
0.044658314 -0.18961857 -0.107484475 -0.11652011 -0.026470121 -0.3319299 -0.08379605 -0.27334034
0.09653193 -0.25327176 -0.25924876 -0.035888214 0.014347327 -0.11573177 -0.17700551 -0.18769382
0.18421166 -0.14907566 -0.10890562 -0.003020701 -0.07025224 -0.18831271 0.039823636 -0.049994662
-0.06919841 -0.19026557 -0.23999234 0.19019462 0.011701586 -0.30552718 0.030046023 -0.009485828
-0.07734775 -0.45805866 -0.18851155 0.2541807 0.0071570384 -0.3681132 0.09575766 0.09183493

critic.network_body.linear_encoder.seq_layers.0.bias f4 [128]
00000000: c105 8c3e 861b 5b3e c164 0ebe 54a4 a639
00000010: eb86 863e 22f6 bdbb b220 b93c e4d0 2a3e
00000020: ba27 14bd 8233 88bd 4338 e9bd 6f39 8ebd
00000030: ce09 b13b 35a4 623e f728 52bd 4c19 003b
00000040: 91b2 03be caec 0a3e 4ae9 2dbd 1814 cbbc
00000050: 1caf e83d 397c b53d 0fe7 213e f8c2 e33c
00000060: 4e8c 9d3e 75a7 5fbd 06a6 c5bd fd3e ad3d
00000070: 4a8c 1c3e 2496 d2bd 8124 2c3e eb3d 903c
00000080: 8900 90bd 915d 80be 37e7 4b3e 40de 2fbe
00000090: 0ef2 8d3c 69fb 303d 59c2 093d 9bfa 1dbe
000000a0: 1197 203e 1d93 99bc 5347 203e 46a6 3a3e
000000b0: 613e ff3d 2a64 713c 04ea abbc 20c0 853d
000000c0: d6d2 443d 2b65 033c ba3c 5c3e 6b37 8d3e
000000d0: 2df0 b2bd c25f 1a3c 78a7 05bd bf56 b4bd
000000e0: 70f8 30bd 9102 293e 393c 2f3e 4923 e03c
000000f0: 0213 72bd 5ec6 7ebd 705b 1b3e 86cd 38bd
00000100: b2fc 1bbd ad68 193c b919 46bd 54ec c73c
00000110: 1f84 d23b 07ba 143e 8172 dabd 17cc b8bd
00000120: 89ca f83c 0329 e6bd edbd 0f3d c208 7eb8
00000130: 5b1c f3bd 96ec b73e c5f1 403e 08f5 adbd
00000140: e112 8b3e 390c 1dbd 1ebb 9c3d 4e12 63bd
00000150: 8a4e 96bd 2a5a 743d 7750 783e 6b46 c0bc
00000160: fbe7 563e 08a2 b23d 5377 403e dcd2 613e
00000170: 17ac 663c ea3e b23d bb11 87bc 7a2e 833e
00000180: cf7b 083e 158a d73c 9bea f3bd 4cb9 d63d
00000190: 1894 23be d796 613e 309f 36be 9149 323e
000001a0: f1a6 3b3e 9448 0e3e a575 353d 4b5b 4bbb
000001b0: 8e3e 3bbe bdbc 5fbd b3bd 1a3e 0a5c 9e3c
000001c0: ad9e 40bd 172d a03d 0b07 67be 22d8 14be
000001d0: f4f8 bc3d 65df 0ebe ba08 8e3e ffd7 7dbd
000001e0: ee33 253e 1a71 943d 5d53 683e 1c2b f3bd
000001f0: 0136 c2bd ff8f 2d3c 10ac 2b3e 9bdf 70bc
0.2734814 0.21397218 -0.13905622 0.0003178442 0.2627481 -0.0057971636 0.022598598 0.16681248
-0.0361707 -0.06650449 -0.11387684 -0.06944548 0.00540278 0.22132953 -0.0513086 0.0019546328
-0.12861086 0.1356689 -0.04245881 -0.024789855 0.113615245 0.08861584 0.15810798 0.02780293
0.30771106 -0.05460306 -0.09650807 0.0845928 0.15287891 -0.10282543 0.168108 0.01760765
-0.07031352 -0.25071386 0.1991242 -0.17174625 0.017327335 0.043208513 0.03363261 -0.1542763
0.15682627 -0.018746907 0.15652208 0.18227491 0.1246307 0.014733354 -0.02098561 0.065307856
0.04805263 0.008019726 0.2150754 0.27581343 -0.08737216 0.0094222445 -0.032630414 -0.08805608
-0.04320568 0.16504885 0.17112817 0.027360575 -0.05910016 -0.062200896 0.151716 -0.045117877
-0.038082786 0.009363336 -0.048364375 0.024404682 0.0064244415 0.14524089 -0.10666371 -0.09023302
0.030370014 -0.11238291 0.035093237 -6.0566475e-05 -0.11870643 0.35922688 0.18842228 -0.084940016
0.2716284 -0.038341735 0.07652877 -0.05543738 -0.07339199 0.0596563 0.24249445 -0.023471078
0.20986931 0.08722311 0.18795519 0.22053093 0.014079115 0.08703406 -0.016487947 0.25621396
0.13328479 0.02631096 -0.11909982 0.10484561 -0.15974462 0.22030197 -0.17834163 0.17410876
0.18325402 0.13894874 0.044301648 -0.0031029757 -0.18285581 -0.054623354 0.15111427 0.019330997
-0.047026325 0.078211 -0.2256128 -0.14535573 0.092271715 -0.13952406 0.27741033 -0.061973568
0.16133091 0.07248135 0.2268805 -0.11873457 -0.09482957 0.010593413 0.16764855 -0.014701749

critic.network_body.linear_encoder.seq_layers.2.weight f4 [128, 128]
00000000: 06c3 7d3d 4adc ce3d 852b 20be a623 b0be
00000010: e3bf ca3b 1612 8ebe 23c4 3ebe 89d8 013e
00000020: ffce e8bd e664 2e3d 5e1d 363e a095 e3be
00000030: 3220 e3bd 0a89 94bd b66f bdbd 5c3a 8ebe
00000040: 32c2 9bbe 2b7d bd3d 4b2d 93be 7bdb 08be
00000050: 7b55 df3d eb33 633b 774b 193e 44c9 bcbc
00000060: d721 623d 6e9b 293e 1202 f83d a70f 533e
00000070: be8f 423e 70cd cfbe 55d0 463e cb47 fcbd
00000080: 6702 31bd 3b6b 8bbd 9eaa 993d 785c 843d
00000090: 2ce8 ca3d 59fc 98bd b457 81be d95a a9bd
000000a0: 0e2a 6f3d a906 12be e419 b2bd 1e38 283e
000000b0: 52fc 693d 2e91 3dbe 27e5 9abe 3ba0 063e
000000c0: 0592 813e 3fc5 9fbd 7dca f8bd d3bc 58bd
000000d0: 4ee7 c73d 43dc 003e 9311 b2be 2c2f 4ebe
000000e0: c9dc 8ebe afc8 373e 9973 c73d f11c 0fbe
000000f0: 111a dc3b c460 eabd 69c8 b23d 4b83 61bd
00000100: 5ce9 0d3e bb62 65be 97c4 cdbd a4a2 d4be
00000110: ba8f b3be 3f53 683d 0ab1 3bbd c752 88bd
00000120: b1a5 8bbe e650 e8be 9710 17be acb8 44be
00000130: 2682 ed3c cc8c 123e e78b f9bb 1215 22be
00000140: ee1b 353e 6828 61be 80d4 18be a99e 97be
00000150: 8adc 55be 5fca 813d d2c2 2e3d 30d0 8cbd
00000160: ec64 e63c 0c5e 2ebe 5399 b8bb 7996 83bd
00000170: 6fb6 91be ea5b 03bd bee6 bcbe 30b8 0a3d
00000180: dab7 7dbd 0e40 573c 5520 86ba c8af b93d
00000190: 44e0 98bd a297 473e ce96 303c 5818 dcbc
000001a0: f458 773d 2b4c 6d3e e6b5 58be 92e1 b3be
000001b0: 004c 9cbe b9ea 4dbe 2145 f13d ecaa 1fbe
000001c0: 71e5 8fbd 037e b33d 809d 933c 7337 9cbe
000001d0: e463 de3d 6fc3 bbbe cba4 233d 1b45 95be
000001e0: 093a cb3d ce3f 523d 8ad9 ff3d 4392 97be
000001f0: da6d d0bd a27b b1be 84fd 6b3e aa84 90be
00000200: c915 853d 50a4 213e 194d 403d 6379 b4be
00000210: 64e4 643e dc75 95be 6de5 77be e9c0 2c3e
00000220: 947f a9be 24a0 853e cf2d 9f3e 83cb 92be
00000230: 93a6 87be 9ce9 b23d a042 cebe 9732 e7be
00000240: 82f3 9ebe 1ab4 2ebe e413 ccbe 349d b6bd
00000250: d40c 20bd 8a8f 87bd 6210 0f3e b447 58bc
00000260: 19a4 6d3c c502 9c3e f00e 193e ed42 5b3d
00000270: 72c7 a7bd 1916 50be f0d9 0d3e 01c0 89be
00000280: 130c 08be c4a3 23be d070 0d3e a590 b4bd
00000290: 87e2 7fbc 462f 10be c6fe b0be 33a1 fcbc
000002a0: f0e3 c43d 03a6 66be 5fc3 d73d 4498 95bc
000002b0: 7307 cd3d c922 19be d4eb 32be 5eb0 fe3d
000002c0: fa81 993e 7dae a2be de4f 2dbe 6b09 3ebb
000002d0: fad8 b03d cd50 8a3d bbc9 43be 6384 93be
000002e0: 6761 73be a91a 853d 24ee 84bd 8415 80bd
000002f0: 74fa f7bd 131d ebbd 145d 27bd 08a3 1cbe
00000300: d922 6d3e 66ba a1be e29d 65be 1411 83be
00000310: 8ff3 79be b29d 8f3c 4551 fe3d 124f 0dbe
00000320: 8ce9 a5be 1eb5 07bf e29c 4bbe 9205 bcbe
00000330: 0bdd 2e3e 5962 5a3e c723 b33d 4d6e 57be
00000340: efa2 d73d 02f1 a8be 5870 91be 50b9 57be
00000350: 2237 51be 0d12 be3d 8cdc dd3d 3ff2 a2bd
00000360: dfa0 0d3e 07f5 cf3d 6340 e83d 4612 ed3d
00000370: 485a 2ebe 9b49 83bd 1243 9fbe 86f5 553e
00000380: 9ac7 c5bb c6ff dd3d 18ac 2a3e 4b90 16bd
00000390: 7d67 ad3c da71 843e 0047 1e3e cfe8 51bd
000003a0: b866 e23d 8950 743e f742 86be 2cae c1be
000003b0: 6125 3fbe 56f0 b0be ccfe 55bd cf6e 0ebe
000003c0: 3cee dc3d ae18 9e3e 3b44 2cbd 800b ccbe
000003d0: 44b8 8dbc c995 97be 61ff 2bbc 7450 73be
000003e0: 2628 6c3e 7231 f63b f6f9 8c3c 445f 153d
000003f0: 74ee 05be bc07 aabe f718 503e 80c0 f4bd
0.061953567 0.101006106 -0.15641601 -0.34402198 0.0061874255 -0.27748173 -0.18629508 0.12680258
-0.11367606 0.042576693 0.1778464 -0.44450092 -0.11090125 -0.072527006 -0.09249823 -0.277789
-0.30421597 0.092523895 -0.28745493 -0.13364975 0.10904976 0.0034668397 0.14970194 -0.02304519
0.055208053 0.16563198 0.1210977 0.2061144 0.19000146 -0.40586424 0.1941541 -0.12318381
-0.04321518 -0.06807562 0.07503246 0.064629495 0.099075645 -0.074700065 -0.25262225 -0.08269281
0.058389716 -0.14260353 -0.086963445 0.16427657 0.057125397 -0.18512413 -0.30252954 0.1314706
0.25306717 -0.078012936 -0.121479966 -0.05291445 0.09760915 0.12584023 -0.34779033 -0.20135182
-0.2790282 0.17947648 0.097388454 -0.13975884 0.0067169745 -0.11444238 0.087296315 -0.05505685
0.13858551 -0.22400944 -0.10047262 -0.41530335 -0.35070592 0.056720015 -0.045823134 -0.066564135
-0.2727485 -0.4537422 -0.14752422 -0.19211072 0.028992724 0.14311522 -0.0076155546 -0.1582835
0.17686436 -0.2198807 -0.14924812 -0.29613236 -0.2088491 0.06337427 0.042666264 -0.06875646
0.028124295 -0.17028064 -0.005633512 -0.06425185 -0.28459498 -0.032070078 -0.36894792 0.03386706
-0.061942913 0.01313783 -0.0010233024 0.09066731 -0.0746465 0.19491437 0.010778142 -0.026867077
0.060387567 0.23173587 -0.21163139 -0.35133034 -0.30526733 -0.20109071 0.117807634 -0.15592545
-0.07026184 0.08764269 0.018019438 -0.30511054 0.108588964 -0.36672541 0.03995208 -0.29154286
0.09923179 0.05133038 0.12492664 -0.29603776 -0.101772025 -0.34664637 0.23045927 -0.28226215
0.06498296 0.15785336 0.046948526 -0.3524886 0.22352749 -0.29191482 -0.24208613 0.16870464
-0.33105147 0.2609874 0.31089637 -0.28670892 -0.26494274 0.08735964 -0.40285206 -0.45155784
-0.31045157 -0.17060891 -0.39858925 -0.08916703 -0.039074734 -0.06619175 0.13971093 -0.013200689
0.014504456 0.30470863 0.14947104 0.053530622 -0.08192338 -0.2032093 0.13852668 -0.269043
-0.13285856 -0.1598044 0.13812566 -0.08816651 -0.015617973 -0.14080533 -0.34569377 -0.030838585
0.09613788 -0.22524266 0.10535311 -0.018261082 0.100111865 -0.14954676 -0.17472774 0.12435983
0.29981977 -0.3177375 -0.16924998 -0.0028997313 0.08635135 0.06753693 -0.19119923 -0.2881194
-0.23767625 0.06499226 -0.06490734 -0.06254104 -0.12108317 -0.11480155 -0.04086025 -0.15296566
0.23157825 -0.31587523 -0.22423509 -0.25598967 -0.24409316 0.01753125 0.12417845 -0.13799694
-0.32404745 -0.5301074 -0.19884065 -0.36723 0.17076509 0.21326579 0.08747058 -0.2103817
0.10529124 -0.32996374 -0.28406024 -0.21066785 -0.20431188 0.09280787 0.108330816 -0.07956361
0.13830899 0.10154157 0.11340406 0.11575751 -0.17026627 -0.064105235 -0.31105858 0.20894441
-0.0060357573 0.108398005 0.16667211 -0.036758702 0.021167511 0.25868112 0.15456772 -0.051247414
0.11054748 0.23858847 -0.26222965 -0.37828195 -0.18666603 -0.34558362 -0.052244946 -0.13909458
0.10787627 0.30878204 -0.042057257 -0.39852524 -0.017299779 -0.29606465 -0.010497899 -0.23761159
0.2306219 0.0075132186 0.017209034 0.036467806 -0.13079244 -0.33209026 0.20322023 -0.11950779

critic.network_body.linear_encoder.seq_layers.2.bias f4 [128]
00000000: 4e13 393e 8323 403e 0c29 393c d471 af3e
00000010: a3eb 563c 8642 673e 9a91 bc3e 3591 4dbc
00000020: ffa7 1b3e 23be a33d 70a8 d3bc f9b1 913d
00000030: 792b 333e a700 c7bc 4611 483d 5963 c73d
00000040: 85f6 0a3d 05eb a83d d4e6 d6bc b2d8 f23c
00000050: b54b 6a3e 3996 ea3d b4b5 f3bc f206 debd
00000060: 56cd 443e db6e 703e f660 2d3e 004f 873e
00000070: ae71 a73d 0a57 3d3e f013 473e ec96 133d
00000080: 7208 883e 30ff 3a3d b893 7bbd 2555 de3d
00000090: 6650 0d3e 462d c73d d434 523e 5433 d3bc
000000a0: 4bdd dc3d c383 7d3e a890 c6bc 1876 9abc
000000b0: 9262 223e 7a4d c73e f0ff 623e 04f8 273e
000000c0: bc7d 453d 0857 a13e 52f7 433e 2162 b13c
000000d0: 962d 1bbd 0c1b 5c3e deb0 383e e7c4 303d
000000e0: d0b2 453e d742 e83b 9d0c c13c 22b0 0f3d
000000f0: 3927 9dbd 62d9 243e 46ac 6f3e a95b 6c3e
00000100: e5be 303e cd8b 66bc 5ab2 843c a393 a93e
00000110: d7f6 903d cf15 223d 82d3 f83d 7069 4d3e
00000120: ee6c 61bc 049b 8bbb 3a53 a83c 8d18 323e
00000130: a4d9 643d 5bed 233e 826d a03d 9b5d 773d
00000140: 561b 9f3d 4a15 343e c30a 2e3e dfd7 753e
00000150: de32 ff3b a9cd 333e d124 543e 7272 373e
00000160: 45ab 1f3e e2e6 353e 6111 923e 0d12 153e
00000170: 1009 bb3d 2a71 443e c81f 103c 64e3 123e
00000180: 7644 16bc beed ae3e af6b c53b 4d66 ad3e
00000190: 8261 2a3e f78e 353e ef0b f33b 7805 503e
000001a0: 3d0c c8bd 9024 4a3e d584 0a3e 6aae 8b3e
000001b0: 3ab1 033e da98 29bc 3cfd 3e3e b1da ecba
000001c0: 7cef 963e c951 563e 3617 953c 4979 403e
000001d0: d25e 743e f8a7 5c3e c5a4 f33d e5f3 ec39
000001e0: d85e 683e b7e9 4e3e 8672 4b3e d6bf dc3d
000001f0: 38b8 403e 14f2 993e 0535 04bd 1327 49bd
0.1807377 0.18763547 0.01130129 0.3426653 0.013117704 0.2258397 0.36829835 -0.012546827
0.15200804 0.0799525 -0.025837153 0.07114024 0.17497052 -0.024292303 0.0488446 0.09735746
0.033926506 0.082479514 -0.026233114 0.029644344 0.22880442 0.11454434 -0.029749729 -0.108411685
0.19218954 0.23479788 0.16931519 0.2642746 0.081759796 0.18490234 0.194412 0.036032602
0.26568943 0.045653522 -0.061420172 0.10856084 0.13800201 0.09725432 0.20527965 -0.025781311
0.10784396 0.24757294 -0.0242389 -0.01885514 0.15857914 0.38926297 0.22167945 0.16403204
0.048215613 0.31511712 0.19137314 0.021653237 -0.03788527 0.21494693 0.1803622 0.04315653
0.19306493 0.007088046 0.023565585 0.035080083 -0.07673497 0.1609855 0.23405561 0.2308184
0.1726032 -0.014071417 0.016198326 0.3312045 0.07078331 0.03957158 0.12149717 0.20059752
-0.013758881 -0.0042604227 0.020547498 0.17392178 0.05587162 0.16008513 0.07833387 0.060392004
0.07768886 0.17586246 0.16996293 0.2400813 0.0077880463 0.17558922 0.2071717 0.17914751
0.15592678 0.17763856 0.28528884 0.14557667 0.09132588 0.19183794 0.00879664 0.14344555
-0.009171596 0.34165758 0.0060248 0.33867112 0.16638759 0.17730318 0.007417194 0.20314586
-0.09767959 0.1974051 0.13527234 0.27281505 0.12860575 -0.010351384 0.18651289 -0.0018070546
0.29479587 0.20929636 0.018199544 0.18796267 0.23864296 0.2154845 0.11896662 0.00045195143
0.2269243 0.20206343 0.19867906 0.10778777 0.18820274 0.30067503 -0.032277126 -0.04910953

critic.value_heads.value_heads.extrinsic.weight f4 [1, 128]
00000000: 4ea1 183e 9762 293e 3e4a e3be b903 8e3e
00000010: c23c 6cbe 516d cc3d efbf 843e 0765 d2be
00000020: 54c8 003e 7d52 1cbf 0123 3dbe 8bd2 dabe
00000030: 974b 343e 5ab1 03bf 4ca7 10bf 7067 bdbe
00000040: 98b2 dfbe 536a 11bf f127 a2be 88f3 b8be
00000050: 657f 293e b799 98be 1685 67be 8ca5 3dbd
00000060: 8f30 b23e 2607 2a3e 90dd a13e e018 743e
00000070: 558f 06bf ef40 8a3e c6f6 0e3e 49e0 c9be
00000080: 0a37 a43e fb4a 86be 37b2 dabe bf03 a2be
00000090: 6dcb 323e 1486 1fbe 19ff 4a3e dead 2abe
000000a0: 6dd5 983e b2b2 803e e05d 97be cf0e 03be
000000b0: 7585 893e 0f23 793e e6a9 c13e ab88 453e
000000c0: 39b9 babe b4c2 cb3e 0861 b03d 3b79 e0be
000000d0: b45e e7be 3e0f 223e cd46 463e 2592 01bf
000000e0: c0e7 893e b4e0 8bbe b39b 73be f3fc d8be
000000f0: 84d3 46be d02d 8a3e 0be8 753e bbe5 4e3e
00000100: b079 413e e2ba 3ebe 213e e5be 01fd cc3e
00000110: 3b21 c9be 515c abbe be08 b5be f40e 433e
00000120: 35cd 52be f403 93be c9e5 6fbe 3fc3 263e
00000130: 3df6 14bf dd3a ba3d 6235 bdbe 5167 a7be
00000140: 012d e4be f10c 343e ee78 173e a012 8d3e
00000150: 84d9 a2be d4df 953e d4bc 6b3e b1f9 5a3e
00000160: 2366 613e 8906 013e 55d7 7f3e 9aa2 313e
00000170: c6ab ecbe b530 1e3e 4385 9dbe 2e98 043e
00000180: 6dd2 f4be 35f5 db3e 29bc 8ebe a468 8a3e
00000190: 59fe 903e e24e 3a3e 8fe8 cebe 4648 843e
000001a0: 6ae7 9cbd a5d1 ba3d b34b 8f3e 1ada 533e
000001b0: 98a7 1dbf e360 d9be 72ae 1b3e 24de d5be
000001c0: 9f00 bc3e 67d8 163e 6f89 2bbe bb1b 773e
000001d0: 482c b43e adeb 173e a572 3d3e aa84 a5be
000001e0: f54d d13e 16cb 0e3e 344e eb3d 6d3a 813e
000001f0: 0eed 163e b855 623e 8512 a4be 80df c3bd
0.14905283 0.16541515 -0.4439258 0.27737215 -0.23070052 0.09981788 0.25927684 -0.41092703
0.12576419 -0.6106337 -0.18470384 -0.42738757 0.1760696 -0.5144249 -0.56505275 -0.3699298
-0.43690944 -0.5680286 -0.31671098 -0.361233 0.16552503 -0.29804775 -0.22609362 -0.046300456
0.34802672 0.1660429 0.3161435 0.23837614 -0.5256246 0.27002665 0.13961324 -0.39428928
0.3207324 -0.2622908 -0.42714092 -0.31643483 0.17460413 -0.1557849 0.19823875 -0.16667888
0.2985033 0.25136334 -0.29563808 -0.12798618 0.26859632 0.2432978 0.37824935 0.19290416
-0.3646944 0.39796984 0.08612257 -0.43842492 -0.4518944 0.15826127 0.19362946 -0.50613624
0.26934624 -0.27319872 -0.23789863 -0.42380485 -0.19416624 0.26988077 0.24014299 0.20204823
0.18894076 -0.18625978 -0.44773963 0.40036777 -0.39283165 -0.3346887 -0.35358232 0.19048673
-0.20586093 -0.28713953 -0.234275 0.16285418 -0.5818823 0.090932585 -0.3695479 -0.32696012
-0.44565585 0.17583062 0.14792225 0.27553272 -0.31806576 0.2927233 0.23021251 0.21384312
0.22011618 0.12600149 0.24984486 0.17347184 -0.46224803 0.15448268 -0.30765733 0.12948677
-0.47816792 0.42960516 -0.2787793 0.2703296 0.28319052 0.18194154 -0.40411803 0.2583639
-0.07661326 0.09122018 0.2798744 0.20688668 -0.6158385 -0.4245673 0.15203264 -0.41771042
0.36719224 0.14730988 -0.16751646 0.24131672 0.35190034 0.14835997 0.18500765 -0.32327777
0.4087979 0.13944659 0.114895254 0.25239888 0.14738867 0.22103012 -0.3204538 -0.095641136
