results/MovingObstacles2/BasicAgent/checkpoint.pt (torch, 752455 bytes, 33 tensors)

network_body.linear_encoder.seq_layers.0.weight f4 [128, 107]
00000000: 565b 0c3d f480 493e 1301 d83d 1c58 1b3e
00000010: 9b32 3ebd 89db 813e ed77 b6bd b961 abbb
00000020: 0abd bdbc c31c 863d 3efc cb3c 8774 24bd
00000030: 3953 56be d879 9c3d d48d cf3c 8073 e13d
00000040: 6469 913d fa2b 38bd 2975 b0bd eaed 3ebc
00000050: 479c 35bd 554d 0a3e df86 8e3d 0ec4 7d3c
00000060: 546d 6d3e 7728 e23d b837 3cbd d0da d33d
00000070: d8e5 a43d 774e b13d 8a76 6a3e 9c30 8a3d
00000080: 7de0 403e 43bd 543d 6465 a2ba c4a3 f5bd
00000090: 16e7 2f3e 81cc 2cbd 3bd7 c03d 1f98 223e
000000a0: 1ffe 143e 28a5 77be f660 3cbe 3628 b33d
000000b0: 7e89 87bd 1c11 b53c 0a19 d73d ba7d 363e
000000c0: 664f d4bd a8af 5abe b30e b7bd 239e 1ebd
000000d0: bc61 31be 8240 733e 881b b83d 0226 093e
000000e0: 28d8 71bd c9c9 4a3d 69b5 d3bd 3272 473e
000000f0: 924b bb3d 3d7c c03c 010e 7b3c 49fa e23d
00000100: 6f2f 81bd 2518 c73d 3a9a 5e3e ffd6 fe3d
00000110: 0288 443d e443 473d 6760 a0bd 3e0f 0bbe
00000120: 5e90 593d 096a 8b3e 9720 86bd a957 273e
00000130: f7e4 d8bd 60ab 83be 5968 5bbd ce81 9ebd
00000140: 74ca 8b3c cd98 5ebd ff02 963e df58 d33d
00000150: 7d3a 643e 462b 65bd 50ee 80bc 659b 5ebd
00000160: c600 c23c 73ff ee3c 82f6 70bd 78e8 013d
00000170: cc85 b53e 6de1 da3a 5f99 90bd 6094 473c
00000180: e479 bd3c 463f 0e3d 1261 0fbd 2e10 a03e
00000190: 2996 a23d 28c5 d83b d177 a83d 5545 ff3d
000001a0: be58 c03c c6fc 74bd c0cc 09be 0a61 b3bd
000001b0: 2405 2f3d 4f0e cf3d e3c8 11be 4bb3 0dbd
000001c0: 412e 44be 52a2 4b3d 5baa b7bd 9086 3dbd
000001d0: e5a0 0f3e 9cdb bbbd 70c1 9439 d456 66bd
000001e0: 1314 29be 014b 063e 3307 87be 41a6 3abc
000001f0: 8074 cdbd bfca 06be 50c3 8d3d 657d f93d
00000200: 17be 05be b4a6 cfbd b7d9 28bd 77c8 043c
00000210: 0b7b 05be 4a8f 5bbd d50f 8ebd a9e7 fa3d
00000220: 64b5 b2bd 3a49 f13b b94a b63d f9f6 95bd
00000230: 115e 8ebd c4f9 543c af53 c4bd 73ce 3bbe
00000240: 0eef afbd 551d 26be c81e b3bd 546c a53d
00000250: 8ead 5c3d d007 81bd 6f5c 183e df47 3e3d
00000260: c984 a3bd dcff 17bd f0c9 ba39 9302 173e
00000270: 8e0f 9fbd 1c6b b9bd 4b7c a1bd 4eb1 81be
00000280: 9bba 48bd d568 253b ffa1 b2bd 69c1 573d
00000290: 5432 8dbd a7ed 9fbd 137e 5bbd c059 fa3d
000002a0: f314 5bbe bdf1 0ebe 8539 8d3d 887c 483c
000002b0: 1ce0 373c caaf aebd f427 1ebe a8ce 86bd
000002c0: 171a 0ebd 4103 e53c ec63 2c3e d81b 28be
000002d0: 19fa 00be 59de 703d 5932 cbbd 5ac0 d5bd
000002e0: 168e 1abe ef6e c83b 5536 11be 560d 3a3d
000002f0: 13a3 1bbd 522c 30be b6da 183c 3094 a2bd
00000300: f93b 3fbe d8c6 90bd d360 71bd fd71 0e3d
00000310: 4d2d d83c a6b4 f5bc 1115 f1bd d3ce bebd
00000320: 6adc ac3d b328 2abc 0df4 edbd 86f0 b33c
00000330: b7a1 46bd d6c7 943d e834 a13b aeb6 f1bd
00000340: 61cd afbd 98e1 ac3b 7fa8 f03d 1a4c 483e
00000350: 0f2b 2c3d 35d4 f13d 6c05 8d3d b6bb 293d
00000360: 5600 913d 5851 133e a82f a13d ad37 6cbd
00000370: 13af 33be 0227 15be 1cb2 a5bd 7ba5 5bbc
00000380: 1f47 32be 6a7d cd3c b170 2a3e ce19 e53d
00000390: eaff 35be e14e 80bd 2f67 173e 82fa 673d
000003a0: 5b5e f73c f6a1 833d b308 0c3e c354 b53c
000003b0: 77f0 f33c b799 e3bc e52b b7bd 856f 2b3e
000003c0: 3277 ddbd 09a3 b53d 6f6c 1e3e 600c b7be
000003d0: 666e a93b f08d 21bd 904a c03d 5488 b53d
000003e0: bbda 023e 96b5 943b 3990 0dbe 8a21 0dbe
000003f0: fe29 1dbd e9b8 0e3e efcf 09bd 96b7 cabd
0.034266792 0.19678098 0.1054708 0.1517033 -0.04643498 0.25362805 -0.08909593 -0.0052301553
-0.02316143 0.065484546 0.024900552 -0.04015019 -0.20930184 0.07640427 0.025336184 0.11008358
0.0710018 -0.044963814 -0.086160965 -0.011653403 -0.04433849 0.13506062 0.06959318 0.015488638
0.23186237 0.11042874 -0.045951575 0.103444695 0.08051652 0.08657544 0.22896782 0.06747553
0.18835635 0.051938307 -0.0012389836 -0.119941264 0.17177996 -0.042187218 0.09416052 0.15878342
0.14550065 -0.24184096 -0.18396363 0.08747904 -0.066180214 0.022102885 0.10502823 0.17821398
-0.103667066 -0.2135607 -0.089383505 -0.03872503 -0.17322439 0.23755077 0.08989626 0.13393405
-0.059044033 0.049508844 -0.103373356 0.19477156 0.09145273 0.023496741 0.015323163 0.11082894
-0.06307875 0.09721402 0.2173852 0.12443351 0.04798127 0.04864873 -0.07830887 -0.13580033
0.053116195 0.27229336 -0.06549185 0.16342033 -0.105905466 -0.25716686 -0.05356631 -0.07739602
0.01706431 -0.05434494 0.2929916 0.10319685 0.22287937 -0.055949472 -0.015738636 -0.054347415
0.02368201 0.029174542 -0.05882884 0.03171584 0.3545364 0.0016699262 -0.07060503 0.012181371
0.023129411 0.03472831 -0.035004683 0.31262344 0.07938797 0.0066152997 0.08225978 0.12464396
0.023479816 -0.059811376 -0.13457012 -0.08758743 0.04272951 0.10110151 -0.14236788 -0.034594815
-0.1915827 0.049715348 -0.089680396 -0.046270907 0.1402622 -0.091727465 0.00028372882 -0.05623515
-0.16511564 0.13114549 -0.2637268 -0.011392177 -0.10031986 -0.13163279 0.069220185 0.1218212
-0.13060795 -0.10139218 -0.041223254 0.008104435 -0.13035218 -0.053603448 -0.069366135 0.12251217
-0.08726004 0.0073634656 0.08900971 -0.07322497 -0.069515355 0.012999002 -0.09586274 -0.18340473
-0.08590518 -0.16222127 -0.087461054 0.080773026 0.053876452 -0.06300318 0.1487901 0.04645526
-0.07984311 -0.03710924 0.0003562714 0.14747076 -0.07766639 -0.090536326 -0.07885035 -0.25330585
-0.049006086 0.0025239487 -0.087223046 0.052674685 -0.06894365 -0.078090005 -0.05358703 0.1222415
-0.2139471 -0.13959403 0.068957366 0.012236722 0.011222865 -0.08529623 -0.15444928 -0.06582385
-0.03469285 0.027955653 0.16834992 -0.16416872 -0.12595405 0.058805797 -0.099217124 -0.10437079
-0.15093264 0.00611674 -0.14180882 0.045422874 -0.037997317 -0.17204407 0.0093294885 -0.07938421
-0.18675222 -0.070691764 -0.05893023 0.034776676 0.026388789 -0.029993366 -0.11771596 -0.09316792
0.08440478 -0.01038568 -0.116188146 0.021965276 -0.048494067 0.07264678 0.004919637 -0.118024215
-0.08584095 0.0052759163 0.11750888 0.1956028 0.04203325 0.118080534 0.068858 0.04143878
0.07080142 0.14386499 0.07870418 -0.057670284 -0.17547254 -0.14565662 -0.08090612 -0.013406153
-0.17409943 0.025084216 0.16644551 0.111865625 -0.17773405 -0.06265045 0.14785455 0.056635387
0.03019636 0.06427376 0.13675193 0.022135144 0.029777749 -0.027783258 -0.08943919 0.1674176
-0.1081375 0.08868987 0.15471052 -0.3575163 0.005170631 -0.039442003 0.09389222 0.08863893
0.12778752 0.0045382483 -0.13824548 -0.13782325 -0.038370125 0.13937725 -0.033645567 -0.098982975

network_body.linear_encoder.seq_layers.0.bias f4 [128]
00000000: 2ed3 2e3d 1fe3 a2bc 4b23 ad3c 35a1 913b
00000010: 4a94 463d 5e47 643d bf8c 0a3d 1a30 9e3b
00000020: b548 413d 022d cbbb bd07 03bc 2271 3f3d
00000030: 2ef9 203d cda6 693d 6501 cfbc a9c1 9ebd
00000040: 4f4a 523b 428a 423d 0635 573d db08 0d3d
00000050: b5bb edbc b292 323d fd87 bd3c c0fc a23c
00000060: cfb9 1b3d a30c ea3c 8038 2d3d 88d6 573b
00000070: d439 2c3d 0a77 2fbc 8a9c 1c3c 42e0 563d
00000080: a8bf 8d3d 31a0 b93c a9f2 a13c 3372 f53c
00000090: 884e 6f3c 1f5c 7e3c 7955 cd3c d8c8 bf3b
000000a0: 6310 823c fd19 f03c 2caa cd3c 1b91 1d3d
000000b0: bd3b 893c cf23 033d 7b83 193d 1888 ee3b
000000c0: 9b0c 463c bde7 babc 13fc 60bd 1ac6 cdbc
000000d0: a274 323d c8a3 993b 27b6 043d d253 2e3b
000000e0: d5c5 df3c 2da9 cd3c 243b 153d 7311 bf3c
000000f0: 6621 d23c 5c28 163d a0f4 403d 6b75 9b3c
00000100: 78d2 7f3c 4e4a 843c 8afa 353c c276 54bc
00000110: 5dad b83c e311 06bd 4cc2 613d 0c02 88bb
00000120: 6fff c43c deb2 1cba 4497 b03c 95ea 96bb
00000130: 49ac 723c 421a a83d db05 c83c 2175 cbbc
00000140: 25af 893b 7e92 d7bc d773 603c 1f1e ce3c
00000150: 47ee 2ab9 f7fc e9bb 081d 1b3d 6d05 ee3c
00000160: 185a de39 adbd ee3c 7a20 a73c 83d7 dc3c
00000170: bf31 d43c ce51 343d f49a 013d 8d19 1fbb
00000180: 2b7d f63c 0942 293d cf39 183b a527 8f3c
00000190: 36d1 cc3c 3c59 943c 83ec 19bd cb28 203d
000001a0: a907 2f3d 82e9 e23c 628b 183d 50f1 843c
000001b0: 7a78 c23a 3343 9d3c 64ca 2c3d 16d5 afbc
000001c0: 6a8a 803d beaa a13c f229 9b3c 4ce8 dc3c
000001d0: 091e 2abb 897d c7bc 1fa2 d63b 1a5d 1abd
000001e0: 445b 1c3d 03bc 883c 7d99 1b3d e15e 743c
000001f0: 35e4 943c 7eb5 123d 950d 053d 4a15 b6bc
0.042681865 -0.01988369 0.021134993 0.004444266 0.048481263 0.055732124 0.033825632 0.0048275115
0.04718848 -0.0062004337 -0.00799745 0.04673875 0.039300136 0.05704384 -0.02526922 -0.077517815
0.0032087748 0.047495134 0.0525408 0.034432273 -0.02902017 0.04359693 0.023136133 0.019895911
0.038018998 0.028570479 0.04229021 0.0032934267 0.042047337 -0.0107095335 0.009558806 0.052459963
0.06921321 0.022659393 0.01976903 0.029961681 0.014606126 0.015524893 0.02506517 0.0058528
0.015876954 0.029309267 0.025105558 0.03846846 0.016752118 0.03201657 0.037478905 0.0072794072
0.012087966 -0.02281558 -0.054927897 -0.025118876 0.04356826 0.0046887137 0.032400277 0.0026600254
0.027316013 0.025105083 0.036433354 0.02332375 0.025650691 0.036659583 0.047108293 0.018976888
0.0156141445 0.016148712 0.011107096 -0.012967767 0.022543604 -0.0327319 0.055116937 -0.0041506346
0.024047581 -0.0005977581 0.021556504 -0.004605601 0.014811584 0.08208133 0.024416855 -0.024836125
0.004201787 -0.02631497 0.013699493 0.025160847 -0.00016301229 -0.0071407515 0.037869483 0.029055322
0.00042410265 0.029143179 0.020401228 0.026958233 0.025902627 0.044023328 0.031641915 -0.0024276704
0.030088982 0.04132274 0.0023227816 0.017474959 0.025002103 0.018108957 -0.03757907 0.039101403
0.042731915 0.027699236 0.0372423 0.016228348 0.001483693 0.019197082 0.042185202 -0.021463912
0.062764004 0.019734737 0.0189409 0.026966237 -0.0025957844 -0.024351852 0.006550088 -0.037686445
0.038172975 0.016691213 0.037988175 0.014915199 0.018175224 0.035817616 0.032483656 -0.022226948

network_body.linear_encoder.seq_layers.2.weight f4 [128, 128]
00000000: a6bd b3bd bd8d 9ebd 047b 2b3e ac10 54bc
00000010: 9a5a 973d 731d cebd 6321 8e3d 9676 f9bc
00000020: 3a61 01bd 81ec 32bd 49a7 9b3b e96b 1dbe
00000030: 3c0d 933d d88b 1d3e 1639 f33d 2f7c 28be
00000040: 89d2 1ebd 5a86 213d 9adc d1bd af28 95bc
00000050: 782c 793e d7e6 293d aada ae3d 4608 92bd
00000060: ea1f a63c a4e7 a83c ac3f 67be 9e23 a1bc
00000070: df3a 0b3e b41d c33d 5a65 20be 4006 76be
00000080: 78e6 283e 40e3 7cbb 9939 e6bd 6f8d 8e3b
00000090: 459e 4a3d 3599 653d 9f4a e83c ebe9 e13d
000000a0: a50f 313d 0359 17be 337d 573c 51d7 e23d
000000b0: 5e54 593d 379c dc3d 9cbb f4bd 8d0a c13d
000000c0: 625b 8cbd 7b18 b33d 2114 473d e659 923d
000000d0: e11b fc3d 9335 093d 9f9e 8cbe c4ee 08be
000000e0: a8b6 2b3d 8035 95bc 56f9 503e 0114 86bc
000000f0: 24d4 4dbd 4a86 713e e7f1 8ebe 22fa 563e
00000100: 1104 093d c687 183d aa7d 033d 7228 c53d
00000110: f52e ebbd 8141 12bd e725 c73d 2ac7 b6bc
00000120: 7f56 01be 9a98 163e 0db5 0abe 7def 42bd
00000130: c528 6ebb b79a 63be f467 cdbd 327c 9a3b
00000140: acd6 893d d091 a93d 8168 8c3d a5bd e83c
00000150: 2f96 9fbd 6a2c aabd 73a8 003e 2b50 4e3e
00000160: 10d9 dcbd 58bd 64bd cd6f 633e 15ff 0c3e
00000170: 7124 abbc bf46 1ebd 6fb1 103c cc9a 1ebe
00000180: 3474 91bd c8a0 3dbd 675f d8bd 714a a0bb
00000190: 4ded 0c3d 5f50 623d b0c3 26be fce6 b3bc
000001a0: e7ca 923d bd0d f03d 8434 e53d 0d65 ae3d
000001b0: 5289 1abe 0412 f43d e820 2fbd dd67 48bd
000001c0: 1d84 58be 27c6 debc 6815 4f3e 0e46 01be
000001d0: 0b87 8dbd 2677 7d3d ea3b 173d 09fb 773d
000001e0: fe62 58be 9101 f33d 888d 323d 185e ff3d
000001f0: a451 06be 5612 003e 1539 1f3d 1eb5 8abd
00000200: 4005 b8bd 558c dd3d 38a1 d23d 6a28 223d
00000210: 86c7 0abe 330c 88bd df52 543e 3721 05be
00000220: 6a3b 5d3d a760 09be 3422 903e 3ac8 8dbe
00000230: 25ca b0bd d70e e43d 68c7 dd3d c088 97bd
00000240: 7bf3 45bd 038c 5e3c f814 75be 2aaa 3b3d
00000250: 0847 543e e1fe 7e3d 6d57 92bd a393 aabd
00000260: 728d 023e f4c8 d839 b2cd d1bd b3cc 00bc
00000270: 1206 983d 85b9 ad3d 68aa b5bd beff fbbd
00000280: a253 1b3e e3ac 9d3e 43c7 3dbd e85d 583b
00000290: 8a89 4f3e 432f 94bc a31d c33d 90df a1bc
000002a0: 4ea7 8c3e 3a8c a7bc 77b2 683a 4d67 6b3c
000002b0: 586b 133c a40f 4c3d ad68 a03d 5531 8bbd
000002c0: ac35 dbbd e638 7f3d e3ef 5e3e dcff 7e3d
000002d0: 1ce2 b9bd 3efa d9bd 33d8 5cbe 9c90 8cbc
000002e0: 0e12 de3d 39c4 d73c 2589 ef3d 7a16 cc3d
000002f0: 6b09 543d e837 163e c275 a4bc c689 0c3e
00000300: 2a5e e5bc e292 e8bd 5285 e5bd 074f 54bd
00000310: bbc4 03be 514a bfbd 13b0 f13d d249 7b3d
00000320: ce72 6d3d acd6 5b3d b08a 0cbe 6f2f eabb
00000330: f7f9 9eb9 ea30 a5bd 30bf 1d3e eb3d f1bb
00000340: 7764 82bd 1a9f 3c3e 37ad c53d 81b0 1dbd
00000350: 2528 3c3c 5da2 013d f957 ccbd 5191 98bd
00000360: c65e a9bd bb65 e13b 9f2b 573e 34a9 293e
00000370: f525 f6bc 3dbf 1cbe 3591 24be fa21 093d
00000380: df90 cdbc 7f80 3b3d 19c3 d8bb c4d7 363d
00000390: c1e1 103d fbc2 d5bc b6cf 61bd e52b 063d
000003a0: e5fb 1c3e 30c0 babd 9ac4 8cbc a891 9f3c
000003b0: 6e7f 7abd 86aa 223c 5216 f5bd 4dff 93bd
000003c0: 26ef 033b d2e2 373e 1027 d33d f208 ac3b
000003d0: 8fe5 5abd f96d 3e3d 83dd c93c ba36 dabc
000003e0: d4fd 9b3c 474b 0e3d 3af2 16bc 29ec ffbd
000003f0: a104 49be c573 203d 6603 013e 09d0 803d
-0.08776407 -0.07741878 0.16746145 -0.012943428 0.07390328 -0.10064211 0.06939962 -0.030452054
-0.031586863 -0.04368258 0.0047501666 -0.15373196 0.07180259 0.15385377 0.11876123 -0.16453622
-0.038775 0.03943477 -0.102471545 -0.018207876 0.2433337 0.04147991 0.085378006 -0.07130484
0.02027889 0.020618267 -0.22582883 -0.019670304 0.13596676 0.0952715 -0.15663663 -0.24025822
0.16494167 -0.00385876 -0.11241455 0.0043503563 0.049467344 0.056054313 0.028355895 0.110309444
0.04322781 -0.14780049 0.013152408 0.110762246 0.053058974 0.10771983 -0.11949846 0.094258405
-0.068533674 0.08744904 0.04860318 0.07146053 0.12310005 0.033498358 -0.27464768 -0.13372332
0.04192224 -0.018213987 0.20407614 -0.01636696 -0.05025114 0.23586383 -0.27918932 0.20993856
0.033451144 0.03723886 0.032102264 0.09626855 -0.11483566 -0.035707 0.09724026 -0.022311766
-0.12630652 0.1470665 -0.13545628 -0.047591675 -0.0036340219 -0.22226988 -0.10029593 0.0047145123
0.067303985 0.08279765 0.0685587 0.028410742 -0.07792317 -0.083092526 0.12564258 0.20147769
-0.10783589 -0.055844635 0.22210617 0.13769181 -0.0208914 -0.038641687 0.008831366 -0.15488738
-0.07102242 -0.04629591 -0.105650716 -0.0048916866 0.034405995 0.05525243 -0.16285586 -0.021960728
0.07167607 0.1172137 0.11191657 0.08515368 -0.15091446 0.11917499 -0.04275599 -0.048927177
-0.21144147 -0.027194096 0.2022301 -0.1262438 -0.06910523 0.061881207 0.036922373 0.06054214
-0.21131513 0.11865533 0.043592006 0.12469119 -0.13117081 0.12506995 0.038872797 -0.067728266
-0.08985376 0.10817782 0.10284656 0.039589323 -0.13552675 -0.06642952 0.20734738 -0.13000952
0.05401174 -0.13415776 0.28151095 -0.27691823 -0.08632306 0.11135643 0.10829049 -0.0739913
-0.048327904 0.013583186 -0.2393378 0.045816578 0.20730221 0.06225479 -0.071455814 -0.08328941
0.1274927 0.00041348452 -0.102443114 -0.007861304 0.07423033 0.08482651 -0.08870393 -0.12304638
0.15168622 0.30795965 -0.04633261 0.0033014957 0.2026731 -0.018088942 0.09527137 -0.019759923
0.27471393 -0.020452607 0.0008876691 0.014367891 0.008997761 0.049819604 0.07832465 -0.06796519
-0.107035965 0.062310122 0.21771197 0.062255725 -0.0907633 -0.10643433 -0.21566848 -0.017158799
0.108432874 0.026338683 0.1169608 0.099652246 0.051766794 0.14669764 -0.020075683 0.13724431
-0.027999002 -0.11356141 -0.112070695 -0.05183318 -0.12868015 -0.093403466 0.118011616 0.061349697
0.057970814 0.053671524 -0.1372478 -0.007146768 -0.00030322347 -0.0806597 0.15404963 -0.0073621175
-0.063668184 0.18420067 0.09652179 -0.038498405 0.011484181 0.031648982 -0.09977717 -0.07449592
-0.0827003 0.0068785823 0.21012734 0.16568452 -0.030047396 -0.15307327 -0.16071017 0.03347967
-0.025093494 0.04577684 -0.0066150543 0.044639364 0.035371546 -0.02609395 -0.05512973 0.032756705
0.15330465 -0.09118688 -0.01718359 0.019478634 -0.061156683 0.009928351 -0.11967148 -0.07226429
0.0020131557 0.17957619 0.10310185 0.00525009 -0.05344158 0.046491597 0.024641758 -0.026637424
0.019041933 0.03473976 -0.009213025 -0.12496216 -0.19630672 0.039172906 0.12598953 0.062896796

network_body.linear_encoder.seq_layers.2.bias f4 [128]
00000000: a2aa cc3c 8096 1d3d ea21 4f3c 8c24 053d
00000010: 2429 993c 5bdf fa3b 345f 1e3d 5669 6e3c
00000020: 0b62 e9bc 3f11 b83c fde3 f6bb b9b9 e83c
00000030: cddf b63c deb9 fa3c 8745 f03c df39 583d
00000040: 81ea debb 79a4 343c f00d b33b c195 6b3c
00000050: f174 caba 664e 44bc 3bee 663d 926b ce3b
00000060: 9b11 1f3d 9c0f 1fbc e431 553d 4605 313d
00000070: 0e07 0e3d 2252 9f3c fc5a 603c cf0a 4b3c
00000080: ac2f 6c3d a3a2 913c 06e1 e138 67f3 b03c
00000090: e9c9 3b3c b734 e73c 03ba 163c 8a7d 033d
000000a0: 2db2 2a3c cf87 b43c b01c 273d 2d76 0d3d
000000b0: 1449 8a3c 18f8 f0b9 8277 c93c 1538 193d
000000c0: 0d71 633c 0045 6c3d cf28 2c3d ddc4 363d
000000d0: 34e4 0f3d 75be 9d3c 0f56 e13c 53a1 1f3c
000000e0: ba31 083d 6c34 8abb 04c4 813c e2c4 d93c
000000f0: 560e 1e3d 5096 fa3c a073 a03c 0347 293d
00000100: 4936 5d3c 608d 853c c459 343c b23a 463d
00000110: f6d9 023d 7cd5 0a3d 8ba1 533d fae7 fe3c
00000120: 86a2 aa3b 32d1 5a3d 78c0 4c3d b61b e23c
00000130: cf5a 253d f598 863c f103 13ba f642 ac3c
00000140: b5c7 14ba ca49 2e3d 7fab a03c 68b7 c33c
00000150: a6ec a53c 2431 863d 9477 e63c fde3 c13c
00000160: 3b12 babc b061 6c3c 81b1 0abc fcc1 a93c
00000170: 422b 313d 3852 143d 893e 573d 4c8d 303d
00000180: 7df9 4e3d 41aa 063d d02e b1ba 48f8 5ebb
00000190: 6ea3 3b3d d354 51ba 1cde 453d 10f1 093d
000001a0: 3b82 3b3d 22bf 343d 00ad cf3c fcac b63c
000001b0: 918a 5abc b1fa 1ebb b21e 0c3d a65e ac3c
000001c0: fd72 a03c 5c8f 043d f72e f43c 61e0 1cbc
000001d0: c0dc 583c ead8 ba3c 8fb9 6e3c 5968 c33c
000001e0: 67e5 793c c393 433b 4ffa 103c f51c a03d
000001f0: 1f4a 753d fb62 093d 8563 1f3b b5ae 8d3c
0.024983708 0.038473606 0.012642363 0.032505557 0.018696375 0.0076560206 0.03866501 0.014551481
-0.028489133 0.022469161 -0.0075345025 0.028408872 0.022323513 0.030606207 0.029330028 0.052789565
-0.0068028574 0.011025541 0.005464308 0.014378966 -0.0015446228 -0.011981582 0.056379538 0.0062994445
0.03883515 -0.009708311 0.052049533 0.04321792 0.034674697 0.019448344 0.013693567 0.012392714
0.05766265 0.017777747 0.0001077075 0.021600438 0.011461713 0.028223379 0.009199622 0.032102145
0.010418457 0.022037415 0.040798843 0.03453653 0.01688055 -0.0004596121 0.024593119 0.037407
0.013881934 0.05768299 0.042031106 0.044621337 0.03512974 0.019255856 0.027506856 0.009743053
0.033250548 -0.004217675 0.015840538 0.026583139 0.03858789 0.030589253 0.019586384 0.041327488
0.013501712 0.016302764 0.01100773 0.04839582 0.031946145 0.033895 0.05166773 0.031116474
0.0052073626 0.05342216 0.04998824 0.027601104 0.040369805 0.016430357 -0.00056081923 0.021028023
-0.00056755106 0.04255084 0.019613026 0.023891166 0.020254444 0.065523416 0.028133191 0.023668284
-0.022713771 0.014427587 -0.008465172 0.020722382 0.043254144 0.036211222 0.052549873 0.0431035
0.0505309 0.03287721 -0.001351798 -0.00340225 0.045810156 -0.0007985357 0.048307523 0.03367716
0.045778494 0.04412759 0.025351048 0.022299282 -0.013338701 -0.002425831 0.03420896 0.021041226
0.01958608 0.03236328 0.02980755 -0.0095749805 0.013236225 0.02280851 0.014570608 0.023853468
0.015252448 0.0029842712 0.008848741 0.07818023 0.05988514 0.03354166 0.0024320793 0.01729522

action_model._discrete_distribution.branches.0.weight f4 [5, 128]
00000000: 1518 edbc 80c1 d7bc 60fb e1bc de92 14bd
00000010: 4beb e03a 149d 04bd 083f b63a 8e5e 82bc
00000020: 00ca 753c 5e3f c4bc 4bfa 9fbb 32ff 32bb
00000030: f124 debc b254 a93c 3b28 ca3c 1b02 50bb
00000040: 30f5 27bc ec55 df3c e4f0 b1bc 80e7 20bd
00000050: 3d77 963b a441 c73c ce7b 32bd f975 1a3d
00000060: 63c8 17bc a344 5bbb 06a7 b03b cc98 e1bc
00000070: 9f90 31bc df24 43bc 1c98 9c3c a1ca 73bd
00000080: cf6d 9fbc de82 10bc ed72 d63b 0023 a0bb
00000090: 2acf 50bc ec8d 5e3b 963c 373c 2946 a73c
000000a0: 3743 58bd 9df0 e0bc 025d 48bc a6b3 203d
000000b0: d2c7 9c3c a6f0 083d 5b7d 99bc a935 67bb
000000c0: 4d62 403d a426 16bd 9226 4cbd 6fe0 02bb
000000d0: fea3 e4bc 560a 4ebc 3765 013b ab9a 453b
000000e0: cc48 c8bc b25a 263c 3c5f 05bc d65e 4f3b
000000f0: 066d ce3c 94e5 8f3c cb10 443d dffd 95bd
00000100: 3f41 d4ba 6957 913c bd7c 7abc 41cd f6bc
00000110: 2531 37bc 1e62 5c3c 0620 eabb dc74 2a3a
00000120: 916d b4bc e8ca 07bd 9958 1c3c 0450 f5bb
00000130: 844e 5dbc 5d98 0e3c 1ed6 473b e44d 1abc
00000140: 9307 aebb 008b 8f3c 18bb babc 74d8 d3bc
00000150: 99e1 2ebc a9ed 5fbc 0340 43bd 1842 8bba
00000160: 5ca1 b73b 35d5 bb3c d979 473c 2960 b13c
00000170: 780a c4bc c3d5 ccbc 24c4 31bd 025b 91bc
00000180: 3b0c 0f3c 376c 42bc 88bc 40bc 5637 05bd
00000190: daaf 8c3b 8f7d fc3c 925f 47bc a05b c6bc
000001a0: 90e8 cdbc 4e10 4fbd cfa4 09bd b5c1 203d
000001b0: 9e8f fd3b 1898 113c a22f 52bc 4f11 3fbd
000001c0: 49dd 9abc d81f 2fbd 9f79 5abc 1eac f93b
000001d0: 6497 0b3c 595f b1ba 500b 38bd d155 f9bb
000001e0: c452 5abc f294 1f3c c3e3 043d 5e7d 2ebd
000001f0: c0aa 10bb 06fe bd3a d87c e33b 8be7 4aba
00000200: e8d3 d2bc b954 03bd 3944 043d 5c28 edbd
00000210: 44cc 803d 91f3 47bd b4cd dcbd 0aa5 1c3c
00000220: 2d1b 04bd 9ce2 b6bd 04ca 99bc ca7f 2b3d
00000230: d96f 7fbd 7ffe c3bc b7c0 7bbd 1a99 a13d
00000240: ae1f 00bd 1acc c33c fb03 c4bc 9644 88ba
00000250: ca3f 11bd bee2 74bc 3151 9a3d 3ecf 8b3c
00000260: 9d69 153c 0406 55bd b92d 9f3d 04a7 3e3d
00000270: 1bb2 913d 6025 0c3d ad32 f63c 9a30 ffbc
00000280: b6fd e13d ad72 85bd 8d7c 1abd 9052 8fbd
00000290: 5bd1 633d d923 eebc ca39 a2bd d262 7c3d
000002a0: 876c 84bd 0391 afbd e326 b7bc 4ec7 adbd
000002b0: 515f abbd bb00 00bd 73c1 efbc d7c3 7f3d
000002c0: 3543 9cbd e018 763d db4f 8f3d ac74 b53d
000002d0: e92a 60bd 1690 233d 9423 b2bd 3fa3 013d
000002e0: 482e da3c 38c3 69bd 0b7e 91bc 80a3 2ebd
000002f0: a1a0 8cbd 02f2 9bbd f179 8ebd d7c4 00bd
00000300: ce09 213d c2de 7dbd 051a 6abc c6c1 b2bd
00000310: 927f 4bbc 9610 863d e745 f03d f5b8 523d
00000320: 3da2 6bbc ec45 9ebd bb0e 8b3d 9a02 82bc
00000330: 5510 563d 806e 8fbd 6226 0e3c 4ba5 b73d
00000340: 3bbd d3ba 6f8d 9cbd 1912 033d e51b 64bc
00000350: f106 133d b621 6b3d 191b 61bd ce38 7c3d
00000360: 6cf4 e3bc 99c3 88bd 28fb 31bd 0a0c a3bd
00000370: 18d0 fcbc f535 bfbd 5798 57bd fc35 06be
00000380: a371 a03d dc68 6ebb 0ae4 983c e3fd de3c
00000390: e375 febd a091 20bd 17e3 ddb9 d6bd 39bd
000003a0: 0af2 bc3d 9d1d fabc 98e4 d3bd 9b87 d5bd
000003b0: 9e25 05bd de8a 053d b8ad 76bd 42f6 3cbd
000003c0: 2e4f fbbd 9d72 983d 1abf 35bd 1baa 69bd
000003d0: 0ce1 5bbd 4bf4 9c3c 4b5b 5ebc d4ae 23bc
000003e0: 7b7f 833d 6bea 33bd b005 22bd a487 673d
000003f0: 2667 b63d afc8 9dbd 9adb 693d b3f7 623d
-0.028942147 -0.026337385 -0.027585685 -0.036272876 0.0017159967 -0.032376364 0.0013904283 -0.015914228
0.015001774 -0.023955997 -0.004882132 -0.0027312753 -0.027117224 0.020670269 0.024677387 -0.0031739536
-0.010251328 0.02726265 -0.02172131 -0.039283276 0.004591851 0.024323292 -0.0435751 0.037710164
-0.0092640845 -0.0033457659 0.0053910045 -0.02753868 -0.010837703 -0.011910646 0.0191155 -0.059519414
-0.01946154 -0.008820264 0.006544462 -0.004886985 -0.012744704 0.0033959104 0.011183878 0.020419197
-0.052798476 -0.027458483 -0.012229206 0.039233826 0.01913825 0.033432625 -0.018736532 -0.0035279787
0.046968747 -0.036657944 -0.04984147 -0.0019970199 -0.027910229 -0.0125757065 0.0019744167 0.0030152004
-0.024448775 0.010153459 -0.008140381 0.003164222 0.02519847 0.017565526 0.047867578 -0.07323813
-0.0016193761 0.017741876 -0.015288529 -0.03012717 -0.011181151 0.013451127 -0.007144931 0.0006502399
-0.022024902 -0.03315249 0.009542608 -0.0074863452 -0.013507489 0.008703318 0.0030492614 -0.009417985
-0.0053109615 0.017522335 -0.022794291 -0.025860049 -0.010673904 -0.013667502 -0.04766847 -0.0010624556
0.0056039523 0.022928813 0.012175047 0.021652298 -0.023930773 -0.025004273 -0.043399945 -0.017743591
0.008730943 -0.011866621 -0.011763699 -0.032523476 0.004293424 0.03082159 -0.012168782 -0.024213612
-0.025135309 -0.05055266 -0.03360444 0.039247233 0.007738068 0.00888636 -0.012828739 -0.046647366
-0.018904345 -0.042754978 -0.013334661 0.007619395 0.008519981 -0.0013532444 -0.044932663 -0.007609107
-0.013325397 0.009740101 0.032443773 -0.04260003 -0.0022074431 0.001449526 0.006942373 -0.0007740191
-0.02573581 -0.03206322 0.032291625 -0.115799636 0.062889606 -0.048816267 -0.10781422 0.009560833
-0.03225248 -0.08929941 -0.018773086 0.041869916 -0.062362526 -0.023925064 -0.061463084 0.0789053
-0.031280212 0.023901034 -0.02392768 -0.0010396417 -0.035461225 -0.014946638 0.07535017 0.017066594
0.009119418 -0.05200769 0.07772393 0.046545997 0.07114049 0.03421533 0.030053461 -0.031151105
0.1103472 -0.06516013 -0.037716437 -0.069981694 0.05561958 -0.029069828 -0.07921179 0.06161768
-0.064660124 -0.08572581 -0.02235741 -0.0848528 -0.083677895 -0.031250697 -0.029267048 0.062442627
-0.07630006 0.060082316 0.06997653 0.08860144 -0.054728422 0.039932333 -0.08698192 0.031649824
0.026633397 -0.05707094 -0.017760297 -0.042636395 -0.06866575 -0.07614519 -0.06956852 -0.03143772
0.03931599 -0.061980017 -0.01428843 -0.087283656 -0.012420552 0.06546132 0.11732083 0.05144592
-0.014381942 -0.0772818 0.06789919 -0.015870381 0.05226167 -0.07003498 0.008676143 0.08967074
-0.0016154418 -0.07644164 0.03199968 -0.013922666 0.03589529 0.057405196 -0.054957483 0.06157761
-0.02782651 -0.06677932 -0.043452412 -0.07961281 -0.030860946 -0.09336463 -0.052635517 -0.13106531
0.078341745 -0.003637842 0.018663425 0.027220672 -0.12424829 -0.03920138 -0.000423216 -0.045347057
0.09225853 -0.030531699 -0.10346335 -0.10426255 -0.032506578 0.032603137 -0.060224265 -0.046133287
-0.12270962 0.07443736 -0.0443717 -0.05704699 -0.05368142 0.019159457 -0.013571571 -0.009990413
0.06420799 -0.04392473 -0.039556205 0.05652584 0.08906393 -0.07704293 0.057094194 0.055412006

action_model._discrete_distribution.branches.0.bias f4 [5]
00000000: c06d d8bc 6928 1a3d a288 0abd 9f3c 373c
00000010: b8f3 23b9
-0.02641952 0.037636194 -0.03382171 0.011183887 -0.00015635684

critic.network_body.linear_encoder.seq_layers.0.weight f4 [128, 107]
00000000: 9e82 e0bd 8756 a2be cef1 de3c 010f 8dbe
00000010: d984 03be 501a 38be c0b2 c6bd 4257 a9be
00000020: cc69 acbb cc08 94bd 7647 c73d a846 60be
00000030: c33d dbbc 6cc4 26bd 8e02 8abd a2be 11be
00000040: f270 5dbe 3657 bfbd 0941 bebd b3f7 02be
00000050: 577a 2e3e 8093 b53d 7e1b d43c a6bc 0bbe
00000060: 587c 0abe ddd9 86be 7176 1bbe bc8c f7bd
00000070: 44e6 133d 73b4 803d 5f97 b93c 3802 1abd
00000080: ee7a 2bbe 2aff cbbd 8ce3 8bb9 58e2 9fbd
00000090: 5a69 6fbd 2bf0 3dbe 1c36 49be 9588 26be
000000a0: f5f0 4dbe 7346 7bbe 82e7 7e3e 6f39 c6bc
000000b0: 64da 17be 4a4f 14be ebdc 21bc 6963 91be
000000c0: b4a2 f5ba c32c 87be a935 13bc ea47 a83a
000000d0: 0f79 0b3b b8a9 e53d c3a2 b9bd 6972 3abe
000000e0: f44c d13b 0747 50be faeb 653e b305 babe
000000f0: bdf2 c5bc 961d 31be 959d 97bd 5885 1abc
00000100: 7c98 acbd f3e0 c2bd 2d8b 6bbd 5224 a0bc
00000110: edbe a93c a1d8 a6bd c713 153e 3dda 04be
00000120: ef8c d93c e74a 83bc 9e70 9a3d e2d7 80be
00000130: e5fe 4dbe 5bb1 75be 2c64 593e e6ee 5fbd
00000140: 96ec 823d 9f7d 353c 81cb 0fbc 7042 06be
00000150: 1173 63bd 1302 14be b6ed aabb 8bc6 b13d
00000160: 736a c6bd 11e4 0a3c 889d ec3c 3c32 09bb
00000170: 0b75 c83b 031a 39bd d712 a03d ee93 24bd
00000180: ec21 dfbd 75d1 5f3d d68e cd3d 03fc 593d
00000190: e3c5 a9bd 8fd6 ebbc 7598 c43d c925 e9bd
000001a0: 557a 8a3d 2825 dc3d 8187 11be 3f48 45bc
000001b0: 8cab dabc f559 1fbe b3a1 113e c04c 31bd
000001c0: 17cc 2fbe 0a90 0c3c 6115 a2bc 5dd8 b8bd
000001d0: ae4a b6be 4b2d ddbb edcb b6bc e987 10be
000001e0: d13d 3cbe 63ec 693d 5cf2 18bd a417 073d
000001f0: 7481 2a3a bf5a 0fbd 009c 2fbd 1305 c0bd
00000200: 8ce3 6ebe 3f71 d33d 012e ec3d 2c7f 2abd
00000210: f192 17be f165 53bd 388b 80be cabf 523e
00000220: b47b cabd d670 7ebd 63a3 14bd 7300 9a3d
00000230: e5ea b6bc 0261 f63c c749 88bc 6ac4 b6bc
00000240: 862d 84be 44c7 873d 88d4 ce3d 0347 073d
00000250: 1bf6 033e 3ef7 743d 4ce3 bc3c 55b9 3ebe
00000260: b469 56be 38e3 f73c b3b0 7cbc 7097 7c3d
00000270: b924 babd 2b0d 04be f702 f5bd 2544 98bd
00000280: 3279 59be 994c 01be 58f4 42be 75cf 31be
00000290: 8137 e1bd 4ea4 113e 62d0 44bd d435 3e3e
000002a0: a9f3 c7be fc77 d8bd 4ba7 04be 1852 2dbe
000002b0: 692d cdbe cd92 97bd 9b56 c83b 3a0d 0d3d
000002c0: 5d4b 66be b209 ae3c c349 2dbe d7aa 2dbd
000002d0: c5e3 7dbe 4dd5 e4bd 5167 bdbc fb65 7a3e
000002e0: 1743 53be c061 c83d 4f19 c0bd 158f fcbd
000002f0: a303 a4be ea9e 95bc 8dcf b03d 4686 b93d
00000300: 9fe4 52be da5f d83c f18e 043d e609 e4bd
00000310: 0951 89be eee3 bc3d 8dd4 cc3c b1b3 d9bd
00000320: 2fec 20bd 2228 34be 7a69 a6be 2e7d c5bd
00000330: 80de 07be 2007 c73b 1982 54bd a98e 9c3d
00000340: e1d2 22be 7cdf 9bbd cb19 fc3c a9a5 ddbd
00000350: 3ec9 623d fbdc 20bd 6299 c83d 4f1f e1be
00000360: 2000 00be 7706 41be 76ec 193e efc2 11bc
00000370: 3766 1ebe 1488 8dbe 5931 8b3e d8fe eb3c
00000380: 9975 babd ef41 e93c 5c7c 18bd 649c 74be
00000390: 52b1 05bc 4667 2a3e 87fd 9b3e b04e 753c
000003a0: 87b3 dbbc cdab edbb 6c20 10be 14ae 04be
000003b0: ce3a 89bd a839 95be 7651 943e abf5 e5bd
000003c0: 700b adbd 88f6 b8bc 61db 223c c173 22be
000003d0: b9f6 bf3c 5a0f 733d 5b37 1bbe 5469 9d3d
000003e0: 3206 ddbd ab74 d03d 7727 023e 6eb0 233c
000003f0: 6eb6 973c 481b 2dbe ecd8 67bc 48da 37bd
-0.10962413 -0.3170664 0.02721491 -0.2755051 -0.12843646 -0.17978787 -0.097020626 -0.33074385
-0.0052616354 -0.0722824 0.09730427 -0.21901953 -0.026762849 -0.040714666 -0.067387685 -0.14232877
-0.21625116 -0.09342806 -0.09289748 -0.12789802 0.17038856 0.08866024 0.025892016 -0.13646182
-0.13523996 -0.26338091 -0.151819 -0.1208739 0.03610827 0.06284418 0.022655187 -0.037599772
-0.16746113 -0.09960778 -0.00026681682 -0.078068435 -0.05845008 -0.18548648 -0.19649547 -0.1626304
-0.20111449 -0.24538593 0.24893 -0.024197308 -0.14829403 -0.14483371 -0.009879331 -0.28396156
-0.0018740506 -0.26401338 -0.008984962 0.0012838815 0.0021281873 0.11214012 -0.090642475 -0.18207707
0.0063873474 -0.20339595 0.22453299 -0.36332473 -0.024163598 -0.17296442 -0.07403103 -0.009431206
-0.084275216 -0.09515562 -0.057505775 -0.019548569 0.020720923 -0.081467874 0.14558326 -0.12973876
0.02655646 -0.016026927 0.07541011 -0.25164706 -0.20116766 -0.23993437 0.21229619 -0.05467119
0.063927814 0.011077314 -0.008776546 -0.13111281 -0.055529658 -0.14453916 -0.0052163256 0.08680447
-0.09688272 0.008477227 0.02888371 -0.0020934483 0.0061174682 -0.045190822 0.078160934 -0.04018014
-0.10895142 0.054643113 0.100370094 0.053218853 -0.08289697 -0.028788833 0.09599391 -0.1138416
0.06761614 0.107492745 -0.14211847 -0.012041151 -0.026693128 -0.1556166 0.1422184 -0.043286085
-0.17167698 0.008579263 -0.019785585 -0.09025643 -0.3560385 -0.006749784 -0.022314036 -0.14114346
-0.18382956 0.0571102 -0.037340507 0.03298153 0.00065042754 -0.03499865 -0.042873383 -0.09375968
-0.2332899 0.10324334 0.11532212 -0.041625187 -0.14802147 -0.05161089 -0.25106215 0.20580974
-0.09886876 -0.062119327 -0.03628863 0.07519617 -0.022328803 0.030075554 -0.016636742 -0.022310454
-0.25815982 0.06629804 0.10099131 0.033026706 0.1288685 0.0598061 0.023057602 -0.18625386
-0.2093876 0.030259714 -0.015422988 0.06166786 -0.090890355 -0.12895648 -0.11963456 -0.074348725
-0.21237639 -0.12626876 -0.19038522 -0.17364295 -0.10996915 0.14222834 -0.04805029 0.18575221
-0.39053085 -0.1056976 -0.12954442 -0.16925848 -0.40073708 -0.07401047 0.00611384 0.034436442
-0.22489686 0.021244857 -0.16922669 -0.042399254 -0.24793918 -0.111734964 -0.023120554 0.24452965
-0.20631061 0.09784269 -0.09379827 -0.12331978 -0.32034025 -0.018264253 0.08633337 0.09058814
-0.20595025 0.026412893 0.032362882 -0.111347005 -0.26819637 0.09223162 0.025003696 -0.106299765
-0.039287742 -0.17593434 -0.32502347 -0.09643017 -0.13268471 0.0060738474 -0.051881883 0.07644398
-0.15900756 -0.07610986 0.030774018 -0.10822613 0.0553677 -0.039273243 0.097948804 -0.439692
-0.12500048 -0.18850122 0.15031609 -0.008896573 -0.1546868 -0.27642882 0.27186087 0.028808042
-0.09104461 0.028473822 -0.037227973 -0.23887783 -0.008159952 0.16640958 0.30466864 0.014972374
-0.026819004 -0.0072531463 -0.14074868 -0.1295703 -0.06700669 -0.2914555 0.289684 -0.11228498
-0.08449447 -0.022578493 0.009939999 -0.15864469 0.023433076 0.059340812 -0.15157835 0.07686105
-0.10792197 0.10178503 0.12710367 0.009990795 0.018519606 -0.16904938 -0.014150839 -0.044885904

critic.network_body.linear_encoder.seq_layers.0.bias f4 [128]
00000000: 7680 b9bd b09a c8bd 9588 ac3d c7ae 8b3e
00000010: 1aea 123e 4817 873e 314b 713e 8d2d 4e3e
00000020: 4637 f0bc 8422 18be 07e9 343e d241 153e
00000030: f250 0bbe 4559 b9bd 74b7 0f3e b357 483e
00000040: a60f 1e3e 3f71 98bd e8dd f8bd ae30 cbbd
00000050: 3395 8b3d d98c 873e 91bf c3bd be08 01be
00000060: 8cc8 c2bd fab5 823e 2c40 fb3d ef20 abbd
00000070: 28bb 40be 518a 923e 79fc 903e c4ff a43d
00000080: 56df 4c3e e02e 2e3e 397e 463e 6652 083e
00000090: 7229 31be ce09 793e c056 00bd f38d 2abe
000000a0: 4090 1f3e 0e26 e0bd 0181 cabd 3b60 80bd
000000b0: c6a9 a1bd 5c61 25be 4a4c 0d3e 09b2 f6bd
000000c0: 571e 00bd f3d1 823e 2662 63bd b2c7 78bd
000000d0: 5851 5c3e bcf3 75bc f79e 183e a9ff 5abe
000000e0: 0c71 183e a401 ab3d 66f3 043e b97c 783e
000000f0: 9faf 513e aa9d 123e 2345 31be 7799 a7bd
00000100: 555f 843e 6e35 0abe c8ee 6e3e c21e 793e
00000110: e94f 173e db88 00bc 5347 5bbe 5abd a5bc
00000120: 59f5 b8bd 17b8 723e ac7f 213e 44f7 7dbd
00000130: fbea 0cbe 772d 9cbd 08b7 093e bc56 1a3e
00000140: 37b1 303e 05de 6d3e 5cf2 97bd 66f2 01be
00000150: 6c16 fdbd 9375 0b3c 6f73 c3bc 869c 1d3e
00000160: d2b8 bbbd 1390 0ebe 428d 073e 0163 dc3b
00000170: 3349 99bd b577 a63e 8f6c 2c3e 4ce0 c0bd
00000180: e0d5 a8bd e46b 273e 9ccb 26be be1d ddbd
00000190: 70fa b4bd 62a0 1abe 62d5 423e e0d9 fbbd
000001a0: 2c43 efbd b54c 06be 5d06 6bbd 3031 d5bd
000001b0: 9de0 cabd 0fb2 8cbc bc35 89bd 4002 35be
000001c0: 2b98 0e3e 7d85 f6bd 1726 0cbd 6c4e 143e
000001d0: 5c26 b8bd 7f90 173e 0575 383e a070 4cbd
000001e0: 0bf4 c7bc f768 1bbe 88a0 493e e750 253e
000001f0: 5baa a23e 4707 00be 7455 22be b9f0 213d
-0.09057705 -0.09795129 0.084244885 0.27281782 0.14347115 0.2638495 0.2356384 0.20134564
-0.029323231 -0.14856917 0.17667018 0.1457589 -0.13605097 -0.0905023 0.14034826 0.19564705
0.15435657 -0.07443475 -0.121517 -0.09921394 0.06815567 0.26474646 -0.09558023 -0.12600991
-0.095109075 0.25529462 0.12268099 -0.08355891 -0.18821394 0.28621152 0.2831762 0.08056596
0.20007071 0.17010069 0.19384088 0.13312683 -0.17300966 0.24320146 -0.03133273 -0.16655712
0.15582371 -0.10944758 -0.09887887 -0.062683545 -0.0789371 -0.16150421 0.13798633 -0.12045676
-0.031278934 0.25550804 -0.055513524 -0.06073732 0.21515405 -0.015011724 0.1490439 -0.21386589
0.14886874 0.08349922 0.12983474 0.24266328 0.2047715 0.14317957 -0.1731153 -0.08183568
0.25853983 -0.13496944 0.23333275 0.2432814 0.14776577 -0.007845129 -0.21413927 -0.020231891
-0.09031171 0.23703037 0.15771359 -0.06200339 -0.13761513 -0.07625859 0.13448727 0.15072149
0.17255102 0.23229225 -0.07419273 -0.12690124 -0.12357792 0.008511919 -0.023858754 0.1539174
-0.09166111 -0.13922147 0.1323748 0.0067256694 -0.07484665 0.32513204 0.16838287 -0.09417781
-0.082439184 0.16349751 -0.16288608 -0.107966885 -0.0883683 -0.15100244 0.19026712 -0.12297416
-0.11682734 -0.13115199 -0.057379115 -0.104097724 -0.09906123 -0.017174749 -0.06699702 -0.1767664
0.13925235 -0.120371796 -0.034216013 0.1448304 -0.089916915 0.14801215 0.1801339 -0.049912095
-0.024408361 -0.1517676 0.19690144 0.16144143 0.31770596 -0.12502776 -0.1585291 0.03953621

critic.network_body.linear_encoder.seq_layers.2.weight f4 [128, 128]
00000000: 251d 2abe 30b8 8ebe 516f bc3d bf2d 123e
00000010: 466b 393e 322e 1e3d 98be 093e 4f93 e23d
00000020: dd5a 3fbd 7912 acbe da48 c7bc 4747 113e
00000030: 76f9 02be 1f4b 1abe 0435 463e d65a 753e
00000040: e8c9 213e 5d5f 2fbe b44b 83be 677d 95bd
00000050: 831f 98bc 1d53 e6bc 8fb9 88bc 162c fcbd
00000060: f837 57be 0267 983d 1e5d 8d3e 65a0 22be
00000070: a50d 1cbe f1b8 a0bd e35f 0b3d b9a6 03bd
00000080: fd31 63bd 62d9 153e 35dd 2f3d e219 083d
00000090: ab12 89be 9699 4cbd d4fb 8bbe 693d c7be
000000a0: e3f6 2f3d 70ec 9c3c 9773 463b a92c 04be
000000b0: 6bd9 d7bd da20 dabd f69a 25bd aab2 24bd
000000c0: f8cd b1bd 8679 f43d 2027 dfbd a89d c2be
000000d0: 6aa6 b73d dd85 8abd 187e 1abe b15d a2bd
000000e0: abf1 04bd 45f8 c4bc b9bd 2b3d f3c0 2d3d
000000f0: d69b 153e be89 5d3e fbfa 94bd 1e12 733c
00000100: caed 253e 5dab 43bd 30f8 59bd f8b9 483e
00000110: 6931 803d b913 27bc 747e c5bd 24ef 183d
00000120: 9976 f8bc f43a 423e 1e99 a7bc af28 26be
00000130: 0246 2cbe 7f45 2dbe 43da fb3d d174 043e
00000140: 4378 d9bd 6a9d 043e 4a3c 45be a2be ba3d
00000150: ed6d 7e3d be7c 64bd b8d7 e3bd 0106 a23d
00000160: a3fb 81be 5afe 1dbd 4a6f 383d 5b5d 8b3b
00000170: 1cfe 33be 5363 213e 4a5e bd3d 1c74 cebd
00000180: 3b4c 9abd 75e9 a7bc 8129 6dbd cbd6 63bd
00000190: f52d b1bd 5891 edbd 51c1 f83c 8f74 49bc
000001a0: 597e 1dbb ae8a 7cbe fa99 c2be 59a0 9cbe
000001b0: fdab 5cbe cf94 5d3d 8482 55be 967b 813c
000001c0: ee37 183e 87d0 63bd 06e1 08be f3f1 b23a
000001d0: 774b 27be 55b8 acbd a701 a5bd c9a2 5abd
000001e0: 8255 56bd 29a5 18bd 3a04 1f3d 72bb 133e
000001f0: aa0f a73e 5245 70be 4619 79be 79c8 45bd
00000200: 1218 29bd bd9f 173e 560c 173c aca2 89bd
00000210: 8775 3cbe a825 973c d4c8 2abd ee2e c7bd
00000220: cdd9 8a3e 8c34 893e 396f 923c 03e6 d3bc
00000230: d3c1 673d 051a 983d 8227 d3bd 8b5d fcbd
00000240: b031 063d a1b9 1f3e 0d5d 80bd 6833 a03d
00000250: f938 97bc f051 42bd 0d85 fcbc 3cb0 75bd
00000260: ba68 03bd f327 5d3c 8ca7 9cbd 7f2e 3cbb
00000270: b261 14be ce0e 19be cafd 37bd ca5e 443d
00000280: edc5 01bd ba12 653c 606a d4bd 92b2 f33c
00000290: 93a0 303d 70e9 f4bb 0b2f 13bd fc92 47be
000002a0: b599 b0bb dff2 2abe 2dce e4bd 7d4e 703d
000002b0: ad30 cc39 1b7a 463d eb08 c4bc bfd3 fd3c
000002c0: b116 43be 633a 3b3d 33da ba3d a337 c53d
000002d0: b2b8 363e c071 05bd e439 1bbe f04c a5bd
000002e0: 530e a3bd 6bd6 83bd ae2b 94bd d8a9 903d
000002f0: 5e86 6dbe bac0 b9bc 5703 09be 0c5e 143e
00000300: 5a81 bc3d ecdf dcbc 75af 5fbc 610c c3bc
00000310: ad03 ec3c 034f 363e d394 41bc dc90 ed3d
00000320: 3c4e 26bc 9261 aebd 482f 993d 71da 343e
00000330: 8748 623c 2f37 263e 2597 bbbd ee83 56be
00000340: 869d a4bc 0b1b c0bd c1c5 393e e362 78bd
00000350: 75d8 bc3c 4d35 003d a977 1bbe d8c2 0abd
00000360: 8519 243e 1245 30be 4b63 b23d f720 45be
00000370: 4ab8 f4ba 7e1e 713d f269 18be d78a 5bbe
00000380: b6d8 643d 4eef f13d 22a3 84be eb56 19bd
00000390: 6c7d d13d cb40 6cbd 89dc e3bd 2024 f0bd
000003a0: e1aa c5bd 1a80 b43b 5cb2 75be a0bf 14be
000003b0: 2949 c4bc 5e39 b03e c280 9bbd bc12 99bd
000003c0: 2db4 d53d dcd3 2bbe 6d8f b23d 3674 d83c
000003d0: 6d86 c03d 8899 7c3d 492f 9abe 49d9 afbd
000003e0: 8efd 91bd 8937 7abd bdd1 8c3d 73ad e63c
000003f0: b16e fe3d 47be 3cbd 8921 eebc 4d02 8e3d
-0.1661268 -0.278749 0.092009194 0.14275263 0.18107328 0.038618274 0.13451612 0.11063253
-0.046717513 -0.33607844 -0.02432673 0.14187346 -0.12790474 -0.15067719 0.19356161 0.23960432
0.15799677 -0.17126222 -0.25643694 -0.07299309 -0.018569713 -0.028115803 -0.016690044 -0.12313096
-0.21017444 0.07441522 0.27610105 -0.15881498 -0.1523958 -0.07847775 0.03402699 -0.03214142
-0.055467594 0.14633706 0.04293557 0.03322781 -0.26772055 -0.04995116 -0.27340567 -0.3891404
0.04296006 0.019155711 0.00302813 -0.12907661 -0.10539516 -0.10650797 -0.040430985 -0.04020945
-0.086818635 0.11937241 -0.108961344 -0.38010907 0.08967288 -0.06763814 -0.15087163 -0.079280265
-0.032457035 -0.024044165 0.04192898 0.04242034 0.14610228 0.21634576 -0.07274433 0.014835862
0.1620399 -0.047770847 -0.053215206 0.19602191 0.06259424 -0.010197573 -0.0964326 0.037337437
-0.03032999 0.18967801 -0.020458754 -0.16226457 -0.16823581 -0.16921042 0.122974895 0.12935187
-0.10618641 0.12950674 -0.1926128 0.091183916 0.062116552 -0.055783026 -0.111251295 0.079113014
-0.25387296 -0.038572647 0.04502801 0.004253072 -0.17577404 0.15760545 0.092465 -0.1008074
-0.07534071 -0.020497063 -0.05790091 -0.055624764 -0.08651344 -0.11599988 0.030365618 -0.012295856
-0.0024031608 -0.24662277 -0.380081 -0.30591086 -0.21549983 0.054096993 -0.20850569 0.015806
0.14865085 -0.05561879 -0.1336709 0.0013652429 -0.16337381 -0.08433596 -0.08056956 -0.0533779
-0.05232764 -0.037266884 0.03882239 0.14426973 0.32629138 -0.23463944 -0.24326047 -0.04828689
-0.04128272 0.14807029 0.00921925 -0.0672048 -0.18404208 0.018450573 -0.04169543 -0.09725748
0.27119294 0.26797903 0.0178753 -0.025866514 0.05658133 0.07426838 -0.1031027 -0.123225294
0.03276223 0.15598156 -0.06267748 0.07822305 -0.018459784 -0.047441423 -0.030825162 -0.059982523
-0.032082297 0.013498294 -0.076491445 -0.0028714237 -0.14490393 -0.14947054 -0.044919766 0.04794196
-0.031682897 0.013981516 -0.10371852 0.029748235 0.043121886 -0.007474117 -0.035933536 -0.19489664
-0.005389417 -0.1669421 -0.111721374 0.058668602 0.00038946178 0.048456293 -0.023930034 0.030984757
-0.19051625 0.04570998 0.091236494 0.096297525 0.17843893 -0.032579184 -0.15158802 -0.08071315
-0.079617165 -0.06437381 -0.07234894 0.07063645 -0.23195788 -0.022674907 -0.1338018 0.14489001
0.09204359 -0.026962243 -0.013652672 -0.023809614 0.028810346 0.17803578 -0.011815268 0.11599895
-0.0101504885 -0.08514704 0.07479721 0.17661454 0.013811237 0.16231988 -0.09159688 -0.20948765
-0.020094644 -0.09380158 0.18141843 -0.06064118 0.023052434 0.03130083 -0.15182365 -0.033877224
0.1602536 -0.17213848 0.08710345 -0.19250856 -0.0018670645 0.05886697 -0.14884165 -0.21439682
0.055870734 0.11813222 -0.2590571 -0.037436407 0.102290004 -0.05767898 -0.11126048 -0.1172564
-0.09651733 0.005508435 -0.2399382 -0.14526224 -0.023960667 0.34418768 -0.07592918 -0.074742764
0.104347564 -0.16780037 0.087187625 0.026422601 0.0940064 0.061669856 -0.301142 -0.08586366
-0.0712844 -0.06108812 0.06875942 0.028158879 0.124234565 -0.0460799 -0.029068725 0.069340326

critic.network_body.linear_encoder.seq_layers.2.bias f4 [128]
00000000: 2758 453e 0ffc 043d 422d 573c 08c8 473e
00000010: 7120 343d c36b 483e 5acb 1bbd e98f 7a3c
00000020: 6926 1b3d a663 5a3e aadc 76bc 0032 473e
00000030: f5ea 423e e7d7 72bd a28d 1b3e 5056 4dbd
00000040: 9d37 b4bc ff41 be3c cfbc 8b3d 7808 d5bc
00000050: 8a81 213d 20ce 20bd 3d8a edbc c4a1 62bd
00000060: fddf 533d e713 533e 1aac 57bc 2148 2f3e
00000070: 037d 2fbc 88cc 313e 49fd 203e 9679 793e
00000080: 3b7a 6b3e 5a09 fbbc 37f0 3a3e 35e8 3cbd
00000090: 5e1e 4b3e e024 433e 0829 683e de26 4f3e
000000a0: 7fce c7bc 3a0a d6bb 2fb5 e8bc 948d 67bc
000000b0: 4305 1dbd 1e8a 7bbc 4d32 a83c c6f0 56bc
000000c0: 99fd a1bd e7d4 4d3e d569 693e 1104 523e
000000d0: a706 4a3e a2b6 9fbd 332e 133c a18d 373e
000000e0: d9e6 8abd aaeb d9bc c2da 0e3e 1d05 853b
000000f0: c076 e6bc 0f13 383d 5d75 3d3e aa70 433e
00000100: a407 95bd 3a90 7e3e 69cb 223d 04ea 1a3d
00000110: e8e3 e93c ea42 9d3e fda0 773e 6d79 b33d
00000120: 0fdb 703e ee24 6b3d 4994 4c3e 2bb1 1d3e
00000130: 4a4d 063e 3f6c 6f3e 2780 afbc 59e9 4dbd
00000140: 2886 423e 157c 523e 51f9 353e b186 413e
00000150: c6ff 4a3e 5be8 cd3c 2eb8 403e 6791 4cbd
00000160: 7d74 0f3d 12c6 363e e4f6 df3c 3caf 653e
00000170: fde3 3e3e c34c 90bb a72b 023e 412d 493e
00000180: 7c01 11bd 23c6 113e 8a21 803e eaf4 97bd
00000190: 41a2 103e 85e8 643e 4131 183e e2eb 3f3d
000001a0: d034 20bd d094 853d b7f7 eebc 16b3 26bd
000001b0: cecd 4b3e 382e 263e a466 213e 57bc d0bc
000001c0: 896c a23e 6611 e2bc 31b6 59bd 6d8b 3b3d
000001d0: 6d5b 553e a176 6a3c 5e8f 583e 7715 573e
000001e0: 6304 513e 1226 5a3e e25f 093e 4ec5 d33d
000001f0: ca75 563e ecf8 ba3c c990 58ba d883 11ba
0.19271909 0.032466944 0.013133349 0.195099 0.04397625 0.19572358 -0.038035728 0.0152931
0.037878428 0.21327075 -0.015067259 0.19452667 0.19034941 -0.05928793 0.15190747 -0.050131142
-0.021999175 0.023224829 0.06823122 -0.026005015 0.03943018 -0.039259076 -0.028996581 -0.055330053
0.051727284 0.20613061 -0.013163591 0.17117359 -0.010710957 0.17363179 0.1572162 0.24362788
0.22995846 -0.030644108 0.18255697 -0.046119887 0.19835803 0.19057035 0.22671902 0.2022967
-0.024390457 -0.006531981 -0.028406708 -0.014132876 -0.038335096 -0.015352754 0.020531798 -0.013118928
-0.07909698 0.20100747 0.22794278 0.20509364 0.197291 -0.07798506 0.008983183 0.17925121
-0.06782312 -0.026601631 0.13950637 0.0040594474 -0.028132796 0.04494005 0.18501802 0.19085947
-0.07276848 0.24859706 0.03974477 0.03782083 0.028551057 0.30715114 0.24182506 0.087633945
0.23521064 0.057408266 0.19978441 0.15399615 0.13115421 0.23381136 -0.021423412 -0.050271366
0.18996489 0.20555146 0.17770888 0.18899037 0.19824132 0.02513521 0.18820259 -0.049943354
0.0350232 0.17848995 0.027339406 0.22430128 0.18641658 -0.004403682 0.12711965 0.19646169
-0.035401806 0.1423574 0.25025588 -0.074197605 0.14124395 0.22354324 0.14862539 0.046855815
-0.039112866 0.06522524 -0.029170854 -0.040698133 0.19902727 0.16228569 0.1576181 -0.025480432
0.3172343 -0.027596187 -0.053152267 0.045787264 0.20835657 0.01431051 0.2114844 0.21004282
0.2041183 0.21303585 0.13415483 0.10340367 0.2094337 0.022823773 -0.0008261321 -0.0005550957

critic.value_heads.value_heads.extrinsic.weight f4 [1, 128]
00000000: 0d3a ff3d 5c97 8ebe 2923 a3be 7fa6 ac3d
00000010: d9a9 aabe ecee 8f3e 478a 8bbe f4ef 76be
00000020: 26cc 8d3e a75c af3e 5ddb a0be 5cce 813e
00000030: 7970 a43e c65e 95be 7123 2f3e bc6f 8ebe
00000040: cbd9 a0be f36f 8fbe 203b 0abf 5e05 093e
00000050: 0670 7ebe 5149 40be fb5f 67be e258 54be
00000060: 35f7 05bf 1140 943e 5946 37be 4cf3 843e
00000070: 77e4 aabe d27a 973e 775b ad3e 25cb 783e
00000080: 8ae9 9b3e 5d55 80be 4b97 503e f6ce 80be
00000090: cfb0 913e 3212 3b3e d39f 7e3e e3b8 5a3e
000000a0: f0ef 2ebe d810 91be e3de a0be 8bb2 94be
000000b0: dd89 9cbe a78f c9be 47d9 0bbf 1c29 a8be
000000c0: ee63 afbe 8014 813e d522 373e 0169 583e
000000d0: 7134 133e 266e 46be 8203 90be dd01 033e
000000e0: 98ee 8abe 7c5a 69be 4fa4 633e 4ab8 92be
000000f0: 3c51 143e a259 96be 782e 073e 2373 983e
00000100: 3b8e 5bbe 0ba5 3b3e a457 3f3e e8d1 e0be
00000110: 6554 d3be 43ed 513e f66d 5b3e 0776 adbe
00000120: 72bb 9d3e eea3 cebe 8eaa 853e 0b69 693e
00000130: 6194 0d3e bdac 3f3e 9b6e 9ebe 5800 afbe
00000140: 810c 403e f158 383e 490b fc3d 5cb9 823e
00000150: 27d2 853e 72d5 9e3e 1fb3 8e3e 06a5 8fbe
00000160: 9bb5 f0be 85bd 8c3e 6855 d2be 1aee 963e
00000170: f61d 633e ebd3 93be 5663 543e 85a2 473e
00000180: 45fe 1fbe 22e0 323e 3f04 5e3e bda1 11be
00000190: 6ab7 2b3e a24b 9a3e 1128 423e 9d76 1abf
000001a0: e5d2 97be a5dd 06bf cee2 62be a2c4 bcbe
000001b0: 7fb3 593e 5817 6a3e 2908 373e 1e23 89be
000001c0: a2bd 2d3e 2e01 80be ed63 1dbe 3ed1 e0be
000001d0: c5fa 8d3e 04ab 6d3e 9182 073e 2a4e 063e
000001e0: afc3 6e3e 8244 3c3e f78a b13e 2cd5 4b3e
000001f0: 7367 473e 2c03 36be d164 b9be fb18 8fbe
0.12462244 -0.27849853 -0.31862763 0.08430194 -0.33332708 0.2811197 -0.27253935 -0.24114972
0.27694815 0.34250376 -0.3141736 0.25352752 0.3211706 -0.2917387 0.17103364 -0.27819622
-0.31416163 -0.28015098 -0.5399647 0.13380954 -0.24847421 -0.18777968 -0.22595207 -0.20737031
-0.52330333 0.2895513 -0.17897929 0.2596687 -0.3337743 0.29585892 0.33858845 0.24296243
0.30451614 -0.25065127 0.20370214 -0.251579 0.28455207 0.1826866 0.24865656 0.21359591
-0.17083716 -0.28333163 -0.3142005 -0.29042467 -0.3057393 -0.3936741 -0.54628414 -0.32843864
-0.34255928 0.25210953 0.17884381 0.21133806 0.14375474 -0.19377956 -0.28127676 0.1279368
-0.27135158 -0.22788423 0.22230648 -0.28656226 0.14484113 -0.2936526 0.1320132 0.29775342
-0.21440975 0.18324678 0.18685776 -0.43910146 -0.41275325 0.20500664 0.21428666 -0.3387911
0.30807072 -0.40359443 0.26106685 0.22793977 0.13826133 0.18718238 -0.3094376 -0.3417995
0.1875477 0.18002678 0.1230684 0.25532043 0.26136896 0.3102222 0.27871034 -0.2805559
-0.47013554 0.27488342 -0.41080785 0.29478532 0.22179398 -0.28872618 0.20741019 0.1949559
-0.1562434 0.17468312 0.21681307 -0.14221855 0.16769186 0.30135828 0.18960597 -0.6033724
-0.29653087 -0.5268195 -0.22156832 -0.3686877 0.21259879 0.22860467 0.17874207 -0.26784605
0.1696687 -0.250009 -0.1537015 -0.4390964 0.27730384 0.23209769 0.13233401 0.13115755
0.23316835 0.18385509 0.34676334 0.19905537 0.19473056 -0.17774647 -0.3620973 -0.27948746
