results/BasicRotation3SmallObstacles1/BasicAgent/BasicAgent-165991.pt (torch, 518983 bytes, 33 tensors)

network_body.linear_encoder.seq_layers.0.weight f4 [128, 31]
0	0xbeb615fd	-0.3556365
1	0xbdfadbdd	-0.12248967
2	0x3e73769c	0.23775715
3	0x3d999e3e	0.075008854
4	0xbe0042ac	-0.12525433
5	0xbdeb33a0	-0.11484456
6	0xbe8a1e05	-0.26976028
7	0xbeb275ea	-0.34855586
8	0x3e9d294c	0.3069557
9	0xbd3b7f2d	-0.04577558
10	0xbe9b89ef	-0.30378672
11	0xbec5e093	-0.386479
12	0x3e9de3da	0.308379
13	0xbe1ed370	-0.15510345
14	0x3d8b606b	0.068055
15	0xbeec3963	-0.46137533
16	0xbdbdd472	-0.09269036
17	0xbdee6585	-0.11640457
18	0xbe50b85c	-0.20382828
19	0xbe3fbde6	-0.18724784
20	0xbd4ff212	-0.050767966
21	0xbe7174ac	-0.23579663
22	0xbe108ff1	-0.1411741
23	0xbc9ffcfa	-0.019529808
24	0xbe5563ca	-0.20838848
25	0x3d8d55f9	0.069011636
26	0x3edf0e71	0.43565705
27	0xbd1388db	-0.036019187
28	0xbd42b371	-0.04753441
29	0xbda29530	-0.079386115
30	0x3e4a02f1	0.19727685
31	0xbe4ff34d	-0.20307656
32	0xbd47851f	-0.04871094
33	0xbe64d8d7	-0.22348343
34	0xbee05c13	-0.43820247
35	0xbda21b1e	-0.079153284
36	0xbc78606e	-0.015159709
37	0x3e66a183	0.2252255
38	0xbf001414	-0.50030637
39	0x3ea6a00c	0.3254398
40	0xbec94a11	-0.3931432
41	0xbd8995d8	-0.067180336
42	0xbe585d6f	-0.21129392
43	0x3e74ddda	0.23912755
44	0x3d9b3af2	0.07579602
45	0xbc8ba45c	-0.017046146
46	0xbea75a33	-0.32686004
47	0x3ea141ab	0.31495413
48	0xbe1f99ca	-0.1558601
49	0x3bb931c7	0.005651686
50	0xbf323e20	-0.69626045
51	0x3e3042b2	0.17212942
52	0xbe2d17cc	-0.16903609
53	0xbd261746	-0.04054954
54	0xbc9a44c8	-0.018831626
55	0x3e153ace	0.14573213
56	0x3c6e8a52	0.014559345
57	0x3c0a06c6	0.0084244665
58	0xbe018a0b	-0.12650315
59	0xbdbe5f80	-0.09295559
60	0xbdb24309	-0.08704192
61	0x3c1ccd28	0.009570397
62	0x3f3193de	0.6936625
63	0xbe5da7b5	-0.21646006
64	0xbd926da4	-0.071498185
65	0xbd3b8a12	-0.04578597
66	0x3e950a22	0.29109293
67	0x3d13380c	0.035942122
68	0x3e68fc25	0.22752436
69	0x3bc4b9d0	0.006003596
70	0x3e632991	0.22183825
71	0x3be1cc67	0.0068908217
72	0x3d27d0e3	0.040970694
73	0xbe62a3b2	-0.22132757
74	0xbec0253b	-0.37528405
75	0xbd8566f5	-0.06513778
76	0x3debc614	0.1151239
77	0x3a439eae	0.0007462305
78	0xbe18081b	-0.14846842
79	0x3cb697a9	0.022289114
80	0xbe0efe2d	-0.13964148
81	0x3d1a3079	0.037643883
82	0x3d981261	0.074253805
83	0xbe803db1	-0.25047067
84	0xbd74f2af	-0.059801754
85	0x3d770e4d	0.060316373
86	0xbda5f741	-0.081038006
87	0xbcd548d0	-0.026035696
88	0xbde71c0d	-0.11284647
89	0x3c8c1ff3	0.017105078
90	0xbc803a0b	-0.015652677
91	0x3c4e7db8	0.012603216
92	0xbc9e5dfc	-0.019331925
93	0x3e2a2887	0.16617022
94	0xbe3cfaf1	-0.18455102
95	0x3d84a7b0	0.06477296
96	0xbeab522c	-0.3346113
97	0x3e4d80e2	0.20068696
98	0x3cac2b81	0.021016838
99	0x3f0bc54b	0.5459792
100	0x3e049fe4	0.12951618
101	0x3ed5a852	0.4172998
102	0x3c4a6046	0.012352055
103	0xbe70e5c8	-0.23525155
104	0xbe529819	-0.20565833
105	0xbe4b4c77	-0.19853388
106	0xbe42b9ed	-0.19016238
107	0x3d99d991	0.075122006
108	0xbb78b5a3	-0.003795006
109	0xbd944a21	-0.072407015
110	0xbec5bd42	-0.38620955
111	0x3e885055	0.26623788
112	0x3e393fc6	0.18090734
113	0xbd29f533	-0.041493606
114	0x3f390aa9	0.7228189
115	0x3e0c230c	0.13685244
116	0x3a1bee62	0.00059483026
117	0xbd8b2ae0	-0.06795287
118	0xbea33090	-0.31872988
119	0xbc5dd4c2	-0.013539495
120	0xbdcaef18	-0.09908885
121	0xbd27b624	-0.040945187
122	0x3ce1ea13	0.027577436
123	0x3e66df33	0.22546081
124	0xbea2d9df	-0.31806847
125	0xbf024954	-0.5089314
126	0x3e2f7d7e	0.17137715
127	0xbee3076e	-0.44341606
128	0x3e66c683	0.22536664
129	0x3bf8c5ec	0.0075919535
130	0xbaab470a	-0.0013067436
131	0xbe1c9b0d	-0.15293522
132	0xbc2759e8	-0.010214306
133	0xbe9e91e2	-0.30970675
134	0xbe8a3ef7	-0.27001163
135	0xbdc54fed	-0.09634385
136	0xbe15b434	-0.14619523
137	0xbeaeea48	-0.34163117
138	0x3bee433e	0.0072711995
139	0xbe859783	-0.26092157
140	0x3e5d9504	0.21638876
141	0xbec0f63b	-0.3768786
142	0x3d824797	0.06361311
143	0xbea16f8f	-0.31530425
144	0xbddd3edf	-0.10803007
145	0x3e9d02d4	0.3066622
146	0x3d2a2e1a	0.041547872
147	0xbabe149f	-0.0014501995
148	0x3e9d9da2	0.30784327
149	0xbea776e1	-0.32707885
150	0x3bffcca2	0.0078063766
151	0xbe37ee01	-0.17961885
152	0xbdc24c97	-0.094872646
153	0x3d386082	0.045013912
154	0xbdd54eb2	-0.104154006
155	0x3f363979	0.71181446
156	0xbe63f87f	-0.22262762
157	0xbde4341a	-0.1114275
158	0xbf0acc43	-0.5421793
159	0xbda2322b	-0.07919725
160	0x3e396525	0.1810499
161	0x3e3f8944	0.18704706
162	0x3eb672f3	0.35634574
163	0x3e53088e	0.20608732
164	0xbe8808df	-0.26569268
165	0x3e1d70ab	0.1537501
166	0xbe131411	-0.14363123
167	0xbe563811	-0.20919825
168	0x3e36eb88	0.17863286
169	0x3dbe0896	0.092789814
170	0x3c3a2281	0.011360765
171	0xbc6fa9e1	-0.014627905
172	0x3d0ce644	0.034399286
173	0xbc6e2ecb	-0.0145375235
174	0xbd9d5b7c	-0.07683465
175	0xbea7413e	-0.32666963
176	0x3e5bf55d	0.21480317
177	0xbdbe9c27	-0.093071274
178	0x3bb7e2f3	0.0056117713
179	0xbec59bc7	-0.3859541
180	0xbc76d4c1	-0.015065373
181	0xbeafe7c3	-0.34356508
182	0xbe2a52f0	-0.166332
183	0x3dc200a4	0.094727784
184	0xbe76ff4b	-0.24120824
185	0x3dd5797b	0.10423561
186	0x3b992e31	0.004674696
187	0xbebe4c97	-0.37167808
188	0x3d93bcc5	0.07213739
189	0xbd9f00fb	-0.07763859
190	0xbe99d19a	-0.30042726
191	0x3e9fb4c9	0.31192616
192	0xbe2396d8	-0.15975511
193	0x3c901b7e	0.017591234
194	0xbe230016	-0.15918002
195	0xbe28b81c	-0.16476482
196	0xbdfed16b	-0.12442287
197	0xbe3fee7f	-0.18743323
198	0xbe035e06	-0.12828836
199	0x3eddb6b1	0.43303445
200	0x3e6eeb04	0.23331839
201	0x3def753d	0.11692283
202	0x3e233313	0.15937452
203	0x3e6076ae	0.21920273
204	0x3d00c9b4	0.03144236
205	0xbe1006b0	-0.14065051
206	0xbe579302	-0.21052173
207	0xbdc51ad9	-0.096242614
208	0xbeed4f3d	-0.46349517
209	0x3e4637f1	0.19357277
210	0x3e688100	0.2270546
211	0xbdacb268	-0.08432466
212	0xbe728e48	-0.23687088
213	0x3c98cf59	0.018653559
214	0xbde3ffdc	-0.11132786
215	0x3cf19deb	0.029494246
216	0xbe4bc16f	-0.19898008
217	0xbe4cb262	-0.19989923
218	0x3f033da5	0.5126594
219	0x3e7e22e4	0.24817997
220	0xbf0493e6	-0.51788175
221	0xbdb14f27	-0.08657675
222	0x3e8794b7	0.26480648
223	0x3edff796	0.4374358
224	0xbe435534	-0.19075471
225	0xbda0bd6f	-0.078486316
226	0x3e2a1378	0.16608989
227	0xbe3e06ce	-0.18557283
228	0xbde41e94	-0.11138645
229	0x3ea0ce62	0.31407458
230	0x3d8f1f3b	0.069883786
231	0xbdc7395d	-0.09727738
232	0xbe8454fd	-0.2584609
233	0xbebaec9e	-0.3650865
234	0xbe330bf5	-0.1748503
235	0x3d9f6c6b	0.07784351
236	0x3e317798	0.17330778
237	0xbeb79833	-0.35858306
238	0xbeae7422	-0.34072977
239	0x3e23cfcf	0.15997241
240	0xbee26a01	-0.442215
241	0x3d3f5dc9	0.0467203
242	0xbe920f6d	-0.28527394
243	0xbde48110	-0.11157429
244	0x3ced04eb	0.02893301
245	0x3c2c3ac0	0.010512054
246	0x3e6d0b97	0.23148952
247	0x3c604f21	0.013690741
248	0x3f05c14c	0.5224807
249	0xbf19a119	-0.6001144
250	0x3e1d3c5d	0.15355058
251	0x3e323c0a	0.17405716
252	0xbe6cd0d5	-0.23126538
253	0xbe6698a1	-0.22519161
254	0xbdd83f1a	-0.10558911
255	0x3bd9a8ec	0.0066424515

network_body.linear_encoder.seq_layers.0.bias f4 [128]
0	0xbe2d0374	-0.16895849
1	0xbdc19f20	-0.09454179
2	0x3d6afc57	0.057369556
3	0x3ca9d490	0.02073124
4	0xbc68b206	-0.0142026
5	0x3c9d96c7	0.019236935
6	0x3c2fea24	0.010736976
7	0x3c08b8f0	0.008344874
8	0x3dc65bc7	0.09685474
9	0x3c0014c3	0.00781745
10	0x3d4f145c	0.050556526
11	0xbe5da65f	-0.21645497
12	0x3d69169e	0.056906335
13	0xbcfbacaf	-0.03072199
14	0xbcc7d355	-0.024392763
15	0x3d36a051	0.044586483
16	0xbd7639b9	-0.060113642
17	0x3d9cc655	0.07655016
18	0x3e54a60f	0.20766471
19	0xb9f833f4	-0.00047340954
20	0x3d1fe9ca	0.039041318
21	0xbd0ff9f3	-0.03515048
22	0x3cd0e943	0.025501853
23	0x3dabe0f5	0.083925165
24	0xba8ab7a2	-0.0010583291
25	0xbb182491	-0.0023215155
26	0xbd733caa	-0.059384026
27	0xbc8659bc	-0.01640021
28	0x3cc3602f	0.023849575
29	0x3dba88ae	0.09108101
30	0x3d09d7b2	0.03365297
31	0x3c6641f9	0.014053815
32	0xbe89d2a8	-0.2691853
33	0x3d6124ee	0.05496686
34	0xbd9e1066	-0.077179715
35	0xbc8d0458	-0.017213985
36	0xbadd6a08	-0.0016892562
37	0xbd58b13e	-0.052903406
38	0xbd5c4d19	-0.053784464
39	0x3c678c71	0.014132605
40	0xbc9753a3	-0.018472498
41	0x3d98ae69	0.07455141
42	0x3d575ed3	0.052580666
43	0xbd466589	-0.048436675
44	0x3dced99e	0.10100101
45	0xbd4d0c84	-0.050060764
46	0xbd5ba470	-0.053623617
47	0xbda80e72	-0.0820588
48	0xbd87e59f	-0.066355936
49	0x3d93d38a	0.07218082
50	0xbd91d0a7	-0.071198754
51	0x3dbf16b4	0.09330502
52	0x3cf94fb6	0.030433517
53	0x3da173ad	0.078833915
54	0xbc527bc5	-0.012846892
55	0x3d651724	0.05593027
56	0xbd86569b	-0.065594874
57	0xbc2fb978	-0.010725372
58	0x3ddb642e	0.10712467
59	0x3d8abc52	0.067742005
60	0x3d1c50c6	0.03816297
61	0xbd5a3567	-0.053273585
62	0x3d513689	0.0510774
63	0xbb99f360	-0.004698202
64	0xbc476805	-0.012170796
65	0x3db141cf	0.0865513
66	0x3c1f16cc	0.009710025
67	0xbcfdf9fe	-0.031002995
68	0x3d18c15c	0.037293777
69	0x3cce33de	0.025171217
70	0xbe363a43	-0.17795663
71	0x3d85ee66	0.065396115
72	0xbd565fdf	-0.052337524
73	0xbc215c08	-0.009848602
74	0x3c837ee6	0.01605172
75	0x3df9fac7	0.12206035
76	0xbcb3ca0e	-0.021946933
77	0x3dca6a41	0.098835476
78	0xbd702b9d	-0.058635343
79	0x3d972414	0.07379928
80	0x3dd8a1df	0.105777495
81	0xbd1a0eb2	-0.03761167
82	0x3d33f789	0.04393724
83	0x3ce35a8c	0.027753137
84	0xbd009e7e	-0.03140115
85	0xba8ec66c	-0.0010892875
86	0xbd7eeffa	-0.06224058
87	0x3d36728c	0.044542834
88	0xbd8ab969	-0.067736454
89	0xbdc46041	-0.095886715
90	0x3df38aec	0.118917316
91	0xbda220e3	-0.07916429
92	0x3c57b88b	0.013166557
93	0xbd05625e	-0.032564513
94	0xbda86ea4	-0.08224228
95	0xbc9b7126	-0.018974852
96	0x3d8140bc	0.06311175
97	0xbd4e7abb	-0.050410014
98	0x3d6ca675	0.057775933
99	0xbc94d8e7	-0.018169833
100	0x3d7bc8b1	0.06147069
101	0xbcad321e	-0.021142062
102	0x3ce00ff1	0.027351351
103	0x3d8a553f	0.06754541
104	0x3bca9990	0.006182857
105	0xbe05cc94	-0.13066322
106	0xbdc7e0da	-0.09759684
107	0x3d042468	0.032261282
108	0xbbc2b8db	-0.0059424466
109	0x3d04b9c1	0.03240371
110	0xbdaa579a	-0.0831749
111	0x3c4fe37b	0.012688513
112	0xbd16757e	-0.036733143
113	0xbd3864c7	-0.045017984
114	0xbe20d5f9	-0.15706624
115	0xbdaee60f	-0.08539974
116	0xbd6b433b	-0.057437163
117	0x3b35db4a	0.0027749115
118	0x3dd74c4e	0.10512601
119	0xbe0032c9	-0.12519373
120	0xbb5c6659	-0.003363034
121	0xbb8ef028	-0.004362125
122	0x3d67bbcb	0.056575578
123	0x3dbe0d98	0.092799366
124	0x3cccc752	0.024997387
125	0x3ddd189d	0.1079571
126	0x3d2f75d1	0.042836968
127	0x3bdbab13	0.0067037432

network_body.linear_encoder.seq_layers.2.weight f4 [128, 128]
0	0x3dfa2a37	0.12215083
1	0x3c85466a	0.016268928
2	0xbe9204b8	-0.28519225
3	0xbe2edbfd	-0.17076106
4	0xbdf577a6	-0.11985712
5	0x3d7a68fb	0.061135273
6	0x3d9fc632	0.07801475
7	0x3e9fed80	0.31235886
8	0xbe55841c	-0.20851177
9	0x3e11346c	0.14180154
10	0x3cd06577	0.025439007
11	0xbd5383b7	-0.051639285
12	0xbd9ff93d	-0.0781121
13	0x3dd302a6	0.103032395
14	0x3c90fc39	0.017698394
15	0xbd9b4236	-0.07580988
16	0xbd46a997	-0.048501577
17	0xbddf6981	-0.10908795
18	0xbe23da8a	-0.16001335
19	0x3b7886a0	0.003792204
20	0xbd54e7dd	-0.051978935
21	0x3c97db30	0.018537134
22	0xbe0c6882	-0.13711742
23	0xbc236621	-0.00997308
24	0x3c855d3e	0.016279813
25	0x3d01937e	0.0316348
26	0x3b8bac25	0.0042624646
27	0xbd211558	-0.039326996
28	0x3e2f841c	0.1714024
29	0xbdaf4553	-0.085581444
30	0x3d8f7205	0.070041694
31	0x3e1bbd77	0.15208994
32	0xbd85bdcd	-0.06530342
33	0x3e3f4806	0.18679819
34	0xbc489a70	-0.012243852
35	0xbe442d22	-0.19157842
36	0x39926d77	0.00027928848
37	0x3d3bd5c1	0.04585815
38	0x3e2a0867	0.16604768
39	0x3d34ba5a	0.04412303
40	0xbe04c90e	-0.12967321
41	0x3bb7172a	0.005587478
42	0x3df25f7c	0.118346184
43	0xbe2ac133	-0.16675262
44	0xbaf88517	-0.0018960562
45	0xbcdd3b0e	-0.027005699
46	0xbdd13aaa	-0.102162674
47	0xbcc81d1b	-0.024427941
48	0xbc779a2a	-0.015112439
49	0xbe437fe3	-0.19091754
50	0x3de4462b	0.11146196
51	0xbd9c13bf	-0.07620954
52	0x3b042c6d	0.0020168081
53	0x3e6b5001	0.22979738
54	0xbe22c2c6	-0.15894613
55	0x3d33f697	0.04393634
56	0x3d1b4718	0.037909597
57	0x3bb37724	0.005476849
58	0xbe346de1	-0.1762004
59	0xbdd0b1ef	-0.10190188
60	0x3d3d17a9	0.046165142
61	0xbe411bf1	-0.18858315
62	0x3d1117ae	0.035422973
63	0x3d878529	0.06617195
64	0x3e3b9b59	0.18320979
65	0x3d71e35f	0.05905473
66	0x3d4d17fc	0.0500717
67	0x3e127852	0.14303711
68	0x3e816071	0.2526889
69	0x3e608494	0.21925575
70	0xbd481913	-0.048852038
71	0x3b556257	0.0032559836
72	0xbd7e4333	-0.062075805
73	0x3c06f5e9	0.0082373405
74	0xbde39d24	-0.111139566
75	0xbbe852cf	-0.0070899497
76	0xbdb0ae4b	-0.08626994
77	0x3dad00fd	0.08447454
78	0x3c963755	0.018336931
79	0x3c057c7a	0.008147353
80	0xbdfcd7cb	-0.12345847
81	0x3db1a0f2	0.08673276
82	0x3c9bc95c	0.019016914
83	0x3e71c699	0.23610915
84	0xbd0f0657	-0.034918156
85	0xbb54a47a	-0.0032446668
86	0x3c6a23ea	0.014290789
87	0xbd80b706	-0.06284909
88	0xbdd45cd3	-0.10369267
89	0x3ca9ba54	0.020718731
90	0x3e360f08	0.17779171
91	0x3b8958e8	0.0041915067
92	0x3ccbc50b	0.02487423
93	0x3cec03f3	0.028810477
94	0xbe001686	-0.12508592
95	0xbe1c8fdc	-0.15289253
96	0x3e87c12b	0.26514563
97	0xbdc277dc	-0.094955176
98	0x3d8108b4	0.06300488
99	0xbc9120e5	-0.01771588
100	0x3e040de0	0.12895918
101	0x3e099ea6	0.13439426
102	0x3df0f053	0.11764588
103	0xbe3bf8d0	-0.18356633
104	0xbd340720	-0.043952107
105	0x3ddb786a	0.107163265
106	0xbcb64c30	-0.022253126
107	0x3de1e6ca	0.11030348
108	0xbd9352cd	-0.07193527
109	0xbcbbdb6c	-0.022931777
110	0x3e155a07	0.14585124
111	0xbd3f0504	-0.046635643
112	0x3c065df4	0.008201111
113	0xbd88e876	-0.066849634
114	0x3d0dc39a	0.03461037
115	0xbcf4bbb8	-0.029874668
116	0x3e58b142	0.21161368
117	0x3bca1d44	0.0061680395
118	0xbe95460f	-0.29155013
119	0x3ba4e589	0.0050322455
120	0x3ca30602	0.019900326
121	0xbd790ce9	-0.060803328
122	0x3da8f784	0.08250335
123	0x3dcdfa45	0.10057501
124	0xbdd6bcbf	-0.10485219
125	0xbe984d5c	-0.2974652
126	0x3e1042bb	0.14087956
127	0xbd25c883	-0.040474426
128	0xbd4588ed	-0.048226286
129	0xbde3e23e	-0.11127137
130	0xbd471ccc	-0.048611447
131	0xbe226730	-0.15859675
132	0xbd8c8e2d	-0.068630554
133	0x3dab4f56	0.083647415
134	0xbd86d753	-0.065840386
135	0x3e0883b1	0.13331486
136	0xbda0eecb	-0.07858046
137	0x3e2898d0	0.16464543
138	0xbd61bca7	-0.055111554
139	0x3d2cddee	0.042203836
140	0x3da38bc4	0.079856426
141	0xbd204bf5	-0.03913494
142	0xbd036c71	-0.03208584
143	0xbda12364	-0.07868078
144	0xbc8bf13b	-0.017082801
145	0xbdf4f5f4	-0.11960974
146	0xbe90705d	-0.28210726
147	0xbe27a864	-0.1637283
148	0x3e502b97	0.20329128
149	0x3d2d6df0	0.042341173
150	0x3d2e1175	0.042497117
151	0xbe3a21da	-0.18176976
152	0x3d6eddd8	0.058317035
153	0x3d3ce578	0.046117276
154	0x3e2c7ab7	0.16843687
155	0xbd679f8b	-0.056548636
156	0x3cd22d28	0.025656298
157	0xbe6e62a4	-0.23279816
158	0x3d68ebc0	0.056865454
159	0x3c9b8cb9	0.018988
160	0x3d687455	0.056751568
161	0x3e006690	0.12539124
162	0x3be99232	0.0071280235
163	0xbc4f6d72	-0.012660371
164	0x3d8f4931	0.06996382
165	0x3dcb941d	0.0994036
166	0x3d94960f	0.07255184
167	0x3ddb4791	0.107070096
168	0x3dddaf65	0.108244695
169	0xbd96bbe1	-0.07360054
170	0x3e61edba	0.22063342
171	0x3d00abfc	0.031414017
172	0xbe08c0b5	-0.13354762
173	0x3dbff680	0.09373188
174	0xbcf6e441	-0.030138137
175	0x3d7d5e33	0.061857414
176	0x3cbf17fe	0.02332687
177	0x3d0545a1	0.032537106
178	0x3d3f5fff	0.04672241
179	0xbe08680c	-0.1332094
180	0xbcf40968	-0.029789641
181	0x3dfd38bf	0.12364339
182	0x3d9cf244	0.07663396
183	0xbd362ed7	-0.044478264
184	0x3e15e349	0.14637484
185	0x3d799d54	0.060941055
186	0xbe9b9c91	-0.30392888
187	0xbd8ffcd4	-0.07030645
188	0xbe30937c	-0.17243761
189	0x3c52ce0d	0.012866509
190	0x3d93ec40	0.072227955
191	0x3d71f52d	0.05907171
192	0x3e8416c1	0.2579861
193	0xbd8e99b0	-0.06962907
194	0xbcf38a59	-0.029729055
195	0x3e6cdb07	0.23130427
196	0x3de0b4ff	0.10972022
197	0xbd4512c3	-0.048113596
198	0x3c26aabe	0.010172544
199	0x3d7e27c1	0.06204963
200	0xbb998ff0	-0.004686348
201	0x3d7a6407	0.06113055
202	0xbdf301f0	-0.11865604
203	0xbd108a27	-0.035288002
204	0x3ca0ee3d	0.01964485
205	0xbe2444b8	-0.16041839
206	0x3dec17ba	0.11527963
207	0x3da71c29	0.08159668
208	0xbe18c7b9	-0.14919938
209	0xbd2d710a	-0.04234413
210	0xbe24fce8	-0.16112101
211	0x3e016418	0.12635839
212	0xbdb28a93	-0.08717837
213	0xbc8d0f59	-0.017219232
214	0xbcb5eae4	-0.022206731
215	0xbe602bd6	-0.21891722
216	0x3dd90428	0.10596496
217	0xbc4bba08	-0.01243449
218	0x3e5b9491	0.21443392
219	0xbd98827f	-0.07446765
220	0x3cc6ba71	0.024258824
221	0xbcbebfad	-0.023284758
222	0xbdc7f07e	-0.09762667
223	0xbdc884f3	-0.09790983
224	0x3dca2157	0.0986964
225	0x3d8238a8	0.063584626
226	0x3dd0dbc3	0.10198166
227	0x3ca93d42	0.020659093
228	0xbdaa719b	-0.0832245
229	0xbda3d63d	-0.07999847
230	0xbd09beb8	-0.03362915
231	0x3d08af34	0.03337021
232	0x3d7ab104	0.06120397
233	0x3e3f93fb	0.18708794
234	0xbd494733	-0.049140166
235	0x3be88605	0.0070960545
236	0x3c942895	0.018085757
237	0xbdbf28dd	-0.09333966
238	0xbdb30a8a	-0.087422445
239	0x3d8cd95f	0.06877398
240	0x3cad8cfa	0.021185387
241	0x3d51dacc	0.05123405
242	0xbbb1db2d	-0.005427739
243	0xbdffb61f	-0.12485909
244	0xbc294056	-0.01033028
245	0xbc8e161c	-0.017344527
246	0xbd14395c	-0.036187515
247	0x3dd4cf2f	0.1039108
248	0xbe54d77c	-0.20785326
249	0xbd0c775e	-0.034293525
250	0xbd101465	-0.0351757
251	0x3da216b9	0.0791449
252	0xbe537a52	-0.2065213
253	0xbe48a124	-0.1959272
254	0xbdd373bd	-0.1032481
255	0xbe17c53e	-0.14821336

network_body.linear_encoder.seq_layers.2.bias f4 [128]
0	0x3ca47567	0.020075513
1	0x3d011e82	0.031523235
2	0xbc35c534	-0.01109438
3	0xba2792f4	-0.0006392442
4	0x3db7f03e	0.089813694
5	0x3b41336c	0.0029480113
6	0xbd77ba3a	-0.060480334
7	0x3d1a721f	0.03770649
8	0x3c4a1f45	0.012336557
9	0x3caa2f8a	0.020774622
10	0xbd518bbe	-0.05115866
11	0x3d47049c	0.04858838
12	0x3d5b92a1	0.053606633
13	0xbd002663	-0.03128661
14	0x3b37eb46	0.0028063818
15	0xbc7e300b	-0.015514384
16	0x3d15ff7d	0.036620606
17	0x3906be20	0.00012850063
18	0xbbf90412	-0.007599362
19	0x3d357fbf	0.04431128
20	0x3c3c3c9a	0.011489058
21	0x3d29930a	0.041399993
22	0x3bbab8f8	0.0056983195
23	0xbc8c826e	-0.017152037
24	0x3c80f2a1	0.015740694
25	0xbcc5354d	-0.024073267
26	0x3d59c6cb	0.0531681
27	0x3d9bcabe	0.076070294
28	0xbaeabc3d	-0.0017908883
29	0x3d8ff00b	0.070282064
30	0x3c0694b5	0.008214165
31	0x3ca04cb7	0.01956783
32	0xbc572fcf	-0.013133957
33	0xbb37eea8	-0.0028065834
34	0x3c981fae	0.018569794
35	0x3dcd8880	0.10035801
36	0x3cedb98a	0.029019136
37	0x3d311ed1	0.04324228
38	0x3dd39879	0.10331816
39	0xbc44f604	-0.012021545
40	0x3dc2a324	0.09503773
41	0x3d4efd51	0.05053455
42	0xbca360b5	-0.019943574
43	0x3d801695	0.06254307
44	0x3cdcc1bd	0.02694785
45	0xbc054360	-0.008133739
46	0xbcaf1f7f	-0.021377323
47	0x3cfd43e0	0.030916154
48	0x3cfeeb48	0.03111805
49	0x3d35ff4a	0.044432916
50	0x3d52036f	0.051272806
51	0x3c5f69c6	0.013636058
52	0x3e085198	0.13312376
53	0x3bd7f15f	0.006590053
54	0x3cdadf0c	0.026717685
55	0x3d967b98	0.073477924
56	0x3ce92e00	0.028464317
57	0x3c821d1b	0.01588302
58	0x3db7dd38	0.08977741
59	0x3c9b629c	0.018967919
60	0x3d930be5	0.07180003
61	0xba90712d	-0.0011020057
62	0x3d83d541	0.06437159
63	0x3c977c57	0.018491907
64	0x3c81e959	0.01585834
65	0x3db54398	0.08850783
66	0x3d95fd06	0.07323651
67	0x3dafcd5b	0.0858409
68	0xbd49127c	-0.049089894
69	0xbd552539	-0.05203745
70	0xbc3ac834	-0.011400271
71	0x3d51e1e7	0.051240828
72	0x39fe4ce4	0.00048503943
73	0xbd0c535a	-0.034259178
74	0x3c844a56	0.016148727
75	0x3d434b63	0.047679316
76	0x3d2c7b0a	0.042109527
77	0xbc883dca	-0.016631026
78	0x3b87ded3	0.0041464358
79	0xbd78dad3	-0.060755562
80	0x3a41124c	0.0007365092
81	0xbb0d8202	-0.0021592383
82	0xbc72deb7	-0.014823607
83	0xbcb106ad	-0.021609629
84	0x3d6ea2fe	0.05826091
85	0x3db9cb4c	0.09071979
86	0xbb8ac5bf	-0.004234999
87	0x3d5e8579	0.05432651
88	0x3cd536d6	0.026027124
89	0x3cafe02f	0.021469204
90	0x3d90bdc0	0.07067442
91	0x3d4ef0ba	0.050522543
92	0x3ceb876b	0.028751096
93	0x3d0eeace	0.034891896
94	0x3b58b850	0.0033068843
95	0x3d955b8e	0.07292853
96	0x3d226732	0.039649196
97	0xbcfd112e	-0.030891981
98	0xbdb921cd	-0.0903965
99	0x3bebc629	0.0071952534
100	0x3d8c691d	0.06855986
101	0x3ce5037a	0.02795576
102	0x3c360ed2	0.011111932
103	0x3d31923c	0.04335235
104	0x3bfb0c67	0.0076613906
105	0x3d41d1a9	0.047319088
106	0x3d218ef3	0.039442968
107	0xbd198923	-0.0374843
108	0x3c8c3afc	0.01711797
109	0x3d5a7261	0.053331736
110	0x3ad0a102	0.0015917125
111	0x3da722d6	0.08160941
112	0x3d123b6b	0.035701197
113	0xbc78bce0	-0.01518175
114	0x3d370a91	0.04468781
115	0x3d9ec57b	0.0775251
116	0x3ccb7160	0.024834335
117	0x3d9f8787	0.07789522
118	0x3d8106b3	0.06300106
119	0x3c1aecc7	0.009455866
120	0x3cf3e35a	0.029771496
121	0xbb973e8c	-0.0046156105
122	0x3bfe339d	0.0077576176
123	0x3dc63c78	0.09679502
124	0xbda26a8e	-0.0793048
125	0xbc794e7f	-0.015216469
126	0x3cce511e	0.025185164
127	0xbd060327	-0.03271785

action_model._discrete_distribution.branches.0.weight f4 [5, 128]
0	0x3cbcb432	0.023035143
1	0x3bae3a33	0.0053169965
2	0x3d841434	0.06449166
3	0x3c8011ac	0.015633427
4	0x3d892577	0.06696599
5	0x3d83664b	0.06415995
6	0x3d1bb124	0.03801073
7	0xbd874295	-0.066044964
8	0x3d323e7a	0.043516614
9	0xbdd49058	-0.10379094
10	0x3d79e465	0.06100883
11	0x3d09bf3a	0.033629633
12	0x3d6bb1de	0.057542674
13	0x3d51e0fb	0.05123995
14	0x3d7aa529	0.061192665
15	0x3d8c14df	0.06839918
16	0x3d319e76	0.04336401
17	0xbd10e0e5	-0.035370726
18	0xbccb0de7	-0.024786903
19	0xbcb50ed9	-0.022101806
20	0xba0955f2	-0.0005238942
21	0x3d138531	0.036015693
22	0x3d85f640	0.06541109
23	0xbd1e1118	-0.03859052
24	0xbc6cb8b8	-0.014448337
25	0xbc57cc44	-0.013171259
26	0x3d0f293e	0.03495144
27	0xbe049cc5	-0.12950428
28	0xbcb5222c	-0.022111021
29	0x3ce4a385	0.027910003
30	0x3c78e0ff	0.015190362
31	0xba60fa4b	-0.00085822184
32	0x3ca26fa5	0.019828627
33	0xbcf9064f	-0.030398516
34	0x3c9df997	0.019284053
35	0xbdc601ca	-0.0966831
36	0x3c2cabf3	0.010539043
37	0xbcae2bed	-0.02126118
38	0x3d369a78	0.044580907
39	0xbccb54a9	-0.024820643
40	0x3db4a4ae	0.08820473
41	0x3d0a2fe9	0.033737097
42	0xbd3e0550	-0.046391785
43	0xbdc0e17b	-0.09418007
44	0x3cffa100	0.0312047
45	0x3cf460ba	0.02983128
46	0x3ab86f2c	0.0014071218
47	0x3ce89b69	0.028394418
48	0x3da3316b	0.0796841
49	0x3d47a99a	0.04874573
50	0x3d430285	0.047609825
51	0xbdf15764	-0.117842466
52	0x3c2918c5	0.010320847
53	0x3cb99f33	0.02265892
54	0x3c758f4e	0.01498778
55	0x3d353083	0.044235718
56	0xbda4db60	-0.08049655
57	0x3d7fef12	0.062483855
58	0x3d05d59b	0.032674413
59	0x3d7430f5	0.059617
60	0xb9e4fbfb	-0.0004367529
61	0x3db5f46b	0.0888451
62	0xbcd0dbf2	-0.025495503
63	0x3d7960a7	0.06088319
64	0xbc447307	-0.011990315
65	0x3d9ba2b9	0.07599396
66	0x3d2db45c	0.042408332
67	0x3d3726f3	0.04471488
68	0x3b61b913	0.0034442588
69	0xbc0dae52	-0.008647518
70	0x3da5b114	0.080904156
71	0x3d9e25e9	0.077220745
72	0x3d809651	0.062786706
73	0x3d3eed57	0.046613064
74	0xbab2494c	-0.0013602166
75	0x3cd7a007	0.026321424
76	0x3d861e33	0.06548729
77	0x3d620e8f	0.055189665
78	0x3d8e5719	0.06950206
79	0x3d54c40d	0.05194478
80	0xbc64f9fd	-0.0139756175
81	0x3d8521ad	0.06500564
82	0x3c5e9654	0.013585646
83	0x3da4d5a5	0.08048562
84	0xbc59d5eb	-0.013295631
85	0xbdf13a25	-0.11778668
86	0x3d9c327f	0.07626819
87	0x3db4c6a0	0.08826947
88	0x3d1e20fb	0.03860567
89	0x3d11d14d	0.035599995
90	0x3d86c0d3	0.06579747
91	0x3d5dc419	0.05414209
92	0x3c90c46f	0.017671792
93	0x3bc84d80	0.0061127543
94	0xbcf0089f	-0.029300986
95	0xbddd07ff	-0.10792541
96	0x3c866238	0.016404256
97	0xba937c1c	-0.0011252197
98	0x3b706a9d	0.003668464
99	0xbda5b669	-0.080914326
100	0xba0160e3	-0.0004935397
101	0x3b0b3248	0.0021239687
102	0x3d069003	0.032852184
103	0x3cc43583	0.023951298
104	0x3d6abfae	0.057311706
105	0xbb88376d	-0.004156998
106	0x3cc63295	0.024194041
107	0x3dc088d9	0.094011016
108	0x3d68522d	0.056718994
109	0x3cbfe9a6	0.023426842
110	0x3b39718a	0.0028296434
111	0xbe1c77ec	-0.15280122
112	0x3d38f586	0.045156024
113	0x3d3ce626	0.046117924
114	0xbc2c8036	-0.010528615
115	0xbdf65369	-0.12027628
116	0xbb5aac57	-0.0033366883
117	0xbb47dcc4	-0.0030496577
118	0x3b7ed578	0.0038884562
119	0x3d8c5184	0.06851485
120	0x3ccf32f5	0.025292853
121	0xbd6a36b9	-0.057181094
122	0x3cef8163	0.029236501
123	0xbd3bc5e0	-0.045843005
124	0xbd22c5a7	-0.039739277
125	0x3d66d04e	0.056351
126	0x3d6c2fd8	0.057662815
127	0x3d8c89a5	0.06862191
128	0x3dc2aaf8	0.09505266
129	0x3d722793	0.059119772
130	0xbd4607af	-0.04834717
131	0x3dbbb469	0.0916527
132	0xbcbd36e5	-0.023097465
133	0x3c8db0d1	0.017296227
134	0x3ce01920	0.02735573
135	0x3c49f4f7	0.012326471
136	0xbe01da15	-0.12680848
137	0x3d4a3596	0.04936751
138	0x3d3ee09f	0.046600934
139	0xbdcffadc	-0.101552695
140	0xbe30e050	-0.17273068
141	0xbd910f2f	-0.07082974
142	0xbd16c484	-0.036808506
143	0xbd0448ab	-0.032295864
144	0xbe12cb94	-0.14335471
145	0x3dcd9815	0.10038773
146	0x3ce0bd93	0.027434146
147	0x3e0976f0	0.13424277
148	0x3e0e80b3	0.13916282
149	0xbe32fd7c	-0.17479509
150	0x3d04a3fe	0.032382958
151	0xbcc715bc	-0.024302356
152	0x3e1ec34a	0.15504184
153	0x3d81bf56	0.063353226
154	0x3d8ac89d	0.06776545
155	0x3d255501	0.04036427
156	0xbc530ffb	-0.012882228
157	0xbc204872	-0.009782897
158	0xbcb65934	-0.022259332
159	0x3dbdd2aa	0.092686966
160	0x3be40d51	0.0069595953
161	0x3cae141e	0.021249827
162	0xbd8ff730	-0.07029569
163	0x3d377005	0.044784565
164	0x3d45ae79	0.048262093
165	0x3d305eff	0.043059345
166	0xbe3a3193	-0.18182974
167	0x3d142ef1	0.03617758
168	0xbe06a100	-0.13147354
169	0xbded77a2	-0.11595084
170	0x3cc6ea59	0.024281668
171	0x3c97968c	0.018504404
172	0x3c4bf5d0	0.012448743
173	0xbc24f87c	-0.010069009
174	0x3cecdb15	0.02891306
175	0x3d97d7d5	0.074142136
176	0xbe132de6	-0.14372978
177	0xbe14bd3f	-0.14525317
178	0xbe18f061	-0.14935447
179	0x3c5f86a6	0.0136429425
180	0xbe2da85c	-0.16958755
181	0x3d9bc1db	0.07605334
182	0x3cd1fc6d	0.025633061
183	0xbc542405	-0.012948041
184	0x3dd2f7e3	0.10301187
185	0xbe00400b	-0.1252443
186	0xbd20ed05	-0.03928854
187	0xbdc5904e	-0.096466646
188	0x3ba581c9	0.005050872
189	0xbda34163	-0.07971456
190	0x3cb493a7	0.022043062
191	0xbdbc5a8a	-0.091969565
192	0x3d9aee69	0.075650044
193	0xbdf18f0c	-0.11794862
194	0x3d94b3fa	0.0726089
195	0x3c01d1c2	0.007923545
196	0xbd038082	-0.032104976
197	0x3cb94106	0.022614013
198	0x3d0775c5	0.0330713
199	0xbe31e231	-0.17371441
200	0xbdc65c7f	-0.09685611
201	0xbc91b686	-0.01778723
202	0x3dc078b4	0.09398022
203	0x3dcfecb1	0.10152567
204	0xbe1bef15	-0.15227921
205	0x3d520f18	0.051283926
206	0xbdb59bb1	-0.088675864
207	0xbd852d43	-0.065027736
208	0x3de2e242	0.110783115
209	0x3a337ce2	0.0006846917
210	0xbd6c5204	-0.057695404
211	0xbdf5122a	-0.11966355
212	0xbd7dac9e	-0.0619322
213	0x3d16a8bf	0.036782023
214	0x3df6cf78	0.1205129
215	0xbdc4d29f	-0.09610485
216	0xbddfecae	-0.10933815
217	0x3dbc2812	0.0918733
218	0xbe384d4e	-0.1799824
219	0xbdf158ad	-0.11784492
220	0xbd1201d8	-0.03564629
221	0x3d4aec35	0.04954167
222	0x3c2a099e	0.0103782695
223	0x3daeab6c	0.0852879
224	0xbda7b102	-0.081880584
225	0x3d0d34e7	0.03447428
226	0xbc65f204	-0.014034752
227	0x3d139a36	0.03603574
228	0x3d58e8af	0.05295628
229	0x3dcb1858	0.099167526
230	0x3ca1655a	0.019701649
231	0x3dfbd2f0	0.122960925
232	0xbe1f66a5	-0.155665
233	0xbcff5c55	-0.031171957
234	0xbc90d8cc	-0.017681502
235	0xbc173afc	-0.009230372
236	0x3c00f5cd	0.0078711035
237	0x3e0dde89	0.13854422
238	0xbcac3541	-0.021021487
239	0x3d2beb3b	0.04197238
240	0x3da4c45f	0.08045267
241	0xbd9dc594	-0.07703701
242	0x3dd51b22	0.10405566
243	0x3d22cc1e	0.039745443
244	0xbcf51b2e	-0.029920187
245	0x3d076077	0.03305098
246	0x3e07cfed	0.13262911
247	0xbe47b77e	-0.1950359
248	0x3dead4ce	0.114663705
249	0x3dbc3962	0.091906324
250	0x3d8e91cf	0.069614045
251	0x3df3bf40	0.119017124
252	0x3b084b86	0.0020796969
253	0xbd9a372e	-0.07530056
254	0xbe1b25eb	-0.15151183
255	0xbca1852b	-0.01971682

action_model._discrete_distribution.branches.0.bias f4 [5]
0	0xbd09c07c	-0.033630833
1	0x3a2339fd	0.00062265975
2	0xbd89b050	-0.06723082
3	0x3d89bca8	0.067254364
4	0x3d2f20ad	0.04275577

critic.network_body.linear_encoder.seq_layers.0.weight f4 [128, 31]
0	0x3e144fe9	0.14483608
1	0xbd5ed9e3	-0.05440701
2	0x3d72c88a	0.05927328
3	0x3d161b73	0.03664727
4	0xbe1b697a	-0.15176955
5	0xbeb5ba7e	-0.35493845
6	0xbee300e7	-0.44336626
7	0xbefa57f5	-0.4889523
8	0xbd8645ab	-0.06556257
9	0x3e1d34a8	0.15352118
10	0x3ee38c13	0.44442806
11	0xbe259f82	-0.16174129
12	0x3d543e0b	0.05181698
13	0xbebabb09	-0.36470821
14	0xbeedb2a1	-0.46425346
15	0xbd5822ca	-0.052767552
16	0xbd0d7772	-0.03453774
17	0xbd5d28e5	-0.05399408
18	0xbe0d51e9	-0.13800777
19	0x3ea37be1	0.3193045
20	0xbe6b14bc	-0.22957128
21	0xbe945725	-0.28972736
22	0xbee71da3	-0.451398
23	0xbe6bba7d	-0.23020358
24	0xbe52f998	-0.20603025
25	0xbdbef585	-0.09324173
26	0x3dca3471	0.09873284
27	0x3e1a84e2	0.15089753
28	0xbe71a1c3	-0.23596863
29	0xbd4ce296	-0.050020777
30	0x3e2577d7	0.16158997
31	0x3e277b4c	0.16355628
32	0x3c7673fe	0.015042303
33	0xbebb6e6f	-0.36607692
34	0x3d79f3e5	0.06102361
35	0xbdf67e02	-0.12035753
36	0xbe2ddde4	-0.16979176
37	0xbe7f697c	-0.24942583
38	0xbe77b0ed	-0.24188586
39	0xbc7a3ac3	-0.015272799
40	0x3eb95ade	0.3620214
41	0x3ea27017	0.31726143
42	0xbe808601	-0.25102237
43	0xbe3c4d7c	-0.18388933
44	0xbdc4eb0e	-0.096151456
45	0xbf367a8a	-0.7128073
46	0xbedbbd73	-0.42917976
47	0xbeb3d49f	-0.35123155
48	0x3d8f9dad	0.07012496
49	0x3e175827	0.14779721
50	0xbef9675d	-0.48711672
51	0xbdb87b71	-0.090079196
52	0xbda3ba0d	-0.07994471
53	0xbf31e2db	-0.6948678
54	0xbe036708	-0.12832272
55	0xbe366b76	-0.1781443
56	0x3eab5772	0.33465153
57	0xba055d4a	-0.00050874485
58	0xbe7ee6a9	-0.24892677
59	0xbe567179	-0.20941724
60	0xbd4b0b46	-0.049571298
61	0xbdd06ce3	-0.101770185
62	0x3da69c18	0.08135241
63	0x3d76e9b3	0.060281467
64	0xbba3d0d8	-0.0049992613
65	0x3f1cdf5a	0.6127831
66	0xbe42b54f	-0.19014476
67	0x3da278ab	0.07933172
68	0xbe7c4a2f	-0.24637674
69	0x3efbf55f	0.4921064
70	0x3eb77086	0.35828036
71	0x3ed8ae9e	0.42320722
72	0xbd41fb70	-0.04735893
73	0x3ed1fc29	0.41012695
74	0xbe15eef4	-0.14641935
75	0xbee6d007	-0.45080587
76	0xbe035bab	-0.12827937
77	0x3e4453ec	0.19172639
78	0x3f0bd413	0.54620475
79	0xbe35aa00	-0.17740631
80	0xbe5c1bfa	-0.21495047
81	0x3d53b3aa	0.051685013
82	0xbcc4b06d	-0.024009908
83	0x3e7ccc97	0.2468742
84	0xbeb44978	-0.35212302
85	0x3dae8fef	0.08523547
86	0x3dcad8cb	0.09904631
87	0xbd0b6c56	-0.034038864
88	0xbc49f7ba	-0.012327129
89	0x3e2f2fac	0.17108029
90	0x3e9f5a0b	0.31123385
91	0x3ecd12cb	0.400534
92	0xbe70df7b	-0.23522751
93	0xbd2b865c	-0.041876182
94	0xbe361557	-0.17781578
95	0x3e8508e7	0.25983354
96	0xbe7d433d	-0.2473268
97	0x3e807905	0.2509233
98	0xbe88a85c	-0.26690948
99	0x3eb70452	0.35745484
100	0xbe2b189b	-0.16708605
101	0x3e175feb	0.14782684
102	0xbe0b3ade	-0.13596675
103	0x3d4b8a76	0.049692594
104	0xbe47e871	-0.19522263
105	0x3d63e96c	0.05564253
106	0x3ddced09	0.10787398
107	0x3db8cfce	0.090240106
108	0x3ccfad56	0.025351208
109	0xbd823c60	-0.06359172
110	0xbdfac44a	-0.122444704
111	0xbc5e3d6a	-0.013564447
112	0x3e88dd94	0.2673155
113	0xbe105b07	-0.14097224
114	0xbdff9dcb	-0.124812685
115	0x3deaea4d	0.114704706
116	0xbeb83180	-0.35975266
117	0xbe94d9ff	-0.29072568
118	0xbdbe3a58	-0.09288472
119	0x3b944641	0.0045249765
120	0xbeecbf1c	-0.46239555
121	0x3dc40675	0.09571544
122	0xbe152c19	-0.14567603
123	0x3e887ed2	0.26659256
124	0x3e04926d	0.12946482
125	0xbe5233e7	-0.20527612
126	0x3de0766b	0.109600864
127	0x3d715e37	0.05892774
128	0x3e8dc4a9	0.27689102
129	0xbe1dea6b	-0.15421455
130	0x3eedad84	0.46421444
131	0xbf080e06	-0.531464
132	0x3db6d85a	0.089279845
133	0xbd9e5797	-0.0773155
134	0x3ec34b92	0.38143593
135	0xbdc8af0d	-0.09799013
136	0x3e0b2ba6	0.1359087
137	0xbe269918	-0.16269338
138	0x3e3add91	0.18248583
139	0xbef9c9ed	-0.4878687
140	0xbd81c934	-0.063372046
141	0xbe294132	-0.16528776
142	0xbdbe2c6c	-0.092858166
143	0x3e2a0977	0.16605173
144	0x3dbcf52d	0.09226451
145	0x3dc8ebcf	0.09810602
146	0xbb96cbdd	-0.004601939
147	0xbd75fd4a	-0.06005601
148	0xbf02b760	-0.5106106
149	0xbea0bad0	-0.31392527
150	0x3df2c6a9	0.11854298
151	0xbe6e203b	-0.23254482
152	0x3e181e3d	0.14855285
153	0xbe5a6a88	-0.21329701
154	0xbe6aa39f	-0.22913979
155	0x3e87f72c	0.26555765
156	0xbea79079	-0.3272741
157	0x3d90fcc4	0.07079461
158	0xbee6e120	-0.45093632
159	0x3dcfd60e	0.101482496
160	0x3d87c49f	0.06629299
161	0xbd526f87	-0.051375892
162	0xbeaa8e47	-0.33311674
163	0x3dd3d3cc	0.103431314
164	0xbcfe867a	-0.031069983
165	0xbdc109e5	-0.09425715
166	0xbf16ca98	-0.58902884
167	0xbd0e15a9	-0.034688625
168	0x3de059c3	0.10954621
169	0xbe87dc47	-0.26535246
170	0x3e065e99	0.13122024
171	0xbdd36ee5	-0.10323886
172	0x3e8f8dea	0.2803796
173	0xbdc95500	-0.098306656
174	0xbe5b10ac	-0.21393079
175	0x3eba300e	0.36364788
176	0xbdc94793	-0.09828105
177	0xbe30987e	-0.17245671
178	0xbd86a59b	-0.065745555
179	0xbe679d59	-0.22618617
180	0x3e60b13a	0.21942607
181	0x3d9e88ea	0.07740958
182	0x3e023603	0.12715916
183	0xbe2ba0b5	-0.16760524
184	0x3befafab	0.0073146424
185	0xbe9922f6	-0.29909486
186	0x3ec5e6ad	0.38652554
187	0xbeefb623	-0.46818647
188	0xbe70e871	-0.2352617
189	0x3e8c4092	0.27393013
190	0x3e46e98f	0.19425033
191	0xbb86c717	-0.004113089
192	0xbecd81f4	-0.4013821
193	0xbe181e3b	-0.14855282
194	0xbe7e85d7	-0.24855743
195	0x3cf1b5ca	0.02950563
196	0xbe44ce0f	-0.1921923
197	0x3de4893b	0.11158987
198	0x3dbbe7b2	0.09175052
199	0xbeede7a6	-0.46465796
200	0xbe9e2123	-0.30884656
201	0x3dd85209	0.10562522
202	0xbe47c9eb	-0.1951062
203	0xbe1e66ab	-0.15468852
204	0xbd10d3ec	-0.035358354
205	0xbcefe79a	-0.02928524
206	0xbdd69d73	-0.1047925
207	0xbf265790	-0.6497736
208	0xbed26cbd	-0.41098586
209	0xbe34c20d	-0.1765215
210	0xbf03c1f6	-0.51467836
211	0x3e3cbf53	0.1843236
212	0x3d3f8e7a	0.046766736
213	0x3ba8e252	0.0051539326
214	0xbd0c9e5d	-0.034330714
215	0x3e45b12f	0.19305871
216	0x3e173146	0.1476489
217	0x3e6c4202	0.23072055
218	0xbf0c028d	-0.5469139
219	0xbe2ebb2f	-0.17063592
220	0x3ced6106	0.028976928
221	0x3d20cce0	0.039257884
222	0xbea32b42	-0.3186894
223	0x3ee81197	0.4532592
224	0x3d31e473	0.043430757
225	0xbea94fab	-0.33068594
226	0xbebda24a	-0.3703788
227	0xbe22b9f0	-0.15891242
228	0xbd843a23	-0.06456401
229	0x3f22b675	0.6355966
230	0x3e65f045	0.22454937
231	0xbd2c17b0	-0.042014778
232	0x3decfa35	0.11571161
233	0xbd8eb5df	-0.06968283
234	0xbe86e56e	-0.26346916
235	0xbe62b6aa	-0.22139993
236	0x3c16fce3	0.009215566
237	0x3ebe6e98	0.3719375
238	0xbdc1c772	-0.09461869
239	0xbd5ee5dd	-0.054418433
240	0x3eb11d70	0.34592772
241	0xbe1e061a	-0.15432015
242	0x3e4a4404	0.19752508
243	0xbd1f19d7	-0.038843002
244	0x3df1dca6	0.118096635
245	0x3ed8bbdf	0.42330834
246	0x3e5d9dfa	0.21642295
247	0xbc7c5a62	-0.015402408
248	0xbe8ab3c1	-0.27090266
249	0xbef1cbf9	-0.4722593
250	0x3e6ee3b6	0.23329052
251	0xbe5dadaa	-0.21648279
252	0x3d9dd574	0.077067286
253	0xbf0dc7b2	-0.55382836
254	0xbe615cb5	-0.22008021
255	0xbd85bef3	-0.06530561

critic.network_body.linear_encoder.seq_layers.0.bias f4 [128]
0	0xbed6acde	-0.41928762
1	0xbebbc945	-0.36676994
2	0x3eea27f5	0.4573361
3	0xbea5154e	-0.32242817
4	0xbe858181	-0.26075366
5	0xbe6737b5	-0.22579844
6	0xbe284f4a	-0.16436496
7	0xbd8a9794	-0.067671925
8	0xbed72fe8	-0.42028737
9	0xbe724359	-0.23658504
10	0xbee4dce0	-0.44699764
11	0xbed75fb0	-0.4206519
12	0x3db513dd	0.08841679
13	0xbeaeffa5	-0.34179416
14	0xbea6612f	-0.3249602
15	0x3ebb0eb7	0.36534664
16	0xbdf10ad9	-0.11769647
17	0x3efd62b6	0.49489373
18	0xbed37c21	-0.4130564
19	0xbe08c02c	-0.13354558
20	0x3ea553aa	0.32290393
21	0x3ecb2805	0.3967897
22	0x3de5b972	0.112170115
23	0xbebadecb	-0.36498103
24	0xbeb6d284	-0.35707486
25	0xbeb07ec1	-0.34471706
26	0xbdeba5e2	-0.11506249
27	0x3ef513f7	0.47866794
28	0xbec2ef28	-0.38073087
29	0x3ed43a7a	0.41450864
30	0xbe4826ef	-0.19546102
31	0xbf0200dd	-0.5078257
32	0xbe81ae6e	-0.25328392
33	0xbe9a165d	-0.30095187
34	0x3f007ef7	0.5019373
35	0x3e097f76	0.13427529
36	0x3ebf5fc3	0.37377748
37	0xbe95a6fa	-0.29228956
38	0x3f11ea3f	0.56998056
39	0x3f119e3b	0.56882066
40	0xbef76676	-0.4832036
41	0xbe846e08	-0.25865197
42	0xbebcc72c	-0.36870706
43	0xbeee8a35	-0.4658982
44	0xbe159121	-0.14606144
45	0x3f13251e	0.5747851
46	0xbe9249bf	-0.2857189
47	0x3ec0990e	0.3761677
48	0x3f07a6ef	0.52989095
49	0x3f1a01f7	0.6015925
50	0x3f19073d	0.5977667
51	0x3f23cc84	0.6398394
52	0xbecb73d2	-0.397368
53	0xbed33cdc	-0.4125737
54	0x3eefc731	0.46831658
55	0x3ef24d76	0.47324723
56	0xbebb4481	-0.36575702
57	0xbea56c42	-0.32309157
58	0xbe9c0bd1	-0.30477765
59	0x3ebda90d	0.37043038
60	0xbeade3a0	-0.33962727
61	0x3e8a9ce1	0.27072814
62	0x3eb0a6c7	0.3450224
63	0x3edb9390	0.4288602
64	0xbe992c4f	-0.29916617
65	0x3f037a34	0.5135834
66	0xbeba25de	-0.36357015
67	0x3ed38751	0.41314176
68	0x3eecbfe0	0.4624014
69	0x3ece28a0	0.4026537
70	0x3e87cf70	0.2652545
71	0x3f03c240	0.51468277
72	0xbed8f5b5	-0.4237496
73	0x3f064417	0.52447647
74	0x3ee1ea32	0.4412399
75	0x3e3395ae	0.17537567
76	0xbe90ff12	-0.28319603
77	0x3f1086dd	0.56455785
78	0x3e53a17c	0.2066707
79	0x3ee524e6	0.44754714
80	0x3e9bd50a	0.30435973
81	0x3f356321	0.70854384
82	0x3efca0e5	0.49341503
83	0x3ec9527d	0.39320746
84	0x3f025c4d	0.5092209
85	0xbe8a7206	-0.27040118
86	0x3edb8f9c	0.42883003
87	0x3f0fe9b0	0.56215954
88	0xbed56e6c	-0.41685808
89	0x3f0054e2	0.5012952
90	0xbe1b3de1	-0.15160324
91	0x3e5118bc	0.20419592
92	0x3ea0f4f9	0.314369
93	0x3e393d26	0.18089733
94	0xbe4f2d05	-0.20232017
95	0x3e64b26f	0.22333692
96	0x3f0084e4	0.50202775
97	0x3edf73e7	0.43643114
98	0xbe8c8f88	-0.27453256
99	0x3f07efd0	0.531003
100	0xbe97edc1	-0.2967358
101	0x3f0f8552	0.56062806
102	0x3ec07e94	0.3759657
103	0x3efa1ded	0.48850957
104	0x3eb5feea	0.35546046
105	0xbeacaa45	-0.33723655
106	0xbe9ca25e	-0.30592626
107	0x3e8895e8	0.2667687
108	0xbea468bc	-0.32111156
109	0x3ef8dca6	0.4860584
110	0xbf0120c4	-0.5044062
111	0xbe85d9dc	-0.26142776
112	0x3efada34	0.489946
113	0xbeb45534	-0.35221255
114	0x3dec3bf5	0.115348734
115	0xbe81b3ee	-0.25332588
116	0x3ef53919	0.47895125
117	0xbecfd956	-0.40595502
118	0xbe39122e	-0.18073341
119	0x3d1551a2	0.036454804
120	0x3ec6d62d	0.38835278
121	0xbed836bf	-0.42229268
122	0x3e9fb72b	0.31194434
123	0x3ed892bf	0.42299458
124	0x3ebcfbbd	0.3691081
125	0xbea7c7fe	-0.3276977
126	0x3f155c65	0.5834411
127	0x3d08936c	0.033343717

critic.network_body.linear_encoder.seq_layers.2.weight f4 [128, 128]
0	0xbc8fb0ca	-0.017540354
1	0x3cf36a3e	0.029713746
2	0xbe83eddb	-0.25767407
3	0xbdd1c832	-0.10243262
4	0x3e4a4b75	0.19755347
5	0x3c888c22	0.016668383
6	0xbde0821d	-0.10962317
7	0xbc979de5	-0.018507907
8	0xbd8321f2	-0.06402959
9	0x3ca133de	0.019678053
10	0xbe10cf87	-0.14141665
11	0xbe7264ef	-0.23671316
12	0x3e582692	0.21108463
13	0xbd2ded69	-0.04246274
14	0x3dbdfe56	0.09277026
15	0xbded30c9	-0.11581571
16	0xbd9c19ae	-0.076220855
17	0x3c6bba64	0.014387701
18	0xbddc6c99	-0.10762901
19	0x3e3b99c5	0.18320377
20	0x3e0115e6	0.1260601
21	0xbe05d620	-0.13069963
22	0x3b689cea	0.0035493919
23	0xbdccd428	-0.10001403
24	0x3d03ffef	0.0322265
25	0x3d49b513	0.04924495
26	0xbdaa6cf1	-0.0832156
27	0xbe0a9652	-0.13533905
28	0xbcf85606	-0.030314457
29	0x3d58a607	0.05289271
30	0x3e0163bd	0.12635703
31	0xbdf4461d	-0.119274355
32	0xbcf65e88	-0.030074373
33	0xbd030ef1	-0.03199667
34	0x3a15a1a1	0.00057079835
35	0x3e20fe5f	0.15722035
36	0x3da71d1e	0.081598505
37	0xbbf7deb2	-0.007564389
38	0xbe1b332c	-0.1515624
39	0xbc90a34d	-0.017655993
40	0x3d9ea641	0.07746554
41	0x3c4531a2	0.012035759
42	0xbe366b8b	-0.17814462
43	0xbe1af2c8	-0.15131676
44	0x3e999c7b	0.30002198
45	0x3e070bb6	0.13188061
46	0x3b647f3f	0.0034865884
47	0x3e326f8c	0.17425364
48	0xbdfc27a4	-0.12312248
49	0xbc9e6260	-0.019334018
50	0x3d1f4f08	0.03889373
51	0x3e26abfd	0.16276546
52	0xbe3c8924	-0.1841169
53	0x3db37705	0.087629355
54	0x3e43a7ec	0.19107026
55	0x3e5b62ae	0.21424362
56	0xbd56b2dd	-0.05241667
57	0x3e46e20b	0.19422166
58	0xbd16aae1	-0.036784057
59	0xbe372b40	-0.17887592
60	0xbe1b0a8d	-0.15140744
61	0xbcecce1a	-0.02890687
62	0xbe8075b1	-0.2508979
63	0xbeb3526b	-0.35023817
64	0xbe37518b	-0.179022
65	0xbc48d8f2	-0.012258755
66	0x3e38b372	0.18037203
67	0xbe1485f7	-0.14504229
68	0xbe11d070	-0.14239669
69	0xbdde6329	-0.10858757
70	0xbe77c53b	-0.24196331
71	0xbd54e1cb	-0.051973145
72	0xbd7fcd88	-0.06245187
73	0xbe4253a2	-0.18977216
74	0xbdb27067	-0.08712845
75	0xbd0f0703	-0.034918796
76	0xbce9628d	-0.028489375
77	0xbd950f6e	-0.072783336
78	0x3cfd026b	0.030884942
79	0xbd9b2055	-0.07574526
80	0xbe295858	-0.16537607
81	0xbd795b6f	-0.060878213
82	0xbe5eccc8	-0.21757805
83	0xbe5b21e8	-0.21399653
84	0xbdaa13dd	-0.0830457
85	0xbd33f49d	-0.043934453
86	0xbdafd2cd	-0.08585129
87	0x3d6f2d49	0.058392797
88	0xbed06027	-0.40698358
89	0xbdfc2d90	-0.12313378
90	0x3bf1fd29	0.0073849154
91	0x3bd8da33	0.0066178082
92	0x3e00609e	0.12536857
93	0xbbec41ea	-0.007210006
94	0x3e124afb	0.14286415
95	0x3d7b0ef2	0.06129355
96	0xbe053377	-0.13007914
97	0x3c56b103	0.013103726
98	0xbd825415	-0.063636936
99	0xbe39e9ab	-0.18155544
100	0xbdb4b382	-0.08823301
101	0xbe6308e2	-0.22171357
102	0xbc87acd3	-0.016561901
103	0x3bb1f0e5	0.005430328
104	0x3d623234	0.05522366
105	0x3e7a61de	0.24451396
106	0xbd17c014	-0.037048414
107	0xbd7a9535	-0.06117745
108	0xbe005699	-0.12533034
109	0x3d9c9f04	0.07647517
110	0xbe3220da	-0.17395344
111	0xbe190dd7	-0.14946686
112	0xbe2aa737	-0.1666535
113	0x3c6fa9ea	0.014627913
114	0xbe61bc38	-0.22044456
115	0x3c7198f0	0.014745936
116	0x3bbd8d2e	0.005784652
117	0xbd55dbe8	-0.052211672
118	0x3d6f8506	0.05847647
119	0xbebed099	-0.37268522
120	0x3e0330cd	0.12811585
121	0xbc8e8eb6	-0.017402034
122	0x3e3808fc	0.17972177
123	0xbe068a6f	-0.13138746
124	0xbe9a114c	-0.3009132
125	0xbd330497	-0.04370555
126	0x3c49006d	0.012268168
127	0x3d43604c	0.047699258
128	0xbe41c2c5	-0.18921955
129	0xbdfb0ebe	-0.12258671
130	0x3e94e628	0.29081845
131	0xbdde7154	-0.108614594
132	0xbd21be7f	-0.03948831
133	0x3e00a0dd	0.12561364
134	0xbe491263	-0.1963592
135	0xbbbbe5d6	-0.0057341857
136	0xbe60f2dd	-0.21967645
137	0xbf1053bd	-0.56377774
138	0xbe15e984	-0.1463986
139	0xbe78d41e	-0.24299666
140	0xbd8ae160	-0.06781268
141	0xbe221c6c	-0.15831155
142	0xbe820805	-0.25396743
143	0x3e1cf0c1	0.15326215
144	0x3d8c58e1	0.0685289
145	0x3ca7786a	0.02044316
146	0xbeb527cc	-0.35381925
147	0xbe50e614	-0.20400268
148	0xbd9a69d1	-0.07539714
149	0xbe0a866b	-0.13527839
150	0xbcf689de	-0.030095037
151	0x3d20a685	0.039221305
152	0x3d13977e	0.036033146
153	0x3ddb91ac	0.10721144
154	0x3e1d533d	0.15363784
155	0x3d2ea7d2	0.042640515
156	0x3d4ff580	0.050771236
157	0x3dfaa4f8	0.122384965
158	0x3cc026f2	0.02345607
159	0xbd967a12	-0.07347502
160	0xbd515fbf	-0.0511167
161	0xbe0942f1	-0.13404442
162	0x3d9c8543	0.07642605
163	0xbd88c0ad	-0.06677375
164	0x3e34442e	0.17604133
165	0xbd9a2456	-0.07526462
166	0x3e4e3447	0.2013713
167	0x3de0c3f7	0.10974877
168	0xbe197cd9	-0.14989032
169	0xbea2d402	-0.31802374
170	0xbe3f1709	-0.18661131
171	0xbe9d8bc3	-0.30770692
172	0xbe76b74a	-0.24093357
173	0xbd8b171b	-0.067915164
174	0xbe120ecb	-0.14263456
175	0x3daf7695	0.085675396
176	0xbc5f7133	-0.013637829
177	0x3e8ed896	0.27899617
178	0x3e02b26b	0.12763374
179	0x3e999109	0.29993466
180	0x3c9275bf	0.017878411
181	0xbe26ff92	-0.1630843
182	0x3e23eac0	0.16007519
183	0x3de5bb5a	0.11217375
184	0xbe95533b	-0.29165062
185	0xbdfa0290	-0.1220752
186	0xbef4405e	-0.47705358
187	0x3ca7b1dc	0.020470552
188	0xbf1bc857	-0.6085257
189	0x3e54dca9	0.207873
190	0x3d2de960	0.042458892
191	0x3d70c8c0	0.0587852
192	0xbee44fe7	-0.4459221
193	0x3e024877	0.12722956
194	0x3c7de5cd	0.015496683
195	0x3dbb41ed	0.09143434
196	0x3d4d3505	0.05009939
197	0x3e426342	0.18983176
198	0x3d466617	0.048437204
199	0x3decc836	0.11561625
200	0xbe2b2047	-0.16711532
201	0x3d51e7d9	0.051246498
202	0x3e34b2f5	0.17646392
203	0xbe25069b	-0.16115801
204	0xbe21f317	-0.15815388
205	0x3b916447	0.004437003
206	0xbd8bcc7e	-0.06826113
207	0x3b835366	0.0040077446
208	0x3d53e681	0.051733498
209	0x3e0c715f	0.13715123
210	0x3e81f92d	0.2538542
211	0xbd9e9048	-0.07742363
212	0x3d94035d	0.07227204
213	0xbca027ad	-0.019550169
214	0x3e46241e	0.19349715
215	0x3e65181e	0.22372481
216	0xbe5e8cc3	-0.21733384
217	0x3e49ba79	0.1970004
218	0x3dde6bb0	0.108603835
219	0x3e1ca8ea	0.1529881
220	0x3d32fc95	0.043697912
221	0x3c7c0348	0.015381642
222	0xbe39fd02	-0.18162921
223	0x3e11b850	0.14230466
224	0x3a3337ab	0.0006836603
225	0xbc4818fd	-0.012212989
226	0xbe1efd5a	-0.15526333
227	0x3dcc684d	0.09980831
228	0xbf2ffdc8	-0.68746614
229	0x3e273ca0	0.1633172
230	0x3d96d560	0.07364917
231	0xbd30f71e	-0.04320442
232	0x3e08c15c	0.13355011
233	0xbbc276ea	-0.005934586
234	0xbe2c81cc	-0.16846389
235	0xbd3c1ff6	-0.045928918
236	0xbc83a367	-0.016069127
237	0x3e0f1e6b	0.13976447
238	0xbe02e52a	-0.12782732
239	0x3b5f7cf7	0.0034101584
240	0xbdc0cadd	-0.09413693
241	0xbe860e41	-0.2618275
242	0x3dd70db0	0.105006576
243	0xbe1e85eb	-0.15480773
244	0x3d91338e	0.070899114
245	0xbe27a132	-0.16370085
246	0xbe9f33b5	-0.31094137
247	0xbdbd63e7	-0.092475705
248	0xbd3756b6	-0.04476043
249	0xbd311752	-0.04323513
250	0x3e23f5c9	0.16011728
251	0x3dba338a	0.090918615
252	0x3e136d46	0.14397153
253	0xbef6cbae	-0.4820227
254	0x3e00213d	0.1251268
255	0x3d04e1c7	0.03244188

critic.network_body.linear_encoder.seq_layers.2.bias f4 [128]
0	0x3e00a121	0.12561466
1	0x3ee896b6	0.45427483
2	0x3ee23c42	0.44186598
3	0x3d9b7ca1	0.075921305
4	0x3ef1f4d6	0.47257107
5	0xbe00971f	-0.12557648
6	0x3eecf1fc	0.4627837
7	0x3d1a5b9d	0.037685025
8	0x3eede5cf	0.46464393
9	0x3da953a6	0.08267908
10	0xbe49cd24	-0.19707161
11	0x3eea6e72	0.45787388
12	0x3ef49fdb	0.4777821
13	0x3e4b6ab2	0.1986492
14	0xbe3d4c14	-0.18486053
15	0x3e0edff3	0.13952617
16	0x3e53968e	0.20662901
17	0xbcc78fec	-0.02436062
18	0x3ee56abd	0.44807997
19	0xbe0493f7	-0.12947069
20	0xbe4a6cad	-0.19768019
21	0x3ee3bd48	0.44480348
22	0x3ee9c17e	0.45655435
23	0x3e5bb33f	0.21455096
24	0x3ee99d66	0.45627898
25	0x3a0ab758	0.00052916026
26	0x3ef47211	0.47743276
27	0x3e371e84	0.17882735
28	0x3ee45cf6	0.44602174
29	0xba5c556a	-0.00084050617
30	0x3c64d261	0.013966174
31	0x3e834069	0.2563508
32	0x3ef5a566	0.47977751
33	0x3eea1475	0.45718732
34	0x3ee4f5a0	0.44718647
35	0x3e226f34	0.15862733
36	0xbd7420c5	-0.059601564
37	0x3ee9ab5f	0.45638558
38	0xbe6a01b9	-0.2285222
39	0x3d48c201	0.04901314
40	0x3ee91dc2	0.45530516
41	0xbe58e8c4	-0.21182543
42	0xbe0e9957	-0.13925682
43	0xbe87dcc0	-0.26535606
44	0x3e38813c	0.18018049
45	0x3dec42fe	0.11536215
46	0x3eeb3a57	0.45942947
47	0x3ef10b3b	0.4707888
48	0xbd9487ed	-0.07252488
49	0x3ee8a89b	0.45441136
50	0xbe1eaf6b	-0.15496604
51	0x3ee2f649	0.44328526
52	0x3ee98518	0.45609355
53	0x3e093a55	0.13401158
54	0x3ef282a0	0.47365284
55	0x3e0be809	0.13662733
56	0xbe926fc6	-0.286009
57	0x3ded87d1	0.115981705
58	0x3ee71d01	0.45139316
59	0x3eef2dbe	0.46714586
60	0x3ef2c243	0.47413835
61	0x3ee9670a	0.45586425
62	0x3da1007a	0.07861419
63	0x3efca706	0.4934618
64	0x3ee8501f	0.45373628
65	0x3d249b01	0.040186886
66	0x3e2cae16	0.16863284
67	0x3c590902	0.013246777
68	0x3e5b48c8	0.21414483
69	0xbd8440fc	-0.06457707
70	0x3e1ef596	0.15523371
71	0x3e600fdb	0.21881048
72	0x3e57ecea	0.2108647
73	0x3eea5aee	0.457725
74	0x3df80a73	0.12111368
75	0x3ef2f22d	0.4745039
76	0x3e857aa5	0.26070133
77	0xbdce2007	-0.100647025
78	0x3ee49e81	0.4465218
79	0x3c85344b	0.016260287
80	0x3db24d3b	0.08706137
81	0x3dc5a242	0.09650089
82	0x3dd1f567	0.10251885
83	0x3eef4cea	0.46738368
84	0x3eeda471	0.4641452
85	0x3ee7a6d9	0.45244482
86	0x3ee1345b	0.43985257
87	0x3ee9a0e4	0.45630562
88	0x3d1f72de	0.038927905
89	0x3dbe3aeb	0.092885815
90	0x3eebf714	0.46086943
91	0x3eeb34d0	0.4593873
92	0x3ce93de2	0.02847189
93	0x3eea4051	0.45752195
94	0xbbaab1df	-0.005209192
95	0x3ee26c1e	0.44223112
96	0x3eedd980	0.46455002
97	0x3ee8eb8e	0.45492214
98	0x3d7ace12	0.06123168
99	0x3ee6cd24	0.45078385
100	0x3ee93546	0.45548457
101	0xba309795	-0.00067364547
102	0x3eee42bc	0.4653529
103	0x3ef138d8	0.4711368
104	0x3eee3567	0.46525118
105	0x3e516dd5	0.20452054
106	0x3d98e9cf	0.074664705
107	0x3ee9178d	0.4552578
108	0x3ef01424	0.46890366
109	0xbe4c125a	-0.19928876
110	0x3ef26e53	0.47349796
111	0x3ef13c25	0.471162
112	0x3eeabcc0	0.4584713
113	0x3e0a2a03	0.13492589
114	0xbbb4f812	-0.0055227363
115	0x3eeeebbf	0.46664235
116	0x3ef03c80	0.46921158
117	0x3e4be66e	0.1991212
118	0x3e237673	0.15963154
119	0x3eec8541	0.46195415
120	0xbe801113	-0.25013027
121	0x3eef4b16	0.46736974
122	0x3ee8282b	0.45343146
123	0x3ee857e9	0.4537957
124	0xbe5cd0c5	-0.21564014
125	0xbd9186b7	-0.07105773
126	0x3d772297	0.06033572
127	0x3eeb2948	0.45929933
